…
display: 1
max_iter: 40
lr_policy: "fixed"
solver_mode: GPU
device_id: 0
net: "fcn5.prototxt"
train_state {
  level: 0
  stage: ""
}
I1014 09:41:34.237112  6796 solver.cpp:91] Creating training net from net file: fcn5.prototxt
I1014 09:41:34.237345  6796 net.cpp:58] Initializing net from parameters: 
name: "FCN5"
state {
  phase: TRAIN
  level: 0
  stage: ""
}
layer {
  name: "data"
  type: "Data"
  top: "data"
  top: "label"
  include {
    phase: TRAIN
  }
  data_param {
    source: "fake_data26752.lmdb"
    batch_size: 2048
    backend: LMDB
  }
}
layer {
  name: "H1"
  type: "InnerProduct"
  bottom: "data"
  top: "H1"
  inner_product_param {
    num_output: 2048
  }
}
layer {
  name: "H1_A"
  type: "Sigmoid"
  bottom: "H1"
  top: "H1"
}
layer {
  name: "H2"
  type: "InnerProduct"
  bottom: "H1"
  top: "H2"
  inner_product_param {
    num_output: 2048
  }
}
layer {
  name: "H2_A"
  type: "Sigmoid"
  bottom: "H2"
  top: "H2"
}
layer {
  name: "H3"
  type: "InnerProduct"
  bottom: "H2"
  top: "H3"
  inner_product_param {
    num_output: 2048
  }
}
layer {
  name: "H3_A"
  type: "Sigmoid"
  bottom: "H3"
  top: "H3"
}
layer {
  name: "L"
  type: "InnerProduct"
  bottom: "H3"
  top: "L"
  inner_product_param {
    num_output: 1000
  }
}
layer {
  name: "loss"
  type: "SoftmaxWithLoss"
  bottom: "L"
  bottom: "label"
  top: "loss"
}
I1014 09:41:34.237411  6796 layer_factory.hpp:77] Creating layer data
I1014 09:41:34.238823  6796 net.cpp:100] Creating Layer data
I1014 09:41:34.238839  6796 net.cpp:408] data -> data
I1014 09:41:34.238859  6796 net.cpp:408] data -> label
I1014 09:41:34.240574  6802 db_lmdb.cpp:35] Opened lmdb fake_data26752.lmdb
I1014 09:41:34.248843  6796 data_layer.cpp:41] output data size: 2048,1,1,512
I1014 09:41:34.255524  6796 net.cpp:150] Setting up data
I1014 09:41:34.255555  6796 net.cpp:157] Top shape: 2048 1 1 512 (1048576)
I1014 09:41:34.255561  6796 net.cpp:157] Top shape: 2048 (2048)
I1014 09:41:34.255565  6796 net.cpp:165] Memory required for data: 4202496
I1014 09:41:34.255574  6796 layer_factory.hpp:77] Creating layer H1
I1014 09:41:34.255625  6796 net.cpp:100] Creating Layer H1
I1014 09:41:34.255632  6796 net.cpp:434] H1 <- data
I1014 09:41:34.255645  6796 net.cpp:408] H1 -> H1
I1014 09:41:34.257764  6796 net.cpp:150] Setting up H1
I1014 09:41:34.257781  6796 net.cpp:157] Top shape: 2048 2048 (4194304)
I1014 09:41:34.257786  6796 net.cpp:165] Memory required for data: 20979712
I1014 09:41:34.257802  6796 layer_factory.hpp:77] Creating layer H1_A
I1014 09:41:34.257813  6796 net.cpp:100] Creating Layer H1_A
I1014 09:41:34.257817  6796 net.cpp:434] H1_A <- H1
I1014 09:41:34.257822  6796 net.cpp:395] H1_A -> H1 (in-place)
I1014 09:41:34.257833  6796 net.cpp:150] Setting up H1_A
I1014 09:41:34.257838  6796 net.cpp:157] Top shape: 2048 2048 (4194304)
I1014 09:41:34.257840  6796 net.cpp:165] Memory required for data: 37756928
I1014 09:41:34.257843  6796 layer_factory.hpp:77] Creating layer H2
I1014 09:41:34.257848  6796 net.cpp:100] Creating Layer H2
I1014 09:41:34.257851  6796 net.cpp:434] H2 <- H1
I1014 09:41:34.257856  6796 net.cpp:408] H2 -> H2
I1014 09:41:34.262780  6803 blocking_queue.cpp:50] Waiting for data
I1014 09:41:34.265257  6796 net.cpp:150] Setting up H2
I1014 09:41:34.265285  6796 net.cpp:157] Top shape: 2048 2048 (4194304)
I1014 09:41:34.265288  6796 net.cpp:165] Memory required for data: 54534144
I1014 09:41:34.265300  6796 layer_factory.hpp:77] Creating layer H2_A
I1014 09:41:34.265308  6796 net.cpp:100] Creating Layer H2_A
I1014 09:41:34.265313  6796 net.cpp:434] H2_A <- H2
I1014 09:41:34.265318  6796 net.cpp:395] H2_A -> H2 (in-place)
I1014 09:41:34.265326  6796 net.cpp:150] Setting up H2_A
I1014 09:41:34.265331  6796 net.cpp:157] Top shape: 2048 2048 (4194304)
I1014 09:41:34.265353  6796 net.cpp:165] Memory required for data: 71311360
I1014 09:41:34.265357  6796 layer_factory.hpp:77] Creating layer H3
I1014 09:41:34.265363  6796 net.cpp:100] Creating Layer H3
I1014 09:41:34.265367  6796 net.cpp:434] H3 <- H2
I1014 09:41:34.265370  6796 net.cpp:408] H3 -> H3
I1014 09:41:34.272665  6796 net.cpp:150] Setting up H3
I1014 09:41:34.272698  6796 net.cpp:157] Top shape: 2048 2048 (4194304)
I1014 09:41:34.272702  6796 net.cpp:165] Memory required for data: 88088576
I1014 09:41:34.272714  6796 layer_factory.hpp:77] Creating layer H3_A
I1014 09:41:34.272724  6796 net.cpp:100] Creating Layer H3_A
I1014 09:41:34.272729  6796 net.cpp:434] H3_A <- H3
I1014 09:41:34.272735  6796 net.cpp:395] H3_A -> H3 (in-place)
I1014 09:41:34.272743  6796 net.cpp:150] Setting up H3_A
I1014 09:41:34.272747  6796 net.cpp:157] Top shape: 2048 2048 (4194304)
I1014 09:41:34.272750  6796 net.cpp:165] Memory required for data: 104865792
I1014 09:41:34.272753  6796 layer_factory.hpp:77] Creating layer L
I1014 09:41:34.272759  6796 net.cpp:100] Creating Layer L
I1014 09:41:34.272763  6796 net.cpp:434] L <- H3
I1014 09:41:34.272766  6796 net.cpp:408] L -> L
I1014 09:41:34.276661  6796 net.cpp:150] Setting up L
I1014 09:41:34.276679  6796 net.cpp:157] Top shape: 2048 1000 (2048000)
I1014 09:41:34.276684  6796 net.cpp:165] Memory required for data: 113057792
I1014 09:41:34.276690  6796 layer_factory.hpp:77] Creating layer loss
I1014 09:41:34.276700  6796 net.cpp:100] Creating Layer loss
I1014 09:41:34.276703  6796 net.cpp:434] loss <- L
I1014 09:41:34.276710  6796 net.cpp:434] loss <- label
I1014 09:41:34.276716  6796 net.cpp:408] loss -> loss
I1014 09:41:34.276739  6796 layer_factory.hpp:77] Creating layer loss
…
