…
I0921 20:46:40.186938 13134 solver.cpp:91] Creating training net from net file: alexnet-b16.prototxt
I0921 20:46:40.187412 13134 net.cpp:322] The NetState phase (0) differed from the phase (1) specified by a rule in layer accuracy
I0921 20:46:40.187554 13134 net.cpp:58] Initializing net from parameters: 
name: "AlexNet"
state {
  phase: TRAIN
  level: 0
  stage: ""
}
layer {
  name: "data"
  type: "Data"
  top: "data"
  top: "label"
  include {
    phase: TRAIN
  }
  data_param {
    source: "../fake_image_net.lmdb"
    batch_size: 16
    backend: LMDB
  }
}
layer {
  name: "conv1"
  type: "Convolution"
  bottom: "data"
  top: "conv1"
  param {
    lr_mult: 1
    decay_mult: 1
  }
  param {
    lr_mult: 2
    decay_mult: 0
  }
  convolution_param {
    num_output: 96
    kernel_size: 11
    stride: 4
    weight_filler {
      type: "gaussian"
      std: 0.01
    }
    bias_filler {
      type: "constant"
      value: 0
    }
  }
}
layer {
  name: "relu1"
  type: "ReLU"
  bottom: "conv1"
  top: "conv1"
}
layer {
  name: "pool1"
  type: "Pooling"
  bottom: "conv1"
  top: "pool1"
  pooling_param {
    pool: MAX
    kernel_size: 3
    stride: 2
  }
}
layer {
  name: "conv2"
  type: "Convolution"
  bottom: "pool1"
  top: "conv2"
  param {
    lr_mult: 1
    decay_mult: 1
  }
  param {
    lr_mult: 2
    decay_mult: 0
  }
  convolution_param {
    num_output: 256
    kernel_size: 5
    weight_filler {
      type: "gaussian"
      std: 0.01
    }
    bias_filler {
      type: "constant"
      value: 0.1
    }
  }
}
layer {
  name: "relu2"
  type: "ReLU"
  bottom: "conv2"
  top: "conv2"
}
layer {
  name: "pool2"
  type: "Pooling"
  bottom: "conv2"
  top: "pool2"
  pooling_param {
    pool: MAX
    kernel_size: 3
    stride: 2
  }
}
layer {
  name: "conv3"
  type: "Convolution"
  bottom: "pool2"
  top: "conv3"
  param {
    lr_mult: 1
    decay_mult: 1
  }
  param {
    lr_mult: 2
    decay_mult: 0
  }
  convolution_param {
    num_output: 384
    kernel_size: 3
    weight_filler {
      type: "gaussian"
      std: 0.01
    }
    bias_filler {
      type: "constant"
      value: 0
    }
  }
}
layer {
  name: "relu3"
  type: "ReLU"
  bottom: "conv3"
  top: "conv3"
}
layer {
  name: "conv4"
  type: "Convolution"
  bottom: "conv3"
  top: "conv4"
  param {
    lr_mult: 1
    decay_mult: 1
  }
  param {
    lr_mult: 2
    decay_mult: 0
  }
  convolution_param {
    num_output: 384
    kernel_size: 3
    weight_filler {
      type: "gaussian"
      std: 0.01
    }
    bias_filler {
      type: "constant"
      value: 0.1
    }
  }
}
layer {
  name: "relu4"
  type: "ReLU"
  bottom: "conv4"
  top: "conv4"
}
layer {
  name: "conv5"
  type: "Convolution"
  bottom: "conv4"
  top: "conv5"
  param {
    lr_mult: 1
    decay_mult: 1
  }
  param {
    lr_mult: 2
    decay_mult: 0
  }
  convolution_param {
    num_output: 256
    kernel_size: 3
    weight_filler {
      type: "gaussian"
      std: 0.01
    }
    bias_filler {
      type: "constant"
      value: 0.1
    }
  }
}
layer {
  name: "relu5"
  type: "ReLU"
  bottom: "conv5"
  top: "conv5"
}
layer {
  name: "pool5"
  type: "Pooling"
  bottom: "conv5"
  top: "pool5"
  pooling_param {
    pool: MAX
    kernel_size: 3
    stride: 2
  }
}
layer {
  name: "fc6"
  type: "InnerProduct"
  bottom: "pool5"
  top: "fc6"
  param {
    lr_mult: 1
    decay_mult: 1
  }
  param {
    lr_mult: 2
    decay_mult: 0
  }
  inner_product_param {
    num_output: 4096
    weight_filler {
      type: "gaussian"
      std: 0.005
    }
    bias_filler {
      type: "constant"
      value: 0.1
    }
  }
}
layer {
  name: "relu6"
  type: "ReLU"
  bottom: "fc6"
  top: "fc6"
}
layer {
  name: "fc7"
  type: "InnerProduct"
  bottom: "fc6"
  top: "fc7"
  param {
    lr_mult: 1
    decay_mult: 1
  }
  param {
    lr_mult: 2
    decay_mult: 0
  }
  inner_product_param {
    num_output: 4096
    weight_filler {
      type: "gaussian"
      std: 0.005
    }
    bias_filler {
      type: "constant"
      value: 0.1
    }
  }
}
layer {
  name: "relu7"
  type: "ReLU"
  bottom: "fc7"
  top: "fc7"
}
layer {
  name: "fc8"
  type: "InnerProduct"
  bottom: "fc7"
  top: "fc8"
  param {
    lr_mult: 1
    decay_mult: 1
  }
  param {
    lr_mult: 2
    decay_mult: 0
  }
  inner_product_param {
    num_output: 1000
    weight_filler {
      type: "gaussian"
      std: 0.01
    }
    bias_filler {
      type: "constant"
      value: 0
    }
  }
}
layer {
  name: "loss"
  type: "SoftmaxWithLoss"
  bottom: "fc8"
  bottom: "label"
  top: "loss"
}
I0921 20:46:40.187664 13134 layer_factory.hpp:77] Creating layer data
I0921 20:46:40.188102 13134 net.cpp:100] Creating Layer data
I0921 20:46:40.188114 13134 net.cpp:408] data -> data
I0921 20:46:40.188133 13134 net.cpp:408] data -> label
I0921 20:46:40.189360 13140 db_lmdb.cpp:35] Opened lmdb ../fake_image_net.lmdb
I0921 20:46:40.199020 13134 data_layer.cpp:41] output data size: 16,3,224,224
I0921 20:46:40.211676 13134 net.cpp:150] Setting up data
I0921 20:46:40.211724 13134 net.cpp:157] Top shape: 16 3 224 224 (2408448)
I0921 20:46:40.211731 13134 net.cpp:157] Top shape: 16 (16)
I0921 20:46:40.211735 13134 net.cpp:165] Memory required for data: 9633856
I0921 20:46:40.211745 13134 layer_factory.hpp:77] Creating layer conv1
I0921 20:46:40.211766 13134 net.cpp:100] Creating Layer conv1
I0921 20:46:40.211771 13134 net.cpp:434] conv1 <- data
I0921 20:46:40.211784 13134 net.cpp:408] conv1 -> conv1
I0921 20:46:40.214118 13134 net.cpp:150] Setting up conv1
I0921 20:46:40.214134 13134 net.cpp:157] Top shape: 16 96 54 54 (4478976)
I0921 20:46:40.214138 13134 net.cpp:165] Memory required for data: 27549760
I0921 20:46:40.214156 13134 layer_factory.hpp:77] Creating layer relu1
I0921 20:46:40.214165 13134 net.cpp:100] Creating Layer relu1
I0921 20:46:40.214169 13134 net.cpp:434] relu1 <- conv1
I0921 20:46:40.214174 13134 net.cpp:395] relu1 -> conv1 (in-place)
I0921 20:46:40.214187 13134 net.cpp:150] Setting up relu1
I0921 20:46:40.214191 13134 net.cpp:157] Top shape: 16 96 54 54 (4478976)
I0921 20:46:40.214195 13134 net.cpp:165] Memory required for data: 45465664
I0921 20:46:40.214207 13134 layer_factory.hpp:77] Creating layer pool1
I0921 20:46:40.214215 13134 net.cpp:100] Creating Layer pool1
I0921 20:46:40.214218 13134 net.cpp:434] pool1 <- conv1
I0921 20:46:40.214224 13134 net.cpp:408] pool1 -> pool1
I0921 20:46:40.215062 13134 net.cpp:150] Setting up pool1
I0921 20:46:40.215080 13134 net.cpp:157] Top shape: 16 96 27 27 (1119744)
I0921 20:46:40.215085 13134 net.cpp:165] Memory required for data: 49944640
I0921 20:46:40.215088 13134 layer_factory.hpp:77] Creating layer conv2
I0921 20:46:40.215106 13134 net.cpp:100] Creating Layer conv2
I0921 20:46:40.215112 13134 net.cpp:434] conv2 <- pool1
I0921 20:46:40.215121 13134 net.cpp:408] conv2 -> conv2
I0921 20:46:40.234297 13134 net.cpp:150] Setting up conv2
I0921 20:46:40.234331 13134 net.cpp:157] Top shape: 16 256 23 23 (2166784)
I0921 20:46:40.234335 13134 net.cpp:165] Memory required for data: 58611776
I0921 20:46:40.234347 13134 layer_factory.hpp:77] Creating layer relu2
I0921 20:46:40.234359 13134 net.cpp:100] Creating Layer relu2
I0921 20:46:40.234362 13134 net.cpp:434] relu2 <- conv2
I0921 20:46:40.234369 13134 net.cpp:395] relu2 -> conv2 (in-place)
I0921 20:46:40.234377 13134 net.cpp:150] Setting up relu2
I0921 20:46:40.234381 13134 net.cpp:157] Top shape: 16 256 23 23 (2166784)
I0921 20:46:40.234385 13134 net.cpp:165] Memory required for data: 67278912
I0921 20:46:40.234386 13134 layer_factory.hpp:77] Creating layer pool2
I0921 20:46:40.234393 13134 net.cpp:100] Creating Layer pool2
I0921 20:46:40.234396 13134 net.cpp:434] pool2 <- conv2
I0921 20:46:40.234401 13134 net.cpp:408] pool2 -> pool2
I0921 20:46:40.234438 13134 net.cpp:150] Setting up pool2
I0921 20:46:40.234444 13134 net.cpp:157] Top shape: 16 256 11 11 (495616)
I0921 20:46:40.234447 13134 net.cpp:165] Memory required for data: 69261376
I0921 20:46:40.234467 13134 layer_factory.hpp:77] Creating layer conv3
I0921 20:46:40.234479 13134 net.cpp:100] Creating Layer conv3
I0921 20:46:40.234483 13134 net.cpp:434] conv3 <- pool2
I0921 20:46:40.234488 13134 net.cpp:408] conv3 -> conv3
I0921 20:46:40.240454 13141 blocking_queue.cpp:50] Waiting for data
I0921 20:46:40.261023 13134 net.cpp:150] Setting up conv3
I0921 20:46:40.261054 13134 net.cpp:157] Top shape: 16 384 9 9 (497664)
I0921 20:46:40.261057 13134 net.cpp:165] Memory required for data: 71252032
I0921 20:46:40.261070 13134 layer_factory.hpp:77] Creating layer relu3
I0921 20:46:40.261081 13134 net.cpp:100] Creating Layer relu3
I0921 20:46:40.261086 13134 net.cpp:434] relu3 <- conv3
I0921 20:46:40.261092 13134 net.cpp:395] relu3 -> conv3 (in-place)
I0921 20:46:40.261101 13134 net.cpp:150] Setting up relu3
I0921 20:46:40.261106 13134 net.cpp:157] Top shape: 16 384 9 9 (497664)
I0921 20:46:40.261107 13134 net.cpp:165] Memory required for data: 73242688
I0921 20:46:40.261111 13134 layer_factory.hpp:77] Creating layer conv4
I0921 20:46:40.261121 13134 net.cpp:100] Creating Layer conv4
I0921 20:46:40.261126 13134 net.cpp:434] conv4 <- conv3
I0921 20:46:40.261129 13134 net.cpp:408] conv4 -> conv4
I0921 20:46:40.300691 13134 net.cpp:150] Setting up conv4
I0921 20:46:40.300729 13134 net.cpp:157] Top shape: 16 384 7 7 (301056)
I0921 20:46:40.300732 13134 net.cpp:165] Memory required for data: 74446912
I0921 20:46:40.300741 13134 layer_factory.hpp:77] Creating layer relu4
I0921 20:46:40.300750 13134 net.cpp:100] Creating Layer relu4
I0921 20:46:40.300755 13134 net.cpp:434] relu4 <- conv4
I0921 20:46:40.300760 13134 net.cpp:395] relu4 -> conv4 (in-place)
I0921 20:46:40.300770 13134 net.cpp:150] Setting up relu4
I0921 20:46:40.300773 13134 net.cpp:157] Top shape: 16 384 7 7 (301056)
I0921 20:46:40.300776 13134 net.cpp:165] Memory required for data: 75651136
I0921 20:46:40.300779 13134 layer_factory.hpp:77] Creating layer conv5
I0921 20:46:40.300791 13134 net.cpp:100] Creating Layer conv5
I0921 20:46:40.300793 13134 net.cpp:434] conv5 <- conv4
I0921 20:46:40.300799 13134 net.cpp:408] conv5 -> conv5
I0921 20:46:40.327168 13134 net.cpp:150] Setting up conv5
I0921 20:46:40.327184 13134 net.cpp:157] Top shape: 16 256 5 5 (102400)
I0921 20:46:40.327188 13134 net.cpp:165] Memory required for data: 76060736
I0921 20:46:40.327196 13134 layer_factory.hpp:77] Creating layer relu5
I0921 20:46:40.327203 13134 net.cpp:100] Creating Layer relu5
I0921 20:46:40.327206 13134 net.cpp:434] relu5 <- conv5
I0921 20:46:40.327210 13134 net.cpp:395] relu5 -> conv5 (in-place)
I0921 20:46:40.327216 13134 net.cpp:150] Setting up relu5
I0921 20:46:40.327220 13134 net.cpp:157] Top shape: 16 256 5 5 (102400)
I0921 20:46:40.327224 13134 net.cpp:165] Memory required for data: 76470336
I0921 20:46:40.327226 13134 layer_factory.hpp:77] Creating layer pool5
I0921 20:46:40.327234 13134 net.cpp:100] Creating Layer pool5
I0921 20:46:40.327237 13134 net.cpp:434] pool5 <- conv5
I0921 20:46:40.327241 13134 net.cpp:408] pool5 -> pool5
I0921 20:46:40.327275 13134 net.cpp:150] Setting up pool5
I0921 20:46:40.327281 13134 net.cpp:157] Top shape: 16 256 2 2 (16384)
I0921 20:46:40.327285 13134 net.cpp:165] Memory required for data: 76535872
I0921 20:46:40.327287 13134 layer_factory.hpp:77] Creating layer fc6
I0921 20:46:40.327296 13134 net.cpp:100] Creating Layer fc6
I0921 20:46:40.327299 13134 net.cpp:434] fc6 <- pool5
I0921 20:46:40.327303 13134 net.cpp:408] fc6 -> fc6
I0921 20:46:40.450814 13134 net.cpp:150] Setting up fc6
I0921 20:46:40.450844 13134 net.cpp:157] Top shape: 16 4096 (65536)
I0921 20:46:40.450847 13134 net.cpp:165] Memory required for data: 76798016
I0921 20:46:40.450855 13134 layer_factory.hpp:77] Creating layer relu6
I0921 20:46:40.450865 13134 net.cpp:100] Creating Layer relu6
I0921 20:46:40.450870 13134 net.cpp:434] relu6 <- fc6
I0921 20:46:40.450875 13134 net.cpp:395] relu6 -> fc6 (in-place)
I0921 20:46:40.450882 13134 net.cpp:150] Setting up relu6
I0921 20:46:40.450886 13134 net.cpp:157] Top shape: 16 4096 (65536)
I0921 20:46:40.450909 13134 net.cpp:165] Memory required for data: 77060160
I0921 20:46:40.450913 13134 layer_factory.hpp:77] Creating layer fc7
I0921 20:46:40.450925 13134 net.cpp:100] Creating Layer fc7
I0921 20:46:40.450929 13134 net.cpp:434] fc7 <- fc6
I0921 20:46:40.450933 13134 net.cpp:408] fc7 -> fc7
I0921 20:46:40.913652 13134 net.cpp:150] Setting up fc7
I0921 20:46:40.913684 13134 net.cpp:157] Top shape: 16 4096 (65536)
I0921 20:46:40.913688 13134 net.cpp:165] Memory required for data: 77322304
I0921 20:46:40.913697 13134 layer_factory.hpp:77] Creating layer relu7
I0921 20:46:40.913707 13134 net.cpp:100] Creating Layer relu7
I0921 20:46:40.913712 13134 net.cpp:434] relu7 <- fc7
I0921 20:46:40.913717 13134 net.cpp:395] relu7 -> fc7 (in-place)
I0921 20:46:40.913734 13134 net.cpp:150] Setting up relu7
I0921 20:46:40.913738 13134 net.cpp:157] Top shape: 16 4096 (65536)
I0921 20:46:40.913741 13134 net.cpp:165] Memory required for data: 77584448
I0921 20:46:40.913743 13134 layer_factory.hpp:77] Creating layer fc8
I0921 20:46:40.913751 13134 net.cpp:100] Creating Layer fc8
I0921 20:46:40.913753 13134 net.cpp:434] fc8 <- fc7
I0921 20:46:40.913758 13134 net.cpp:408] fc8 -> fc8
I0921 20:46:41.016912 13134 net.cpp:150] Setting up fc8
I0921 20:46:41.016934 13134 net.cpp:157] Top shape: 16 1000 (16000)
I0921 20:46:41.016938 13134 net.cpp:165] Memory required for data: 77648448
I0921 20:46:41.016944 13134 layer_factory.hpp:77] Creating layer loss
I0921 20:46:41.016959 13134 net.cpp:100] Creating Layer loss
I0921 20:46:41.016963 13134 net.cpp:434] loss <- fc8
I0921 20:46:41.016968 13134 net.cpp:434] loss <- label
I0921 20:46:41.016974 13134 net.cpp:408] loss -> loss
I0921 20:46:41.017002 13134 layer_factory.hpp:77] Creating layer loss
…
