I0912 20:03:38.783787 27359 caffe.cpp:343] Use GPU with device ID 0
I0912 20:03:39.885723 27359 net.cpp:58] Initializing net from parameters: 
name: "FFN"
state {
  phase: TRAIN
  level: 0
  stage: ""
}
layer {
  name: "data"
  type: "Data"
  top: "data"
  top: "label"
  include {
    phase: TRAIN
  }
  data_param {
    source: "fcn/fake_data26752.lmdb"
    batch_size: 64
    backend: LMDB
  }
}
layer {
  name: "H1"
  type: "InnerProduct"
  bottom: "data"
  top: "H1"
  inner_product_param {
    num_output: 2048
  }
}
layer {
  name: "H1_A"
  type: "Sigmoid"
  bottom: "H1"
  top: "H1"
}
layer {
  name: "H2"
  type: "InnerProduct"
  bottom: "H1"
  top: "H2"
  inner_product_param {
    num_output: 2048
  }
}
layer {
  name: "H2_A"
  type: "Sigmoid"
  bottom: "H2"
  top: "H2"
}
layer {
  name: "H3"
  type: "InnerProduct"
  bottom: "H2"
  top: "H3"
  inner_product_param {
    num_output: 2048
  }
}
layer {
  name: "H3_A"
  type: "Sigmoid"
  bottom: "H3"
  top: "H3"
}
layer {
  name: "H4"
  type: "InnerProduct"
  bottom: "H3"
  top: "H4"
  inner_product_param {
    num_output: 2048
  }
}
layer {
  name: "H4_A"
  type: "Sigmoid"
  bottom: "H4"
  top: "H4"
}
layer {
  name: "H5"
  type: "InnerProduct"
  bottom: "H4"
  top: "H5"
  inner_product_param {
    num_output: 2048
  }
}
layer {
  name: "H5_A"
  type: "Sigmoid"
  bottom: "H5"
  top: "H5"
}
layer {
  name: "H6"
  type: "InnerProduct"
  bottom: "H5"
  top: "H6"
  inner_product_param {
    num_output: 2048
  }
}
layer {
  name: "H6_A"
  type: "Sigmoid"
  bottom: "H6"
  top: "H6"
}
layer {
  name: "L"
  type: "InnerProduct"
  bottom: "H6"
  top: "L"
  inner_product_param {
    num_output: 26752
  }
}
layer {
  name: "loss"
  type: "SoftmaxWithLoss"
  bottom: "L"
  bottom: "label"
  top: "loss"
}
I0912 20:03:39.885814 27359 layer_factory.hpp:77] Creating layer data
I0912 20:03:39.886212 27359 net.cpp:100] Creating Layer data
I0912 20:03:39.886221 27359 net.cpp:408] data -> data
I0912 20:03:39.886240 27359 net.cpp:408] data -> label
I0912 20:03:39.888150 27364 db_lmdb.cpp:35] Opened lmdb fcn/fake_data26752.lmdb
I0912 20:03:39.896050 27359 data_layer.cpp:41] output data size: 64,1,1,26752
I0912 20:03:39.904425 27359 net.cpp:150] Setting up data
I0912 20:03:39.904464 27359 net.cpp:157] Top shape: 64 1 1 26752 (1712128)
I0912 20:03:39.904469 27359 net.cpp:157] Top shape: 64 (64)
I0912 20:03:39.904472 27359 net.cpp:165] Memory required for data: 6848768
I0912 20:03:39.904480 27359 layer_factory.hpp:77] Creating layer H1
I0912 20:03:39.904521 27359 net.cpp:100] Creating Layer H1
I0912 20:03:39.904526 27359 net.cpp:434] H1 <- data
I0912 20:03:39.904536 27359 net.cpp:408] H1 -> H1
I0912 20:03:39.997678 27359 net.cpp:150] Setting up H1
I0912 20:03:39.997715 27359 net.cpp:157] Top shape: 64 2048 (131072)
I0912 20:03:39.997719 27359 net.cpp:165] Memory required for data: 7373056
I0912 20:03:39.997740 27359 layer_factory.hpp:77] Creating layer H1_A
I0912 20:03:39.997755 27359 net.cpp:100] Creating Layer H1_A
I0912 20:03:39.997757 27359 net.cpp:434] H1_A <- H1
I0912 20:03:39.997762 27359 net.cpp:395] H1_A -> H1 (in-place)
I0912 20:03:39.997777 27359 net.cpp:150] Setting up H1_A
I0912 20:03:39.997781 27359 net.cpp:157] Top shape: 64 2048 (131072)
I0912 20:03:39.997783 27359 net.cpp:165] Memory required for data: 7897344
I0912 20:03:39.997786 27359 layer_factory.hpp:77] Creating layer H2
I0912 20:03:39.997792 27359 net.cpp:100] Creating Layer H2
I0912 20:03:39.997793 27359 net.cpp:434] H2 <- H1
I0912 20:03:39.997798 27359 net.cpp:408] H2 -> H2
I0912 20:03:40.005075 27359 net.cpp:150] Setting up H2
I0912 20:03:40.005123 27359 net.cpp:157] Top shape: 64 2048 (131072)
I0912 20:03:40.005126 27359 net.cpp:165] Memory required for data: 8421632
I0912 20:03:40.005138 27359 layer_factory.hpp:77] Creating layer H2_A
I0912 20:03:40.005149 27359 net.cpp:100] Creating Layer H2_A
I0912 20:03:40.005153 27359 net.cpp:434] H2_A <- H2
I0912 20:03:40.005159 27359 net.cpp:395] H2_A -> H2 (in-place)
I0912 20:03:40.005167 27359 net.cpp:150] Setting up H2_A
I0912 20:03:40.005170 27359 net.cpp:157] Top shape: 64 2048 (131072)
I0912 20:03:40.005173 27359 net.cpp:165] Memory required for data: 8945920
I0912 20:03:40.005197 27359 layer_factory.hpp:77] Creating layer H3
I0912 20:03:40.005203 27359 net.cpp:100] Creating Layer H3
I0912 20:03:40.005206 27359 net.cpp:434] H3 <- H2
I0912 20:03:40.005211 27359 net.cpp:408] H3 -> H3
I0912 20:03:40.012598 27359 net.cpp:150] Setting up H3
I0912 20:03:40.012642 27359 net.cpp:157] Top shape: 64 2048 (131072)
I0912 20:03:40.012645 27359 net.cpp:165] Memory required for data: 9470208
I0912 20:03:40.012657 27359 layer_factory.hpp:77] Creating layer H3_A
I0912 20:03:40.012668 27359 net.cpp:100] Creating Layer H3_A
I0912 20:03:40.012672 27359 net.cpp:434] H3_A <- H3
I0912 20:03:40.012676 27359 net.cpp:395] H3_A -> H3 (in-place)
I0912 20:03:40.012684 27359 net.cpp:150] Setting up H3_A
I0912 20:03:40.012687 27359 net.cpp:157] Top shape: 64 2048 (131072)
I0912 20:03:40.012689 27359 net.cpp:165] Memory required for data: 9994496
I0912 20:03:40.012691 27359 layer_factory.hpp:77] Creating layer H4
I0912 20:03:40.012697 27359 net.cpp:100] Creating Layer H4
I0912 20:03:40.012699 27359 net.cpp:434] H4 <- H3
I0912 20:03:40.012704 27359 net.cpp:408] H4 -> H4
I0912 20:03:40.019098 27359 net.cpp:150] Setting up H4
I0912 20:03:40.019136 27359 net.cpp:157] Top shape: 64 2048 (131072)
I0912 20:03:40.019140 27359 net.cpp:165] Memory required for data: 10518784
I0912 20:03:40.019148 27359 layer_factory.hpp:77] Creating layer H4_A
I0912 20:03:40.019161 27359 net.cpp:100] Creating Layer H4_A
I0912 20:03:40.019165 27359 net.cpp:434] H4_A <- H4
I0912 20:03:40.019170 27359 net.cpp:395] H4_A -> H4 (in-place)
I0912 20:03:40.019176 27359 net.cpp:150] Setting up H4_A
I0912 20:03:40.019179 27359 net.cpp:157] Top shape: 64 2048 (131072)
I0912 20:03:40.019181 27359 net.cpp:165] Memory required for data: 11043072
I0912 20:03:40.019184 27359 layer_factory.hpp:77] Creating layer H5
I0912 20:03:40.019189 27359 net.cpp:100] Creating Layer H5
I0912 20:03:40.019191 27359 net.cpp:434] H5 <- H4
I0912 20:03:40.019194 27359 net.cpp:408] H5 -> H5
I0912 20:03:40.026176 27359 net.cpp:150] Setting up H5
I0912 20:03:40.026221 27359 net.cpp:157] Top shape: 64 2048 (131072)
I0912 20:03:40.026223 27359 net.cpp:165] Memory required for data: 11567360
I0912 20:03:40.026237 27359 layer_factory.hpp:77] Creating layer H5_A
I0912 20:03:40.026245 27359 net.cpp:100] Creating Layer H5_A
I0912 20:03:40.026249 27359 net.cpp:434] H5_A <- H5
I0912 20:03:40.026254 27359 net.cpp:395] H5_A -> H5 (in-place)
I0912 20:03:40.026262 27359 net.cpp:150] Setting up H5_A
I0912 20:03:40.026264 27359 net.cpp:157] Top shape: 64 2048 (131072)
I0912 20:03:40.026267 27359 net.cpp:165] Memory required for data: 12091648
I0912 20:03:40.026269 27359 layer_factory.hpp:77] Creating layer H6
I0912 20:03:40.026274 27359 net.cpp:100] Creating Layer H6
I0912 20:03:40.026278 27359 net.cpp:434] H6 <- H5
I0912 20:03:40.026280 27359 net.cpp:408] H6 -> H6
I0912 20:03:40.032675 27359 net.cpp:150] Setting up H6
I0912 20:03:40.032712 27359 net.cpp:157] Top shape: 64 2048 (131072)
I0912 20:03:40.032716 27359 net.cpp:165] Memory required for data: 12615936
I0912 20:03:40.032722 27359 layer_factory.hpp:77] Creating layer H6_A
I0912 20:03:40.032732 27359 net.cpp:100] Creating Layer H6_A
I0912 20:03:40.032735 27359 net.cpp:434] H6_A <- H6
I0912 20:03:40.032740 27359 net.cpp:395] H6_A -> H6 (in-place)
I0912 20:03:40.032747 27359 net.cpp:150] Setting up H6_A
I0912 20:03:40.032750 27359 net.cpp:157] Top shape: 64 2048 (131072)
I0912 20:03:40.032752 27359 net.cpp:165] Memory required for data: 13140224
I0912 20:03:40.032754 27359 layer_factory.hpp:77] Creating layer L
I0912 20:03:40.032762 27359 net.cpp:100] Creating Layer L
I0912 20:03:40.032763 27359 net.cpp:434] L <- H6
I0912 20:03:40.032768 27359 net.cpp:408] L -> L
I0912 20:03:40.124475 27359 net.cpp:150] Setting up L
I0912 20:03:40.124511 27359 net.cpp:157] Top shape: 64 26752 (1712128)
I0912 20:03:40.124516 27359 net.cpp:165] Memory required for data: 19988736
I0912 20:03:40.124523 27359 layer_factory.hpp:77] Creating layer loss
I0912 20:03:40.124541 27359 net.cpp:100] Creating Layer loss
I0912 20:03:40.124544 27359 net.cpp:434] loss <- L
I0912 20:03:40.124577 27359 net.cpp:434] loss <- label
I0912 20:03:40.124591 27359 net.cpp:408] loss -> loss
I0912 20:03:40.124610 27359 layer_factory.hpp:77] Creating layer loss
…
