…
display: 1
max_iter: 80
lr_policy: "fixed"
solver_mode: GPU
device_id: 0
net: "fcn5.prototxt"
train_state {
  level: 0
  stage: ""
}
I1026 01:40:34.007289 38735 solver.cpp:91] Creating training net from net file: fcn5.prototxt
I1026 01:40:34.007591 38735 net.cpp:58] Initializing net from parameters: 
name: "FCN5"
state {
  phase: TRAIN
  level: 0
  stage: ""
}
layer {
  name: "data"
  type: "Data"
  top: "data"
  top: "label"
  include {
    phase: TRAIN
  }
  data_param {
    source: "fake_data26752.lmdb"
    batch_size: 4096
    backend: LMDB
  }
}
layer {
  name: "H1"
  type: "InnerProduct"
  bottom: "data"
  top: "H1"
  inner_product_param {
    num_output: 2048
  }
}
layer {
  name: "H1_A"
  type: "Sigmoid"
  bottom: "H1"
  top: "H1"
}
layer {
  name: "H2"
  type: "InnerProduct"
  bottom: "H1"
  top: "H2"
  inner_product_param {
    num_output: 2048
  }
}
layer {
  name: "H2_A"
  type: "Sigmoid"
  bottom: "H2"
  top: "H2"
}
layer {
  name: "H3"
  type: "InnerProduct"
  bottom: "H2"
  top: "H3"
  inner_product_param {
    num_output: 2048
  }
}
layer {
  name: "H3_A"
  type: "Sigmoid"
  bottom: "H3"
  top: "H3"
}
layer {
  name: "L"
  type: "InnerProduct"
  bottom: "H3"
  top: "L"
  inner_product_param {
    num_output: 1000
  }
}
layer {
  name: "loss"
  type: "SoftmaxWithLoss"
  bottom: "L"
  bottom: "label"
  top: "loss"
}
I1026 01:40:34.007704 38735 layer_factory.hpp:77] Creating layer data
I1026 01:40:34.010717 38735 net.cpp:100] Creating Layer data
I1026 01:40:34.010737 38735 net.cpp:408] data -> data
I1026 01:40:34.010820 38735 net.cpp:408] data -> label
I1026 01:40:34.012526 38742 db_lmdb.cpp:35] Opened lmdb fake_data26752.lmdb
I1026 01:40:34.021972 38735 data_layer.cpp:41] output data size: 4096,1,1,512
I1026 01:40:34.039295 38735 net.cpp:150] Setting up data
I1026 01:40:34.039371 38735 net.cpp:157] Top shape: 4096 1 1 512 (2097152)
I1026 01:40:34.039378 38735 net.cpp:157] Top shape: 4096 (4096)
I1026 01:40:34.039381 38735 net.cpp:165] Memory required for data: 8404992
I1026 01:40:34.039407 38735 layer_factory.hpp:77] Creating layer H1
I1026 01:40:34.039427 38735 net.cpp:100] Creating Layer H1
I1026 01:40:34.039436 38735 net.cpp:434] H1 <- data
I1026 01:40:34.039461 38735 net.cpp:408] H1 -> H1
I1026 01:40:34.042362 38743 blocking_queue.cpp:50] Waiting for data
I1026 01:40:34.042529 38735 net.cpp:150] Setting up H1
I1026 01:40:34.042548 38735 net.cpp:157] Top shape: 4096 2048 (8388608)
I1026 01:40:34.042585 38735 net.cpp:165] Memory required for data: 41959424
I1026 01:40:34.042608 38735 layer_factory.hpp:77] Creating layer H1_A
I1026 01:40:34.042637 38735 net.cpp:100] Creating Layer H1_A
I1026 01:40:34.042644 38735 net.cpp:434] H1_A <- H1
I1026 01:40:34.042661 38735 net.cpp:395] H1_A -> H1 (in-place)
I1026 01:40:34.042671 38735 net.cpp:150] Setting up H1_A
I1026 01:40:34.042676 38735 net.cpp:157] Top shape: 4096 2048 (8388608)
I1026 01:40:34.042680 38735 net.cpp:165] Memory required for data: 75513856
I1026 01:40:34.042683 38735 layer_factory.hpp:77] Creating layer H2
I1026 01:40:34.042690 38735 net.cpp:100] Creating Layer H2
I1026 01:40:34.042692 38735 net.cpp:434] H2 <- H1
I1026 01:40:34.042697 38735 net.cpp:408] H2 -> H2
I1026 01:40:34.051806 38735 net.cpp:150] Setting up H2
I1026 01:40:34.051842 38735 net.cpp:157] Top shape: 4096 2048 (8388608)
I1026 01:40:34.051847 38735 net.cpp:165] Memory required for data: 109068288
I1026 01:40:34.051859 38735 layer_factory.hpp:77] Creating layer H2_A
I1026 01:40:34.051872 38735 net.cpp:100] Creating Layer H2_A
I1026 01:40:34.051877 38735 net.cpp:434] H2_A <- H2
I1026 01:40:34.051883 38735 net.cpp:395] H2_A -> H2 (in-place)
I1026 01:40:34.051904 38735 net.cpp:150] Setting up H2_A
I1026 01:40:34.051909 38735 net.cpp:157] Top shape: 4096 2048 (8388608)
I1026 01:40:34.051913 38735 net.cpp:165] Memory required for data: 142622720
I1026 01:40:34.051915 38735 layer_factory.hpp:77] Creating layer H3
I1026 01:40:34.051956 38735 net.cpp:100] Creating Layer H3
I1026 01:40:34.051965 38735 net.cpp:434] H3 <- H2
I1026 01:40:34.051985 38735 net.cpp:408] H3 -> H3
I1026 01:40:34.061095 38735 net.cpp:150] Setting up H3
I1026 01:40:34.061123 38735 net.cpp:157] Top shape: 4096 2048 (8388608)
I1026 01:40:34.061141 38735 net.cpp:165] Memory required for data: 176177152
I1026 01:40:34.061153 38735 layer_factory.hpp:77] Creating layer H3_A
I1026 01:40:34.061162 38735 net.cpp:100] Creating Layer H3_A
I1026 01:40:34.061167 38735 net.cpp:434] H3_A <- H3
I1026 01:40:34.061172 38735 net.cpp:395] H3_A -> H3 (in-place)
I1026 01:40:34.061180 38735 net.cpp:150] Setting up H3_A
I1026 01:40:34.061184 38735 net.cpp:157] Top shape: 4096 2048 (8388608)
I1026 01:40:34.061187 38735 net.cpp:165] Memory required for data: 209731584
I1026 01:40:34.061204 38735 layer_factory.hpp:77] Creating layer L
I1026 01:40:34.061213 38735 net.cpp:100] Creating Layer L
I1026 01:40:34.061218 38735 net.cpp:434] L <- H3
I1026 01:40:34.061223 38735 net.cpp:408] L -> L
I1026 01:40:34.066448 38735 net.cpp:150] Setting up L
I1026 01:40:34.066462 38735 net.cpp:157] Top shape: 4096 1000 (4096000)
I1026 01:40:34.066478 38735 net.cpp:165] Memory required for data: 226115584
I1026 01:40:34.066485 38735 layer_factory.hpp:77] Creating layer loss
I1026 01:40:34.066501 38735 net.cpp:100] Creating Layer loss
I1026 01:40:34.066505 38735 net.cpp:434] loss <- L
I1026 01:40:34.066510 38735 net.cpp:434] loss <- label
I1026 01:40:34.066519 38735 net.cpp:408] loss -> loss
I1026 01:40:34.066557 38735 layer_factory.hpp:77] Creating layer loss
…
