…
I1014 09:15:49.443294  3958 solver.cpp:91] Creating training net from net file: alexnet.prototxt
I1014 09:15:49.443784  3958 net.cpp:322] The NetState phase (0) differed from the phase (1) specified by a rule in layer accuracy
I1014 09:15:49.443940  3958 net.cpp:58] Initializing net from parameters: 
name: "AlexNet"
state {
  phase: TRAIN
  level: 0
  stage: ""
}
layer {
  name: "data"
  type: "Data"
  top: "data"
  top: "label"
  include {
    phase: TRAIN
  }
  data_param {
    source: "fake_image_net.lmdb"
    batch_size: 16
    backend: LMDB
  }
}
layer {
  name: "conv1"
  type: "Convolution"
  bottom: "data"
  top: "conv1"
  param {
    lr_mult: 1
    decay_mult: 1
  }
  param {
    lr_mult: 2
    decay_mult: 0
  }
  convolution_param {
    num_output: 96
    kernel_size: 11
    stride: 4
    weight_filler {
      type: "gaussian"
      std: 0.01
    }
    bias_filler {
      type: "constant"
      value: 0
    }
  }
}
layer {
  name: "relu1"
  type: "ReLU"
  bottom: "conv1"
  top: "conv1"
}
layer {
  name: "pool1"
  type: "Pooling"
  bottom: "conv1"
  top: "pool1"
  pooling_param {
    pool: MAX
    kernel_size: 3
    stride: 2
  }
}
layer {
  name: "conv2"
  type: "Convolution"
  bottom: "pool1"
  top: "conv2"
  param {
    lr_mult: 1
    decay_mult: 1
  }
  param {
    lr_mult: 2
    decay_mult: 0
  }
  convolution_param {
    num_output: 256
    kernel_size: 5
    weight_filler {
      type: "gaussian"
      std: 0.01
    }
    bias_filler {
      type: "constant"
      value: 0.1
    }
  }
}
layer {
  name: "relu2"
  type: "ReLU"
  bottom: "conv2"
  top: "conv2"
}
layer {
  name: "pool2"
  type: "Pooling"
  bottom: "conv2"
  top: "pool2"
  pooling_param {
    pool: MAX
    kernel_size: 3
    stride: 2
  }
}
layer {
  name: "conv3"
  type: "Convolution"
  bottom: "pool2"
  top: "conv3"
  param {
    lr_mult: 1
    decay_mult: 1
  }
  param {
    lr_mult: 2
    decay_mult: 0
  }
  convolution_param {
    num_output: 384
    kernel_size: 3
    weight_filler {
      type: "gaussian"
      std: 0.01
    }
    bias_filler {
      type: "constant"
      value: 0
    }
  }
}
layer {
  name: "relu3"
  type: "ReLU"
  bottom: "conv3"
  top: "conv3"
}
layer {
  name: "conv4"
  type: "Convolution"
  bottom: "conv3"
  top: "conv4"
  param {
    lr_mult: 1
    decay_mult: 1
  }
  param {
    lr_mult: 2
    decay_mult: 0
  }
  convolution_param {
    num_output: 384
    kernel_size: 3
    weight_filler {
      type: "gaussian"
      std: 0.01
    }
    bias_filler {
      type: "constant"
      value: 0.1
    }
  }
}
layer {
  name: "relu4"
  type: "ReLU"
  bottom: "conv4"
  top: "conv4"
}
layer {
  name: "conv5"
  type: "Convolution"
  bottom: "conv4"
  top: "conv5"
  param {
    lr_mult: 1
    decay_mult: 1
  }
  param {
    lr_mult: 2
    decay_mult: 0
  }
  convolution_param {
    num_output: 256
    kernel_size: 3
    weight_filler {
      type: "gaussian"
      std: 0.01
    }
    bias_filler {
      type: "constant"
      value: 0.1
    }
  }
}
layer {
  name: "relu5"
  type: "ReLU"
  bottom: "conv5"
  top: "conv5"
}
layer {
  name: "pool5"
  type: "Pooling"
  bottom: "conv5"
  top: "pool5"
  pooling_param {
    pool: MAX
    kernel_size: 3
    stride: 2
  }
}
layer {
  name: "fc6"
  type: "InnerProduct"
  bottom: "pool5"
  top: "fc6"
  param {
    lr_mult: 1
    decay_mult: 1
  }
  param {
    lr_mult: 2
    decay_mult: 0
  }
  inner_product_param {
    num_output: 4096
    weight_filler {
      type: "gaussian"
      std: 0.005
    }
    bias_filler {
      type: "constant"
      value: 0.1
    }
  }
}
layer {
  name: "relu6"
  type: "ReLU"
  bottom: "fc6"
  top: "fc6"
}
layer {
  name: "fc7"
  type: "InnerProduct"
  bottom: "fc6"
  top: "fc7"
  param {
    lr_mult: 1
    decay_mult: 1
  }
  param {
    lr_mult: 2
    decay_mult: 0
  }
  inner_product_param {
    num_output: 4096
    weight_filler {
      type: "gaussian"
      std: 0.005
    }
    bias_filler {
      type: "constant"
      value: 0.1
    }
  }
}
layer {
  name: "relu7"
  type: "ReLU"
  bottom: "fc7"
  top: "fc7"
}
layer {
  name: "fc8"
  type: "InnerProduct"
  bottom: "fc7"
  top: "fc8"
  param {
    lr_mult: 1
    decay_mult: 1
  }
  param {
    lr_mult: 2
    decay_mult: 0
  }
  inner_product_param {
    num_output: 1000
    weight_filler {
      type: "gaussian"
      std: 0.01
    }
    bias_filler {
      type: "constant"
      value: 0
    }
  }
}
layer {
  name: "loss"
  type: "SoftmaxWithLoss"
  bottom: "fc8"
  bottom: "label"
  top: "loss"
}
I1014 09:15:49.444061  3958 layer_factory.hpp:77] Creating layer data
I1014 09:15:49.444706  3958 net.cpp:100] Creating Layer data
I1014 09:15:49.444718  3958 net.cpp:408] data -> data
I1014 09:15:49.444739  3958 net.cpp:408] data -> label
I1014 09:15:49.445848  3964 db_lmdb.cpp:35] Opened lmdb fake_image_net.lmdb
I1014 09:15:49.456095  3958 data_layer.cpp:41] output data size: 16,3,224,224
I1014 09:15:49.468968  3958 net.cpp:150] Setting up data
I1014 09:15:49.469014  3958 net.cpp:157] Top shape: 16 3 224 224 (2408448)
I1014 09:15:49.469022  3958 net.cpp:157] Top shape: 16 (16)
I1014 09:15:49.469024  3958 net.cpp:165] Memory required for data: 9633856
I1014 09:15:49.469034  3958 layer_factory.hpp:77] Creating layer conv1
I1014 09:15:49.469060  3958 net.cpp:100] Creating Layer conv1
I1014 09:15:49.469066  3958 net.cpp:434] conv1 <- data
I1014 09:15:49.469079  3958 net.cpp:408] conv1 -> conv1
I1014 09:15:49.471516  3958 net.cpp:150] Setting up conv1
I1014 09:15:49.471534  3958 net.cpp:157] Top shape: 16 96 54 54 (4478976)
I1014 09:15:49.471537  3958 net.cpp:165] Memory required for data: 27549760
I1014 09:15:49.471554  3958 layer_factory.hpp:77] Creating layer relu1
I1014 09:15:49.471565  3958 net.cpp:100] Creating Layer relu1
I1014 09:15:49.471568  3958 net.cpp:434] relu1 <- conv1
I1014 09:15:49.471573  3958 net.cpp:395] relu1 -> conv1 (in-place)
I1014 09:15:49.471586  3958 net.cpp:150] Setting up relu1
I1014 09:15:49.471591  3958 net.cpp:157] Top shape: 16 96 54 54 (4478976)
I1014 09:15:49.471595  3958 net.cpp:165] Memory required for data: 45465664
I1014 09:15:49.471597  3958 layer_factory.hpp:77] Creating layer pool1
I1014 09:15:49.471604  3958 net.cpp:100] Creating Layer pool1
I1014 09:15:49.471607  3958 net.cpp:434] pool1 <- conv1
I1014 09:15:49.471612  3958 net.cpp:408] pool1 -> pool1
I1014 09:15:49.472332  3958 net.cpp:150] Setting up pool1
I1014 09:15:49.472344  3958 net.cpp:157] Top shape: 16 96 27 27 (1119744)
I1014 09:15:49.472347  3958 net.cpp:165] Memory required for data: 49944640
I1014 09:15:49.472352  3958 layer_factory.hpp:77] Creating layer conv2
I1014 09:15:49.472363  3958 net.cpp:100] Creating Layer conv2
I1014 09:15:49.472368  3958 net.cpp:434] conv2 <- pool1
I1014 09:15:49.472373  3958 net.cpp:408] conv2 -> conv2
I1014 09:15:49.492447  3958 net.cpp:150] Setting up conv2
I1014 09:15:49.492480  3958 net.cpp:157] Top shape: 16 256 23 23 (2166784)
I1014 09:15:49.492485  3958 net.cpp:165] Memory required for data: 58611776
I1014 09:15:49.492497  3958 layer_factory.hpp:77] Creating layer relu2
I1014 09:15:49.492508  3958 net.cpp:100] Creating Layer relu2
I1014 09:15:49.492513  3958 net.cpp:434] relu2 <- conv2
I1014 09:15:49.492519  3958 net.cpp:395] relu2 -> conv2 (in-place)
I1014 09:15:49.492529  3958 net.cpp:150] Setting up relu2
I1014 09:15:49.492533  3958 net.cpp:157] Top shape: 16 256 23 23 (2166784)
I1014 09:15:49.492537  3958 net.cpp:165] Memory required for data: 67278912
I1014 09:15:49.492539  3958 layer_factory.hpp:77] Creating layer pool2
I1014 09:15:49.492545  3958 net.cpp:100] Creating Layer pool2
I1014 09:15:49.492547  3958 net.cpp:434] pool2 <- conv2
I1014 09:15:49.492552  3958 net.cpp:408] pool2 -> pool2
I1014 09:15:49.492588  3958 net.cpp:150] Setting up pool2
I1014 09:15:49.492595  3958 net.cpp:157] Top shape: 16 256 11 11 (495616)
I1014 09:15:49.492597  3958 net.cpp:165] Memory required for data: 69261376
I1014 09:15:49.492617  3958 layer_factory.hpp:77] Creating layer conv3
I1014 09:15:49.492630  3958 net.cpp:100] Creating Layer conv3
I1014 09:15:49.492632  3958 net.cpp:434] conv3 <- pool2
I1014 09:15:49.492638  3958 net.cpp:408] conv3 -> conv3
I1014 09:15:49.519898  3958 net.cpp:150] Setting up conv3
I1014 09:15:49.519934  3958 net.cpp:157] Top shape: 16 384 9 9 (497664)
I1014 09:15:49.519938  3958 net.cpp:165] Memory required for data: 71252032
I1014 09:15:49.519950  3958 layer_factory.hpp:77] Creating layer relu3
I1014 09:15:49.519963  3958 net.cpp:100] Creating Layer relu3
I1014 09:15:49.519965  3958 net.cpp:434] relu3 <- conv3
I1014 09:15:49.519971  3958 net.cpp:395] relu3 -> conv3 (in-place)
I1014 09:15:49.519980  3958 net.cpp:150] Setting up relu3
I1014 09:15:49.519985  3958 net.cpp:157] Top shape: 16 384 9 9 (497664)
I1014 09:15:49.519989  3958 net.cpp:165] Memory required for data: 73242688
I1014 09:15:49.519990  3958 layer_factory.hpp:77] Creating layer conv4
I1014 09:15:49.520001  3958 net.cpp:100] Creating Layer conv4
I1014 09:15:49.520005  3958 net.cpp:434] conv4 <- conv3
I1014 09:15:49.520010  3958 net.cpp:408] conv4 -> conv4
I1014 09:15:49.560724  3958 net.cpp:150] Setting up conv4
I1014 09:15:49.560765  3958 net.cpp:157] Top shape: 16 384 7 7 (301056)
I1014 09:15:49.560768  3958 net.cpp:165] Memory required for data: 74446912
I1014 09:15:49.560776  3958 layer_factory.hpp:77] Creating layer relu4
I1014 09:15:49.560786  3958 net.cpp:100] Creating Layer relu4
I1014 09:15:49.560791  3958 net.cpp:434] relu4 <- conv4
I1014 09:15:49.560798  3958 net.cpp:395] relu4 -> conv4 (in-place)
I1014 09:15:49.560807  3958 net.cpp:150] Setting up relu4
I1014 09:15:49.560811  3958 net.cpp:157] Top shape: 16 384 7 7 (301056)
I1014 09:15:49.560814  3958 net.cpp:165] Memory required for data: 75651136
I1014 09:15:49.560817  3958 layer_factory.hpp:77] Creating layer conv5
I1014 09:15:49.560827  3958 net.cpp:100] Creating Layer conv5
I1014 09:15:49.560829  3958 net.cpp:434] conv5 <- conv4
I1014 09:15:49.560835  3958 net.cpp:408] conv5 -> conv5
I1014 09:15:49.588017  3958 net.cpp:150] Setting up conv5
I1014 09:15:49.588034  3958 net.cpp:157] Top shape: 16 256 5 5 (102400)
I1014 09:15:49.588037  3958 net.cpp:165] Memory required for data: 76060736
I1014 09:15:49.588047  3958 layer_factory.hpp:77] Creating layer relu5
I1014 09:15:49.588053  3958 net.cpp:100] Creating Layer relu5
I1014 09:15:49.588057  3958 net.cpp:434] relu5 <- conv5
I1014 09:15:49.588063  3958 net.cpp:395] relu5 -> conv5 (in-place)
I1014 09:15:49.588069  3958 net.cpp:150] Setting up relu5
I1014 09:15:49.588074  3958 net.cpp:157] Top shape: 16 256 5 5 (102400)
I1014 09:15:49.588076  3958 net.cpp:165] Memory required for data: 76470336
I1014 09:15:49.588079  3958 layer_factory.hpp:77] Creating layer pool5
I1014 09:15:49.588085  3958 net.cpp:100] Creating Layer pool5
I1014 09:15:49.588088  3958 net.cpp:434] pool5 <- conv5
I1014 09:15:49.588093  3958 net.cpp:408] pool5 -> pool5
I1014 09:15:49.588127  3958 net.cpp:150] Setting up pool5
I1014 09:15:49.588138  3958 net.cpp:157] Top shape: 16 256 2 2 (16384)
I1014 09:15:49.588141  3958 net.cpp:165] Memory required for data: 76535872
I1014 09:15:49.588145  3958 layer_factory.hpp:77] Creating layer fc6
I1014 09:15:49.588155  3958 net.cpp:100] Creating Layer fc6
I1014 09:15:49.588157  3958 net.cpp:434] fc6 <- pool5
I1014 09:15:49.588161  3958 net.cpp:408] fc6 -> fc6
I1014 09:15:49.711716  3958 net.cpp:150] Setting up fc6
I1014 09:15:49.711746  3958 net.cpp:157] Top shape: 16 4096 (65536)
I1014 09:15:49.711750  3958 net.cpp:165] Memory required for data: 76798016
I1014 09:15:49.711757  3958 layer_factory.hpp:77] Creating layer relu6
I1014 09:15:49.711766  3958 net.cpp:100] Creating Layer relu6
I1014 09:15:49.711769  3958 net.cpp:434] relu6 <- fc6
I1014 09:15:49.711776  3958 net.cpp:395] relu6 -> fc6 (in-place)
I1014 09:15:49.711783  3958 net.cpp:150] Setting up relu6
I1014 09:15:49.711787  3958 net.cpp:157] Top shape: 16 4096 (65536)
I1014 09:15:49.711791  3958 net.cpp:165] Memory required for data: 77060160
I1014 09:15:49.711793  3958 layer_factory.hpp:77] Creating layer fc7
I1014 09:15:49.711824  3958 net.cpp:100] Creating Layer fc7
I1014 09:15:49.711828  3958 net.cpp:434] fc7 <- fc6
I1014 09:15:49.711833  3958 net.cpp:408] fc7 -> fc7
I1014 09:15:50.193899  3958 net.cpp:150] Setting up fc7
I1014 09:15:50.193933  3958 net.cpp:157] Top shape: 16 4096 (65536)
I1014 09:15:50.193936  3958 net.cpp:165] Memory required for data: 77322304
I1014 09:15:50.193944  3958 layer_factory.hpp:77] Creating layer relu7
I1014 09:15:50.193953  3958 net.cpp:100] Creating Layer relu7
I1014 09:15:50.193958  3958 net.cpp:434] relu7 <- fc7
I1014 09:15:50.193964  3958 net.cpp:395] relu7 -> fc7 (in-place)
I1014 09:15:50.193972  3958 net.cpp:150] Setting up relu7
I1014 09:15:50.193976  3958 net.cpp:157] Top shape: 16 4096 (65536)
I1014 09:15:50.193979  3958 net.cpp:165] Memory required for data: 77584448
I1014 09:15:50.193992  3958 layer_factory.hpp:77] Creating layer fc8
I1014 09:15:50.194001  3958 net.cpp:100] Creating Layer fc8
I1014 09:15:50.194003  3958 net.cpp:434] fc8 <- fc7
I1014 09:15:50.194010  3958 net.cpp:408] fc8 -> fc8
I1014 09:15:50.297214  3958 net.cpp:150] Setting up fc8
I1014 09:15:50.297238  3958 net.cpp:157] Top shape: 16 1000 (16000)
I1014 09:15:50.297242  3958 net.cpp:165] Memory required for data: 77648448
I1014 09:15:50.297250  3958 layer_factory.hpp:77] Creating layer loss
I1014 09:15:50.297256  3958 net.cpp:100] Creating Layer loss
I1014 09:15:50.297261  3958 net.cpp:434] loss <- fc8
I1014 09:15:50.297267  3958 net.cpp:434] loss <- label
I1014 09:15:50.297273  3958 net.cpp:408] loss -> loss
I1014 09:15:50.297303  3958 layer_factory.hpp:77] Creating layer loss
…
