…
max_iter: 200
lr_policy: "fixed"
solver_mode: GPU
device_id: 0
net: "ffn26752l6-b64.prototxt"
train_state {
  level: 0
  stage: ""
}
I0921 20:46:27.711855 13125 solver.cpp:91] Creating training net from net file: ffn26752l6-b64.prototxt
I0921 20:46:27.712146 13125 net.cpp:58] Initializing net from parameters: 
name: "FFN"
state {
  phase: TRAIN
  level: 0
  stage: ""
}
layer {
  name: "data"
  type: "Data"
  top: "data"
  top: "label"
  include {
    phase: TRAIN
  }
  data_param {
    source: "fake_data26752.lmdb"
    batch_size: 64
    backend: LMDB
  }
}
layer {
  name: "H1"
  type: "InnerProduct"
  bottom: "data"
  top: "H1"
  inner_product_param {
    num_output: 2048
  }
}
layer {
  name: "H1_A"
  type: "Sigmoid"
  bottom: "H1"
  top: "H1"
}
layer {
  name: "H2"
  type: "InnerProduct"
  bottom: "H1"
  top: "H2"
  inner_product_param {
    num_output: 2048
  }
}
layer {
  name: "H2_A"
  type: "Sigmoid"
  bottom: "H2"
  top: "H2"
}
layer {
  name: "H3"
  type: "InnerProduct"
  bottom: "H2"
  top: "H3"
  inner_product_param {
    num_output: 2048
  }
}
layer {
  name: "H3_A"
  type: "Sigmoid"
  bottom: "H3"
  top: "H3"
}
layer {
  name: "H4"
  type: "InnerProduct"
  bottom: "H3"
  top: "H4"
  inner_product_param {
    num_output: 2048
  }
}
layer {
  name: "H4_A"
  type: "Sigmoid"
  bottom: "H4"
  top: "H4"
}
layer {
  name: "H5"
  type: "InnerProduct"
  bottom: "H4"
  top: "H5"
  inner_product_param {
    num_output: 2048
  }
}
layer {
  name: "H5_A"
  type: "Sigmoid"
  bottom: "H5"
  top: "H5"
}
layer {
  name: "H6"
  type: "InnerProduct"
  bottom: "H5"
  top: "H6"
  inner_product_param {
    num_output: 2048
  }
}
layer {
  name: "H6_A"
  type: "Sigmoid"
  bottom: "H6"
  top: "H6"
}
layer {
  name: "L"
  type: "InnerProduct"
  bottom: "H6"
  top: "L"
  inner_product_param {
    num_output: 26752
  }
}
layer {
  name: "loss"
  type: "SoftmaxWithLoss"
  bottom: "L"
  bottom: "label"
  top: "loss"
}
I0921 20:46:27.712221 13125 layer_factory.hpp:77] Creating layer data
I0921 20:46:27.712687 13125 net.cpp:100] Creating Layer data
I0921 20:46:27.712700 13125 net.cpp:408] data -> data
I0921 20:46:27.712719 13125 net.cpp:408] data -> label
I0921 20:46:27.714431 13131 db_lmdb.cpp:35] Opened lmdb fake_data26752.lmdb
I0921 20:46:27.723309 13125 data_layer.cpp:41] output data size: 64,1,1,26752
I0921 20:46:27.732527 13125 net.cpp:150] Setting up data
I0921 20:46:27.732569 13125 net.cpp:157] Top shape: 64 1 1 26752 (1712128)
I0921 20:46:27.732575 13125 net.cpp:157] Top shape: 64 (64)
I0921 20:46:27.732579 13125 net.cpp:165] Memory required for data: 6848768
I0921 20:46:27.732589 13125 layer_factory.hpp:77] Creating layer H1
I0921 20:46:27.732620 13125 net.cpp:100] Creating Layer H1
I0921 20:46:27.732627 13125 net.cpp:434] H1 <- data
I0921 20:46:27.732640 13125 net.cpp:408] H1 -> H1
I0921 20:46:27.835997 13125 net.cpp:150] Setting up H1
I0921 20:46:27.836038 13125 net.cpp:157] Top shape: 64 2048 (131072)
I0921 20:46:27.836042 13125 net.cpp:165] Memory required for data: 7373056
I0921 20:46:27.836066 13125 layer_factory.hpp:77] Creating layer H1_A
I0921 20:46:27.836078 13125 net.cpp:100] Creating Layer H1_A
I0921 20:46:27.836083 13125 net.cpp:434] H1_A <- H1
I0921 20:46:27.836091 13125 net.cpp:395] H1_A -> H1 (in-place)
I0921 20:46:27.836100 13125 net.cpp:150] Setting up H1_A
I0921 20:46:27.836105 13125 net.cpp:157] Top shape: 64 2048 (131072)
I0921 20:46:27.836108 13125 net.cpp:165] Memory required for data: 7897344
I0921 20:46:27.836112 13125 layer_factory.hpp:77] Creating layer H2
I0921 20:46:27.836117 13125 net.cpp:100] Creating Layer H2
I0921 20:46:27.836120 13125 net.cpp:434] H2 <- H1
I0921 20:46:27.836127 13125 net.cpp:408] H2 -> H2
I0921 20:46:27.844065 13125 net.cpp:150] Setting up H2
I0921 20:46:27.844105 13125 net.cpp:157] Top shape: 64 2048 (131072)
I0921 20:46:27.844110 13125 net.cpp:165] Memory required for data: 8421632
I0921 20:46:27.844125 13125 layer_factory.hpp:77] Creating layer H2_A
I0921 20:46:27.844159 13125 net.cpp:100] Creating Layer H2_A
I0921 20:46:27.844166 13125 net.cpp:434] H2_A <- H2
I0921 20:46:27.844173 13125 net.cpp:395] H2_A -> H2 (in-place)
I0921 20:46:27.844182 13125 net.cpp:150] Setting up H2_A
I0921 20:46:27.844187 13125 net.cpp:157] Top shape: 64 2048 (131072)
I0921 20:46:27.844190 13125 net.cpp:165] Memory required for data: 8945920
I0921 20:46:27.844193 13125 layer_factory.hpp:77] Creating layer H3
I0921 20:46:27.844200 13125 net.cpp:100] Creating Layer H3
I0921 20:46:27.844203 13125 net.cpp:434] H3 <- H2
I0921 20:46:27.844209 13125 net.cpp:408] H3 -> H3
I0921 20:46:27.852016 13125 net.cpp:150] Setting up H3
I0921 20:46:27.852056 13125 net.cpp:157] Top shape: 64 2048 (131072)
I0921 20:46:27.852059 13125 net.cpp:165] Memory required for data: 9470208
I0921 20:46:27.852073 13125 layer_factory.hpp:77] Creating layer H3_A
I0921 20:46:27.852084 13125 net.cpp:100] Creating Layer H3_A
I0921 20:46:27.852088 13125 net.cpp:434] H3_A <- H3
I0921 20:46:27.852095 13125 net.cpp:395] H3_A -> H3 (in-place)
I0921 20:46:27.852105 13125 net.cpp:150] Setting up H3_A
I0921 20:46:27.852109 13125 net.cpp:157] Top shape: 64 2048 (131072)
I0921 20:46:27.852113 13125 net.cpp:165] Memory required for data: 9994496
I0921 20:46:27.852115 13125 layer_factory.hpp:77] Creating layer H4
I0921 20:46:27.852123 13125 net.cpp:100] Creating Layer H4
I0921 20:46:27.852125 13125 net.cpp:434] H4 <- H3
I0921 20:46:27.852129 13125 net.cpp:408] H4 -> H4
I0921 20:46:27.859258 13125 net.cpp:150] Setting up H4
I0921 20:46:27.859287 13125 net.cpp:157] Top shape: 64 2048 (131072)
I0921 20:46:27.859292 13125 net.cpp:165] Memory required for data: 10518784
I0921 20:46:27.859300 13125 layer_factory.hpp:77] Creating layer H4_A
I0921 20:46:27.859310 13125 net.cpp:100] Creating Layer H4_A
I0921 20:46:27.859314 13125 net.cpp:434] H4_A <- H4
I0921 20:46:27.859319 13125 net.cpp:395] H4_A -> H4 (in-place)
I0921 20:46:27.859328 13125 net.cpp:150] Setting up H4_A
I0921 20:46:27.859333 13125 net.cpp:157] Top shape: 64 2048 (131072)
I0921 20:46:27.859335 13125 net.cpp:165] Memory required for data: 11043072
I0921 20:46:27.859338 13125 layer_factory.hpp:77] Creating layer H5
I0921 20:46:27.859346 13125 net.cpp:100] Creating Layer H5
I0921 20:46:27.859350 13125 net.cpp:434] H5 <- H4
I0921 20:46:27.859354 13125 net.cpp:408] H5 -> H5
I0921 20:46:27.866382 13125 net.cpp:150] Setting up H5
I0921 20:46:27.866411 13125 net.cpp:157] Top shape: 64 2048 (131072)
I0921 20:46:27.866415 13125 net.cpp:165] Memory required for data: 11567360
I0921 20:46:27.866427 13125 layer_factory.hpp:77] Creating layer H5_A
I0921 20:46:27.866436 13125 net.cpp:100] Creating Layer H5_A
I0921 20:46:27.866439 13125 net.cpp:434] H5_A <- H5
I0921 20:46:27.866444 13125 net.cpp:395] H5_A -> H5 (in-place)
I0921 20:46:27.866451 13125 net.cpp:150] Setting up H5_A
I0921 20:46:27.866456 13125 net.cpp:157] Top shape: 64 2048 (131072)
I0921 20:46:27.866458 13125 net.cpp:165] Memory required for data: 12091648
I0921 20:46:27.866461 13125 layer_factory.hpp:77] Creating layer H6
I0921 20:46:27.866469 13125 net.cpp:100] Creating Layer H6
I0921 20:46:27.866472 13125 net.cpp:434] H6 <- H5
I0921 20:46:27.866477 13125 net.cpp:408] H6 -> H6
I0921 20:46:27.873513 13125 net.cpp:150] Setting up H6
I0921 20:46:27.873543 13125 net.cpp:157] Top shape: 64 2048 (131072)
I0921 20:46:27.873545 13125 net.cpp:165] Memory required for data: 12615936
I0921 20:46:27.873553 13125 layer_factory.hpp:77] Creating layer H6_A
I0921 20:46:27.873561 13125 net.cpp:100] Creating Layer H6_A
I0921 20:46:27.873566 13125 net.cpp:434] H6_A <- H6
I0921 20:46:27.873571 13125 net.cpp:395] H6_A -> H6 (in-place)
I0921 20:46:27.873579 13125 net.cpp:150] Setting up H6_A
I0921 20:46:27.873582 13125 net.cpp:157] Top shape: 64 2048 (131072)
I0921 20:46:27.873585 13125 net.cpp:165] Memory required for data: 13140224
I0921 20:46:27.873589 13125 layer_factory.hpp:77] Creating layer L
I0921 20:46:27.873594 13125 net.cpp:100] Creating Layer L
I0921 20:46:27.873597 13125 net.cpp:434] L <- H6
I0921 20:46:27.873625 13125 net.cpp:408] L -> L
I0921 20:46:27.975235 13125 net.cpp:150] Setting up L
I0921 20:46:27.975277 13125 net.cpp:157] Top shape: 64 26752 (1712128)
I0921 20:46:27.975281 13125 net.cpp:165] Memory required for data: 19988736
I0921 20:46:27.975292 13125 layer_factory.hpp:77] Creating layer loss
I0921 20:46:27.975314 13125 net.cpp:100] Creating Layer loss
I0921 20:46:27.975319 13125 net.cpp:434] loss <- L
I0921 20:46:27.975324 13125 net.cpp:434] loss <- label
I0921 20:46:27.975332 13125 net.cpp:408] loss -> loss
I0921 20:46:27.975356 13125 layer_factory.hpp:77] Creating layer loss
…
