…
base_lr: 0.01
display: 1
max_iter: 40
lr_policy: "fixed"
solver_mode: GPU
device_id: 0
net: "fcn8.prototxt"
train_state {
  level: 0
  stage: ""
}
I1014 09:15:38.840147  3949 solver.cpp:91] Creating training net from net file: fcn8.prototxt
I1014 09:15:38.840461  3949 net.cpp:58] Initializing net from parameters: 
name: "FFN"
state {
  phase: TRAIN
  level: 0
  stage: ""
}
layer {
  name: "data"
  type: "Data"
  top: "data"
  top: "label"
  include {
    phase: TRAIN
  }
  data_param {
    source: "fake_data26752.lmdb"
    batch_size: 8192
    backend: LMDB
  }
}
layer {
  name: "H1"
  type: "InnerProduct"
  bottom: "data"
  top: "H1"
  inner_product_param {
    num_output: 2048
  }
}
layer {
  name: "H1_A"
  type: "Sigmoid"
  bottom: "H1"
  top: "H1"
}
layer {
  name: "H2"
  type: "InnerProduct"
  bottom: "H1"
  top: "H2"
  inner_product_param {
    num_output: 2048
  }
}
layer {
  name: "H2_A"
  type: "Sigmoid"
  bottom: "H2"
  top: "H2"
}
layer {
  name: "H3"
  type: "InnerProduct"
  bottom: "H2"
  top: "H3"
  inner_product_param {
    num_output: 2048
  }
}
layer {
  name: "H3_A"
  type: "Sigmoid"
  bottom: "H3"
  top: "H3"
}
layer {
  name: "H4"
  type: "InnerProduct"
  bottom: "H3"
  top: "H4"
  inner_product_param {
    num_output: 2048
  }
}
layer {
  name: "H4_A"
  type: "Sigmoid"
  bottom: "H4"
  top: "H4"
}
layer {
  name: "H5"
  type: "InnerProduct"
  bottom: "H4"
  top: "H5"
  inner_product_param {
    num_output: 2048
  }
}
layer {
  name: "H5_A"
  type: "Sigmoid"
  bottom: "H5"
  top: "H5"
}
layer {
  name: "H6"
  type: "InnerProduct"
  bottom: "H5"
  top: "H6"
  inner_product_param {
    num_output: 2048
  }
}
layer {
  name: "H6_A"
  type: "Sigmoid"
  bottom: "H6"
  top: "H6"
}
layer {
  name: "L"
  type: "InnerProduct"
  bottom: "H6"
  top: "L"
  inner_product_param {
    num_output: 1000
  }
}
layer {
  name: "loss"
  type: "SoftmaxWithLoss"
  bottom: "L"
  bottom: "label"
  top: "loss"
}
I1014 09:15:38.840565  3949 layer_factory.hpp:77] Creating layer data
I1014 09:15:38.845187  3949 net.cpp:100] Creating Layer data
I1014 09:15:38.845206  3949 net.cpp:408] data -> data
I1014 09:15:38.845255  3949 net.cpp:408] data -> label
I1014 09:15:38.846384  3955 db_lmdb.cpp:35] Opened lmdb fake_data26752.lmdb
I1014 09:15:38.856370  3949 data_layer.cpp:41] output data size: 8192,1,1,512
I1014 09:15:38.879813  3949 net.cpp:150] Setting up data
I1014 09:15:38.879865  3949 net.cpp:157] Top shape: 8192 1 1 512 (4194304)
I1014 09:15:38.879875  3949 net.cpp:157] Top shape: 8192 (8192)
I1014 09:15:38.879880  3949 net.cpp:165] Memory required for data: 16809984
I1014 09:15:38.879892  3949 layer_factory.hpp:77] Creating layer H1
I1014 09:15:38.879928  3949 net.cpp:100] Creating Layer H1
I1014 09:15:38.879940  3949 net.cpp:434] H1 <- data
I1014 09:15:38.879959  3949 net.cpp:408] H1 -> H1
I1014 09:15:38.882602  3949 net.cpp:150] Setting up H1
I1014 09:15:38.882621  3949 net.cpp:157] Top shape: 8192 2048 (16777216)
I1014 09:15:38.882627  3949 net.cpp:165] Memory required for data: 83918848
I1014 09:15:38.882652  3949 layer_factory.hpp:77] Creating layer H1_A
I1014 09:15:38.882673  3949 net.cpp:100] Creating Layer H1_A
I1014 09:15:38.882683  3949 net.cpp:434] H1_A <- H1
I1014 09:15:38.882691  3949 net.cpp:395] H1_A -> H1 (in-place)
I1014 09:15:38.882714  3949 net.cpp:150] Setting up H1_A
I1014 09:15:38.882725  3949 net.cpp:157] Top shape: 8192 2048 (16777216)
I1014 09:15:38.882730  3949 net.cpp:165] Memory required for data: 151027712
I1014 09:15:38.882736  3949 layer_factory.hpp:77] Creating layer H2
I1014 09:15:38.882745  3949 net.cpp:100] Creating Layer H2
I1014 09:15:38.882751  3949 net.cpp:434] H2 <- H1
I1014 09:15:38.882761  3949 net.cpp:408] H2 -> H2
I1014 09:15:38.890674  3949 net.cpp:150] Setting up H2
I1014 09:15:38.890717  3949 net.cpp:157] Top shape: 8192 2048 (16777216)
I1014 09:15:38.890723  3949 net.cpp:165] Memory required for data: 218136576
I1014 09:15:38.890748  3949 layer_factory.hpp:77] Creating layer H2_A
I1014 09:15:38.890805  3949 net.cpp:100] Creating Layer H2_A
I1014 09:15:38.890820  3949 net.cpp:434] H2_A <- H2
I1014 09:15:38.890842  3949 net.cpp:395] H2_A -> H2 (in-place)
I1014 09:15:38.890868  3949 net.cpp:150] Setting up H2_A
I1014 09:15:38.890882  3949 net.cpp:157] Top shape: 8192 2048 (16777216)
I1014 09:15:38.890898  3949 net.cpp:165] Memory required for data: 285245440
I1014 09:15:38.890909  3949 layer_factory.hpp:77] Creating layer H3
I1014 09:15:38.890921  3949 net.cpp:100] Creating Layer H3
I1014 09:15:38.890933  3949 net.cpp:434] H3 <- H2
I1014 09:15:38.890955  3949 net.cpp:408] H3 -> H3
I1014 09:15:38.898830  3949 net.cpp:150] Setting up H3
I1014 09:15:38.898869  3949 net.cpp:157] Top shape: 8192 2048 (16777216)
I1014 09:15:38.898876  3949 net.cpp:165] Memory required for data: 352354304
I1014 09:15:38.898900  3949 layer_factory.hpp:77] Creating layer H3_A
I1014 09:15:38.898922  3949 net.cpp:100] Creating Layer H3_A
I1014 09:15:38.898942  3949 net.cpp:434] H3_A <- H3
I1014 09:15:38.898965  3949 net.cpp:395] H3_A -> H3 (in-place)
I1014 09:15:38.898999  3949 net.cpp:150] Setting up H3_A
I1014 09:15:38.899013  3949 net.cpp:157] Top shape: 8192 2048 (16777216)
I1014 09:15:38.899035  3949 net.cpp:165] Memory required for data: 419463168
I1014 09:15:38.899042  3949 layer_factory.hpp:77] Creating layer H4
I1014 09:15:38.899054  3949 net.cpp:100] Creating Layer H4
I1014 09:15:38.899060  3949 net.cpp:434] H4 <- H3
I1014 09:15:38.899070  3949 net.cpp:408] H4 -> H4
I1014 09:15:38.906841  3949 net.cpp:150] Setting up H4
I1014 09:15:38.906882  3949 net.cpp:157] Top shape: 8192 2048 (16777216)
I1014 09:15:38.906888  3949 net.cpp:165] Memory required for data: 486572032
I1014 09:15:38.906901  3949 layer_factory.hpp:77] Creating layer H4_A
I1014 09:15:38.906935  3949 net.cpp:100] Creating Layer H4_A
I1014 09:15:38.906952  3949 net.cpp:434] H4_A <- H4
I1014 09:15:38.906975  3949 net.cpp:395] H4_A -> H4 (in-place)
I1014 09:15:38.906992  3949 net.cpp:150] Setting up H4_A
I1014 09:15:38.907008  3949 net.cpp:157] Top shape: 8192 2048 (16777216)
I1014 09:15:38.907018  3949 net.cpp:165] Memory required for data: 553680896
I1014 09:15:38.907033  3949 layer_factory.hpp:77] Creating layer H5
I1014 09:15:38.907049  3949 net.cpp:100] Creating Layer H5
I1014 09:15:38.907058  3949 net.cpp:434] H5 <- H4
I1014 09:15:38.907071  3949 net.cpp:408] H5 -> H5
I1014 09:15:38.914796  3949 net.cpp:150] Setting up H5
I1014 09:15:38.914835  3949 net.cpp:157] Top shape: 8192 2048 (16777216)
I1014 09:15:38.914845  3949 net.cpp:165] Memory required for data: 620789760
I1014 09:15:38.914870  3949 layer_factory.hpp:77] Creating layer H5_A
I1014 09:15:38.914913  3949 net.cpp:100] Creating Layer H5_A
I1014 09:15:38.914923  3949 net.cpp:434] H5_A <- H5
I1014 09:15:38.914949  3949 net.cpp:395] H5_A -> H5 (in-place)
I1014 09:15:38.914978  3949 net.cpp:150] Setting up H5_A
I1014 09:15:38.914993  3949 net.cpp:157] Top shape: 8192 2048 (16777216)
I1014 09:15:38.915006  3949 net.cpp:165] Memory required for data: 687898624
I1014 09:15:38.915014  3949 layer_factory.hpp:77] Creating layer H6
I1014 09:15:38.915032  3949 net.cpp:100] Creating Layer H6
I1014 09:15:38.915045  3949 net.cpp:434] H6 <- H5
I1014 09:15:38.915055  3949 net.cpp:408] H6 -> H6
I1014 09:15:38.923049  3949 net.cpp:150] Setting up H6
I1014 09:15:38.923087  3949 net.cpp:157] Top shape: 8192 2048 (16777216)
I1014 09:15:38.923099  3949 net.cpp:165] Memory required for data: 755007488
I1014 09:15:38.923115  3949 layer_factory.hpp:77] Creating layer H6_A
I1014 09:15:38.923130  3949 net.cpp:100] Creating Layer H6_A
I1014 09:15:38.923141  3949 net.cpp:434] H6_A <- H6
I1014 09:15:38.923162  3949 net.cpp:395] H6_A -> H6 (in-place)
I1014 09:15:38.923192  3949 net.cpp:150] Setting up H6_A
I1014 09:15:38.923205  3949 net.cpp:157] Top shape: 8192 2048 (16777216)
I1014 09:15:38.923213  3949 net.cpp:165] Memory required for data: 822116352
I1014 09:15:38.923223  3949 layer_factory.hpp:77] Creating layer L
I1014 09:15:38.923234  3949 net.cpp:100] Creating Layer L
I1014 09:15:38.923267  3949 net.cpp:434] L <- H6
I1014 09:15:38.923281  3949 net.cpp:408] L -> L
I1014 09:15:38.927525  3949 net.cpp:150] Setting up L
I1014 09:15:38.927556  3949 net.cpp:157] Top shape: 8192 1000 (8192000)
I1014 09:15:38.927577  3949 net.cpp:165] Memory required for data: 854884352
I1014 09:15:38.927597  3949 layer_factory.hpp:77] Creating layer loss
I1014 09:15:38.927618  3949 net.cpp:100] Creating Layer loss
I1014 09:15:38.927640  3949 net.cpp:434] loss <- L
I1014 09:15:38.927654  3949 net.cpp:434] loss <- label
I1014 09:15:38.927678  3949 net.cpp:408] loss -> loss
I1014 09:15:38.927714  3949 layer_factory.hpp:77] Creating layer loss
…
