I0912 20:03:48.145226 27373 caffe.cpp:343] Use GPU with device ID 0
I0912 20:03:49.292843 27373 net.cpp:58] Initializing net from parameters: 
name: "ResNet-50"
state {
  phase: TRAIN
  level: 0
  stage: ""
}
layer {
  name: "data"
  type: "Data"
  top: "data"
  top: "label"
  include {
    phase: TRAIN
  }
  data_param {
    source: "cnn/fake_image_net.lmdb"
    batch_size: 16
    backend: LMDB
  }
}
layer {
  name: "conv1"
  type: "Convolution"
  bottom: "data"
  top: "conv1"
  convolution_param {
    num_output: 64
    kernel_size: 7
    stride: 2
  }
}
layer {
  name: "bn_conv1"
  type: "BatchNorm"
  bottom: "conv1"
  top: "conv1"
  batch_norm_param {
    use_global_stats: true
  }
}
layer {
  name: "scale_conv1"
  type: "Scale"
  bottom: "conv1"
  top: "conv1"
  scale_param {
    bias_term: true
  }
}
layer {
  name: "conv1_relu"
  type: "ReLU"
  bottom: "conv1"
  top: "conv1"
}
layer {
  name: "pool1"
  type: "Pooling"
  bottom: "conv1"
  top: "pool1"
  pooling_param {
    pool: MAX
    kernel_size: 3
    stride: 2
  }
}
layer {
  name: "res2a_branch1"
  type: "Convolution"
  bottom: "pool1"
  top: "res2a_branch1"
  convolution_param {
    num_output: 256
    bias_term: false
    pad: 0
    kernel_size: 1
    stride: 1
  }
}
layer {
  name: "bn2a_branch1"
  type: "BatchNorm"
  bottom: "res2a_branch1"
  top: "res2a_branch1"
  batch_norm_param {
    use_global_stats: true
  }
}
layer {
  name: "scale2a_branch1"
  type: "Scale"
  bottom: "res2a_branch1"
  top: "res2a_branch1"
  scale_param {
    bias_term: true
  }
}
layer {
  name: "res2a_branch2a"
  type: "Convolution"
  bottom: "pool1"
  top: "res2a_branch2a"
  convolution_param {
    num_output: 64
    bias_term: false
    pad: 0
    kernel_size: 1
    stride: 1
  }
}
layer {
  name: "bn2a_branch2a"
  type: "BatchNorm"
  bottom: "res2a_branch2a"
  top: "res2a_branch2a"
  batch_norm_param {
    use_global_stats: true
  }
}
layer {
  name: "scale2a_branch2a"
  type: "Scale"
  bottom: "res2a_branch2a"
  top: "res2a_branch2a"
  scale_param {
    bias_term: true
  }
}
layer {
  name: "res2a_branch2a_relu"
  type: "ReLU"
  bottom: "res2a_branch2a"
  top: "res2a_branch2a"
}
layer {
  name: "res2a_branch2b"
  type: "Convolution"
  bottom: "res2a_branch2a"
  top: "res2a_branch2b"
  convolution_param {
    num_output: 64
    bias_term: false
    pad: 1
    kernel_size: 3
    stride: 1
  }
}
layer {
  name: "bn2a_branch2b"
  type: "BatchNorm"
  bottom: "res2a_branch2b"
  top: "res2a_branch2b"
  batch_norm_param {
    use_global_stats: true
  }
}
layer {
  name: "scale2a_branch2b"
  type: "Scale"
  bottom: "res2a_branch2b"
  top: "res2a_branch2b"
  scale_param {
    bias_term: true
  }
}
layer {
  name: "res2a_branch2b_relu"
  type: "ReLU"
  bottom: "res2a_branch2b"
  top: "res2a_branch2b"
}
layer {
  name: "res2a_branch2c"
  type: "Convolution"
  bottom: "res2a_branch2b"
  top: "res2a_branch2c"
  convolution_param {
    num_output: 256
    bias_term: false
    pad: 0
    kernel_size: 1
    stride: 1
  }
}
layer {
  name: "bn2a_branch2c"
  type: "BatchNorm"
  bottom: "res2a_branch2c"
  top: "res2a_branch2c"
  batch_norm_param {
    use_global_stats: true
  }
}
layer {
  name: "scale2a_branch2c"
  type: "Scale"
  bottom: "res2a_branch2c"
  top: "res2a_branch2c"
  scale_param {
    bias_term: true
  }
}
layer {
  name: "res2a"
  type: "Eltwise"
  bottom: "res2a_branch1"
  bottom: "res2a_branch2c"
  top: "res2a"
}
layer {
  name: "res2a_relu"
  type: "ReLU"
  bottom: "res2a"
  top: "res2a"
}
layer {
  name: "res2b_branch2a"
  type: "Convolution"
  bottom: "res2a"
  top: "res2b_branch2a"
  convolution_param {
    num_output: 64
    bias_term: false
    pad: 0
    kernel_size: 1
    stride: 1
  }
}
layer {
  name: "bn2b_branch2a"
  type: "BatchNorm"
  bottom: "res2b_branch2a"
  top: "res2b_branch2a"
  batch_norm_param {
    use_global_stats: true
  }
}
layer {
  name: "scale2b_branch2a"
  type: "Scale"
  bottom: "res2b_branch2a"
  top: "res2b_branch2a"
  scale_param {
    bias_term: true
  }
}
layer {
  name: "res2b_branch2a_relu"
  type: "ReLU"
  bottom: "res2b_branch2a"
  top: "res2b_branch2a"
}
layer {
  name: "res2b_branch2b"
  type: "Convolution"
  bottom: "res2b_branch2a"
  top: "res2b_branch2b"
  convolution_param {
    num_output: 64
    bias_term: false
    pad: 1
    kernel_size: 3
    stride: 1
  }
}
layer {
  name: "bn2b_branch2b"
  type: "BatchNorm"
  bottom: "res2b_branch2b"
  top: "res2b_branch2b"
  batch_norm_param {
    use_global_stats: true
  }
}
layer {
  name: "scale2b_branch2b"
  type: "Scale"
  bottom: "res2b_branch2b"
  top: "res2b_branch2b"
  scale_param {
    bias_term: true
  }
}
layer {
  name: "res2b_branch2b_relu"
  type: "ReLU"
  bottom: "res2b_branch2b"
  top: "res2b_branch2b"
}
layer {
  name: "res2b_branch2c"
  type: "Convolution"
  bottom: "res2b_branch2b"
  top: "res2b_branch2c"
  convolution_param {
    num_output: 256
    bias_term: false
    pad: 0
    kernel_size: 1
    stride: 1
  }
}
layer {
  name: "bn2b_branch2c"
  type: "BatchNorm"
  bottom: "res2b_branch2c"
  top: "res2b_branch2c"
  batch_norm_param {
    use_global_stats: true
  }
}
layer {
  name: "scale2b_branch2c"
  type: "Scale"
  bottom: "res2b_branch2c"
  top: "res2b_branch2c"
  scale_param {
    bias_term: true
  }
}
layer {
  name: "res2b"
  type: "Eltwise"
  bottom: "res2a"
  bottom: "res2b_branch2c"
  top: "res2b"
}
layer {
  name: "res2b_relu"
  type: "ReLU"
  bottom: "res2b"
  top: "res2b"
}
layer {
  name: "res2c_branch2a"
  type: "Convolution"
  bottom: "res2b"
  top: "res2c_branch2a"
  convolution_param {
    num_output: 64
    bias_term: false
    pad: 0
    kernel_size: 1
    stride: 1
  }
}
layer {
  name: "bn2c_branch2a"
  type: "BatchNorm"
  bottom: "res2c_branch2a"
  top: "res2c_branch2a"
  batch_norm_param {
    use_global_stats: true
  }
}
layer {
  name: "scale2c_branch2a"
  type: "Scale"
  bottom: "res2c_branch2a"
  top: "res2c_branch2a"
  scale_param {
    bias_term: true
  }
}
layer {
  name: "res2c_branch2a_relu"
  type: "ReLU"
  bottom: "res2c_branch2a"
  top: "res2c_branch2a"
}
layer {
  name: "res2c_branch2b"
  type: "Convolution"
  bottom: "res2c_branch2a"
  top: "res2c_branch2b"
  convolution_param {
    num_output: 64
    bias_term: false
    pad: 1
    kernel_size: 3
    stride: 1
  }
}
layer {
  name: "bn2c_branch2b"
  type: "BatchNorm"
  bottom: "res2c_branch2b"
  top: "res2c_branch2b"
  batch_norm_param {
    use_global_stats: true
  }
}
layer {
  name: "scale2c_branch2b"
  type: "Scale"
  bottom: "res2c_branch2b"
  top: "res2c_branch2b"
  scale_param {
    bias_term: true
  }
}
layer {
  name: "res2c_branch2b_relu"
  type: "ReLU"
  bottom: "res2c_branch2b"
  top: "res2c_branch2b"
}
layer {
  name: "res2c_branch2c"
  type: "Convolution"
  bottom: "res2c_branch2b"
  top: "res2c_branch2c"
  convolution_param {
    num_output: 256
    bias_term: false
    pad: 0
    kernel_size: 1
    stride: 1
  }
}
layer {
  name: "bn2c_branch2c"
  type: "BatchNorm"
  bottom: "res2c_branch2c"
  top: "res2c_branch2c"
  batch_norm_param {
    use_global_stats: true
  }
}
layer {
  name: "scale2c_branch2c"
  type: "Scale"
  bottom: "res2c_branch2c"
  top: "res2c_branch2c"
  scale_param {
    bias_term: true
  }
}
layer {
  name: "res2c"
  type: "Eltwise"
  bottom: "res2b"
  bottom: "res2c_branch2c"
  top: "res2c"
}
layer {
  name: "res2c_relu"
  type: "ReLU"
  bottom: "res2c"
  top: "res2c"
}
layer {
  name: "res3a_branch1"
  type: "Convolution"
  bottom: "res2c"
  top: "res3a_branch1"
  convolution_param {
    num_output: 512
    bias_term: false
    pad: 0
    kernel_size: 1
    stride: 2
  }
}
layer {
  name: "bn3a_branch1"
  type: "BatchNorm"
  bottom: "res3a_branch1"
  top: "res3a_branch1"
  batch_norm_param {
    use_global_stats: true
  }
}
layer {
  name: "scale3a_branch1"
  type: "Scale"
  bottom: "res3a_branch1"
  top: "res3a_branch1"
  scale_param {
    bias_term: true
  }
}
layer {
  name: "res3a_branch2a"
  type: "Convolution"
  bottom: "res2c"
  top: "res3a_branch2a"
  convolution_param {
    num_output: 128
    bias_term: false
    pad: 0
    kernel_size: 1
    stride: 2
  }
}
layer {
  name: "bn3a_branch2a"
  type: "BatchNorm"
  bottom: "res3a_branch2a"
  top: "res3a_branch2a"
  batch_norm_param {
    use_global_stats: true
  }
}
layer {
  name: "scale3a_branch2a"
  type: "Scale"
  bottom: "res3a_branch2a"
  top: "res3a_branch2a"
  scale_param {
    bias_term: true
  }
}
layer {
  name: "res3a_branch2a_relu"
  type: "ReLU"
  bottom: "res3a_branch2a"
  top: "res3a_branch2a"
}
layer {
  name: "res3a_branch2b"
  type: "Convolution"
  bottom: "res3a_branch2a"
  top: "res3a_branch2b"
  convolution_param {
    num_output: 128
    bias_term: false
    pad: 1
    kernel_size: 3
    stride: 1
  }
}
layer {
  name: "bn3a_branch2b"
  type: "BatchNorm"
  bottom: "res3a_branch2b"
  top: "res3a_branch2b"
  batch_norm_param {
    use_global_stats: true
  }
}
layer {
  name: "scale3a_branch2b"
  type: "Scale"
  bottom: "res3a_branch2b"
  top: "res3a_branch2b"
  scale_param {
    bias_term: true
  }
}
layer {
  name: "res3a_branch2b_relu"
  type: "ReLU"
  bottom: "res3a_branch2b"
  top: "res3a_branch2b"
}
layer {
  name: "res3a_branch2c"
  type: "Convolution"
  bottom: "res3a_branch2b"
  top: "res3a_branch2c"
  convolution_param {
    num_output: 512
    bias_term: false
    pad: 0
    kernel_size: 1
    stride: 1
  }
}
layer {
  name: "bn3a_branch2c"
  type: "BatchNorm"
  bottom: "res3a_branch2c"
  top: "res3a_branch2c"
  batch_norm_param {
    use_global_stats: true
  }
}
layer {
  name: "scale3a_branch2c"
  type: "Scale"
  bottom: "res3a_branch2c"
  top: "res3a_branch2c"
  scale_param {
    bias_term: true
  }
}
layer {
  name: "res3a"
  type: "Eltwise"
  bottom: "res3a_branch1"
  bottom: "res3a_branch2c"
  top: "res3a"
}
layer {
  name: "res3a_relu"
  type: "ReLU"
  bottom: "res3a"
  top: "res3a"
}
layer {
  name: "res3b_branch2a"
  type: "Convolution"
  bottom: "res3a"
  top: "res3b_branch2a"
  convolution_param {
    num_output: 128
    bias_term: false
    pad: 0
    kernel_size: 1
    stride: 1
  }
}
layer {
  name: "bn3b_branch2a"
  type: "BatchNorm"
  bottom: "res3b_branch2a"
  top: "res3b_branch2a"
  batch_norm_param {
    use_global_stats: true
  }
}
layer {
  name: "scale3b_branch2a"
  type: "Scale"
  bottom: "res3b_branch2a"
  top: "res3b_branch2a"
  scale_param {
    bias_term: true
  }
}
layer {
  name: "res3b_branch2a_relu"
  type: "ReLU"
  bottom: "res3b_branch2a"
  top: "res3b_branch2a"
}
layer {
  name: "res3b_branch2b"
  type: "Convolution"
  bottom: "res3b_branch2a"
  top: "res3b_branch2b"
  convolution_param {
    num_output: 128
    bias_term: false
    pad: 1
    kernel_size: 3
    stride: 1
  }
}
layer {
  name: "bn3b_branch2b"
  type: "BatchNorm"
  bottom: "res3b_branch2b"
  top: "res3b_branch2b"
  batch_norm_param {
    use_global_stats: true
  }
}
layer {
  name: "scale3b_branch2b"
  type: "Scale"
  bottom: "res3b_branch2b"
  top: "res3b_branch2b"
  scale_param {
    bias_term: true
  }
}
layer {
  name: "res3b_branch2b_relu"
  type: "ReLU"
  bottom: "res3b_branch2b"
  top: "res3b_branch2b"
}
layer {
  name: "res3b_branch2c"
  type: "Convolution"
  bottom: "res3b_branch2b"
  top: "res3b_branch2c"
  convolution_param {
    num_output: 512
    bias_term: false
    pad: 0
    kernel_size: 1
    stride: 1
  }
}
layer {
  name: "bn3b_branch2c"
  type: "BatchNorm"
  bottom: "res3b_branch2c"
  top: "res3b_branch2c"
  batch_norm_param {
    use_global_stats: true
  }
}
layer {
  name: "scale3b_branch2c"
  type: "Scale"
  bottom: "res3b_branch2c"
  top: "res3b_branch2c"
  scale_param {
    bias_term: true
  }
}
layer {
  name: "res3b"
  type: "Eltwise"
  bottom: "res3a"
  bottom: "res3b_branch2c"
  top: "res3b"
}
layer {
  name: "res3b_relu"
  type: "ReLU"
  bottom: "res3b"
  top: "res3b"
}
layer {
  name: "res3c_branch2a"
  type: "Convolution"
  bottom: "res3b"
  top: "res3c_branch2a"
  convolution_param {
    num_output: 128
    bias_term: false
    pad: 0
    kernel_size: 1
    stride: 1
  }
}
layer {
  name: "bn3c_branch2a"
  type: "BatchNorm"
  bottom: "res3c_branch2a"
  top: "res3c_branch2a"
  batch_norm_param {
    use_global_stats: true
  }
}
layer {
  name: "scale3c_branch2a"
  type: "Scale"
  bottom: "res3c_branch2a"
  top: "res3c_branch2a"
  scale_param {
    bias_term: true
  }
}
layer {
  name: "res3c_branch2a_relu"
  type: "ReLU"
  bottom: "res3c_branch2a"
  top: "res3c_branch2a"
}
layer {
  name: "res3c_branch2b"
  type: "Convolution"
  bottom: "res3c_branch2a"
  top: "res3c_branch2b"
  convolution_param {
    num_output: 128
    bias_term: false
    pad: 1
    kernel_size: 3
    stride: 1
  }
}
layer {
  name: "bn3c_branch2b"
  type: "BatchNorm"
  bottom: "res3c_branch2b"
  top: "res3c_branch2b"
  batch_norm_param {
    use_global_stats: true
  }
}
layer {
  name: "scale3c_branch2b"
  type: "Scale"
  bottom: "res3c_branch2b"
  top: "res3c_branch2b"
  scale_param {
    bias_term: true
  }
}
layer {
  name: "res3c_branch2b_relu"
  type: "ReLU"
  bottom: "res3c_branch2b"
  top: "res3c_branch2b"
}
layer {
  name: "res3c_branch2c"
  type: "Convolution"
  bottom: "res3c_branch2b"
  top: "res3c_branch2c"
  convolution_param {
    num_output: 512
    bias_term: false
    pad: 0
    kernel_size: 1
    stride: 1
  }
}
layer {
  name: "bn3c_branch2c"
  type: "BatchNorm"
  bottom: "res3c_branch2c"
  top: "res3c_branch2c"
  batch_norm_param {
    use_global_stats: true
  }
}
layer {
  name: "scale3c_branch2c"
  type: "Scale"
  bottom: "res3c_branch2c"
  top: "res3c_branch2c"
  scale_param {
    bias_term: true
  }
}
layer {
  name: "res3c"
  type: "Eltwise"
  bottom: "res3b"
  bottom: "res3c_branch2c"
  top: "res3c"
}
layer {
  name: "res3c_relu"
  type: "ReLU"
  bottom: "res3c"
  top: "res3c"
}
layer {
  name: "res3d_branch2a"
  type: "Convolution"
  bottom: "res3c"
  top: "res3d_branch2a"
  convolution_param {
    num_output: 128
    bias_term: false
    pad: 0
    kernel_size: 1
    stride: 1
  }
}
layer {
  name: "bn3d_branch2a"
  type: "BatchNorm"
  bottom: "res3d_branch2a"
  top: "res3d_branch2a"
  batch_norm_param {
    use_global_stats: true
  }
}
layer {
  name: "scale3d_branch2a"
  type: "Scale"
  bottom: "res3d_branch2a"
  top: "res3d_branch2a"
  scale_param {
    bias_term: true
  }
}
layer {
  name: "res3d_branch2a_relu"
  type: "ReLU"
  bottom: "res3d_branch2a"
  top: "res3d_branch2a"
}
layer {
  name: "res3d_branch2b"
  type: "Convolution"
  bottom: "res3d_branch2a"
  top: "res3d_branch2b"
  convolution_param {
    num_output: 128
    bias_term: false
    pad: 1
    kernel_size: 3
    stride: 1
  }
}
layer {
  name: "bn3d_branch2b"
  type: "BatchNorm"
  bottom: "res3d_branch2b"
  top: "res3d_branch2b"
  batch_norm_param {
    use_global_stats: true
  }
}
layer {
  name: "scale3d_branch2b"
  type: "Scale"
  bottom: "res3d_branch2b"
  top: "res3d_branch2b"
  scale_param {
    bias_term: true
  }
}
layer {
  name: "res3d_branch2b_relu"
  type: "ReLU"
  bottom: "res3d_branch2b"
  top: "res3d_branch2b"
}
layer {
  name: "res3d_branch2c"
  type: "Convolution"
  bottom: "res3d_branch2b"
  top: "res3d_branch2c"
  convolution_param {
    num_output: 512
    bias_term: false
    pad: 0
    kernel_size: 1
    stride: 1
  }
}
layer {
  name: "bn3d_branch2c"
  type: "BatchNorm"
  bottom: "res3d_branch2c"
  top: "res3d_branch2c"
  batch_norm_param {
    use_global_stats: true
  }
}
layer {
  name: "scale3d_branch2c"
  type: "Scale"
  bottom: "res3d_branch2c"
  top: "res3d_branch2c"
  scale_param {
    bias_term: true
  }
}
layer {
  name: "res3d"
  type: "Eltwise"
  bottom: "res3c"
  bottom: "res3d_branch2c"
  top: "res3d"
}
layer {
  name: "res3d_relu"
  type: "ReLU"
  bottom: "res3d"
  top: "res3d"
}
layer {
  name: "res4a_branch1"
  type: "Convolution"
  bottom: "res3d"
  top: "res4a_branch1"
  convolution_param {
    num_output: 1024
    bias_term: false
    pad: 0
    kernel_size: 1
    stride: 2
  }
}
layer {
  name: "bn4a_branch1"
  type: "BatchNorm"
  bottom: "res4a_branch1"
  top: "res4a_branch1"
  batch_norm_param {
    use_global_stats: true
  }
}
layer {
  name: "scale4a_branch1"
  type: "Scale"
  bottom: "res4a_branch1"
  top: "res4a_branch1"
  scale_param {
    bias_term: true
  }
}
layer {
  name: "res4a_branch2a"
  type: "Convolution"
  bottom: "res3d"
  top: "res4a_branch2a"
  convolution_param {
    num_output: 256
    bias_term: false
    pad: 0
    kernel_size: 1
    stride: 2
  }
}
layer {
  name: "bn4a_branch2a"
  type: "BatchNorm"
  bottom: "res4a_branch2a"
  top: "res4a_branch2a"
  batch_norm_param {
    use_global_stats: true
  }
}
layer {
  name: "scale4a_branch2a"
  type: "Scale"
  bottom: "res4a_branch2a"
  top: "res4a_branch2a"
  scale_param {
    bias_term: true
  }
}
layer {
  name: "res4a_branch2a_relu"
  type: "ReLU"
  bottom: "res4a_branch2a"
  top: "res4a_branch2a"
}
layer {
  name: "res4a_branch2b"
  type: "Convolution"
  bottom: "res4a_branch2a"
  top: "res4a_branch2b"
  convolution_param {
    num_output: 256
    bias_term: false
    pad: 1
    kernel_size: 3
    stride: 1
  }
}
layer {
  name: "bn4a_branch2b"
  type: "BatchNorm"
  bottom: "res4a_branch2b"
  top: "res4a_branch2b"
  batch_norm_param {
    use_global_stats: true
  }
}
layer {
  name: "scale4a_branch2b"
  type: "Scale"
  bottom: "res4a_branch2b"
  top: "res4a_branch2b"
  scale_param {
    bias_term: true
  }
}
layer {
  name: "res4a_branch2b_relu"
  type: "ReLU"
  bottom: "res4a_branch2b"
  top: "res4a_branch2b"
}
layer {
  name: "res4a_branch2c"
  type: "Convolution"
  bottom: "res4a_branch2b"
  top: "res4a_branch2c"
  convolution_param {
    num_output: 1024
    bias_term: false
    pad: 0
    kernel_size: 1
    stride: 1
  }
}
layer {
  name: "bn4a_branch2c"
  type: "BatchNorm"
  bottom: "res4a_branch2c"
  top: "res4a_branch2c"
  batch_norm_param {
    use_global_stats: true
  }
}
layer {
  name: "scale4a_branch2c"
  type: "Scale"
  bottom: "res4a_branch2c"
  top: "res4a_branch2c"
  scale_param {
    bias_term: true
  }
}
layer {
  name: "res4a"
  type: "Eltwise"
  bottom: "res4a_branch1"
  bottom: "res4a_branch2c"
  top: "res4a"
}
layer {
  name: "res4a_relu"
  type: "ReLU"
  bottom: "res4a"
  top: "res4a"
}
layer {
  name: "res4b_branch2a"
  type: "Convolution"
  bottom: "res4a"
  top: "res4b_branch2a"
  convolution_param {
    num_output: 256
    bias_term: false
    pad: 0
    kernel_size: 1
    stride: 1
  }
}
layer {
  name: "bn4b_branch2a"
  type: "BatchNorm"
  bottom: "res4b_branch2a"
  top: "res4b_branch2a"
  batch_norm_param {
    use_global_stats: true
  }
}
layer {
  name: "scale4b_branch2a"
  type: "Scale"
  bottom: "res4b_branch2a"
  top: "res4b_branch2a"
  scale_param {
    bias_term: true
  }
}
layer {
  name: "res4b_branch2a_relu"
  type: "ReLU"
  bottom: "res4b_branch2a"
  top: "res4b_branch2a"
}
layer {
  name: "res4b_branch2b"
  type: "Convolution"
  bottom: "res4b_branch2a"
  top: "res4b_branch2b"
  convolution_param {
    num_output: 256
    bias_term: false
    pad: 1
    kernel_size: 3
    stride: 1
  }
}
layer {
  name: "bn4b_branch2b"
  type: "BatchNorm"
  bottom: "res4b_branch2b"
  top: "res4b_branch2b"
  batch_norm_param {
    use_global_stats: true
  }
}
layer {
  name: "scale4b_branch2b"
  type: "Scale"
  bottom: "res4b_branch2b"
  top: "res4b_branch2b"
  scale_param {
    bias_term: true
  }
}
layer {
  name: "res4b_branch2b_relu"
  type: "ReLU"
  bottom: "res4b_branch2b"
  top: "res4b_branch2b"
}
layer {
  name: "res4b_branch2c"
  type: "Convolution"
  bottom: "res4b_branch2b"
  top: "res4b_branch2c"
  convolution_param {
    num_output: 1024
    bias_term: false
    pad: 0
    kernel_size: 1
    stride: 1
  }
}
layer {
  name: "bn4b_branch2c"
  type: "BatchNorm"
  bottom: "res4b_branch2c"
  top: "res4b_branch2c"
  batch_norm_param {
    use_global_stats: true
  }
}
layer {
  name: "scale4b_branch2c"
  type: "Scale"
  bottom: "res4b_branch2c"
  top: "res4b_branch2c"
  scale_param {
    bias_term: true
  }
}
layer {
  name: "res4b"
  type: "Eltwise"
  bottom: "res4a"
  bottom: "res4b_branch2c"
  top: "res4b"
}
layer {
  name: "res4b_relu"
  type: "ReLU"
  bottom: "res4b"
  top: "res4b"
}
layer {
  name: "res4c_branch2a"
  type: "Convolution"
  bottom: "res4b"
  top: "res4c_branch2a"
  convolution_param {
    num_output: 256
    bias_term: false
    pad: 0
    kernel_size: 1
    stride: 1
  }
}
layer {
  name: "bn4c_branch2a"
  type: "BatchNorm"
  bottom: "res4c_branch2a"
  top: "res4c_branch2a"
  batch_norm_param {
    use_global_stats: true
  }
}
layer {
  name: "scale4c_branch2a"
  type: "Scale"
  bottom: "res4c_branch2a"
  top: "res4c_branch2a"
  scale_param {
    bias_term: true
  }
}
layer {
  name: "res4c_branch2a_relu"
  type: "ReLU"
  bottom: "res4c_branch2a"
  top: "res4c_branch2a"
}
layer {
  name: "res4c_branch2b"
  type: "Convolution"
  bottom: "res4c_branch2a"
  top: "res4c_branch2b"
  convolution_param {
    num_output: 256
    bias_term: false
    pad: 1
    kernel_size: 3
    stride: 1
  }
}
layer {
  name: "bn4c_branch2b"
  type: "BatchNorm"
  bottom: "res4c_branch2b"
  top: "res4c_branch2b"
  batch_norm_param {
    use_global_stats: true
  }
}
layer {
  name: "scale4c_branch2b"
  type: "Scale"
  bottom: "res4c_branch2b"
  top: "res4c_branch2b"
  scale_param {
    bias_term: true
  }
}
layer {
  name: "res4c_branch2b_relu"
  type: "ReLU"
  bottom: "res4c_branch2b"
  top: "res4c_branch2b"
}
layer {
  name: "res4c_branch2c"
  type: "Convolution"
  bottom: "res4c_branch2b"
  top: "res4c_branch2c"
  convolution_param {
    num_output: 1024
    bias_term: false
    pad: 0
    kernel_size: 1
    stride: 1
  }
}
layer {
  name: "bn4c_branch2c"
  type: "BatchNorm"
  bottom: "res4c_branch2c"
  top: "res4c_branch2c"
  batch_norm_param {
    use_global_stats: true
  }
}
layer {
  name: "scale4c_branch2c"
  type: "Scale"
  bottom: "res4c_branch2c"
  top: "res4c_branch2c"
  scale_param {
    bias_term: true
  }
}
layer {
  name: "res4c"
  type: "Eltwise"
  bottom: "res4b"
  bottom: "res4c_branch2c"
  top: "res4c"
}
layer {
  name: "res4c_relu"
  type: "ReLU"
  bottom: "res4c"
  top: "res4c"
}
layer {
  name: "res4d_branch2a"
  type: "Convolution"
  bottom: "res4c"
  top: "res4d_branch2a"
  convolution_param {
    num_output: 256
    bias_term: false
    pad: 0
    kernel_size: 1
    stride: 1
  }
}
layer {
  name: "bn4d_branch2a"
  type: "BatchNorm"
  bottom: "res4d_branch2a"
  top: "res4d_branch2a"
  batch_norm_param {
    use_global_stats: true
  }
}
layer {
  name: "scale4d_branch2a"
  type: "Scale"
  bottom: "res4d_branch2a"
  top: "res4d_branch2a"
  scale_param {
    bias_term: true
  }
}
layer {
  name: "res4d_branch2a_relu"
  type: "ReLU"
  bottom: "res4d_branch2a"
  top: "res4d_branch2a"
}
layer {
  name: "res4d_branch2b"
  type: "Convolution"
  bottom: "res4d_branch2a"
  top: "res4d_branch2b"
  convolution_param {
    num_output: 256
    bias_term: false
    pad: 1
    kernel_size: 3
    stride: 1
  }
}
layer {
  name: "bn4d_branch2b"
  type: "BatchNorm"
  bottom: "res4d_branch2b"
  top: "res4d_branch2b"
  batch_norm_param {
    use_global_stats: true
  }
}
layer {
  name: "scale4d_branch2b"
  type: "Scale"
  bottom: "res4d_branch2b"
  top: "res4d_branch2b"
  scale_param {
    bias_term: true
  }
}
layer {
  name: "res4d_branch2b_relu"
  type: "ReLU"
  bottom: "res4d_branch2b"
  top: "res4d_branch2b"
}
layer {
  name: "res4d_branch2c"
  type: "Convolution"
  bottom: "res4d_branch2b"
  top: "res4d_branch2c"
  convolution_param {
    num_output: 1024
    bias_term: false
    pad: 0
    kernel_size: 1
    stride: 1
  }
}
layer {
  name: "bn4d_branch2c"
  type: "BatchNorm"
  bottom: "res4d_branch2c"
  top: "res4d_branch2c"
  batch_norm_param {
    use_global_stats: true
  }
}
layer {
  name: "scale4d_branch2c"
  type: "Scale"
  bottom: "res4d_branch2c"
  top: "res4d_branch2c"
  scale_param {
    bias_term: true
  }
}
layer {
  name: "res4d"
  type: "Eltwise"
  bottom: "res4c"
  bottom: "res4d_branch2c"
  top: "res4d"
}
layer {
  name: "res4d_relu"
  type: "ReLU"
  bottom: "res4d"
  top: "res4d"
}
layer {
  name: "res4e_branch2a"
  type: "Convolution"
  bottom: "res4d"
  top: "res4e_branch2a"
  convolution_param {
    num_output: 256
    bias_term: false
    pad: 0
    kernel_size: 1
    stride: 1
  }
}
layer {
  name: "bn4e_branch2a"
  type: "BatchNorm"
  bottom: "res4e_branch2a"
  top: "res4e_branch2a"
  batch_norm_param {
    use_global_stats: true
  }
}
layer {
  name: "scale4e_branch2a"
  type: "Scale"
  bottom: "res4e_branch2a"
  top: "res4e_branch2a"
  scale_param {
    bias_term: true
  }
}
layer {
  name: "res4e_branch2a_relu"
  type: "ReLU"
  bottom: "res4e_branch2a"
  top: "res4e_branch2a"
}
layer {
  name: "res4e_branch2b"
  type: "Convolution"
  bottom: "res4e_branch2a"
  top: "res4e_branch2b"
  convolution_param {
    num_output: 256
    bias_term: false
    pad: 1
    kernel_size: 3
    stride: 1
  }
}
layer {
  name: "bn4e_branch2b"
  type: "BatchNorm"
  bottom: "res4e_branch2b"
  top: "res4e_branch2b"
  batch_norm_param {
    use_global_stats: true
  }
}
layer {
  name: "scale4e_branch2b"
  type: "Scale"
  bottom: "res4e_branch2b"
  top: "res4e_branch2b"
  scale_param {
    bias_term: true
  }
}
layer {
  name: "res4e_branch2b_relu"
  type: "ReLU"
  bottom: "res4e_branch2b"
  top: "res4e_branch2b"
}
layer {
  name: "res4e_branch2c"
  type: "Convolution"
  bottom: "res4e_branch2b"
  top: "res4e_branch2c"
  convolution_param {
    num_output: 1024
    bias_term: false
    pad: 0
    kernel_size: 1
    stride: 1
  }
}
layer {
  name: "bn4e_branch2c"
  type: "BatchNorm"
  bottom: "res4e_branch2c"
  top: "res4e_branch2c"
  batch_norm_param {
    use_global_stats: true
  }
}
layer {
  name: "scale4e_branch2c"
  type: "Scale"
  bottom: "res4e_branch2c"
  top: "res4e_branch2c"
  scale_param {
    bias_term: true
  }
}
layer {
  name: "res4e"
  type: "Eltwise"
  bottom: "res4d"
  bottom: "res4e_branch2c"
  top: "res4e"
}
layer {
  name: "res4e_relu"
  type: "ReLU"
  bottom: "res4e"
  top: "res4e"
}
layer {
  name: "res4f_branch2a"
  type: "Convolution"
  bottom: "res4e"
  top: "res4f_branch2a"
  convolution_param {
    num_output: 256
    bias_term: false
    pad: 0
    kernel_size: 1
    stride: 1
  }
}
layer {
  name: "bn4f_branch2a"
  type: "BatchNorm"
  bottom: "res4f_branch2a"
  top: "res4f_branch2a"
  batch_norm_param {
    use_global_stats: true
  }
}
layer {
  name: "scale4f_branch2a"
  type: "Scale"
  bottom: "res4f_branch2a"
  top: "res4f_branch2a"
  scale_param {
    bias_term: true
  }
}
layer {
  name: "res4f_branch2a_relu"
  type: "ReLU"
  bottom: "res4f_branch2a"
  top: "res4f_branch2a"
}
layer {
  name: "res4f_branch2b"
  type: "Convolution"
  bottom: "res4f_branch2a"
  top: "res4f_branch2b"
  convolution_param {
    num_output: 256
    bias_term: false
    pad: 1
    kernel_size: 3
    stride: 1
  }
}
layer {
  name: "bn4f_branch2b"
  type: "BatchNorm"
  bottom: "res4f_branch2b"
  top: "res4f_branch2b"
  batch_norm_param {
    use_global_stats: true
  }
}
layer {
  name: "scale4f_branch2b"
  type: "Scale"
  bottom: "res4f_branch2b"
  top: "res4f_branch2b"
  scale_param {
    bias_term: true
  }
}
layer {
  name: "res4f_branch2b_relu"
  type: "ReLU"
  bottom: "res4f_branch2b"
  top: "res4f_branch2b"
}
layer {
  name: "res4f_branch2c"
  type: "Convolution"
  bottom: "res4f_branch2b"
  top: "res4f_branch2c"
  convolution_param {
    num_output: 1024
    bias_term: false
    pad: 0
    kernel_size: 1
    stride: 1
  }
}
layer {
  name: "bn4f_branch2c"
  type: "BatchNorm"
  bottom: "res4f_branch2c"
  top: "res4f_branch2c"
  batch_norm_param {
    use_global_stats: true
  }
}
layer {
  name: "scale4f_branch2c"
  type: "Scale"
  bottom: "res4f_branch2c"
  top: "res4f_branch2c"
  scale_param {
    bias_term: true
  }
}
layer {
  name: "res4f"
  type: "Eltwise"
  bottom: "res4e"
  bottom: "res4f_branch2c"
  top: "res4f"
}
layer {
  name: "res4f_relu"
  type: "ReLU"
  bottom: "res4f"
  top: "res4f"
}
layer {
  name: "res5a_branch1"
  type: "Convolution"
  bottom: "res4f"
  top: "res5a_branch1"
  convolution_param {
    num_output: 2048
    bias_term: false
    pad: 0
    kernel_size: 1
    stride: 2
  }
}
layer {
  name: "bn5a_branch1"
  type: "BatchNorm"
  bottom: "res5a_branch1"
  top: "res5a_branch1"
  batch_norm_param {
    use_global_stats: true
  }
}
layer {
  name: "scale5a_branch1"
  type: "Scale"
  bottom: "res5a_branch1"
  top: "res5a_branch1"
  scale_param {
    bias_term: true
  }
}
layer {
  name: "res5a_branch2a"
  type: "Convolution"
  bottom: "res4f"
  top: "res5a_branch2a"
  convolution_param {
    num_output: 512
    bias_term: false
    pad: 0
    kernel_size: 1
    stride: 2
  }
}
layer {
  name: "bn5a_branch2a"
  type: "BatchNorm"
  bottom: "res5a_branch2a"
  top: "res5a_branch2a"
  batch_norm_param {
    use_global_stats: true
  }
}
layer {
  name: "scale5a_branch2a"
  type: "Scale"
  bottom: "res5a_branch2a"
  top: "res5a_branch2a"
  scale_param {
    bias_term: true
  }
}
layer {
  name: "res5a_branch2a_relu"
  type: "ReLU"
  bottom: "res5a_branch2a"
  top: "res5a_branch2a"
}
layer {
  name: "res5a_branch2b"
  type: "Convolution"
  bottom: "res5a_branch2a"
  top: "res5a_branch2b"
  convolution_param {
    num_output: 512
    bias_term: false
    pad: 1
    kernel_size: 3
    stride: 1
  }
}
layer {
  name: "bn5a_branch2b"
  type: "BatchNorm"
  bottom: "res5a_branch2b"
  top: "res5a_branch2b"
  batch_norm_param {
    use_global_stats: true
  }
}
layer {
  name: "scale5a_branch2b"
  type: "Scale"
  bottom: "res5a_branch2b"
  top: "res5a_branch2b"
  scale_param {
    bias_term: true
  }
}
layer {
  name: "res5a_branch2b_relu"
  type: "ReLU"
  bottom: "res5a_branch2b"
  top: "res5a_branch2b"
}
layer {
  name: "res5a_branch2c"
  type: "Convolution"
  bottom: "res5a_branch2b"
  top: "res5a_branch2c"
  convolution_param {
    num_output: 2048
    bias_term: false
    pad: 0
    kernel_size: 1
    stride: 1
  }
}
layer {
  name: "bn5a_branch2c"
  type: "BatchNorm"
  bottom: "res5a_branch2c"
  top: "res5a_branch2c"
  batch_norm_param {
    use_global_stats: true
  }
}
layer {
  name: "scale5a_branch2c"
  type: "Scale"
  bottom: "res5a
I0912 20:03:49.293889 27373 layer_factory.hpp:77] Creating layer data
I0912 20:03:49.294505 27373 net.cpp:100] Creating Layer data
I0912 20:03:49.294524 27373 net.cpp:408] data -> data
I0912 20:03:49.294554 27373 net.cpp:408] data -> label
I0912 20:03:49.295393 27378 db_lmdb.cpp:35] Opened lmdb cnn/fake_image_net.lmdb
I0912 20:03:49.307989 27373 data_layer.cpp:41] output data size: 16,3,224,224
I0912 20:03:49.321430 27373 net.cpp:150] Setting up data
I0912 20:03:49.321480 27373 net.cpp:157] Top shape: 16 3 224 224 (2408448)
I0912 20:03:49.321485 27373 net.cpp:157] Top shape: 16 (16)
I0912 20:03:49.321487 27373 net.cpp:165] Memory required for data: 9633856
I0912 20:03:49.321499 27373 layer_factory.hpp:77] Creating layer conv1
I0912 20:03:49.321529 27373 net.cpp:100] Creating Layer conv1
I0912 20:03:49.321538 27373 net.cpp:434] conv1 <- data
I0912 20:03:49.321553 27373 net.cpp:408] conv1 -> conv1
I0912 20:03:49.322412 27373 net.cpp:150] Setting up conv1
I0912 20:03:49.322429 27373 net.cpp:157] Top shape: 16 64 109 109 (12166144)
I0912 20:03:49.322433 27373 net.cpp:165] Memory required for data: 58298432
I0912 20:03:49.322448 27373 layer_factory.hpp:77] Creating layer bn_conv1
I0912 20:03:49.322468 27373 net.cpp:100] Creating Layer bn_conv1
I0912 20:03:49.322475 27373 net.cpp:434] bn_conv1 <- conv1
I0912 20:03:49.322485 27373 net.cpp:395] bn_conv1 -> conv1 (in-place)
I0912 20:03:49.322662 27373 net.cpp:150] Setting up bn_conv1
I0912 20:03:49.322676 27373 net.cpp:157] Top shape: 16 64 109 109 (12166144)
I0912 20:03:49.322679 27373 net.cpp:165] Memory required for data: 106963008
I0912 20:03:49.322695 27373 layer_factory.hpp:77] Creating layer scale_conv1
I0912 20:03:49.322707 27373 net.cpp:100] Creating Layer scale_conv1
I0912 20:03:49.322713 27373 net.cpp:434] scale_conv1 <- conv1
I0912 20:03:49.322721 27373 net.cpp:395] scale_conv1 -> conv1 (in-place)
I0912 20:03:49.322783 27373 layer_factory.hpp:77] Creating layer scale_conv1
I0912 20:03:49.322927 27373 net.cpp:150] Setting up scale_conv1
I0912 20:03:49.322942 27373 net.cpp:157] Top shape: 16 64 109 109 (12166144)
I0912 20:03:49.322944 27373 net.cpp:165] Memory required for data: 155627584
I0912 20:03:49.322952 27373 layer_factory.hpp:77] Creating layer conv1_relu
I0912 20:03:49.322963 27373 net.cpp:100] Creating Layer conv1_relu
I0912 20:03:49.322968 27373 net.cpp:434] conv1_relu <- conv1
I0912 20:03:49.322978 27373 net.cpp:395] conv1_relu -> conv1 (in-place)
I0912 20:03:49.322988 27373 net.cpp:150] Setting up conv1_relu
I0912 20:03:49.322998 27373 net.cpp:157] Top shape: 16 64 109 109 (12166144)
I0912 20:03:49.323002 27373 net.cpp:165] Memory required for data: 204292160
I0912 20:03:49.323007 27373 layer_factory.hpp:77] Creating layer pool1
I0912 20:03:49.323016 27373 net.cpp:100] Creating Layer pool1
I0912 20:03:49.323045 27373 net.cpp:434] pool1 <- conv1
I0912 20:03:49.323055 27373 net.cpp:408] pool1 -> pool1
I0912 20:03:49.323112 27373 net.cpp:150] Setting up pool1
I0912 20:03:49.323124 27373 net.cpp:157] Top shape: 16 64 54 54 (2985984)
I0912 20:03:49.323127 27373 net.cpp:165] Memory required for data: 216236096
I0912 20:03:49.323132 27373 layer_factory.hpp:77] Creating layer pool1_pool1_0_split
I0912 20:03:49.323139 27373 net.cpp:100] Creating Layer pool1_pool1_0_split
I0912 20:03:49.323144 27373 net.cpp:434] pool1_pool1_0_split <- pool1
I0912 20:03:49.323153 27373 net.cpp:408] pool1_pool1_0_split -> pool1_pool1_0_split_0
I0912 20:03:49.323164 27373 net.cpp:408] pool1_pool1_0_split -> pool1_pool1_0_split_1
I0912 20:03:49.323210 27373 net.cpp:150] Setting up pool1_pool1_0_split
I0912 20:03:49.323221 27373 net.cpp:157] Top shape: 16 64 54 54 (2985984)
I0912 20:03:49.323225 27373 net.cpp:157] Top shape: 16 64 54 54 (2985984)
I0912 20:03:49.323228 27373 net.cpp:165] Memory required for data: 240123968
I0912 20:03:49.323233 27373 layer_factory.hpp:77] Creating layer res2a_branch1
I0912 20:03:49.323245 27373 net.cpp:100] Creating Layer res2a_branch1
I0912 20:03:49.323251 27373 net.cpp:434] res2a_branch1 <- pool1_pool1_0_split_0
I0912 20:03:49.323258 27373 net.cpp:408] res2a_branch1 -> res2a_branch1
I0912 20:03:49.323437 27373 net.cpp:150] Setting up res2a_branch1
I0912 20:03:49.323451 27373 net.cpp:157] Top shape: 16 256 54 54 (11943936)
I0912 20:03:49.323453 27373 net.cpp:165] Memory required for data: 287899712
I0912 20:03:49.323459 27373 layer_factory.hpp:77] Creating layer bn2a_branch1
I0912 20:03:49.323472 27373 net.cpp:100] Creating Layer bn2a_branch1
I0912 20:03:49.323479 27373 net.cpp:434] bn2a_branch1 <- res2a_branch1
I0912 20:03:49.323487 27373 net.cpp:395] bn2a_branch1 -> res2a_branch1 (in-place)
I0912 20:03:49.324214 27373 net.cpp:150] Setting up bn2a_branch1
I0912 20:03:49.324229 27373 net.cpp:157] Top shape: 16 256 54 54 (11943936)
I0912 20:03:49.324232 27373 net.cpp:165] Memory required for data: 335675456
I0912 20:03:49.324242 27373 layer_factory.hpp:77] Creating layer scale2a_branch1
I0912 20:03:49.324251 27373 net.cpp:100] Creating Layer scale2a_branch1
I0912 20:03:49.324255 27373 net.cpp:434] scale2a_branch1 <- res2a_branch1
I0912 20:03:49.324260 27373 net.cpp:395] scale2a_branch1 -> res2a_branch1 (in-place)
I0912 20:03:49.325078 27373 layer_factory.hpp:77] Creating layer scale2a_branch1
I0912 20:03:49.325202 27373 net.cpp:150] Setting up scale2a_branch1
I0912 20:03:49.325215 27373 net.cpp:157] Top shape: 16 256 54 54 (11943936)
I0912 20:03:49.325219 27373 net.cpp:165] Memory required for data: 383451200
I0912 20:03:49.325227 27373 layer_factory.hpp:77] Creating layer res2a_branch2a
I0912 20:03:49.325239 27373 net.cpp:100] Creating Layer res2a_branch2a
I0912 20:03:49.325247 27373 net.cpp:434] res2a_branch2a <- pool1_pool1_0_split_1
I0912 20:03:49.325258 27373 net.cpp:408] res2a_branch2a -> res2a_branch2a
I0912 20:03:49.325414 27373 net.cpp:150] Setting up res2a_branch2a
I0912 20:03:49.325426 27373 net.cpp:157] Top shape: 16 64 54 54 (2985984)
I0912 20:03:49.325429 27373 net.cpp:165] Memory required for data: 395395136
I0912 20:03:49.325434 27373 layer_factory.hpp:77] Creating layer bn2a_branch2a
I0912 20:03:49.325443 27373 net.cpp:100] Creating Layer bn2a_branch2a
I0912 20:03:49.325448 27373 net.cpp:434] bn2a_branch2a <- res2a_branch2a
I0912 20:03:49.325456 27373 net.cpp:395] bn2a_branch2a -> res2a_branch2a (in-place)
I0912 20:03:49.325621 27373 net.cpp:150] Setting up bn2a_branch2a
I0912 20:03:49.325635 27373 net.cpp:157] Top shape: 16 64 54 54 (2985984)
I0912 20:03:49.325639 27373 net.cpp:165] Memory required for data: 407339072
I0912 20:03:49.325654 27373 layer_factory.hpp:77] Creating layer scale2a_branch2a
I0912 20:03:49.325664 27373 net.cpp:100] Creating Layer scale2a_branch2a
I0912 20:03:49.325670 27373 net.cpp:434] scale2a_branch2a <- res2a_branch2a
I0912 20:03:49.325678 27373 net.cpp:395] scale2a_branch2a -> res2a_branch2a (in-place)
I0912 20:03:49.325731 27373 layer_factory.hpp:77] Creating layer scale2a_branch2a
I0912 20:03:49.325865 27373 net.cpp:150] Setting up scale2a_branch2a
I0912 20:03:49.325877 27373 net.cpp:157] Top shape: 16 64 54 54 (2985984)
I0912 20:03:49.325881 27373 net.cpp:165] Memory required for data: 419283008
I0912 20:03:49.325888 27373 layer_factory.hpp:77] Creating layer res2a_branch2a_relu
I0912 20:03:49.325897 27373 net.cpp:100] Creating Layer res2a_branch2a_relu
I0912 20:03:49.325903 27373 net.cpp:434] res2a_branch2a_relu <- res2a_branch2a
I0912 20:03:49.325909 27373 net.cpp:395] res2a_branch2a_relu -> res2a_branch2a (in-place)
I0912 20:03:49.325919 27373 net.cpp:150] Setting up res2a_branch2a_relu
I0912 20:03:49.325927 27373 net.cpp:157] Top shape: 16 64 54 54 (2985984)
I0912 20:03:49.325932 27373 net.cpp:165] Memory required for data: 431226944
I0912 20:03:49.325937 27373 layer_factory.hpp:77] Creating layer res2a_branch2b
I0912 20:03:49.325949 27373 net.cpp:100] Creating Layer res2a_branch2b
I0912 20:03:49.325955 27373 net.cpp:434] res2a_branch2b <- res2a_branch2a
I0912 20:03:49.325965 27373 net.cpp:408] res2a_branch2b -> res2a_branch2b
I0912 20:03:49.326668 27373 net.cpp:150] Setting up res2a_branch2b
I0912 20:03:49.326683 27373 net.cpp:157] Top shape: 16 64 54 54 (2985984)
I0912 20:03:49.326686 27373 net.cpp:165] Memory required for data: 443170880
I0912 20:03:49.326691 27373 layer_factory.hpp:77] Creating layer bn2a_branch2b
I0912 20:03:49.326699 27373 net.cpp:100] Creating Layer bn2a_branch2b
I0912 20:03:49.326702 27373 net.cpp:434] bn2a_branch2b <- res2a_branch2b
I0912 20:03:49.326706 27373 net.cpp:395] bn2a_branch2b -> res2a_branch2b (in-place)
I0912 20:03:49.326887 27373 net.cpp:150] Setting up bn2a_branch2b
I0912 20:03:49.326900 27373 net.cpp:157] Top shape: 16 64 54 54 (2985984)
I0912 20:03:49.326903 27373 net.cpp:165] Memory required for data: 455114816
I0912 20:03:49.326913 27373 layer_factory.hpp:77] Creating layer scale2a_branch2b
I0912 20:03:49.326932 27373 net.cpp:100] Creating Layer scale2a_branch2b
I0912 20:03:49.326938 27373 net.cpp:434] scale2a_branch2b <- res2a_branch2b
I0912 20:03:49.326946 27373 net.cpp:395] scale2a_branch2b -> res2a_branch2b (in-place)
I0912 20:03:49.327000 27373 layer_factory.hpp:77] Creating layer scale2a_branch2b
I0912 20:03:49.327127 27373 net.cpp:150] Setting up scale2a_branch2b
I0912 20:03:49.327141 27373 net.cpp:157] Top shape: 16 64 54 54 (2985984)
I0912 20:03:49.327143 27373 net.cpp:165] Memory required for data: 467058752
I0912 20:03:49.327152 27373 layer_factory.hpp:77] Creating layer res2a_branch2b_relu
I0912 20:03:49.327160 27373 net.cpp:100] Creating Layer res2a_branch2b_relu
I0912 20:03:49.327165 27373 net.cpp:434] res2a_branch2b_relu <- res2a_branch2b
I0912 20:03:49.327175 27373 net.cpp:395] res2a_branch2b_relu -> res2a_branch2b (in-place)
I0912 20:03:49.327185 27373 net.cpp:150] Setting up res2a_branch2b_relu
I0912 20:03:49.327193 27373 net.cpp:157] Top shape: 16 64 54 54 (2985984)
I0912 20:03:49.327198 27373 net.cpp:165] Memory required for data: 479002688
I0912 20:03:49.327203 27373 layer_factory.hpp:77] Creating layer res2a_branch2c
I0912 20:03:49.327214 27373 net.cpp:100] Creating Layer res2a_branch2c
I0912 20:03:49.327219 27373 net.cpp:434] res2a_branch2c <- res2a_branch2b
I0912 20:03:49.327229 27373 net.cpp:408] res2a_branch2c -> res2a_branch2c
I0912 20:03:49.327409 27373 net.cpp:150] Setting up res2a_branch2c
I0912 20:03:49.327421 27373 net.cpp:157] Top shape: 16 256 54 54 (11943936)
I0912 20:03:49.327425 27373 net.cpp:165] Memory required for data: 526778432
I0912 20:03:49.327431 27373 layer_factory.hpp:77] Creating layer bn2a_branch2c
I0912 20:03:49.327441 27373 net.cpp:100] Creating Layer bn2a_branch2c
I0912 20:03:49.327447 27373 net.cpp:434] bn2a_branch2c <- res2a_branch2c
I0912 20:03:49.327455 27373 net.cpp:395] bn2a_branch2c -> res2a_branch2c (in-place)
I0912 20:03:49.327618 27373 net.cpp:150] Setting up bn2a_branch2c
I0912 20:03:49.327631 27373 net.cpp:157] Top shape: 16 256 54 54 (11943936)
I0912 20:03:49.327635 27373 net.cpp:165] Memory required for data: 574554176
I0912 20:03:49.327644 27373 layer_factory.hpp:77] Creating layer scale2a_branch2c
I0912 20:03:49.327668 27373 net.cpp:100] Creating Layer scale2a_branch2c
I0912 20:03:49.327677 27373 net.cpp:434] scale2a_branch2c <- res2a_branch2c
I0912 20:03:49.327687 27373 net.cpp:395] scale2a_branch2c -> res2a_branch2c (in-place)
I0912 20:03:49.327738 27373 layer_factory.hpp:77] Creating layer scale2a_branch2c
I0912 20:03:49.327850 27373 net.cpp:150] Setting up scale2a_branch2c
I0912 20:03:49.327862 27373 net.cpp:157] Top shape: 16 256 54 54 (11943936)
I0912 20:03:49.327865 27373 net.cpp:165] Memory required for data: 622329920
I0912 20:03:49.327873 27373 layer_factory.hpp:77] Creating layer res2a
I0912 20:03:49.327890 27373 net.cpp:100] Creating Layer res2a
I0912 20:03:49.327898 27373 net.cpp:434] res2a <- res2a_branch1
I0912 20:03:49.327905 27373 net.cpp:434] res2a <- res2a_branch2c
I0912 20:03:49.327913 27373 net.cpp:408] res2a -> res2a
I0912 20:03:49.327950 27373 net.cpp:150] Setting up res2a
I0912 20:03:49.327960 27373 net.cpp:157] Top shape: 16 256 54 54 (11943936)
I0912 20:03:49.327965 27373 net.cpp:165] Memory required for data: 670105664
I0912 20:03:49.327967 27373 layer_factory.hpp:77] Creating layer res2a_relu
I0912 20:03:49.327975 27373 net.cpp:100] Creating Layer res2a_relu
I0912 20:03:49.327980 27373 net.cpp:434] res2a_relu <- res2a
I0912 20:03:49.327991 27373 net.cpp:395] res2a_relu -> res2a (in-place)
I0912 20:03:49.327999 27373 net.cpp:150] Setting up res2a_relu
I0912 20:03:49.328007 27373 net.cpp:157] Top shape: 16 256 54 54 (11943936)
I0912 20:03:49.328012 27373 net.cpp:165] Memory required for data: 717881408
I0912 20:03:49.328017 27373 layer_factory.hpp:77] Creating layer res2a_res2a_relu_0_split
I0912 20:03:49.328027 27373 net.cpp:100] Creating Layer res2a_res2a_relu_0_split
I0912 20:03:49.328032 27373 net.cpp:434] res2a_res2a_relu_0_split <- res2a
I0912 20:03:49.328038 27373 net.cpp:408] res2a_res2a_relu_0_split -> res2a_res2a_relu_0_split_0
I0912 20:03:49.328047 27373 net.cpp:408] res2a_res2a_relu_0_split -> res2a_res2a_relu_0_split_1
I0912 20:03:49.328090 27373 net.cpp:150] Setting up res2a_res2a_relu_0_split
I0912 20:03:49.328104 27373 net.cpp:157] Top shape: 16 256 54 54 (11943936)
I0912 20:03:49.328109 27373 net.cpp:157] Top shape: 16 256 54 54 (11943936)
I0912 20:03:49.328111 27373 net.cpp:165] Memory required for data: 813432896
I0912 20:03:49.328115 27373 layer_factory.hpp:77] Creating layer res2b_branch2a
I0912 20:03:49.328128 27373 net.cpp:100] Creating Layer res2b_branch2a
I0912 20:03:49.328135 27373 net.cpp:434] res2b_branch2a <- res2a_res2a_relu_0_split_0
I0912 20:03:49.328143 27373 net.cpp:408] res2b_branch2a -> res2b_branch2a
I0912 20:03:49.328330 27373 net.cpp:150] Setting up res2b_branch2a
I0912 20:03:49.328346 27373 net.cpp:157] Top shape: 16 64 54 54 (2985984)
I0912 20:03:49.328351 27373 net.cpp:165] Memory required for data: 825376832
I0912 20:03:49.328358 27373 layer_factory.hpp:77] Creating layer bn2b_branch2a
I0912 20:03:49.328367 27373 net.cpp:100] Creating Layer bn2b_branch2a
I0912 20:03:49.328372 27373 net.cpp:434] bn2b_branch2a <- res2b_branch2a
I0912 20:03:49.328379 27373 net.cpp:395] bn2b_branch2a -> res2b_branch2a (in-place)
I0912 20:03:49.328547 27373 net.cpp:150] Setting up bn2b_branch2a
I0912 20:03:49.328562 27373 net.cpp:157] Top shape: 16 64 54 54 (2985984)
I0912 20:03:49.328567 27373 net.cpp:165] Memory required for data: 837320768
I0912 20:03:49.328595 27373 layer_factory.hpp:77] Creating layer scale2b_branch2a
I0912 20:03:49.328608 27373 net.cpp:100] Creating Layer scale2b_branch2a
I0912 20:03:49.328614 27373 net.cpp:434] scale2b_branch2a <- res2b_branch2a
I0912 20:03:49.328624 27373 net.cpp:395] scale2b_branch2a -> res2b_branch2a (in-place)
I0912 20:03:49.328676 27373 layer_factory.hpp:77] Creating layer scale2b_branch2a
I0912 20:03:49.328791 27373 net.cpp:150] Setting up scale2b_branch2a
I0912 20:03:49.328807 27373 net.cpp:157] Top shape: 16 64 54 54 (2985984)
I0912 20:03:49.328810 27373 net.cpp:165] Memory required for data: 849264704
I0912 20:03:49.328819 27373 layer_factory.hpp:77] Creating layer res2b_branch2a_relu
I0912 20:03:49.328840 27373 net.cpp:100] Creating Layer res2b_branch2a_relu
I0912 20:03:49.328847 27373 net.cpp:434] res2b_branch2a_relu <- res2b_branch2a
I0912 20:03:49.328858 27373 net.cpp:395] res2b_branch2a_relu -> res2b_branch2a (in-place)
I0912 20:03:49.328868 27373 net.cpp:150] Setting up res2b_branch2a_relu
I0912 20:03:49.328876 27373 net.cpp:157] Top shape: 16 64 54 54 (2985984)
I0912 20:03:49.328881 27373 net.cpp:165] Memory required for data: 861208640
I0912 20:03:49.328886 27373 layer_factory.hpp:77] Creating layer res2b_branch2b
I0912 20:03:49.328897 27373 net.cpp:100] Creating Layer res2b_branch2b
I0912 20:03:49.328904 27373 net.cpp:434] res2b_branch2b <- res2b_branch2a
I0912 20:03:49.328912 27373 net.cpp:408] res2b_branch2b -> res2b_branch2b
I0912 20:03:49.329109 27373 net.cpp:150] Setting up res2b_branch2b
I0912 20:03:49.329123 27373 net.cpp:157] Top shape: 16 64 54 54 (2985984)
I0912 20:03:49.329125 27373 net.cpp:165] Memory required for data: 873152576
I0912 20:03:49.329131 27373 layer_factory.hpp:77] Creating layer bn2b_branch2b
I0912 20:03:49.329139 27373 net.cpp:100] Creating Layer bn2b_branch2b
I0912 20:03:49.329145 27373 net.cpp:434] bn2b_branch2b <- res2b_branch2b
I0912 20:03:49.329154 27373 net.cpp:395] bn2b_branch2b -> res2b_branch2b (in-place)
I0912 20:03:49.329334 27373 net.cpp:150] Setting up bn2b_branch2b
I0912 20:03:49.329345 27373 net.cpp:157] Top shape: 16 64 54 54 (2985984)
I0912 20:03:49.329349 27373 net.cpp:165] Memory required for data: 885096512
I0912 20:03:49.329357 27373 layer_factory.hpp:77] Creating layer scale2b_branch2b
I0912 20:03:49.329367 27373 net.cpp:100] Creating Layer scale2b_branch2b
I0912 20:03:49.329372 27373 net.cpp:434] scale2b_branch2b <- res2b_branch2b
I0912 20:03:49.329382 27373 net.cpp:395] scale2b_branch2b -> res2b_branch2b (in-place)
I0912 20:03:49.329437 27373 layer_factory.hpp:77] Creating layer scale2b_branch2b
I0912 20:03:49.329556 27373 net.cpp:150] Setting up scale2b_branch2b
I0912 20:03:49.329568 27373 net.cpp:157] Top shape: 16 64 54 54 (2985984)
I0912 20:03:49.329571 27373 net.cpp:165] Memory required for data: 897040448
I0912 20:03:49.329579 27373 layer_factory.hpp:77] Creating layer res2b_branch2b_relu
I0912 20:03:49.329587 27373 net.cpp:100] Creating Layer res2b_branch2b_relu
I0912 20:03:49.329593 27373 net.cpp:434] res2b_branch2b_relu <- res2b_branch2b
I0912 20:03:49.329602 27373 net.cpp:395] res2b_branch2b_relu -> res2b_branch2b (in-place)
I0912 20:03:49.329612 27373 net.cpp:150] Setting up res2b_branch2b_relu
I0912 20:03:49.329619 27373 net.cpp:157] Top shape: 16 64 54 54 (2985984)
I0912 20:03:49.329624 27373 net.cpp:165] Memory required for data: 908984384
I0912 20:03:49.329629 27373 layer_factory.hpp:77] Creating layer res2b_branch2c
I0912 20:03:49.329646 27373 net.cpp:100] Creating Layer res2b_branch2c
I0912 20:03:49.329653 27373 net.cpp:434] res2b_branch2c <- res2b_branch2b
I0912 20:03:49.329660 27373 net.cpp:408] res2b_branch2c -> res2b_branch2c
I0912 20:03:49.329846 27373 net.cpp:150] Setting up res2b_branch2c
I0912 20:03:49.329859 27373 net.cpp:157] Top shape: 16 256 54 54 (11943936)
I0912 20:03:49.329862 27373 net.cpp:165] Memory required for data: 956760128
I0912 20:03:49.329869 27373 layer_factory.hpp:77] Creating layer bn2b_branch2c
I0912 20:03:49.329876 27373 net.cpp:100] Creating Layer bn2b_branch2c
I0912 20:03:49.329882 27373 net.cpp:434] bn2b_branch2c <- res2b_branch2c
I0912 20:03:49.329891 27373 net.cpp:395] bn2b_branch2c -> res2b_branch2c (in-place)
I0912 20:03:49.330051 27373 net.cpp:150] Setting up bn2b_branch2c
I0912 20:03:49.330063 27373 net.cpp:157] Top shape: 16 256 54 54 (11943936)
I0912 20:03:49.330066 27373 net.cpp:165] Memory required for data: 1004535872
I0912 20:03:49.330077 27373 layer_factory.hpp:77] Creating layer scale2b_branch2c
I0912 20:03:49.330086 27373 net.cpp:100] Creating Layer scale2b_branch2c
I0912 20:03:49.330092 27373 net.cpp:434] scale2b_branch2c <- res2b_branch2c
I0912 20:03:49.330099 27373 net.cpp:395] scale2b_branch2c -> res2b_branch2c (in-place)
I0912 20:03:49.330152 27373 layer_factory.hpp:77] Creating layer scale2b_branch2c
I0912 20:03:49.330279 27373 net.cpp:150] Setting up scale2b_branch2c
I0912 20:03:49.330292 27373 net.cpp:157] Top shape: 16 256 54 54 (11943936)
I0912 20:03:49.330296 27373 net.cpp:165] Memory required for data: 1052311616
I0912 20:03:49.330303 27373 layer_factory.hpp:77] Creating layer res2b
I0912 20:03:49.330313 27373 net.cpp:100] Creating Layer res2b
I0912 20:03:49.330318 27373 net.cpp:434] res2b <- res2a_res2a_relu_0_split_1
I0912 20:03:49.330325 27373 net.cpp:434] res2b <- res2b_branch2c
I0912 20:03:49.330335 27373 net.cpp:408] res2b -> res2b
I0912 20:03:49.330370 27373 net.cpp:150] Setting up res2b
I0912 20:03:49.330384 27373 net.cpp:157] Top shape: 16 256 54 54 (11943936)
I0912 20:03:49.330386 27373 net.cpp:165] Memory required for data: 1100087360
I0912 20:03:49.330391 27373 layer_factory.hpp:77] Creating layer res2b_relu
I0912 20:03:49.330401 27373 net.cpp:100] Creating Layer res2b_relu
I0912 20:03:49.330407 27373 net.cpp:434] res2b_relu <- res2b
I0912 20:03:49.330415 27373 net.cpp:395] res2b_relu -> res2b (in-place)
I0912 20:03:49.330425 27373 net.cpp:150] Setting up res2b_relu
I0912 20:03:49.330433 27373 net.cpp:157] Top shape: 16 256 54 54 (11943936)
I0912 20:03:49.330438 27373 net.cpp:165] Memory required for data: 1147863104
I0912 20:03:49.330445 27373 layer_factory.hpp:77] Creating layer res2b_res2b_relu_0_split
I0912 20:03:49.330452 27373 net.cpp:100] Creating Layer res2b_res2b_relu_0_split
I0912 20:03:49.330457 27373 net.cpp:434] res2b_res2b_relu_0_split <- res2b
I0912 20:03:49.330463 27373 net.cpp:408] res2b_res2b_relu_0_split -> res2b_res2b_relu_0_split_0
I0912 20:03:49.330472 27373 net.cpp:408] res2b_res2b_relu_0_split -> res2b_res2b_relu_0_split_1
I0912 20:03:49.330518 27373 net.cpp:150] Setting up res2b_res2b_relu_0_split
I0912 20:03:49.330533 27373 net.cpp:157] Top shape: 16 256 54 54 (11943936)
I0912 20:03:49.330541 27373 net.cpp:157] Top shape: 16 256 54 54 (11943936)
I0912 20:03:49.330545 27373 net.cpp:165] Memory required for data: 1243414592
I0912 20:03:49.330551 27373 layer_factory.hpp:77] Creating layer res2c_branch2a
I0912 20:03:49.330564 27373 net.cpp:100] Creating Layer res2c_branch2a
I0912 20:03:49.330569 27373 net.cpp:434] res2c_branch2a <- res2b_res2b_relu_0_split_0
I0912 20:03:49.330579 27373 net.cpp:408] res2c_branch2a -> res2c_branch2a
I0912 20:03:49.330749 27373 net.cpp:150] Setting up res2c_branch2a
I0912 20:03:49.330762 27373 net.cpp:157] Top shape: 16 64 54 54 (2985984)
I0912 20:03:49.330765 27373 net.cpp:165] Memory required for data: 1255358528
I0912 20:03:49.330771 27373 layer_factory.hpp:77] Creating layer bn2c_branch2a
I0912 20:03:49.330781 27373 net.cpp:100] Creating Layer bn2c_branch2a
I0912 20:03:49.330787 27373 net.cpp:434] bn2c_branch2a <- res2c_branch2a
I0912 20:03:49.330795 27373 net.cpp:395] bn2c_branch2a -> res2c_branch2a (in-place)
I0912 20:03:49.330960 27373 net.cpp:150] Setting up bn2c_branch2a
I0912 20:03:49.330976 27373 net.cpp:157] Top shape: 16 64 54 54 (2985984)
I0912 20:03:49.330979 27373 net.cpp:165] Memory required for data: 1267302464
I0912 20:03:49.330991 27373 layer_factory.hpp:77] Creating layer scale2c_branch2a
I0912 20:03:49.331001 27373 net.cpp:100] Creating Layer scale2c_branch2a
I0912 20:03:49.331007 27373 net.cpp:434] scale2c_branch2a <- res2c_branch2a
I0912 20:03:49.331014 27373 net.cpp:395] scale2c_branch2a -> res2c_branch2a (in-place)
I0912 20:03:49.331078 27373 layer_factory.hpp:77] Creating layer scale2c_branch2a
I0912 20:03:49.331198 27373 net.cpp:150] Setting up scale2c_branch2a
I0912 20:03:49.331209 27373 net.cpp:157] Top shape: 16 64 54 54 (2985984)
I0912 20:03:49.331212 27373 net.cpp:165] Memory required for data: 1279246400
I0912 20:03:49.331219 27373 layer_factory.hpp:77] Creating layer res2c_branch2a_relu
I0912 20:03:49.331228 27373 net.cpp:100] Creating Layer res2c_branch2a_relu
I0912 20:03:49.331233 27373 net.cpp:434] res2c_branch2a_relu <- res2c_branch2a
I0912 20:03:49.331243 27373 net.cpp:395] res2c_branch2a_relu -> res2c_branch2a (in-place)
I0912 20:03:49.331254 27373 net.cpp:150] Setting up res2c_branch2a_relu
I0912 20:03:49.331274 27373 net.cpp:157] Top shape: 16 64 54 54 (2985984)
I0912 20:03:49.331280 27373 net.cpp:165] Memory required for data: 1291190336
I0912 20:03:49.331285 27373 layer_factory.hpp:77] Creating layer res2c_branch2b
I0912 20:03:49.331295 27373 net.cpp:100] Creating Layer res2c_branch2b
I0912 20:03:49.331300 27373 net.cpp:434] res2c_branch2b <- res2c_branch2a
I0912 20:03:49.331310 27373 net.cpp:408] res2c_branch2b -> res2c_branch2b
I0912 20:03:49.331514 27373 net.cpp:150] Setting up res2c_branch2b
I0912 20:03:49.331527 27373 net.cpp:157] Top shape: 16 64 54 54 (2985984)
I0912 20:03:49.331531 27373 net.cpp:165] Memory required for data: 1303134272
I0912 20:03:49.331537 27373 layer_factory.hpp:77] Creating layer bn2c_branch2b
I0912 20:03:49.331547 27373 net.cpp:100] Creating Layer bn2c_branch2b
I0912 20:03:49.331552 27373 net.cpp:434] bn2c_branch2b <- res2c_branch2b
I0912 20:03:49.331559 27373 net.cpp:395] bn2c_branch2b -> res2c_branch2b (in-place)
I0912 20:03:49.331723 27373 net.cpp:150] Setting up bn2c_branch2b
I0912 20:03:49.331734 27373 net.cpp:157] Top shape: 16 64 54 54 (2985984)
I0912 20:03:49.331737 27373 net.cpp:165] Memory required for data: 1315078208
I0912 20:03:49.331746 27373 layer_factory.hpp:77] Creating layer scale2c_branch2b
I0912 20:03:49.331758 27373 net.cpp:100] Creating Layer scale2c_branch2b
I0912 20:03:49.331763 27373 net.cpp:434] scale2c_branch2b <- res2c_branch2b
I0912 20:03:49.331771 27373 net.cpp:395] scale2c_branch2b -> res2c_branch2b (in-place)
I0912 20:03:49.331821 27373 layer_factory.hpp:77] Creating layer scale2c_branch2b
I0912 20:03:49.331949 27373 net.cpp:150] Setting up scale2c_branch2b
I0912 20:03:49.331962 27373 net.cpp:157] Top shape: 16 64 54 54 (2985984)
I0912 20:03:49.331966 27373 net.cpp:165] Memory required for data: 1327022144
I0912 20:03:49.331975 27373 layer_factory.hpp:77] Creating layer res2c_branch2b_relu
I0912 20:03:49.331986 27373 net.cpp:100] Creating Layer res2c_branch2b_relu
I0912 20:03:49.331992 27373 net.cpp:434] res2c_branch2b_relu <- res2c_branch2b
I0912 20:03:49.332000 27373 net.cpp:395] res2c_branch2b_relu -> res2c_branch2b (in-place)
I0912 20:03:49.332008 27373 net.cpp:150] Setting up res2c_branch2b_relu
I0912 20:03:49.332017 27373 net.cpp:157] Top shape: 16 64 54 54 (2985984)
I0912 20:03:49.332022 27373 net.cpp:165] Memory required for data: 1338966080
I0912 20:03:49.332027 27373 layer_factory.hpp:77] Creating layer res2c_branch2c
I0912 20:03:49.332039 27373 net.cpp:100] Creating Layer res2c_branch2c
I0912 20:03:49.332046 27373 net.cpp:434] res2c_branch2c <- res2c_branch2b
I0912 20:03:49.332053 27373 net.cpp:408] res2c_branch2c -> res2c_branch2c
I0912 20:03:49.332232 27373 net.cpp:150] Setting up res2c_branch2c
I0912 20:03:49.332245 27373 net.cpp:157] Top shape: 16 256 54 54 (11943936)
I0912 20:03:49.332248 27373 net.cpp:165] Memory required for data: 1386741824
I0912 20:03:49.332254 27373 layer_factory.hpp:77] Creating layer bn2c_branch2c
I0912 20:03:49.332264 27373 net.cpp:100] Creating Layer bn2c_branch2c
I0912 20:03:49.332270 27373 net.cpp:434] bn2c_branch2c <- res2c_branch2c
I0912 20:03:49.332278 27373 net.cpp:395] bn2c_branch2c -> res2c_branch2c (in-place)
I0912 20:03:49.332451 27373 net.cpp:150] Setting up bn2c_branch2c
I0912 20:03:49.332463 27373 net.cpp:157] Top shape: 16 256 54 54 (11943936)
I0912 20:03:49.332466 27373 net.cpp:165] Memory required for data: 1434517568
I0912 20:03:49.332505 27373 layer_factory.hpp:77] Creating layer scale2c_branch2c
I0912 20:03:49.332520 27373 net.cpp:100] Creating Layer scale2c_branch2c
I0912 20:03:49.332525 27373 net.cpp:434] scale2c_branch2c <- res2c_branch2c
I0912 20:03:49.332532 27373 net.cpp:395] scale2c_branch2c -> res2c_branch2c (in-place)
I0912 20:03:49.332597 27373 layer_factory.hpp:77] Creating layer scale2c_branch2c
I0912 20:03:49.332707 27373 net.cpp:150] Setting up scale2c_branch2c
I0912 20:03:49.332718 27373 net.cpp:157] Top shape: 16 256 54 54 (11943936)
I0912 20:03:49.332721 27373 net.cpp:165] Memory required for data: 1482293312
I0912 20:03:49.332729 27373 layer_factory.hpp:77] Creating layer res2c
I0912 20:03:49.332756 27373 net.cpp:100] Creating Layer res2c
I0912 20:03:49.332765 27373 net.cpp:434] res2c <- res2b_res2b_relu_0_split_1
I0912 20:03:49.332772 27373 net.cpp:434] res2c <- res2c_branch2c
I0912 20:03:49.332782 27373 net.cpp:408] res2c -> res2c
I0912 20:03:49.332816 27373 net.cpp:150] Setting up res2c
I0912 20:03:49.332829 27373 net.cpp:157] Top shape: 16 256 54 54 (11943936)
I0912 20:03:49.332833 27373 net.cpp:165] Memory required for data: 1530069056
I0912 20:03:49.332836 27373 layer_factory.hpp:77] Creating layer res2c_relu
I0912 20:03:49.332846 27373 net.cpp:100] Creating Layer res2c_relu
I0912 20:03:49.332852 27373 net.cpp:434] res2c_relu <- res2c
I0912 20:03:49.332860 27373 net.cpp:395] res2c_relu -> res2c (in-place)
I0912 20:03:49.332868 27373 net.cpp:150] Setting up res2c_relu
I0912 20:03:49.332876 27373 net.cpp:157] Top shape: 16 256 54 54 (11943936)
I0912 20:03:49.332881 27373 net.cpp:165] Memory required for data: 1577844800
I0912 20:03:49.332886 27373 layer_factory.hpp:77] Creating layer res2c_res2c_relu_0_split
I0912 20:03:49.332895 27373 net.cpp:100] Creating Layer res2c_res2c_relu_0_split
I0912 20:03:49.332901 27373 net.cpp:434] res2c_res2c_relu_0_split <- res2c
I0912 20:03:49.332907 27373 net.cpp:408] res2c_res2c_relu_0_split -> res2c_res2c_relu_0_split_0
I0912 20:03:49.332916 27373 net.cpp:408] res2c_res2c_relu_0_split -> res2c_res2c_relu_0_split_1
I0912 20:03:49.332962 27373 net.cpp:150] Setting up res2c_res2c_relu_0_split
I0912 20:03:49.332976 27373 net.cpp:157] Top shape: 16 256 54 54 (11943936)
I0912 20:03:49.332983 27373 net.cpp:157] Top shape: 16 256 54 54 (11943936)
I0912 20:03:49.332988 27373 net.cpp:165] Memory required for data: 1673396288
I0912 20:03:49.332993 27373 layer_factory.hpp:77] Creating layer res3a_branch1
I0912 20:03:49.333005 27373 net.cpp:100] Creating Layer res3a_branch1
I0912 20:03:49.333011 27373 net.cpp:434] res3a_branch1 <- res2c_res2c_relu_0_split_0
I0912 20:03:49.333020 27373 net.cpp:408] res3a_branch1 -> res3a_branch1
I0912 20:03:49.333822 27373 net.cpp:150] Setting up res3a_branch1
I0912 20:03:49.333838 27373 net.cpp:157] Top shape: 16 512 27 27 (5971968)
I0912 20:03:49.333842 27373 net.cpp:165] Memory required for data: 1697284160
I0912 20:03:49.333847 27373 layer_factory.hpp:77] Creating layer bn3a_branch1
I0912 20:03:49.333856 27373 net.cpp:100] Creating Layer bn3a_branch1
I0912 20:03:49.333863 27373 net.cpp:434] bn3a_branch1 <- res3a_branch1
I0912 20:03:49.333875 27373 net.cpp:395] bn3a_branch1 -> res3a_branch1 (in-place)
I0912 20:03:49.334561 27373 net.cpp:150] Setting up bn3a_branch1
I0912 20:03:49.334576 27373 net.cpp:157] Top shape: 16 512 27 27 (5971968)
I0912 20:03:49.334580 27373 net.cpp:165] Memory required for data: 1721172032
I0912 20:03:49.334589 27373 layer_factory.hpp:77] Creating layer scale3a_branch1
I0912 20:03:49.334600 27373 net.cpp:100] Creating Layer scale3a_branch1
I0912 20:03:49.334605 27373 net.cpp:434] scale3a_branch1 <- res3a_branch1
I0912 20:03:49.334616 27373 net.cpp:395] scale3a_branch1 -> res3a_branch1 (in-place)
I0912 20:03:49.334672 27373 layer_factory.hpp:77] Creating layer scale3a_branch1
I0912 20:03:49.334781 27373 net.cpp:150] Setting up scale3a_branch1
I0912 20:03:49.334794 27373 net.cpp:157] Top shape: 16 512 27 27 (5971968)
I0912 20:03:49.334796 27373 net.cpp:165] Memory required for data: 1745059904
I0912 20:03:49.334805 27373 layer_factory.hpp:77] Creating layer res3a_branch2a
I0912 20:03:49.334815 27373 net.cpp:100] Creating Layer res3a_branch2a
I0912 20:03:49.334821 27373 net.cpp:434] res3a_branch2a <- res2c_res2c_relu_0_split_1
I0912 20:03:49.334832 27373 net.cpp:408] res3a_branch2a -> res3a_branch2a
I0912 20:03:49.335027 27373 net.cpp:150] Setting up res3a_branch2a
I0912 20:03:49.335041 27373 net.cpp:157] Top shape: 16 128 27 27 (1492992)
I0912 20:03:49.335044 27373 net.cpp:165] Memory required for data: 1751031872
I0912 20:03:49.335049 27373 layer_factory.hpp:77] Creating layer bn3a_branch2a
I0912 20:03:49.335064 27373 net.cpp:100] Creating Layer bn3a_branch2a
I0912 20:03:49.335085 27373 net.cpp:434] bn3a_branch2a <- res3a_branch2a
I0912 20:03:49.335095 27373 net.cpp:395] bn3a_branch2a -> res3a_branch2a (in-place)
I0912 20:03:49.335264 27373 net.cpp:150] Setting up bn3a_branch2a
I0912 20:03:49.335278 27373 net.cpp:157] Top shape: 16 128 27 27 (1492992)
I0912 20:03:49.335280 27373 net.cpp:165] Memory required for data: 1757003840
I0912 20:03:49.335289 27373 layer_factory.hpp:77] Creating layer scale3a_branch2a
I0912 20:03:49.335299 27373 net.cpp:100] Creating Layer scale3a_branch2a
I0912 20:03:49.335304 27373 net.cpp:434] scale3a_branch2a <- res3a_branch2a
I0912 20:03:49.335315 27373 net.cpp:395] scale3a_branch2a -> res3a_branch2a (in-place)
I0912 20:03:49.335364 27373 layer_factory.hpp:77] Creating layer scale3a_branch2a
I0912 20:03:49.336253 27373 net.cpp:150] Setting up scale3a_branch2a
I0912 20:03:49.336266 27373 net.cpp:157] Top shape: 16 128 27 27 (1492992)
I0912 20:03:49.336269 27373 net.cpp:165] Memory required for data: 1762975808
I0912 20:03:49.336275 27373 layer_factory.hpp:77] Creating layer res3a_branch2a_relu
I0912 20:03:49.336280 27373 net.cpp:100] Creating Layer res3a_branch2a_relu
I0912 20:03:49.336284 27373 net.cpp:434] res3a_branch2a_relu <- res3a_branch2a
I0912 20:03:49.336288 27373 net.cpp:395] res3a_branch2a_relu -> res3a_branch2a (in-place)
I0912 20:03:49.336294 27373 net.cpp:150] Setting up res3a_branch2a_relu
I0912 20:03:49.336300 27373 net.cpp:157] Top shape: 16 128 27 27 (1492992)
I0912 20:03:49.336304 27373 net.cpp:165] Memory required for data: 1768947776
I0912 20:03:49.336308 27373 layer_factory.hpp:77] Creating layer res3a_branch2b
I0912 20:03:49.336320 27373 net.cpp:100] Creating Layer res3a_branch2b
I0912 20:03:49.336328 27373 net.cpp:434] res3a_branch2b <- res3a_branch2a
I0912 20:03:49.336338 27373 net.cpp:408] res3a_branch2b -> res3a_branch2b
I0912 20:03:49.337118 27373 net.cpp:150] Setting up res3a_branch2b
I0912 20:03:49.337136 27373 net.cpp:157] Top shape: 16 128 27 27 (1492992)
I0912 20:03:49.337138 27373 net.cpp:165] Memory required for data: 1774919744
I0912 20:03:49.337143 27373 layer_factory.hpp:77] Creating layer bn3a_branch2b
I0912 20:03:49.337153 27373 net.cpp:100] Creating Layer bn3a_branch2b
I0912 20:03:49.337158 27373 net.cpp:434] bn3a_branch2b <- res3a_branch2b
I0912 20:03:49.337167 27373 net.cpp:395] bn3a_branch2b -> res3a_branch2b (in-place)
I0912 20:03:49.337337 27373 net.cpp:150] Setting up bn3a_branch2b
I0912 20:03:49.337349 27373 net.cpp:157] Top shape: 16 128 27 27 (1492992)
I0912 20:03:49.337352 27373 net.cpp:165] Memory required for data: 1780891712
I0912 20:03:49.337362 27373 layer_factory.hpp:77] Creating layer scale3a_branch2b
I0912 20:03:49.337370 27373 net.cpp:100] Creating Layer scale3a_branch2b
I0912 20:03:49.337376 27373 net.cpp:434] scale3a_branch2b <- res3a_branch2b
I0912 20:03:49.337383 27373 net.cpp:395] scale3a_branch2b -> res3a_branch2b (in-place)
I0912 20:03:49.337436 27373 layer_factory.hpp:77] Creating layer scale3a_branch2b
I0912 20:03:49.337546 27373 net.cpp:150] Setting up scale3a_branch2b
I0912 20:03:49.337563 27373 net.cpp:157] Top shape: 16 128 27 27 (1492992)
I0912 20:03:49.337568 27373 net.cpp:165] Memory required for data: 1786863680
I0912 20:03:49.337575 27373 layer_factory.hpp:77] Creating layer res3a_branch2b_relu
I0912 20:03:49.337592 27373 net.cpp:100] Creating Layer res3a_branch2b_relu
I0912 20:03:49.337599 27373 net.cpp:434] res3a_branch2b_relu <- res3a_branch2b
I0912 20:03:49.337607 27373 net.cpp:395] res3a_branch2b_relu -> res3a_branch2b (in-place)
I0912 20:03:49.337617 27373 net.cpp:150] Setting up res3a_branch2b_relu
I0912 20:03:49.337625 27373 net.cpp:157] Top shape: 16 128 27 27 (1492992)
I0912 20:03:49.337631 27373 net.cpp:165] Memory required for data: 1792835648
I0912 20:03:49.337636 27373 layer_factory.hpp:77] Creating layer res3a_branch2c
I0912 20:03:49.337648 27373 net.cpp:100] Creating Layer res3a_branch2c
I0912 20:03:49.337654 27373 net.cpp:434] res3a_branch2c <- res3a_branch2b
I0912 20:03:49.337661 27373 net.cpp:408] res3a_branch2c -> res3a_branch2c
I0912 20:03:49.337895 27373 net.cpp:150] Setting up res3a_branch2c
I0912 20:03:49.337919 27373 net.cpp:157] Top shape: 16 512 27 27 (5971968)
I0912 20:03:49.337924 27373 net.cpp:165] Memory required for data: 1816723520
I0912 20:03:49.337927 27373 layer_factory.hpp:77] Creating layer bn3a_branch2c
I0912 20:03:49.337940 27373 net.cpp:100] Creating Layer bn3a_branch2c
I0912 20:03:49.337946 27373 net.cpp:434] bn3a_branch2c <- res3a_branch2c
I0912 20:03:49.337954 27373 net.cpp:395] bn3a_branch2c -> res3a_branch2c (in-place)
I0912 20:03:49.338122 27373 net.cpp:150] Setting up bn3a_branch2c
I0912 20:03:49.338136 27373 net.cpp:157] Top shape: 16 512 27 27 (5971968)
I0912 20:03:49.338140 27373 net.cpp:165] Memory required for data: 1840611392
I0912 20:03:49.338151 27373 layer_factory.hpp:77] Creating layer scale3a_branch2c
I0912 20:03:49.338160 27373 net.cpp:100] Creating Layer scale3a_branch2c
I0912 20:03:49.338167 27373 net.cpp:434] scale3a_branch2c <- res3a_branch2c
I0912 20:03:49.338174 27373 net.cpp:395] scale3a_branch2c -> res3a_branch2c (in-place)
I0912 20:03:49.338228 27373 layer_factory.hpp:77] Creating layer scale3a_branch2c
I0912 20:03:49.338335 27373 net.cpp:150] Setting up scale3a_branch2c
I0912 20:03:49.338346 27373 net.cpp:157] Top shape: 16 512 27 27 (5971968)
I0912 20:03:49.338349 27373 net.cpp:165] Memory required for data: 1864499264
I0912 20:03:49.338356 27373 layer_factory.hpp:77] Creating layer res3a
I0912 20:03:49.338368 27373 net.cpp:100] Creating Layer res3a
I0912 20:03:49.338374 27373 net.cpp:434] res3a <- res3a_branch1
I0912 20:03:49.338382 27373 net.cpp:434] res3a <- res3a_branch2c
I0912 20:03:49.338388 27373 net.cpp:408] res3a -> res3a
I0912 20:03:49.338424 27373 net.cpp:150] Setting up res3a
I0912 20:03:49.338438 27373 net.cpp:157] Top shape: 16 512 27 27 (5971968)
I0912 20:03:49.338440 27373 net.cpp:165] Memory required for data: 1888387136
I0912 20:03:49.338444 27373 layer_factory.hpp:77] Creating layer res3a_relu
I0912 20:03:49.338451 27373 net.cpp:100] Creating Layer res3a_relu
I0912 20:03:49.338457 27373 net.cpp:434] res3a_relu <- res3a
I0912 20:03:49.338467 27373 net.cpp:395] res3a_relu -> res3a (in-place)
I0912 20:03:49.338477 27373 net.cpp:150] Setting up res3a_relu
I0912 20:03:49.338485 27373 net.cpp:157] Top shape: 16 512 27 27 (5971968)
I0912 20:03:49.338490 27373 net.cpp:165] Memory required for data: 1912275008
I0912 20:03:49.338495 27373 layer_factory.hpp:77] Creating layer res3a_res3a_relu_0_split
I0912 20:03:49.338505 27373 net.cpp:100] Creating Layer res3a_res3a_relu_0_split
I0912 20:03:49.338510 27373 net.cpp:434] res3a_res3a_relu_0_split <- res3a
I0912 20:03:49.338517 27373 net.cpp:408] res3a_res3a_relu_0_split -> res3a_res3a_relu_0_split_0
I0912 20:03:49.338526 27373 net.cpp:408] res3a_res3a_relu_0_split -> res3a_res3a_relu_0_split_1
I0912 20:03:49.338572 27373 net.cpp:150] Setting up res3a_res3a_relu_0_split
I0912 20:03:49.338584 27373 net.cpp:157] Top shape: 16 512 27 27 (5971968)
I0912 20:03:49.338588 27373 net.cpp:157] Top shape: 16 512 27 27 (5971968)
I0912 20:03:49.338592 27373 net.cpp:165] Memory required for data: 1960050752
I0912 20:03:49.338596 27373 layer_factory.hpp:77] Creating layer res3b_branch2a
I0912 20:03:49.338608 27373 net.cpp:100] Creating Layer res3b_branch2a
I0912 20:03:49.338613 27373 net.cpp:434] res3b_branch2a <- res3a_res3a_relu_0_split_0
I0912 20:03:49.338624 27373 net.cpp:408] res3b_branch2a -> res3b_branch2a
I0912 20:03:49.339331 27373 net.cpp:150] Setting up res3b_branch2a
I0912 20:03:49.339347 27373 net.cpp:157] Top shape: 16 128 27 27 (1492992)
I0912 20:03:49.339350 27373 net.cpp:165] Memory required for data: 1966022720
I0912 20:03:49.339357 27373 layer_factory.hpp:77] Creating layer bn3b_branch2a
I0912 20:03:49.339370 27373 net.cpp:100] Creating Layer bn3b_branch2a
I0912 20:03:49.339375 27373 net.cpp:434] bn3b_branch2a <- res3b_branch2a
I0912 20:03:49.339385 27373 net.cpp:395] bn3b_branch2a -> res3b_branch2a (in-place)
I0912 20:03:49.339550 27373 net.cpp:150] Setting up bn3b_branch2a
I0912 20:03:49.339562 27373 net.cpp:157] Top shape: 16 128 27 27 (1492992)
I0912 20:03:49.339578 27373 net.cpp:165] Memory required for data: 1971994688
I0912 20:03:49.339591 27373 layer_factory.hpp:77] Creating layer scale3b_branch2a
I0912 20:03:49.339602 27373 net.cpp:100] Creating Layer scale3b_branch2a
I0912 20:03:49.339608 27373 net.cpp:434] scale3b_branch2a <- res3b_branch2a
I0912 20:03:49.339615 27373 net.cpp:395] scale3b_branch2a -> res3b_branch2a (in-place)
I0912 20:03:49.339668 27373 layer_factory.hpp:77] Creating layer scale3b_branch2a
I0912 20:03:49.339788 27373 net.cpp:150] Setting up scale3b_branch2a
I0912 20:03:49.339802 27373 net.cpp:157] Top shape: 16 128 27 27 (1492992)
I0912 20:03:49.339805 27373 net.cpp:165] Memory required for data: 1977966656
I0912 20:03:49.339812 27373 layer_factory.hpp:77] Creating layer res3b_branch2a_relu
I0912 20:03:49.339820 27373 net.cpp:100] Creating Layer res3b_branch2a_relu
I0912 20:03:49.339826 27373 net.cpp:434] res3b_branch2a_relu <- res3b_branch2a
I0912 20:03:49.339835 27373 net.cpp:395] res3b_branch2a_relu -> res3b_branch2a (in-place)
I0912 20:03:49.339845 27373 net.cpp:150] Setting up res3b_branch2a_relu
I0912 20:03:49.339854 27373 net.cpp:157] Top shape: 16 128 27 27 (1492992)
I0912 20:03:49.339859 27373 net.cpp:165] Memory required for data: 1983938624
I0912 20:03:49.339864 27373 layer_factory.hpp:77] Creating layer res3b_branch2b
I0912 20:03:49.339874 27373 net.cpp:100] Creating Layer res3b_branch2b
I0912 20:03:49.339880 27373 net.cpp:434] res3b_branch2b <- res3b_branch2a
I0912 20:03:49.339890 27373 net.cpp:408] res3b_branch2b -> res3b_branch2b
I0912 20:03:49.340682 27373 net.cpp:150] Setting up res3b_branch2b
I0912 20:03:49.340698 27373 net.cpp:157] Top shape: 16 128 27 27 (1492992)
I0912 20:03:49.340703 27373 net.cpp:165] Memory required for data: 1989910592
I0912 20:03:49.340708 27373 layer_factory.hpp:77] Creating layer bn3b_branch2b
I0912 20:03:49.340714 27373 net.cpp:100] Creating Layer bn3b_branch2b
I0912 20:03:49.340720 27373 net.cpp:434] bn3b_branch2b <- res3b_branch2b
I0912 20:03:49.340728 27373 net.cpp:395] bn3b_branch2b -> res3b_branch2b (in-place)
I0912 20:03:49.340898 27373 net.cpp:150] Setting up bn3b_branch2b
I0912 20:03:49.340912 27373 net.cpp:157] Top shape: 16 128 27 27 (1492992)
I0912 20:03:49.340915 27373 net.cpp:165] Memory required for data: 1995882560
I0912 20:03:49.340927 27373 layer_factory.hpp:77] Creating layer scale3b_branch2b
I0912 20:03:49.340936 27373 net.cpp:100] Creating Layer scale3b_branch2b
I0912 20:03:49.340944 27373 net.cpp:434] scale3b_branch2b <- res3b_branch2b
I0912 20:03:49.340951 27373 net.cpp:395] scale3b_branch2b -> res3b_branch2b (in-place)
I0912 20:03:49.341002 27373 layer_factory.hpp:77] Creating layer scale3b_branch2b
I0912 20:03:49.341112 27373 net.cpp:150] Setting up scale3b_branch2b
I0912 20:03:49.341123 27373 net.cpp:157] Top shape: 16 128 27 27 (1492992)
I0912 20:03:49.341126 27373 net.cpp:165] Memory required for data: 2001854528
I0912 20:03:49.341133 27373 layer_factory.hpp:77] Creating layer res3b_branch2b_relu
I0912 20:03:49.341145 27373 net.cpp:100] Creating Layer res3b_branch2b_relu
I0912 20:03:49.341150 27373 net.cpp:434] res3b_branch2b_relu <- res3b_branch2b
I0912 20:03:49.341157 27373 net.cpp:395] res3b_branch2b_relu -> res3b_branch2b (in-place)
I0912 20:03:49.341166 27373 net.cpp:150] Setting up res3b_branch2b_relu
I0912 20:03:49.341174 27373 net.cpp:157] Top shape: 16 128 27 27 (1492992)
I0912 20:03:49.341181 27373 net.cpp:165] Memory required for data: 2007826496
I0912 20:03:49.341186 27373 layer_factory.hpp:77] Creating layer res3b_branch2c
I0912 20:03:49.341197 27373 net.cpp:100] Creating Layer res3b_branch2c
I0912 20:03:49.341203 27373 net.cpp:434] res3b_branch2c <- res3b_branch2b
I0912 20:03:49.341212 27373 net.cpp:408] res3b_branch2c -> res3b_branch2c
I0912 20:03:49.341429 27373 net.cpp:150] Setting up res3b_branch2c
I0912 20:03:49.341441 27373 net.cpp:157] Top shape: 16 512 27 27 (5971968)
I0912 20:03:49.341444 27373 net.cpp:165] Memory required for data: 2031714368
I0912 20:03:49.341449 27373 layer_factory.hpp:77] Creating layer bn3b_branch2c
I0912 20:03:49.341459 27373 net.cpp:100] Creating Layer bn3b_branch2c
I0912 20:03:49.341480 27373 net.cpp:434] bn3b_branch2c <- res3b_branch2c
I0912 20:03:49.341491 27373 net.cpp:395] bn3b_branch2c -> res3b_branch2c (in-place)
I0912 20:03:49.341663 27373 net.cpp:150] Setting up bn3b_branch2c
I0912 20:03:49.341681 27373 net.cpp:157] Top shape: 16 512 27 27 (5971968)
I0912 20:03:49.341686 27373 net.cpp:165] Memory required for data: 2055602240
I0912 20:03:49.341696 27373 layer_factory.hpp:77] Creating layer scale3b_branch2c
I0912 20:03:49.341706 27373 net.cpp:100] Creating Layer scale3b_branch2c
I0912 20:03:49.341711 27373 net.cpp:434] scale3b_branch2c <- res3b_branch2c
I0912 20:03:49.341719 27373 net.cpp:395] scale3b_branch2c -> res3b_branch2c (in-place)
I0912 20:03:49.341773 27373 layer_factory.hpp:77] Creating layer scale3b_branch2c
I0912 20:03:49.341891 27373 net.cpp:150] Setting up scale3b_branch2c
I0912 20:03:49.341904 27373 net.cpp:157] Top shape: 16 512 27 27 (5971968)
I0912 20:03:49.341907 27373 net.cpp:165] Memory required for data: 2079490112
I0912 20:03:49.341914 27373 layer_factory.hpp:77] Creating layer res3b
I0912 20:03:49.341924 27373 net.cpp:100] Creating Layer res3b
I0912 20:03:49.341933 27373 net.cpp:434] res3b <- res3a_res3a_relu_0_split_1
I0912 20:03:49.341940 27373 net.cpp:434] res3b <- res3b_branch2c
I0912 20:03:49.341948 27373 net.cpp:408] res3b -> res3b
I0912 20:03:49.341981 27373 net.cpp:150] Setting up res3b
I0912 20:03:49.341996 27373 net.cpp:157] Top shape: 16 512 27 27 (5971968)
I0912 20:03:49.342002 27373 net.cpp:165] Memory required for data: 2103377984
I0912 20:03:49.342008 27373 layer_factory.hpp:77] Creating layer res3b_relu
I0912 20:03:49.342018 27373 net.cpp:100] Creating Layer res3b_relu
I0912 20:03:49.342025 27373 net.cpp:434] res3b_relu <- res3b
I0912 20:03:49.342032 27373 net.cpp:395] res3b_relu -> res3b (in-place)
I0912 20:03:49.342043 27373 net.cpp:150] Setting up res3b_relu
I0912 20:03:49.342051 27373 net.cpp:157] Top shape: 16 512 27 27 (5971968)
I0912 20:03:49.342056 27373 net.cpp:165] Memory required for data: 2127265856
I0912 20:03:49.342062 27373 layer_factory.hpp:77] Creating layer res3b_res3b_relu_0_split
I0912 20:03:49.342070 27373 net.cpp:100] Creating Layer res3b_res3b_relu_0_split
I0912 20:03:49.342075 27373 net.cpp:434] res3b_res3b_relu_0_split <- res3b
I0912 20:03:49.342082 27373 net.cpp:408] res3b_res3b_relu_0_split -> res3b_res3b_relu_0_split_0
I0912 20:03:49.342092 27373 net.cpp:408] res3b_res3b_relu_0_split -> res3b_res3b_relu_0_split_1
I0912 20:03:49.342139 27373 net.cpp:150] Setting up res3b_res3b_relu_0_split
I0912 20:03:49.342149 27373 net.cpp:157] Top shape: 16 512 27 27 (5971968)
I0912 20:03:49.342154 27373 net.cpp:157] Top shape: 16 512 27 27 (5971968)
I0912 20:03:49.342156 27373 net.cpp:165] Memory required for data: 2175041600
I0912 20:03:49.342160 27373 layer_factory.hpp:77] Creating layer res3c_branch2a
I0912 20:03:49.342172 27373 net.cpp:100] Creating Layer res3c_branch2a
I0912 20:03:49.342180 27373 net.cpp:434] res3c_branch2a <- res3b_res3b_relu_0_split_0
I0912 20:03:49.342187 27373 net.cpp:408] res3c_branch2a -> res3c_branch2a
I0912 20:03:49.342406 27373 net.cpp:150] Setting up res3c_branch2a
I0912 20:03:49.342418 27373 net.cpp:157] Top shape: 16 128 27 27 (1492992)
I0912 20:03:49.342422 27373 net.cpp:165] Memory required for data: 2181013568
I0912 20:03:49.342427 27373 layer_factory.hpp:77] Creating layer bn3c_branch2a
I0912 20:03:49.342437 27373 net.cpp:100] Creating Layer bn3c_branch2a
I0912 20:03:49.342442 27373 net.cpp:434] bn3c_branch2a <- res3c_branch2a
I0912 20:03:49.342449 27373 net.cpp:395] bn3c_branch2a -> res3c_branch2a (in-place)
I0912 20:03:49.342610 27373 net.cpp:150] Setting up bn3c_branch2a
I0912 20:03:49.342622 27373 net.cpp:157] Top shape: 16 128 27 27 (1492992)
I0912 20:03:49.342624 27373 net.cpp:165] Memory required for data: 2186985536
I0912 20:03:49.342633 27373 layer_factory.hpp:77] Creating layer scale3c_branch2a
I0912 20:03:49.342644 27373 net.cpp:100] Creating Layer scale3c_branch2a
I0912 20:03:49.342650 27373 net.cpp:434] scale3c_branch2a <- res3c_branch2a
I0912 20:03:49.342674 27373 net.cpp:395] scale3c_branch2a -> res3c_branch2a (in-place)
I0912 20:03:49.342725 27373 layer_factory.hpp:77] Creating layer scale3c_branch2a
I0912 20:03:49.342833 27373 net.cpp:150] Setting up scale3c_branch2a
I0912 20:03:49.342845 27373 net.cpp:157] Top shape: 16 128 27 27 (1492992)
I0912 20:03:49.342849 27373 net.cpp:165] Memory required for data: 2192957504
I0912 20:03:49.342855 27373 layer_factory.hpp:77] Creating layer res3c_branch2a_relu
I0912 20:03:49.342864 27373 net.cpp:100] Creating Layer res3c_branch2a_relu
I0912 20:03:49.342869 27373 net.cpp:434] res3c_branch2a_relu <- res3c_branch2a
I0912 20:03:49.342876 27373 net.cpp:395] res3c_branch2a_relu -> res3c_branch2a (in-place)
I0912 20:03:49.342885 27373 net.cpp:150] Setting up res3c_branch2a_relu
I0912 20:03:49.342892 27373 net.cpp:157] Top shape: 16 128 27 27 (1492992)
I0912 20:03:49.342897 27373 net.cpp:165] Memory required for data: 2198929472
I0912 20:03:49.342902 27373 layer_factory.hpp:77] Creating layer res3c_branch2b
I0912 20:03:49.342914 27373 net.cpp:100] Creating Layer res3c_branch2b
I0912 20:03:49.342921 27373 net.cpp:434] res3c_branch2b <- res3c_branch2a
I0912 20:03:49.342929 27373 net.cpp:408] res3c_branch2b -> res3c_branch2b
I0912 20:03:49.343705 27373 net.cpp:150] Setting up res3c_branch2b
I0912 20:03:49.343721 27373 net.cpp:157] Top shape: 16 128 27 27 (1492992)
I0912 20:03:49.343724 27373 net.cpp:165] Memory required for data: 2204901440
I0912 20:03:49.343730 27373 layer_factory.hpp:77] Creating layer bn3c_branch2b
I0912 20:03:49.343745 27373 net.cpp:100] Creating Layer bn3c_branch2b
I0912 20:03:49.343752 27373 net.cpp:434] bn3c_branch2b <- res3c_branch2b
I0912 20:03:49.343760 27373 net.cpp:395] bn3c_branch2b -> res3c_branch2b (in-place)
I0912 20:03:49.343935 27373 net.cpp:150] Setting up bn3c_branch2b
I0912 20:03:49.343947 27373 net.cpp:157] Top shape: 16 128 27 27 (1492992)
I0912 20:03:49.343950 27373 net.cpp:165] Memory required for data: 2210873408
I0912 20:03:49.343961 27373 layer_factory.hpp:77] Creating layer scale3c_branch2b
I0912 20:03:49.343969 27373 net.cpp:100] Creating Layer scale3c_branch2b
I0912 20:03:49.343976 27373 net.cpp:434] scale3c_branch2b <- res3c_branch2b
I0912 20:03:49.343986 27373 net.cpp:395] scale3c_branch2b -> res3c_branch2b (in-place)
I0912 20:03:49.344035 27373 layer_factory.hpp:77] Creating layer scale3c_branch2b
I0912 20:03:49.344151 27373 net.cpp:150] Setting up scale3c_branch2b
I0912 20:03:49.344169 27373 net.cpp:157] Top shape: 16 128 27 27 (1492992)
I0912 20:03:49.344175 27373 net.cpp:165] Memory required for data: 2216845376
I0912 20:03:49.344184 27373 layer_factory.hpp:77] Creating layer res3c_branch2b_relu
I0912 20:03:49.344193 27373 net.cpp:100] Creating Layer res3c_branch2b_relu
I0912 20:03:49.344199 27373 net.cpp:434] res3c_branch2b_relu <- res3c_branch2b
I0912 20:03:49.344207 27373 net.cpp:395] res3c_branch2b_relu -> res3c_branch2b (in-place)
I0912 20:03:49.344215 27373 net.cpp:150] Setting up res3c_branch2b_relu
I0912 20:03:49.344223 27373 net.cpp:157] Top shape: 16 128 27 27 (1492992)
I0912 20:03:49.344228 27373 net.cpp:165] Memory required for data: 2222817344
I0912 20:03:49.344234 27373 layer_factory.hpp:77] Creating layer res3c_branch2c
I0912 20:03:49.344246 27373 net.cpp:100] Creating Layer res3c_branch2c
I0912 20:03:49.344252 27373 net.cpp:434] res3c_branch2c <- res3c_branch2b
I0912 20:03:49.344260 27373 net.cpp:408] res3c_branch2c -> res3c_branch2c
I0912 20:03:49.344501 27373 net.cpp:150] Setting up res3c_branch2c
I0912 20:03:49.344512 27373 net.cpp:157] Top shape: 16 512 27 27 (5971968)
I0912 20:03:49.344516 27373 net.cpp:165] Memory required for data: 2246705216
I0912 20:03:49.344519 27373 layer_factory.hpp:77] Creating layer bn3c_branch2c
I0912 20:03:49.344527 27373 net.cpp:100] Creating Layer bn3c_branch2c
I0912 20:03:49.344530 27373 net.cpp:434] bn3c_branch2c <- res3c_branch2c
I0912 20:03:49.344535 27373 net.cpp:395] bn3c_branch2c -> res3c_branch2c (in-place)
I0912 20:03:49.344722 27373 net.cpp:150] Setting up bn3c_branch2c
I0912 20:03:49.344734 27373 net.cpp:157] Top shape: 16 512 27 27 (5971968)
I0912 20:03:49.344753 27373 net.cpp:165] Memory required for data: 2270593088
I0912 20:03:49.344766 27373 layer_factory.hpp:77] Creating layer scale3c_branch2c
I0912 20:03:49.344776 27373 net.cpp:100] Creating Layer scale3c_branch2c
I0912 20:03:49.344782 27373 net.cpp:434] scale3c_branch2c <- res3c_branch2c
I0912 20:03:49.344792 27373 net.cpp:395] scale3c_branch2c -> res3c_branch2c (in-place)
I0912 20:03:49.344844 27373 layer_factory.hpp:77] Creating layer scale3c_branch2c
I0912 20:03:49.344969 27373 net.cpp:150] Setting up scale3c_branch2c
I0912 20:03:49.344982 27373 net.cpp:157] Top shape: 16 512 27 27 (5971968)
I0912 20:03:49.344985 27373 net.cpp:165] Memory required for data: 2294480960
I0912 20:03:49.344992 27373 layer_factory.hpp:77] Creating layer res3c
I0912 20:03:49.345001 27373 net.cpp:100] Creating Layer res3c
I0912 20:03:49.345007 27373 net.cpp:434] res3c <- res3b_res3b_relu_0_split_1
I0912 20:03:49.345015 27373 net.cpp:434] res3c <- res3c_branch2c
I0912 20:03:49.345022 27373 net.cpp:408] res3c -> res3c
I0912 20:03:49.345062 27373 net.cpp:150] Setting up res3c
I0912 20:03:49.345072 27373 net.cpp:157] Top shape: 16 512 27 27 (5971968)
I0912 20:03:49.345075 27373 net.cpp:165] Memory required for data: 2318368832
I0912 20:03:49.345079 27373 layer_factory.hpp:77] Creating layer res3c_relu
I0912 20:03:49.345088 27373 net.cpp:100] Creating Layer res3c_relu
I0912 20:03:49.345094 27373 net.cpp:434] res3c_relu <- res3c
I0912 20:03:49.345103 27373 net.cpp:395] res3c_relu -> res3c (in-place)
I0912 20:03:49.345111 27373 net.cpp:150] Setting up res3c_relu
I0912 20:03:49.345119 27373 net.cpp:157] Top shape: 16 512 27 27 (5971968)
I0912 20:03:49.345124 27373 net.cpp:165] Memory required for data: 2342256704
I0912 20:03:49.345130 27373 layer_factory.hpp:77] Creating layer res3c_res3c_relu_0_split
I0912 20:03:49.345137 27373 net.cpp:100] Creating Layer res3c_res3c_relu_0_split
I0912 20:03:49.345142 27373 net.cpp:434] res3c_res3c_relu_0_split <- res3c
I0912 20:03:49.345151 27373 net.cpp:408] res3c_res3c_relu_0_split -> res3c_res3c_relu_0_split_0
I0912 20:03:49.345160 27373 net.cpp:408] res3c_res3c_relu_0_split -> res3c_res3c_relu_0_split_1
I0912 20:03:49.345211 27373 net.cpp:150] Setting up res3c_res3c_relu_0_split
I0912 20:03:49.345229 27373 net.cpp:157] Top shape: 16 512 27 27 (5971968)
I0912 20:03:49.345233 27373 net.cpp:157] Top shape: 16 512 27 27 (5971968)
I0912 20:03:49.345237 27373 net.cpp:165] Memory required for data: 2390032448
I0912 20:03:49.345242 27373 layer_factory.hpp:77] Creating layer res3d_branch2a
I0912 20:03:49.345257 27373 net.cpp:100] Creating Layer res3d_branch2a
I0912 20:03:49.345263 27373 net.cpp:434] res3d_branch2a <- res3c_res3c_relu_0_split_0
I0912 20:03:49.345273 27373 net.cpp:408] res3d_branch2a -> res3d_branch2a
I0912 20:03:49.346719 27373 net.cpp:150] Setting up res3d_branch2a
I0912 20:03:49.346735 27373 net.cpp:157] Top shape: 16 128 27 27 (1492992)
I0912 20:03:49.346738 27373 net.cpp:165] Memory required for data: 2396004416
I0912 20:03:49.346743 27373 layer_factory.hpp:77] Creating layer bn3d_branch2a
I0912 20:03:49.346755 27373 net.cpp:100] Creating Layer bn3d_branch2a
I0912 20:03:49.346760 27373 net.cpp:434] bn3d_branch2a <- res3d_branch2a
I0912 20:03:49.346767 27373 net.cpp:395] bn3d_branch2a -> res3d_branch2a (in-place)
I0912 20:03:49.346936 27373 net.cpp:150] Setting up bn3d_branch2a
I0912 20:03:49.346949 27373 net.cpp:157] Top shape: 16 128 27 27 (1492992)
I0912 20:03:49.346952 27373 net.cpp:165] Memory required for data: 2401976384
I0912 20:03:49.346988 27373 layer_factory.hpp:77] Creating layer scale3d_branch2a
I0912 20:03:49.347004 27373 net.cpp:100] Creating Layer scale3d_branch2a
I0912 20:03:49.347009 27373 net.cpp:434] scale3d_branch2a <- res3d_branch2a
I0912 20:03:49.347020 27373 net.cpp:395] scale3d_branch2a -> res3d_branch2a (in-place)
I0912 20:03:49.347077 27373 layer_factory.hpp:77] Creating layer scale3d_branch2a
I0912 20:03:49.347201 27373 net.cpp:150] Setting up scale3d_branch2a
I0912 20:03:49.347214 27373 net.cpp:157] Top shape: 16 128 27 27 (1492992)
I0912 20:03:49.347231 27373 net.cpp:165] Memory required for data: 2407948352
I0912 20:03:49.347242 27373 layer_factory.hpp:77] Creating layer res3d_branch2a_relu
I0912 20:03:49.347251 27373 net.cpp:100] Creating Layer res3d_branch2a_relu
I0912 20:03:49.347257 27373 net.cpp:434] res3d_branch2a_relu <- res3d_branch2a
I0912 20:03:49.347265 27373 net.cpp:395] res3d_branch2a_relu -> res3d_branch2a (in-place)
I0912 20:03:49.347275 27373 net.cpp:150] Setting up res3d_branch2a_relu
I0912 20:03:49.347283 27373 net.cpp:157] Top shape: 16 128 27 27 (1492992)
I0912 20:03:49.347288 27373 net.cpp:165] Memory required for data: 2413920320
I0912 20:03:49.347295 27373 layer_factory.hpp:77] Creating layer res3d_branch2b
I0912 20:03:49.347312 27373 net.cpp:100] Creating Layer res3d_branch2b
I0912 20:03:49.347318 27373 net.cpp:434] res3d_branch2b <- res3d_branch2a
I0912 20:03:49.347329 27373 net.cpp:408] res3d_branch2b -> res3d_branch2b
I0912 20:03:49.348067 27373 net.cpp:150] Setting up res3d_branch2b
I0912 20:03:49.348083 27373 net.cpp:157] Top shape: 16 128 27 27 (1492992)
I0912 20:03:49.348086 27373 net.cpp:165] Memory required for data: 2419892288
I0912 20:03:49.348091 27373 layer_factory.hpp:77] Creating layer bn3d_branch2b
I0912 20:03:49.348098 27373 net.cpp:100] Creating Layer bn3d_branch2b
I0912 20:03:49.348101 27373 net.cpp:434] bn3d_branch2b <- res3d_branch2b
I0912 20:03:49.348105 27373 net.cpp:395] bn3d_branch2b -> res3d_branch2b (in-place)
I0912 20:03:49.348285 27373 net.cpp:150] Setting up bn3d_branch2b
I0912 20:03:49.348299 27373 net.cpp:157] Top shape: 16 128 27 27 (1492992)
I0912 20:03:49.348301 27373 net.cpp:165] Memory required for data: 2425864256
I0912 20:03:49.348314 27373 layer_factory.hpp:77] Creating layer scale3d_branch2b
I0912 20:03:49.348323 27373 net.cpp:100] Creating Layer scale3d_branch2b
I0912 20:03:49.348330 27373 net.cpp:434] scale3d_branch2b <- res3d_branch2b
I0912 20:03:49.348336 27373 net.cpp:395] scale3d_branch2b -> res3d_branch2b (in-place)
I0912 20:03:49.348388 27373 layer_factory.hpp:77] Creating layer scale3d_branch2b
I0912 20:03:49.348505 27373 net.cpp:150] Setting up scale3d_branch2b
I0912 20:03:49.348517 27373 net.cpp:157] Top shape: 16 128 27 27 (1492992)
I0912 20:03:49.348520 27373 net.cpp:165] Memory required for data: 2431836224
I0912 20:03:49.348528 27373 layer_factory.hpp:77] Creating layer res3d_branch2b_relu
I0912 20:03:49.348542 27373 net.cpp:100] Creating Layer res3d_branch2b_relu
I0912 20:03:49.348549 27373 net.cpp:434] res3d_branch2b_relu <- res3d_branch2b
I0912 20:03:49.348557 27373 net.cpp:395] res3d_branch2b_relu -> res3d_branch2b (in-place)
I0912 20:03:49.348567 27373 net.cpp:150] Setting up res3d_branch2b_relu
I0912 20:03:49.348595 27373 net.cpp:157] Top shape: 16 128 27 27 (1492992)
I0912 20:03:49.348603 27373 net.cpp:165] Memory required for data: 2437808192
I0912 20:03:49.348608 27373 layer_factory.hpp:77] Creating layer res3d_branch2c
I0912 20:03:49.348621 27373 net.cpp:100] Creating Layer res3d_branch2c
I0912 20:03:49.348628 27373 net.cpp:434] res3d_branch2c <- res3d_branch2b
I0912 20:03:49.348636 27373 net.cpp:408] res3d_branch2c -> res3d_branch2c
I0912 20:03:49.348862 27373 net.cpp:150] Setting up res3d_branch2c
I0912 20:03:49.348876 27373 net.cpp:157] Top shape: 16 512 27 27 (5971968)
I0912 20:03:49.348879 27373 net.cpp:165] Memory required for data: 2461696064
I0912 20:03:49.348883 27373 layer_factory.hpp:77] Creating layer bn3d_branch2c
I0912 20:03:49.348889 27373 net.cpp:100] Creating Layer bn3d_branch2c
I0912 20:03:49.348893 27373 net.cpp:434] bn3d_branch2c <- res3d_branch2c
I0912 20:03:49.348899 27373 net.cpp:395] bn3d_branch2c -> res3d_branch2c (in-place)
I0912 20:03:49.349078 27373 net.cpp:150] Setting up bn3d_branch2c
I0912 20:03:49.349094 27373 net.cpp:157] Top shape: 16 512 27 27 (5971968)
I0912 20:03:49.349098 27373 net.cpp:165] Memory required for data: 2485583936
I0912 20:03:49.349108 27373 layer_factory.hpp:77] Creating layer scale3d_branch2c
I0912 20:03:49.349118 27373 net.cpp:100] Creating Layer scale3d_branch2c
I0912 20:03:49.349124 27373 net.cpp:434] scale3d_branch2c <- res3d_branch2c
I0912 20:03:49.349149 27373 net.cpp:395] scale3d_branch2c -> res3d_branch2c (in-place)
I0912 20:03:49.349210 27373 layer_factory.hpp:77] Creating layer scale3d_branch2c
I0912 20:03:49.349324 27373 net.cpp:150] Setting up scale3d_branch2c
I0912 20:03:49.349337 27373 net.cpp:157] Top shape: 16 512 27 27 (5971968)
I0912 20:03:49.349340 27373 net.cpp:165] Memory required for data: 2509471808
I0912 20:03:49.349349 27373 layer_factory.hpp:77] Creating layer res3d
I0912 20:03:49.349357 27373 net.cpp:100] Creating Layer res3d
I0912 20:03:49.349365 27373 net.cpp:434] res3d <- res3c_res3c_relu_0_split_1
I0912 20:03:49.349372 27373 net.cpp:434] res3d <- res3d_branch2c
I0912 20:03:49.349380 27373 net.cpp:408] res3d -> res3d
I0912 20:03:49.349413 27373 net.cpp:150] Setting up res3d
I0912 20:03:49.349426 27373 net.cpp:157] Top shape: 16 512 27 27 (5971968)
I0912 20:03:49.349429 27373 net.cpp:165] Memory required for data: 2533359680
I0912 20:03:49.349433 27373 layer_factory.hpp:77] Creating layer res3d_relu
I0912 20:03:49.349445 27373 net.cpp:100] Creating Layer res3d_relu
I0912 20:03:49.349452 27373 net.cpp:434] res3d_relu <- res3d
I0912 20:03:49.349458 27373 net.cpp:395] res3d_relu -> res3d (in-place)
I0912 20:03:49.349470 27373 net.cpp:150] Setting up res3d_relu
I0912 20:03:49.349478 27373 net.cpp:157] Top shape: 16 512 27 27 (5971968)
I0912 20:03:49.349483 27373 net.cpp:165] Memory required for data: 2557247552
I0912 20:03:49.349489 27373 layer_factory.hpp:77] Creating layer res3d_res3d_relu_0_split
I0912 20:03:49.349498 27373 net.cpp:100] Creating Layer res3d_res3d_relu_0_split
I0912 20:03:49.349503 27373 net.cpp:434] res3d_res3d_relu_0_split <- res3d
I0912 20:03:49.349510 27373 net.cpp:408] res3d_res3d_relu_0_split -> res3d_res3d_relu_0_split_0
I0912 20:03:49.349519 27373 net.cpp:408] res3d_res3d_relu_0_split -> res3d_res3d_relu_0_split_1
I0912 20:03:49.349570 27373 net.cpp:150] Setting up res3d_res3d_relu_0_split
I0912 20:03:49.349582 27373 net.cpp:157] Top shape: 16 512 27 27 (5971968)
I0912 20:03:49.349587 27373 net.cpp:157] Top shape: 16 512 27 27 (5971968)
I0912 20:03:49.349591 27373 net.cpp:165] Memory required for data: 2605023296
I0912 20:03:49.349596 27373 layer_factory.hpp:77] Creating layer res4a_branch1
I0912 20:03:49.349608 27373 net.cpp:100] Creating Layer res4a_branch1
I0912 20:03:49.349616 27373 net.cpp:434] res4a_branch1 <- res3d_res3d_relu_0_split_0
I0912 20:03:49.349623 27373 net.cpp:408] res4a_branch1 -> res4a_branch1
I0912 20:03:49.350909 27373 net.cpp:150] Setting up res4a_branch1
I0912 20:03:49.350927 27373 net.cpp:157] Top shape: 16 1024 14 14 (3211264)
I0912 20:03:49.350930 27373 net.cpp:165] Memory required for data: 2617868352
I0912 20:03:49.350936 27373 layer_factory.hpp:77] Creating layer bn4a_branch1
I0912 20:03:49.350944 27373 net.cpp:100] Creating Layer bn4a_branch1
I0912 20:03:49.350947 27373 net.cpp:434] bn4a_branch1 <- res4a_branch1
I0912 20:03:49.350955 27373 net.cpp:395] bn4a_branch1 -> res4a_branch1 (in-place)
I0912 20:03:49.351162 27373 net.cpp:150] Setting up bn4a_branch1
I0912 20:03:49.351176 27373 net.cpp:157] Top shape: 16 1024 14 14 (3211264)
I0912 20:03:49.351179 27373 net.cpp:165] Memory required for data: 2630713408
I0912 20:03:49.351187 27373 layer_factory.hpp:77] Creating layer scale4a_branch1
I0912 20:03:49.351197 27373 net.cpp:100] Creating Layer scale4a_branch1
I0912 20:03:49.351202 27373 net.cpp:434] scale4a_branch1 <- res4a_branch1
I0912 20:03:49.351210 27373 net.cpp:395] scale4a_branch1 -> res4a_branch1 (in-place)
I0912 20:03:49.351266 27373 layer_factory.hpp:77] Creating layer scale4a_branch1
I0912 20:03:49.351378 27373 net.cpp:150] Setting up scale4a_branch1
I0912 20:03:49.351390 27373 net.cpp:157] Top shape: 16 1024 14 14 (3211264)
I0912 20:03:49.351393 27373 net.cpp:165] Memory required for data: 2643558464
I0912 20:03:49.351402 27373 layer_factory.hpp:77] Creating layer res4a_branch2a
I0912 20:03:49.351414 27373 net.cpp:100] Creating Layer res4a_branch2a
I0912 20:03:49.351421 27373 net.cpp:434] res4a_branch2a <- res3d_res3d_relu_0_split_1
I0912 20:03:49.351451 27373 net.cpp:408] res4a_branch2a -> res4a_branch2a
I0912 20:03:49.351763 27373 net.cpp:150] Setting up res4a_branch2a
I0912 20:03:49.351776 27373 net.cpp:157] Top shape: 16 256 14 14 (802816)
I0912 20:03:49.351780 27373 net.cpp:165] Memory required for data: 2646769728
I0912 20:03:49.351785 27373 layer_factory.hpp:77] Creating layer bn4a_branch2a
I0912 20:03:49.351794 27373 net.cpp:100] Creating Layer bn4a_branch2a
I0912 20:03:49.351800 27373 net.cpp:434] bn4a_branch2a <- res4a_branch2a
I0912 20:03:49.351810 27373 net.cpp:395] bn4a_branch2a -> res4a_branch2a (in-place)
I0912 20:03:49.351985 27373 net.cpp:150] Setting up bn4a_branch2a
I0912 20:03:49.351997 27373 net.cpp:157] Top shape: 16 256 14 14 (802816)
I0912 20:03:49.352000 27373 net.cpp:165] Memory required for data: 2649980992
I0912 20:03:49.352013 27373 layer_factory.hpp:77] Creating layer scale4a_branch2a
I0912 20:03:49.352023 27373 net.cpp:100] Creating Layer scale4a_branch2a
I0912 20:03:49.352030 27373 net.cpp:434] scale4a_branch2a <- res4a_branch2a
I0912 20:03:49.352037 27373 net.cpp:395] scale4a_branch2a -> res4a_branch2a (in-place)
I0912 20:03:49.352089 27373 layer_factory.hpp:77] Creating layer scale4a_branch2a
I0912 20:03:49.352195 27373 net.cpp:150] Setting up scale4a_branch2a
I0912 20:03:49.352206 27373 net.cpp:157] Top shape: 16 256 14 14 (802816)
I0912 20:03:49.352210 27373 net.cpp:165] Memory required for data: 2653192256
I0912 20:03:49.352216 27373 layer_factory.hpp:77] Creating layer res4a_branch2a_relu
I0912 20:03:49.352224 27373 net.cpp:100] Creating Layer res4a_branch2a_relu
I0912 20:03:49.352231 27373 net.cpp:434] res4a_branch2a_relu <- res4a_branch2a
I0912 20:03:49.352239 27373 net.cpp:395] res4a_branch2a_relu -> res4a_branch2a (in-place)
I0912 20:03:49.352249 27373 net.cpp:150] Setting up res4a_branch2a_relu
I0912 20:03:49.352257 27373 net.cpp:157] Top shape: 16 256 14 14 (802816)
I0912 20:03:49.352262 27373 net.cpp:165] Memory required for data: 2656403520
I0912 20:03:49.352268 27373 layer_factory.hpp:77] Creating layer res4a_branch2b
I0912 20:03:49.352279 27373 net.cpp:100] Creating Layer res4a_branch2b
I0912 20:03:49.352284 27373 net.cpp:434] res4a_branch2b <- res4a_branch2a
I0912 20:03:49.352295 27373 net.cpp:408] res4a_branch2b -> res4a_branch2b
I0912 20:03:49.353721 27373 net.cpp:150] Setting up res4a_branch2b
I0912 20:03:49.353742 27373 net.cpp:157] Top shape: 16 256 14 14 (802816)
I0912 20:03:49.353745 27373 net.cpp:165] Memory required for data: 2659614784
I0912 20:03:49.353750 27373 layer_factory.hpp:77] Creating layer bn4a_branch2b
I0912 20:03:49.353759 27373 net.cpp:100] Creating Layer bn4a_branch2b
I0912 20:03:49.353762 27373 net.cpp:434] bn4a_branch2b <- res4a_branch2b
I0912 20:03:49.353767 27373 net.cpp:395] bn4a_branch2b -> res4a_branch2b (in-place)
I0912 20:03:49.353965 27373 net.cpp:150] Setting up bn4a_branch2b
I0912 20:03:49.353978 27373 net.cpp:157] Top shape: 16 256 14 14 (802816)
I0912 20:03:49.353981 27373 net.cpp:165] Memory required for data: 2662826048
I0912 20:03:49.353991 27373 layer_factory.hpp:77] Creating layer scale4a_branch2b
I0912 20:03:49.354003 27373 net.cpp:100] Creating Layer scale4a_branch2b
I0912 20:03:49.354010 27373 net.cpp:434] scale4a_branch2b <- res4a_branch2b
I0912 20:03:49.354018 27373 net.cpp:395] scale4a_branch2b -> res4a_branch2b (in-place)
I0912 20:03:49.354079 27373 layer_factory.hpp:77] Creating layer scale4a_branch2b
I0912 20:03:49.354193 27373 net.cpp:150] Setting up scale4a_branch2b
I0912 20:03:49.354205 27373 net.cpp:157] Top shape: 16 256 14 14 (802816)
I0912 20:03:49.354208 27373 net.cpp:165] Memory required for data: 2666037312
I0912 20:03:49.354215 27373 layer_factory.hpp:77] Creating layer res4a_branch2b_relu
I0912 20:03:49.354224 27373 net.cpp:100] Creating Layer res4a_branch2b_relu
I0912 20:03:49.354230 27373 net.cpp:434] res4a_branch2b_relu <- res4a_branch2b
I0912 20:03:49.354239 27373 net.cpp:395] res4a_branch2b_relu -> res4a_branch2b (in-place)
I0912 20:03:49.354249 27373 net.cpp:150] Setting up res4a_branch2b_relu
I0912 20:03:49.354284 27373 net.cpp:157] Top shape: 16 256 14 14 (802816)
I0912 20:03:49.354288 27373 net.cpp:165] Memory required for data: 2669248576
I0912 20:03:49.354293 27373 layer_factory.hpp:77] Creating layer res4a_branch2c
I0912 20:03:49.354308 27373 net.cpp:100] Creating Layer res4a_branch2c
I0912 20:03:49.354315 27373 net.cpp:434] res4a_branch2c <- res4a_branch2b
I0912 20:03:49.354323 27373 net.cpp:408] res4a_branch2c -> res4a_branch2c
I0912 20:03:49.355200 27373 net.cpp:150] Setting up res4a_branch2c
I0912 20:03:49.355216 27373 net.cpp:157] Top shape: 16 1024 14 14 (3211264)
I0912 20:03:49.355218 27373 net.cpp:165] Memory required for data: 2682093632
I0912 20:03:49.355224 27373 layer_factory.hpp:77] Creating layer bn4a_branch2c
I0912 20:03:49.355238 27373 net.cpp:100] Creating Layer bn4a_branch2c
I0912 20:03:49.355243 27373 net.cpp:434] bn4a_branch2c <- res4a_branch2c
I0912 20:03:49.355250 27373 net.cpp:395] bn4a_branch2c -> res4a_branch2c (in-place)
I0912 20:03:49.355438 27373 net.cpp:150] Setting up bn4a_branch2c
I0912 20:03:49.355451 27373 net.cpp:157] Top shape: 16 1024 14 14 (3211264)
I0912 20:03:49.355454 27373 net.cpp:165] Memory required for data: 2694938688
I0912 20:03:49.355463 27373 layer_factory.hpp:77] Creating layer scale4a_branch2c
I0912 20:03:49.355473 27373 net.cpp:100] Creating Layer scale4a_branch2c
I0912 20:03:49.355479 27373 net.cpp:434] scale4a_branch2c <- res4a_branch2c
I0912 20:03:49.355489 27373 net.cpp:395] scale4a_branch2c -> res4a_branch2c (in-place)
I0912 20:03:49.355541 27373 layer_factory.hpp:77] Creating layer scale4a_branch2c
I0912 20:03:49.355664 27373 net.cpp:150] Setting up scale4a_branch2c
I0912 20:03:49.355675 27373 net.cpp:157] Top shape: 16 1024 14 14 (3211264)
I0912 20:03:49.355679 27373 net.cpp:165] Memory required for data: 2707783744
I0912 20:03:49.355686 27373 layer_factory.hpp:77] Creating layer res4a
I0912 20:03:49.355697 27373 net.cpp:100] Creating Layer res4a
I0912 20:03:49.355705 27373 net.cpp:434] res4a <- res4a_branch1
I0912 20:03:49.355712 27373 net.cpp:434] res4a <- res4a_branch2c
I0912 20:03:49.355720 27373 net.cpp:408] res4a -> res4a
I0912 20:03:49.355762 27373 net.cpp:150] Setting up res4a
I0912 20:03:49.355775 27373 net.cpp:157] Top shape: 16 1024 14 14 (3211264)
I0912 20:03:49.355779 27373 net.cpp:165] Memory required for data: 2720628800
I0912 20:03:49.355784 27373 layer_factory.hpp:77] Creating layer res4a_relu
I0912 20:03:49.355793 27373 net.cpp:100] Creating Layer res4a_relu
I0912 20:03:49.355798 27373 net.cpp:434] res4a_relu <- res4a
I0912 20:03:49.355808 27373 net.cpp:395] res4a_relu -> res4a (in-place)
I0912 20:03:49.355818 27373 net.cpp:150] Setting up res4a_relu
I0912 20:03:49.355825 27373 net.cpp:157] Top shape: 16 1024 14 14 (3211264)
I0912 20:03:49.355831 27373 net.cpp:165] Memory required for data: 2733473856
I0912 20:03:49.355836 27373 layer_factory.hpp:77] Creating layer res4a_res4a_relu_0_split
I0912 20:03:49.355844 27373 net.cpp:100] Creating Layer res4a_res4a_relu_0_split
I0912 20:03:49.355850 27373 net.cpp:434] res4a_res4a_relu_0_split <- res4a
I0912 20:03:49.355857 27373 net.cpp:408] res4a_res4a_relu_0_split -> res4a_res4a_relu_0_split_0
I0912 20:03:49.355866 27373 net.cpp:408] res4a_res4a_relu_0_split -> res4a_res4a_relu_0_split_1
I0912 20:03:49.355913 27373 net.cpp:150] Setting up res4a_res4a_relu_0_split
I0912 20:03:49.355924 27373 net.cpp:157] Top shape: 16 1024 14 14 (3211264)
I0912 20:03:49.355928 27373 net.cpp:157] Top shape: 16 1024 14 14 (3211264)
I0912 20:03:49.355932 27373 net.cpp:165] Memory required for data: 2759163968
I0912 20:03:49.355937 27373 layer_factory.hpp:77] Creating layer res4b_branch2a
I0912 20:03:49.355965 27373 net.cpp:100] Creating Layer res4b_branch2a
I0912 20:03:49.355978 27373 net.cpp:434] res4b_branch2a <- res4a_res4a_relu_0_split_0
I0912 20:03:49.355988 27373 net.cpp:408] res4b_branch2a -> res4b_branch2a
I0912 20:03:49.356813 27373 net.cpp:150] Setting up res4b_branch2a
I0912 20:03:49.356829 27373 net.cpp:157] Top shape: 16 256 14 14 (802816)
I0912 20:03:49.356832 27373 net.cpp:165] Memory required for data: 2762375232
I0912 20:03:49.356850 27373 layer_factory.hpp:77] Creating layer bn4b_branch2a
I0912 20:03:49.356861 27373 net.cpp:100] Creating Layer bn4b_branch2a
I0912 20:03:49.356868 27373 net.cpp:434] bn4b_branch2a <- res4b_branch2a
I0912 20:03:49.356875 27373 net.cpp:395] bn4b_branch2a -> res4b_branch2a (in-place)
I0912 20:03:49.357053 27373 net.cpp:150] Setting up bn4b_branch2a
I0912 20:03:49.357065 27373 net.cpp:157] Top shape: 16 256 14 14 (802816)
I0912 20:03:49.357069 27373 net.cpp:165] Memory required for data: 2765586496
I0912 20:03:49.357080 27373 layer_factory.hpp:77] Creating layer scale4b_branch2a
I0912 20:03:49.357090 27373 net.cpp:100] Creating Layer scale4b_branch2a
I0912 20:03:49.357096 27373 net.cpp:434] scale4b_branch2a <- res4b_branch2a
I0912 20:03:49.357103 27373 net.cpp:395] scale4b_branch2a -> res4b_branch2a (in-place)
I0912 20:03:49.357161 27373 layer_factory.hpp:77] Creating layer scale4b_branch2a
I0912 20:03:49.357267 27373 net.cpp:150] Setting up scale4b_branch2a
I0912 20:03:49.357278 27373 net.cpp:157] Top shape: 16 256 14 14 (802816)
I0912 20:03:49.357281 27373 net.cpp:165] Memory required for data: 2768797760
I0912 20:03:49.357288 27373 layer_factory.hpp:77] Creating layer res4b_branch2a_relu
I0912 20:03:49.357298 27373 net.cpp:100] Creating Layer res4b_branch2a_relu
I0912 20:03:49.357306 27373 net.cpp:434] res4b_branch2a_relu <- res4b_branch2a
I0912 20:03:49.357311 27373 net.cpp:395] res4b_branch2a_relu -> res4b_branch2a (in-place)
I0912 20:03:49.357321 27373 net.cpp:150] Setting up res4b_branch2a_relu
I0912 20:03:49.357329 27373 net.cpp:157] Top shape: 16 256 14 14 (802816)
I0912 20:03:49.357334 27373 net.cpp:165] Memory required for data: 2772009024
I0912 20:03:49.357341 27373 layer_factory.hpp:77] Creating layer res4b_branch2b
I0912 20:03:49.357358 27373 net.cpp:100] Creating Layer res4b_branch2b
I0912 20:03:49.357364 27373 net.cpp:434] res4b_branch2b <- res4b_branch2a
I0912 20:03:49.357373 27373 net.cpp:408] res4b_branch2b -> res4b_branch2b
I0912 20:03:49.358659 27373 net.cpp:150] Setting up res4b_branch2b
I0912 20:03:49.358674 27373 net.cpp:157] Top shape: 16 256 14 14 (802816)
I0912 20:03:49.358676 27373 net.cpp:165] Memory required for data: 2775220288
I0912 20:03:49.358681 27373 layer_factory.hpp:77] Creating layer bn4b_branch2b
I0912 20:03:49.358688 27373 net.cpp:100] Creating Layer bn4b_branch2b
I0912 20:03:49.358692 27373 net.cpp:434] bn4b_branch2b <- res4b_branch2b
I0912 20:03:49.358695 27373 net.cpp:395] bn4b_branch2b -> res4b_branch2b (in-place)
I0912 20:03:49.358862 27373 net.cpp:150] Setting up bn4b_branch2b
I0912 20:03:49.358875 27373 net.cpp:157] Top shape: 16 256 14 14 (802816)
I0912 20:03:49.358877 27373 net.cpp:165] Memory required for data: 2778431552
I0912 20:03:49.358886 27373 layer_factory.hpp:77] Creating layer scale4b_branch2b
I0912 20:03:49.358893 27373 net.cpp:100] Creating Layer scale4b_branch2b
I0912 20:03:49.358899 27373 net.cpp:434] scale4b_branch2b <- res4b_branch2b
I0912 20:03:49.358908 27373 net.cpp:395] scale4b_branch2b -> res4b_branch2b (in-place)
I0912 20:03:49.358959 27373 layer_factory.hpp:77] Creating layer scale4b_branch2b
I0912 20:03:49.359066 27373 net.cpp:150] Setting up scale4b_branch2b
I0912 20:03:49.359077 27373 net.cpp:157] Top shape: 16 256 14 14 (802816)
I0912 20:03:49.359081 27373 net.cpp:165] Memory required for data: 2781642816
I0912 20:03:49.359087 27373 layer_factory.hpp:77] Creating layer res4b_branch2b_relu
I0912 20:03:49.359096 27373 net.cpp:100] Creating Layer res4b_branch2b_relu
I0912 20:03:49.359100 27373 net.cpp:434] res4b_branch2b_relu <- res4b_branch2b
I0912 20:03:49.359107 27373 net.cpp:395] res4b_branch2b_relu -> res4b_branch2b (in-place)
I0912 20:03:49.359114 27373 net.cpp:150] Setting up res4b_branch2b_relu
I0912 20:03:49.359122 27373 net.cpp:157] Top shape: 16 256 14 14 (802816)
I0912 20:03:49.359125 27373 net.cpp:165] Memory required for data: 2784854080
I0912 20:03:49.359130 27373 layer_factory.hpp:77] Creating layer res4b_branch2c
I0912 20:03:49.359143 27373 net.cpp:100] Creating Layer res4b_branch2c
I0912 20:03:49.359148 27373 net.cpp:434] res4b_branch2c <- res4b_branch2b
I0912 20:03:49.359172 27373 net.cpp:408] res4b_branch2c -> res4b_branch2c
I0912 20:03:49.359925 27373 net.cpp:150] Setting up res4b_branch2c
I0912 20:03:49.359941 27373 net.cpp:157] Top shape: 16 1024 14 14 (3211264)
I0912 20:03:49.359943 27373 net.cpp:165] Memory required for data: 2797699136
I0912 20:03:49.359948 27373 layer_factory.hpp:77] Creating layer bn4b_branch2c
I0912 20:03:49.359953 27373 net.cpp:100] Creating Layer bn4b_branch2c
I0912 20:03:49.359957 27373 net.cpp:434] bn4b_branch2c <- res4b_branch2c
I0912 20:03:49.359962 27373 net.cpp:395] bn4b_branch2c -> res4b_branch2c (in-place)
I0912 20:03:49.360138 27373 net.cpp:150] Setting up bn4b_branch2c
I0912 20:03:49.360152 27373 net.cpp:157] Top shape: 16 1024 14 14 (3211264)
I0912 20:03:49.360154 27373 net.cpp:165] Memory required for data: 2810544192
I0912 20:03:49.360162 27373 layer_factory.hpp:77] Creating layer scale4b_branch2c
I0912 20:03:49.360172 27373 net.cpp:100] Creating Layer scale4b_branch2c
I0912 20:03:49.360178 27373 net.cpp:434] scale4b_branch2c <- res4b_branch2c
I0912 20:03:49.360185 27373 net.cpp:395] scale4b_branch2c -> res4b_branch2c (in-place)
I0912 20:03:49.360234 27373 layer_factory.hpp:77] Creating layer scale4b_branch2c
I0912 20:03:49.360338 27373 net.cpp:150] Setting up scale4b_branch2c
I0912 20:03:49.360349 27373 net.cpp:157] Top shape: 16 1024 14 14 (3211264)
I0912 20:03:49.360352 27373 net.cpp:165] Memory required for data: 2823389248
I0912 20:03:49.360358 27373 layer_factory.hpp:77] Creating layer res4b
I0912 20:03:49.360366 27373 net.cpp:100] Creating Layer res4b
I0912 20:03:49.360373 27373 net.cpp:434] res4b <- res4a_res4a_relu_0_split_1
I0912 20:03:49.360378 27373 net.cpp:434] res4b <- res4b_branch2c
I0912 20:03:49.360388 27373 net.cpp:408] res4b -> res4b
I0912 20:03:49.360420 27373 net.cpp:150] Setting up res4b
I0912 20:03:49.360432 27373 net.cpp:157] Top shape: 16 1024 14 14 (3211264)
I0912 20:03:49.360435 27373 net.cpp:165] Memory required for data: 2836234304
I0912 20:03:49.360438 27373 layer_factory.hpp:77] Creating layer res4b_relu
I0912 20:03:49.360448 27373 net.cpp:100] Creating Layer res4b_relu
I0912 20:03:49.360455 27373 net.cpp:434] res4b_relu <- res4b
I0912 20:03:49.360461 27373 net.cpp:395] res4b_relu -> res4b (in-place)
I0912 20:03:49.360469 27373 net.cpp:150] Setting up res4b_relu
I0912 20:03:49.360476 27373 net.cpp:157] Top shape: 16 1024 14 14 (3211264)
I0912 20:03:49.360481 27373 net.cpp:165] Memory required for data: 2849079360
I0912 20:03:49.360484 27373 layer_factory.hpp:77] Creating layer res4b_res4b_relu_0_split
I0912 20:03:49.360496 27373 net.cpp:100] Creating Layer res4b_res4b_relu_0_split
I0912 20:03:49.360501 27373 net.cpp:434] res4b_res4b_relu_0_split <- res4b
I0912 20:03:49.360507 27373 net.cpp:408] res4b_res4b_relu_0_split -> res4b_res4b_relu_0_split_0
I0912 20:03:49.360515 27373 net.cpp:408] res4b_res4b_relu_0_split -> res4b_res4b_relu_0_split_1
I0912 20:03:49.360563 27373 net.cpp:150] Setting up res4b_res4b_relu_0_split
I0912 20:03:49.360572 27373 net.cpp:157] Top shape: 16 1024 14 14 (3211264)
I0912 20:03:49.360576 27373 net.cpp:157] Top shape: 16 1024 14 14 (3211264)
I0912 20:03:49.360579 27373 net.cpp:165] Memory required for data: 2874769472
I0912 20:03:49.360592 27373 layer_factory.hpp:77] Creating layer res4c_branch2a
I0912 20:03:49.360605 27373 net.cpp:100] Creating Layer res4c_branch2a
I0912 20:03:49.360611 27373 net.cpp:434] res4c_branch2a <- res4b_res4b_relu_0_split_0
I0912 20:03:49.360620 27373 net.cpp:408] res4c_branch2a -> res4c_branch2a
I0912 20:03:49.361361 27373 net.cpp:150] Setting up res4c_branch2a
I0912 20:03:49.361376 27373 net.cpp:157] Top shape: 16 256 14 14 (802816)
I0912 20:03:49.361378 27373 net.cpp:165] Memory required for data: 2877980736
I0912 20:03:49.361384 27373 layer_factory.hpp:77] Creating layer bn4c_branch2a
I0912 20:03:49.361393 27373 net.cpp:100] Creating Layer bn4c_branch2a
I0912 20:03:49.361398 27373 net.cpp:434] bn4c_branch2a <- res4c_branch2a
I0912 20:03:49.361405 27373 net.cpp:395] bn4c_branch2a -> res4c_branch2a (in-place)
I0912 20:03:49.361577 27373 net.cpp:150] Setting up bn4c_branch2a
I0912 20:03:49.361590 27373 net.cpp:157] Top shape: 16 256 14 14 (802816)
I0912 20:03:49.361593 27373 net.cpp:165] Memory required for data: 2881192000
I0912 20:03:49.361604 27373 layer_factory.hpp:77] Creating layer scale4c_branch2a
I0912 20:03:49.361613 27373 net.cpp:100] Creating Layer scale4c_branch2a
I0912 20:03:49.361619 27373 net.cpp:434] scale4c_branch2a <- res4c_branch2a
I0912 20:03:49.361626 27373 net.cpp:395] scale4c_branch2a -> res4c_branch2a (in-place)
I0912 20:03:49.361678 27373 layer_factory.hpp:77] Creating layer scale4c_branch2a
I0912 20:03:49.361783 27373 net.cpp:150] Setting up scale4c_branch2a
I0912 20:03:49.361793 27373 net.cpp:157] Top shape: 16 256 14 14 (802816)
I0912 20:03:49.361796 27373 net.cpp:165] Memory required for data: 2884403264
I0912 20:03:49.361804 27373 layer_factory.hpp:77] Creating layer res4c_branch2a_relu
I0912 20:03:49.361816 27373 net.cpp:100] Creating Layer res4c_branch2a_relu
I0912 20:03:49.361824 27373 net.cpp:434] res4c_branch2a_relu <- res4c_branch2a
I0912 20:03:49.361829 27373 net.cpp:395] res4c_branch2a_relu -> res4c_branch2a (in-place)
I0912 20:03:49.361838 27373 net.cpp:150] Setting up res4c_branch2a_relu
I0912 20:03:49.361845 27373 net.cpp:157] Top shape: 16 256 14 14 (802816)
I0912 20:03:49.361850 27373 net.cpp:165] Memory required for data: 2887614528
I0912 20:03:49.361855 27373 layer_factory.hpp:77] Creating layer res4c_branch2b
I0912 20:03:49.361867 27373 net.cpp:100] Creating Layer res4c_branch2b
I0912 20:03:49.361873 27373 net.cpp:434] res4c_branch2b <- res4c_branch2a
I0912 20:03:49.361881 27373 net.cpp:408] res4c_branch2b -> res4c_branch2b
I0912 20:03:49.363132 27373 net.cpp:150] Setting up res4c_branch2b
I0912 20:03:49.363149 27373 net.cpp:157] Top shape: 16 256 14 14 (802816)
I0912 20:03:49.363152 27373 net.cpp:165] Memory required for data: 2890825792
I0912 20:03:49.363157 27373 layer_factory.hpp:77] Creating layer bn4c_branch2b
I0912 20:03:49.363167 27373 net.cpp:100] Creating Layer bn4c_branch2b
I0912 20:03:49.363171 27373 net.cpp:434] bn4c_branch2b <- res4c_branch2b
I0912 20:03:49.363178 27373 net.cpp:395] bn4c_branch2b -> res4c_branch2b (in-place)
I0912 20:03:49.363340 27373 net.cpp:150] Setting up bn4c_branch2b
I0912 20:03:49.363353 27373 net.cpp:157] Top shape: 16 256 14 14 (802816)
I0912 20:03:49.363355 27373 net.cpp:165] Memory required for data: 2894037056
I0912 20:03:49.363363 27373 layer_factory.hpp:77] Creating layer scale4c_branch2b
I0912 20:03:49.363373 27373 net.cpp:100] Creating Layer scale4c_branch2b
I0912 20:03:49.363379 27373 net.cpp:434] scale4c_branch2b <- res4c_branch2b
I0912 20:03:49.363384 27373 net.cpp:395] scale4c_branch2b -> res4c_branch2b (in-place)
I0912 20:03:49.363438 27373 layer_factory.hpp:77] Creating layer scale4c_branch2b
I0912 20:03:49.363543 27373 net.cpp:150] Setting up scale4c_branch2b
I0912 20:03:49.363556 27373 net.cpp:157] Top shape: 16 256 14 14 (802816)
I0912 20:03:49.363561 27373 net.cpp:165] Memory required for data: 2897248320
I0912 20:03:49.363570 27373 layer_factory.hpp:77] Creating layer res4c_branch2b_relu
I0912 20:03:49.363580 27373 net.cpp:100] Creating Layer res4c_branch2b_relu
I0912 20:03:49.363586 27373 net.cpp:434] res4c_branch2b_relu <- res4c_branch2b
I0912 20:03:49.363593 27373 net.cpp:395] res4c_branch2b_relu -> res4c_branch2b (in-place)
I0912 20:03:49.363602 27373 net.cpp:150] Setting up res4c_branch2b_relu
I0912 20:03:49.363610 27373 net.cpp:157] Top shape: 16 256 14 14 (802816)
I0912 20:03:49.363615 27373 net.cpp:165] Memory required for data: 2900459584
I0912 20:03:49.363620 27373 layer_factory.hpp:77] Creating layer res4c_branch2c
I0912 20:03:49.363631 27373 net.cpp:100] Creating Layer res4c_branch2c
I0912 20:03:49.363636 27373 net.cpp:434] res4c_branch2c <- res4c_branch2b
I0912 20:03:49.363643 27373 net.cpp:408] res4c_branch2c -> res4c_branch2c
I0912 20:03:49.364383 27373 net.cpp:150] Setting up res4c_branch2c
I0912 20:03:49.364398 27373 net.cpp:157] Top shape: 16 1024 14 14 (3211264)
I0912 20:03:49.364400 27373 net.cpp:165] Memory required for data: 2913304640
I0912 20:03:49.364418 27373 layer_factory.hpp:77] Creating layer bn4c_branch2c
I0912 20:03:49.364424 27373 net.cpp:100] Creating Layer bn4c_branch2c
I0912 20:03:49.364429 27373 net.cpp:434] bn4c_branch2c <- res4c_branch2c
I0912 20:03:49.364435 27373 net.cpp:395] bn4c_branch2c -> res4c_branch2c (in-place)
I0912 20:03:49.364615 27373 net.cpp:150] Setting up bn4c_branch2c
I0912 20:03:49.364629 27373 net.cpp:157] Top shape: 16 1024 14 14 (3211264)
I0912 20:03:49.364631 27373 net.cpp:165] Memory required for data: 2926149696
I0912 20:03:49.364639 27373 layer_factory.hpp:77] Creating layer scale4c_branch2c
I0912 20:03:49.364652 27373 net.cpp:100] Creating Layer scale4c_branch2c
I0912 20:03:49.364660 27373 net.cpp:434] scale4c_branch2c <- res4c_branch2c
I0912 20:03:49.364666 27373 net.cpp:395] scale4c_branch2c -> res4c_branch2c (in-place)
I0912 20:03:49.364717 27373 layer_factory.hpp:77] Creating layer scale4c_branch2c
I0912 20:03:49.364831 27373 net.cpp:150] Setting up scale4c_branch2c
I0912 20:03:49.364846 27373 net.cpp:157] Top shape: 16 1024 14 14 (3211264)
I0912 20:03:49.364850 27373 net.cpp:165] Memory required for data: 2938994752
I0912 20:03:49.364856 27373 layer_factory.hpp:77] Creating layer res4c
I0912 20:03:49.364863 27373 net.cpp:100] Creating Layer res4c
I0912 20:03:49.364869 27373 net.cpp:434] res4c <- res4b_res4b_relu_0_split_1
I0912 20:03:49.364876 27373 net.cpp:434] res4c <- res4c_branch2c
I0912 20:03:49.364884 27373 net.cpp:408] res4c -> res4c
I0912 20:03:49.364919 27373 net.cpp:150] Setting up res4c
I0912 20:03:49.364938 27373 net.cpp:157] Top shape: 16 1024 14 14 (3211264)
I0912 20:03:49.364943 27373 net.cpp:165] Memory required for data: 2951839808
I0912 20:03:49.364949 27373 layer_factory.hpp:77] Creating layer res4c_relu
I0912 20:03:49.364956 27373 net.cpp:100] Creating Layer res4c_relu
I0912 20:03:49.364962 27373 net.cpp:434] res4c_relu <- res4c
I0912 20:03:49.364969 27373 net.cpp:395] res4c_relu -> res4c (in-place)
I0912 20:03:49.364976 27373 net.cpp:150] Setting up res4c_relu
I0912 20:03:49.364984 27373 net.cpp:157] Top shape: 16 1024 14 14 (3211264)
I0912 20:03:49.364989 27373 net.cpp:165] Memory required for data: 2964684864
I0912 20:03:49.364994 27373 layer_factory.hpp:77] Creating layer res4c_res4c_relu_0_split
I0912 20:03:49.365000 27373 net.cpp:100] Creating Layer res4c_res4c_relu_0_split
I0912 20:03:49.365006 27373 net.cpp:434] res4c_res4c_relu_0_split <- res4c
I0912 20:03:49.365015 27373 net.cpp:408] res4c_res4c_relu_0_split -> res4c_res4c_relu_0_split_0
I0912 20:03:49.365023 27373 net.cpp:408] res4c_res4c_relu_0_split -> res4c_res4c_relu_0_split_1
I0912 20:03:49.365069 27373 net.cpp:150] Setting up res4c_res4c_relu_0_split
I0912 20:03:49.365083 27373 net.cpp:157] Top shape: 16 1024 14 14 (3211264)
I0912 20:03:49.365090 27373 net.cpp:157] Top shape: 16 1024 14 14 (3211264)
I0912 20:03:49.365095 27373 net.cpp:165] Memory required for data: 2990374976
I0912 20:03:49.365100 27373 layer_factory.hpp:77] Creating layer res4d_branch2a
I0912 20:03:49.365111 27373 net.cpp:100] Creating Layer res4d_branch2a
I0912 20:03:49.365118 27373 net.cpp:434] res4d_branch2a <- res4c_res4c_relu_0_split_0
I0912 20:03:49.365125 27373 net.cpp:408] res4d_branch2a -> res4d_branch2a
I0912 20:03:49.365912 27373 net.cpp:150] Setting up res4d_branch2a
I0912 20:03:49.365927 27373 net.cpp:157] Top shape: 16 256 14 14 (802816)
I0912 20:03:49.365931 27373 net.cpp:165] Memory required for data: 2993586240
I0912 20:03:49.365936 27373 layer_factory.hpp:77] Creating layer bn4d_branch2a
I0912 20:03:49.365942 27373 net.cpp:100] Creating Layer bn4d_branch2a
I0912 20:03:49.365947 27373 net.cpp:434] bn4d_branch2a <- res4d_branch2a
I0912 20:03:49.365950 27373 net.cpp:395] bn4d_branch2a -> res4d_branch2a (in-place)
I0912 20:03:49.366118 27373 net.cpp:150] Setting up bn4d_branch2a
I0912 20:03:49.366130 27373 net.cpp:157] Top shape: 16 256 14 14 (802816)
I0912 20:03:49.366133 27373 net.cpp:165] Memory required for data: 2996797504
I0912 20:03:49.366142 27373 layer_factory.hpp:77] Creating layer scale4d_branch2a
I0912 20:03:49.366165 27373 net.cpp:100] Creating Layer scale4d_branch2a
I0912 20:03:49.366173 27373 net.cpp:434] scale4d_branch2a <- res4d_branch2a
I0912 20:03:49.366183 27373 net.cpp:395] scale4d_branch2a -> res4d_branch2a (in-place)
I0912 20:03:49.366233 27373 layer_factory.hpp:77] Creating layer scale4d_branch2a
I0912 20:03:49.366343 27373 net.cpp:150] Setting up scale4d_branch2a
I0912 20:03:49.366356 27373 net.cpp:157] Top shape: 16 256 14 14 (802816)
I0912 20:03:49.366359 27373 net.cpp:165] Memory required for data: 3000008768
I0912 20:03:49.366366 27373 layer_factory.hpp:77] Creating layer res4d_branch2a_relu
I0912 20:03:49.366374 27373 net.cpp:100] Creating Layer res4d_branch2a_relu
I0912 20:03:49.366380 27373 net.cpp:434] res4d_branch2a_relu <- res4d_branch2a
I0912 20:03:49.366386 27373 net.cpp:395] res4d_branch2a_relu -> res4d_branch2a (in-place)
I0912 20:03:49.366394 27373 net.cpp:150] Setting up res4d_branch2a_relu
I0912 20:03:49.366401 27373 net.cpp:157] Top shape: 16 256 14 14 (802816)
I0912 20:03:49.366407 27373 net.cpp:165] Memory required for data: 3003220032
I0912 20:03:49.366412 27373 layer_factory.hpp:77] Creating layer res4d_branch2b
I0912 20:03:49.366425 27373 net.cpp:100] Creating Layer res4d_branch2b
I0912 20:03:49.366430 27373 net.cpp:434] res4d_branch2b <- res4d_branch2a
I0912 20:03:49.366437 27373 net.cpp:408] res4d_branch2b -> res4d_branch2b
I0912 20:03:49.367822 27373 net.cpp:150] Setting up res4d_branch2b
I0912 20:03:49.367847 27373 net.cpp:157] Top shape: 16 256 14 14 (802816)
I0912 20:03:49.367851 27373 net.cpp:165] Memory required for data: 3006431296
I0912 20:03:49.367856 27373 layer_factory.hpp:77] Creating layer bn4d_branch2b
I0912 20:03:49.367866 27373 net.cpp:100] Creating Layer bn4d_branch2b
I0912 20:03:49.367871 27373 net.cpp:434] bn4d_branch2b <- res4d_branch2b
I0912 20:03:49.367883 27373 net.cpp:395] bn4d_branch2b -> res4d_branch2b (in-place)
I0912 20:03:49.368054 27373 net.cpp:150] Setting up bn4d_branch2b
I0912 20:03:49.368067 27373 net.cpp:157] Top shape: 16 256 14 14 (802816)
I0912 20:03:49.368069 27373 net.cpp:165] Memory required for data: 3009642560
I0912 20:03:49.368078 27373 layer_factory.hpp:77] Creating layer scale4d_branch2b
I0912 20:03:49.368086 27373 net.cpp:100] Creating Layer scale4d_branch2b
I0912 20:03:49.368093 27373 net.cpp:434] scale4d_branch2b <- res4d_branch2b
I0912 20:03:49.368099 27373 net.cpp:395] scale4d_branch2b -> res4d_branch2b (in-place)
I0912 20:03:49.368155 27373 layer_factory.hpp:77] Creating layer scale4d_branch2b
I0912 20:03:49.368259 27373 net.cpp:150] Setting up scale4d_branch2b
I0912 20:03:49.368270 27373 net.cpp:157] Top shape: 16 256 14 14 (802816)
I0912 20:03:49.368273 27373 net.cpp:165] Memory required for data: 3012853824
I0912 20:03:49.368279 27373 layer_factory.hpp:77] Creating layer res4d_branch2b_relu
I0912 20:03:49.368288 27373 net.cpp:100] Creating Layer res4d_branch2b_relu
I0912 20:03:49.368293 27373 net.cpp:434] res4d_branch2b_relu <- res4d_branch2b
I0912 20:03:49.368301 27373 net.cpp:395] res4d_branch2b_relu -> res4d_branch2b (in-place)
I0912 20:03:49.368310 27373 net.cpp:150] Setting up res4d_branch2b_relu
I0912 20:03:49.368317 27373 net.cpp:157] Top shape: 16 256 14 14 (802816)
I0912 20:03:49.368321 27373 net.cpp:165] Memory required for data: 3016065088
I0912 20:03:49.368326 27373 layer_factory.hpp:77] Creating layer res4d_branch2c
I0912 20:03:49.368336 27373 net.cpp:100] Creating Layer res4d_branch2c
I0912 20:03:49.368341 27373 net.cpp:434] res4d_branch2c <- res4d_branch2b
I0912 20:03:49.368351 27373 net.cpp:408] res4d_branch2c -> res4d_branch2c
I0912 20:03:49.369112 27373 net.cpp:150] Setting up res4d_branch2c
I0912 20:03:49.369127 27373 net.cpp:157] Top shape: 16 1024 14 14 (3211264)
I0912 20:03:49.369130 27373 net.cpp:165] Memory required for data: 3028910144
I0912 20:03:49.369134 27373 layer_factory.hpp:77] Creating layer bn4d_branch2c
I0912 20:03:49.369140 27373 net.cpp:100] Creating Layer bn4d_branch2c
I0912 20:03:49.369143 27373 net.cpp:434] bn4d_branch2c <- res4d_branch2c
I0912 20:03:49.369148 27373 net.cpp:395] bn4d_branch2c -> res4d_branch2c (in-place)
I0912 20:03:49.369333 27373 net.cpp:150] Setting up bn4d_branch2c
I0912 20:03:49.369344 27373 net.cpp:157] Top shape: 16 1024 14 14 (3211264)
I0912 20:03:49.369348 27373 net.cpp:165] Memory required for data: 3041755200
I0912 20:03:49.369356 27373 layer_factory.hpp:77] Creating layer scale4d_branch2c
I0912 20:03:49.369369 27373 net.cpp:100] Creating Layer scale4d_branch2c
I0912 20:03:49.369374 27373 net.cpp:434] scale4d_branch2c <- res4d_branch2c
I0912 20:03:49.369381 27373 net.cpp:395] scale4d_branch2c -> res4d_branch2c (in-place)
I0912 20:03:49.369431 27373 layer_factory.hpp:77] Creating layer scale4d_branch2c
I0912 20:03:49.369544 27373 net.cpp:150] Setting up scale4d_branch2c
I0912 20:03:49.369555 27373 net.cpp:157] Top shape: 16 1024 14 14 (3211264)
I0912 20:03:49.369560 27373 net.cpp:165] Memory required for data: 3054600256
I0912 20:03:49.369568 27373 layer_factory.hpp:77] Creating layer res4d
I0912 20:03:49.369576 27373 net.cpp:100] Creating Layer res4d
I0912 20:03:49.369582 27373 net.cpp:434] res4d <- res4c_res4c_relu_0_split_1
I0912 20:03:49.369588 27373 net.cpp:434] res4d <- res4d_branch2c
I0912 20:03:49.369597 27373 net.cpp:408] res4d -> res4d
I0912 20:03:49.369634 27373 net.cpp:150] Setting up res4d
I0912 20:03:49.369645 27373 net.cpp:157] Top shape: 16 1024 14 14 (3211264)
I0912 20:03:49.369648 27373 net.cpp:165] Memory required for data: 3067445312
I0912 20:03:49.369652 27373 layer_factory.hpp:77] Creating layer res4d_relu
I0912 20:03:49.369658 27373 net.cpp:100] Creating Layer res4d_relu
I0912 20:03:49.369663 27373 net.cpp:434] res4d_relu <- res4d
I0912 20:03:49.369670 27373 net.cpp:395] res4d_relu -> res4d (in-place)
I0912 20:03:49.369678 27373 net.cpp:150] Setting up res4d_relu
I0912 20:03:49.369685 27373 net.cpp:157] Top shape: 16 1024 14 14 (3211264)
I0912 20:03:49.369689 27373 net.cpp:165] Memory required for data: 3080290368
I0912 20:03:49.369694 27373 layer_factory.hpp:77] Creating layer res4d_res4d_relu_0_split
I0912 20:03:49.369701 27373 net.cpp:100] Creating Layer res4d_res4d_relu_0_split
I0912 20:03:49.369706 27373 net.cpp:434] res4d_res4d_relu_0_split <- res4d
I0912 20:03:49.369715 27373 net.cpp:408] res4d_res4d_relu_0_split -> res4d_res4d_relu_0_split_0
I0912 20:03:49.369724 27373 net.cpp:408] res4d_res4d_relu_0_split -> res4d_res4d_relu_0_split_1
I0912 20:03:49.369772 27373 net.cpp:150] Setting up res4d_res4d_relu_0_split
I0912 20:03:49.369784 27373 net.cpp:157] Top shape: 16 1024 14 14 (3211264)
I0912 20:03:49.369787 27373 net.cpp:157] Top shape: 16 1024 14 14 (3211264)
I0912 20:03:49.369791 27373 net.cpp:165] Memory required for data: 3105980480
I0912 20:03:49.369796 27373 layer_factory.hpp:77] Creating layer res4e_branch2a
I0912 20:03:49.369804 27373 net.cpp:100] Creating Layer res4e_branch2a
I0912 20:03:49.369810 27373 net.cpp:434] res4e_branch2a <- res4d_res4d_relu_0_split_0
I0912 20:03:49.369817 27373 net.cpp:408] res4e_branch2a -> res4e_branch2a
I0912 20:03:49.370551 27373 net.cpp:150] Setting up res4e_branch2a
I0912 20:03:49.370565 27373 net.cpp:157] Top shape: 16 256 14 14 (802816)
I0912 20:03:49.370568 27373 net.cpp:165] Memory required for data: 3109191744
I0912 20:03:49.370575 27373 layer_factory.hpp:77] Creating layer bn4e_branch2a
I0912 20:03:49.370585 27373 net.cpp:100] Creating Layer bn4e_branch2a
I0912 20:03:49.370591 27373 net.cpp:434] bn4e_branch2a <- res4e_branch2a
I0912 20:03:49.370599 27373 net.cpp:395] bn4e_branch2a -> res4e_branch2a (in-place)
I0912 20:03:49.370761 27373 net.cpp:150] Setting up bn4e_branch2a
I0912 20:03:49.370772 27373 net.cpp:157] Top shape: 16 256 14 14 (802816)
I0912 20:03:49.370775 27373 net.cpp:165] Memory required for data: 3112403008
I0912 20:03:49.370784 27373 layer_factory.hpp:77] Creating layer scale4e_branch2a
I0912 20:03:49.370792 27373 net.cpp:100] Creating Layer scale4e_branch2a
I0912 20:03:49.370798 27373 net.cpp:434] scale4e_branch2a <- res4e_branch2a
I0912 20:03:49.370806 27373 net.cpp:395] scale4e_branch2a -> res4e_branch2a (in-place)
I0912 20:03:49.370857 27373 layer_factory.hpp:77] Creating layer scale4e_branch2a
I0912 20:03:49.370973 27373 net.cpp:150] Setting up scale4e_branch2a
I0912 20:03:49.370988 27373 net.cpp:157] Top shape: 16 256 14 14 (802816)
I0912 20:03:49.370991 27373 net.cpp:165] Memory required for data: 3115614272
I0912 20:03:49.370998 27373 layer_factory.hpp:77] Creating layer res4e_branch2a_relu
I0912 20:03:49.371006 27373 net.cpp:100] Creating Layer res4e_branch2a_relu
I0912 20:03:49.371011 27373 net.cpp:434] res4e_branch2a_relu <- res4e_branch2a
I0912 20:03:49.371018 27373 net.cpp:395] res4e_branch2a_relu -> res4e_branch2a (in-place)
I0912 20:03:49.371026 27373 net.cpp:150] Setting up res4e_branch2a_relu
I0912 20:03:49.371034 27373 net.cpp:157] Top shape: 16 256 14 14 (802816)
I0912 20:03:49.371039 27373 net.cpp:165] Memory required for data: 3118825536
I0912 20:03:49.371043 27373 layer_factory.hpp:77] Creating layer res4e_branch2b
I0912 20:03:49.371055 27373 net.cpp:100] Creating Layer res4e_branch2b
I0912 20:03:49.371060 27373 net.cpp:434] res4e_branch2b <- res4e_branch2a
I0912 20:03:49.371073 27373 net.cpp:408] res4e_branch2b -> res4e_branch2b
I0912 20:03:49.372288 27373 net.cpp:150] Setting up res4e_branch2b
I0912 20:03:49.372303 27373 net.cpp:157] Top shape: 16 256 14 14 (802816)
I0912 20:03:49.372306 27373 net.cpp:165] Memory required for data: 3122036800
I0912 20:03:49.372313 27373 layer_factory.hpp:77] Creating layer bn4e_branch2b
I0912 20:03:49.372320 27373 net.cpp:100] Creating Layer bn4e_branch2b
I0912 20:03:49.372325 27373 net.cpp:434] bn4e_branch2b <- res4e_branch2b
I0912 20:03:49.372334 27373 net.cpp:395] bn4e_branch2b -> res4e_branch2b (in-place)
I0912 20:03:49.372500 27373 net.cpp:150] Setting up bn4e_branch2b
I0912 20:03:49.372511 27373 net.cpp:157] Top shape: 16 256 14 14 (802816)
I0912 20:03:49.372514 27373 net.cpp:165] Memory required for data: 3125248064
I0912 20:03:49.372522 27373 layer_factory.hpp:77] Creating layer scale4e_branch2b
I0912 20:03:49.372531 27373 net.cpp:100] Creating Layer scale4e_branch2b
I0912 20:03:49.372536 27373 net.cpp:434] scale4e_branch2b <- res4e_branch2b
I0912 20:03:49.372544 27373 net.cpp:395] scale4e_branch2b -> res4e_branch2b (in-place)
I0912 20:03:49.372602 27373 layer_factory.hpp:77] Creating layer scale4e_branch2b
I0912 20:03:49.372720 27373 net.cpp:150] Setting up scale4e_branch2b
I0912 20:03:49.372732 27373 net.cpp:157] Top shape: 16 256 14 14 (802816)
I0912 20:03:49.372735 27373 net.cpp:165] Memory required for data: 3128459328
I0912 20:03:49.372741 27373 layer_factory.hpp:77] Creating layer res4e_branch2b_relu
I0912 20:03:49.372750 27373 net.cpp:100] Creating Layer res4e_branch2b_relu
I0912 20:03:49.372755 27373 net.cpp:434] res4e_branch2b_relu <- res4e_branch2b
I0912 20:03:49.372763 27373 net.cpp:395] res4e_branch2b_relu -> res4e_branch2b (in-place)
I0912 20:03:49.372772 27373 net.cpp:150] Setting up res4e_branch2b_relu
I0912 20:03:49.372779 27373 net.cpp:157] Top shape: 16 256 14 14 (802816)
I0912 20:03:49.372784 27373 net.cpp:165] Memory required for data: 3131670592
I0912 20:03:49.372789 27373 layer_factory.hpp:77] Creating layer res4e_branch2c
I0912 20:03:49.372798 27373 net.cpp:100] Creating Layer res4e_branch2c
I0912 20:03:49.372803 27373 net.cpp:434] res4e_branch2c <- res4e_branch2b
I0912 20:03:49.372812 27373 net.cpp:408] res4e_branch2c -> res4e_branch2c
I0912 20:03:49.373548 27373 net.cpp:150] Setting up res4e_branch2c
I0912 20:03:49.373563 27373 net.cpp:157] Top shape: 16 1024 14 14 (3211264)
I0912 20:03:49.373565 27373 net.cpp:165] Memory required for data: 3144515648
I0912 20:03:49.373569 27373 layer_factory.hpp:77] Creating layer bn4e_branch2c
I0912 20:03:49.373575 27373 net.cpp:100] Creating Layer bn4e_branch2c
I0912 20:03:49.373579 27373 net.cpp:434] bn4e_branch2c <- res4e_branch2c
I0912 20:03:49.373582 27373 net.cpp:395] bn4e_branch2c -> res4e_branch2c (in-place)
I0912 20:03:49.373759 27373 net.cpp:150] Setting up bn4e_branch2c
I0912 20:03:49.373771 27373 net.cpp:157] Top shape: 16 1024 14 14 (3211264)
I0912 20:03:49.373775 27373 net.cpp:165] Memory required for data: 3157360704
I0912 20:03:49.373797 27373 layer_factory.hpp:77] Creating layer scale4e_branch2c
I0912 20:03:49.373811 27373 net.cpp:100] Creating Layer scale4e_branch2c
I0912 20:03:49.373816 27373 net.cpp:434] scale4e_branch2c <- res4e_branch2c
I0912 20:03:49.373823 27373 net.cpp:395] scale4e_branch2c -> res4e_branch2c (in-place)
I0912 20:03:49.373874 27373 layer_factory.hpp:77] Creating layer scale4e_branch2c
I0912 20:03:49.373992 27373 net.cpp:150] Setting up scale4e_branch2c
I0912 20:03:49.374006 27373 net.cpp:157] Top shape: 16 1024 14 14 (3211264)
I0912 20:03:49.374007 27373 net.cpp:165] Memory required for data: 3170205760
I0912 20:03:49.374014 27373 layer_factory.hpp:77] Creating layer res4e
I0912 20:03:49.374022 27373 net.cpp:100] Creating Layer res4e
I0912 20:03:49.374028 27373 net.cpp:434] res4e <- res4d_res4d_relu_0_split_1
I0912 20:03:49.374033 27373 net.cpp:434] res4e <- res4e_branch2c
I0912 20:03:49.374043 27373 net.cpp:408] res4e -> res4e
I0912 20:03:49.374078 27373 net.cpp:150] Setting up res4e
I0912 20:03:49.374090 27373 net.cpp:157] Top shape: 16 1024 14 14 (3211264)
I0912 20:03:49.374094 27373 net.cpp:165] Memory required for data: 3183050816
I0912 20:03:49.374097 27373 layer_factory.hpp:77] Creating layer res4e_relu
I0912 20:03:49.374104 27373 net.cpp:100] Creating Layer res4e_relu
I0912 20:03:49.374109 27373 net.cpp:434] res4e_relu <- res4e
I0912 20:03:49.374115 27373 net.cpp:395] res4e_relu -> res4e (in-place)
I0912 20:03:49.374124 27373 net.cpp:150] Setting up res4e_relu
I0912 20:03:49.374131 27373 net.cpp:157] Top shape: 16 1024 14 14 (3211264)
I0912 20:03:49.374135 27373 net.cpp:165] Memory required for data: 3195895872
I0912 20:03:49.374140 27373 layer_factory.hpp:77] Creating layer res4e_res4e_relu_0_split
I0912 20:03:49.374150 27373 net.cpp:100] Creating Layer res4e_res4e_relu_0_split
I0912 20:03:49.374155 27373 net.cpp:434] res4e_res4e_relu_0_split <- res4e
I0912 20:03:49.374161 27373 net.cpp:408] res4e_res4e_relu_0_split -> res4e_res4e_relu_0_split_0
I0912 20:03:49.374168 27373 net.cpp:408] res4e_res4e_relu_0_split -> res4e_res4e_relu_0_split_1
I0912 20:03:49.374217 27373 net.cpp:150] Setting up res4e_res4e_relu_0_split
I0912 20:03:49.374230 27373 net.cpp:157] Top shape: 16 1024 14 14 (3211264)
I0912 20:03:49.374233 27373 net.cpp:157] Top shape: 16 1024 14 14 (3211264)
I0912 20:03:49.374236 27373 net.cpp:165] Memory required for data: 3221585984
I0912 20:03:49.374241 27373 layer_factory.hpp:77] Creating layer res4f_branch2a
I0912 20:03:49.374251 27373 net.cpp:100] Creating Layer res4f_branch2a
I0912 20:03:49.374258 27373 net.cpp:434] res4f_branch2a <- res4e_res4e_relu_0_split_0
I0912 20:03:49.374265 27373 net.cpp:408] res4f_branch2a -> res4f_branch2a
I0912 20:03:49.374985 27373 net.cpp:150] Setting up res4f_branch2a
I0912 20:03:49.374999 27373 net.cpp:157] Top shape: 16 256 14 14 (802816)
I0912 20:03:49.375002 27373 net.cpp:165] Memory required for data: 3224797248
I0912 20:03:49.375006 27373 layer_factory.hpp:77] Creating layer bn4f_branch2a
I0912 20:03:49.375013 27373 net.cpp:100] Creating Layer bn4f_branch2a
I0912 20:03:49.375016 27373 net.cpp:434] bn4f_branch2a <- res4f_branch2a
I0912 20:03:49.375021 27373 net.cpp:395] bn4f_branch2a -> res4f_branch2a (in-place)
I0912 20:03:49.375195 27373 net.cpp:150] Setting up bn4f_branch2a
I0912 20:03:49.375207 27373 net.cpp:157] Top shape: 16 256 14 14 (802816)
I0912 20:03:49.375211 27373 net.cpp:165] Memory required for data: 3228008512
I0912 20:03:49.375219 27373 layer_factory.hpp:77] Creating layer scale4f_branch2a
I0912 20:03:49.375227 27373 net.cpp:100] Creating Layer scale4f_branch2a
I0912 20:03:49.375233 27373 net.cpp:434] scale4f_branch2a <- res4f_branch2a
I0912 20:03:49.375242 27373 net.cpp:395] scale4f_branch2a -> res4f_branch2a (in-place)
I0912 20:03:49.375293 27373 layer_factory.hpp:77] Creating layer scale4f_branch2a
I0912 20:03:49.375403 27373 net.cpp:150] Setting up scale4f_branch2a
I0912 20:03:49.375416 27373 net.cpp:157] Top shape: 16 256 14 14 (802816)
I0912 20:03:49.375418 27373 net.cpp:165] Memory required for data: 3231219776
I0912 20:03:49.375424 27373 layer_factory.hpp:77] Creating layer res4f_branch2a_relu
I0912 20:03:49.375443 27373 net.cpp:100] Creating Layer res4f_branch2a_relu
I0912 20:03:49.375450 27373 net.cpp:434] res4f_branch2a_relu <- res4f_branch2a
I0912 20:03:49.375458 27373 net.cpp:395] res4f_branch2a_relu -> res4f_branch2a (in-place)
I0912 20:03:49.375468 27373 net.cpp:150] Setting up res4f_branch2a_relu
I0912 20:03:49.375474 27373 net.cpp:157] Top shape: 16 256 14 14 (802816)
I0912 20:03:49.375479 27373 net.cpp:165] Memory required for data: 3234431040
I0912 20:03:49.375484 27373 layer_factory.hpp:77] Creating layer res4f_branch2b
I0912 20:03:49.375499 27373 net.cpp:100] Creating Layer res4f_branch2b
I0912 20:03:49.375504 27373 net.cpp:434] res4f_branch2b <- res4f_branch2a
I0912 20:03:49.375512 27373 net.cpp:408] res4f_branch2b -> res4f_branch2b
I0912 20:03:49.376760 27373 net.cpp:150] Setting up res4f_branch2b
I0912 20:03:49.376775 27373 net.cpp:157] Top shape: 16 256 14 14 (802816)
I0912 20:03:49.376778 27373 net.cpp:165] Memory required for data: 3237642304
I0912 20:03:49.376785 27373 layer_factory.hpp:77] Creating layer bn4f_branch2b
I0912 20:03:49.376792 27373 net.cpp:100] Creating Layer bn4f_branch2b
I0912 20:03:49.376797 27373 net.cpp:434] bn4f_branch2b <- res4f_branch2b
I0912 20:03:49.376806 27373 net.cpp:395] bn4f_branch2b -> res4f_branch2b (in-place)
I0912 20:03:49.376989 27373 net.cpp:150] Setting up bn4f_branch2b
I0912 20:03:49.377002 27373 net.cpp:157] Top shape: 16 256 14 14 (802816)
I0912 20:03:49.377004 27373 net.cpp:165] Memory required for data: 3240853568
I0912 20:03:49.377012 27373 layer_factory.hpp:77] Creating layer scale4f_branch2b
I0912 20:03:49.377022 27373 net.cpp:100] Creating Layer scale4f_branch2b
I0912 20:03:49.377027 27373 net.cpp:434] scale4f_branch2b <- res4f_branch2b
I0912 20:03:49.377032 27373 net.cpp:395] scale4f_branch2b -> res4f_branch2b (in-place)
I0912 20:03:49.377085 27373 layer_factory.hpp:77] Creating layer scale4f_branch2b
I0912 20:03:49.377194 27373 net.cpp:150] Setting up scale4f_branch2b
I0912 20:03:49.377207 27373 net.cpp:157] Top shape: 16 256 14 14 (802816)
I0912 20:03:49.377209 27373 net.cpp:165] Memory required for data: 3244064832
I0912 20:03:49.377215 27373 layer_factory.hpp:77] Creating layer res4f_branch2b_relu
I0912 20:03:49.377223 27373 net.cpp:100] Creating Layer res4f_branch2b_relu
I0912 20:03:49.377228 27373 net.cpp:434] res4f_branch2b_relu <- res4f_branch2b
I0912 20:03:49.377238 27373 net.cpp:395] res4f_branch2b_relu -> res4f_branch2b (in-place)
I0912 20:03:49.377246 27373 net.cpp:150] Setting up res4f_branch2b_relu
I0912 20:03:49.377254 27373 net.cpp:157] Top shape: 16 256 14 14 (802816)
I0912 20:03:49.377259 27373 net.cpp:165] Memory required for data: 3247276096
I0912 20:03:49.377264 27373 layer_factory.hpp:77] Creating layer res4f_branch2c
I0912 20:03:49.377272 27373 net.cpp:100] Creating Layer res4f_branch2c
I0912 20:03:49.377277 27373 net.cpp:434] res4f_branch2c <- res4f_branch2b
I0912 20:03:49.377286 27373 net.cpp:408] res4f_branch2c -> res4f_branch2c
I0912 20:03:49.378006 27373 net.cpp:150] Setting up res4f_branch2c
I0912 20:03:49.378021 27373 net.cpp:157] Top shape: 16 1024 14 14 (3211264)
I0912 20:03:49.378023 27373 net.cpp:165] Memory required for data: 3260121152
I0912 20:03:49.378028 27373 layer_factory.hpp:77] Creating layer bn4f_branch2c
I0912 20:03:49.378033 27373 net.cpp:100] Creating Layer bn4f_branch2c
I0912 20:03:49.378038 27373 net.cpp:434] bn4f_branch2c <- res4f_branch2c
I0912 20:03:49.378044 27373 net.cpp:395] bn4f_branch2c -> res4f_branch2c (in-place)
I0912 20:03:49.378231 27373 net.cpp:150] Setting up bn4f_branch2c
I0912 20:03:49.378242 27373 net.cpp:157] Top shape: 16 1024 14 14 (3211264)
I0912 20:03:49.378245 27373 net.cpp:165] Memory required for data: 3272966208
I0912 20:03:49.378296 27373 layer_factory.hpp:77] Creating layer scale4f_branch2c
I0912 20:03:49.378309 27373 net.cpp:100] Creating Layer scale4f_branch2c
I0912 20:03:49.378312 27373 net.cpp:434] scale4f_branch2c <- res4f_branch2c
I0912 20:03:49.378319 27373 net.cpp:395] scale4f_branch2c -> res4f_branch2c (in-place)
I0912 20:03:49.378387 27373 layer_factory.hpp:77] Creating layer scale4f_branch2c
I0912 20:03:49.378509 27373 net.cpp:150] Setting up scale4f_branch2c
I0912 20:03:49.378520 27373 net.cpp:157] Top shape: 16 1024 14 14 (3211264)
I0912 20:03:49.378523 27373 net.cpp:165] Memory required for data: 3285811264
I0912 20:03:49.378530 27373 layer_factory.hpp:77] Creating layer res4f
I0912 20:03:49.378540 27373 net.cpp:100] Creating Layer res4f
I0912 20:03:49.378545 27373 net.cpp:434] res4f <- res4e_res4e_relu_0_split_1
I0912 20:03:49.378551 27373 net.cpp:434] res4f <- res4f_branch2c
I0912 20:03:49.378557 27373 net.cpp:408] res4f -> res4f
I0912 20:03:49.378592 27373 net.cpp:150] Setting up res4f
I0912 20:03:49.378603 27373 net.cpp:157] Top shape: 16 1024 14 14 (3211264)
I0912 20:03:49.378607 27373 net.cpp:165] Memory required for data: 3298656320
I0912 20:03:49.378612 27373 layer_factory.hpp:77] Creating layer res4f_relu
I0912 20:03:49.378618 27373 net.cpp:100] Creating Layer res4f_relu
I0912 20:03:49.378623 27373 net.cpp:434] res4f_relu <- res4f
I0912 20:03:49.378631 27373 net.cpp:395] res4f_relu -> res4f (in-place)
I0912 20:03:49.378639 27373 net.cpp:150] Setting up res4f_relu
I0912 20:03:49.378646 27373 net.cpp:157] Top shape: 16 1024 14 14 (3211264)
I0912 20:03:49.378651 27373 net.cpp:165] Memory required for data: 3311501376
I0912 20:03:49.378655 27373 layer_factory.hpp:77] Creating layer res4f_res4f_relu_0_split
I0912 20:03:49.378662 27373 net.cpp:100] Creating Layer res4f_res4f_relu_0_split
I0912 20:03:49.378669 27373 net.cpp:434] res4f_res4f_relu_0_split <- res4f
I0912 20:03:49.378674 27373 net.cpp:408] res4f_res4f_relu_0_split -> res4f_res4f_relu_0_split_0
I0912 20:03:49.378682 27373 net.cpp:408] res4f_res4f_relu_0_split -> res4f_res4f_relu_0_split_1
I0912 20:03:49.378734 27373 net.cpp:150] Setting up res4f_res4f_relu_0_split
I0912 20:03:49.378746 27373 net.cpp:157] Top shape: 16 1024 14 14 (3211264)
I0912 20:03:49.378749 27373 net.cpp:157] Top shape: 16 1024 14 14 (3211264)
I0912 20:03:49.378751 27373 net.cpp:165] Memory required for data: 3337191488
I0912 20:03:49.378756 27373 layer_factory.hpp:77] Creating layer res5a_branch1
I0912 20:03:49.378767 27373 net.cpp:100] Creating Layer res5a_branch1
I0912 20:03:49.378773 27373 net.cpp:434] res5a_branch1 <- res4f_res4f_relu_0_split_0
I0912 20:03:49.378782 27373 net.cpp:408] res5a_branch1 -> res5a_branch1
I0912 20:03:49.382336 27373 net.cpp:150] Setting up res5a_branch1
I0912 20:03:49.382359 27373 net.cpp:157] Top shape: 16 2048 7 7 (1605632)
I0912 20:03:49.382362 27373 net.cpp:165] Memory required for data: 3343614016
I0912 20:03:49.382367 27373 layer_factory.hpp:77] Creating layer bn5a_branch1
I0912 20:03:49.382375 27373 net.cpp:100] Creating Layer bn5a_branch1
I0912 20:03:49.382378 27373 net.cpp:434] bn5a_branch1 <- res5a_branch1
I0912 20:03:49.382383 27373 net.cpp:395] bn5a_branch1 -> res5a_branch1 (in-place)
I0912 20:03:49.382583 27373 net.cpp:150] Setting up bn5a_branch1
I0912 20:03:49.382596 27373 net.cpp:157] Top shape: 16 2048 7 7 (1605632)
I0912 20:03:49.382598 27373 net.cpp:165] Memory required for data: 3350036544
I0912 20:03:49.382606 27373 layer_factory.hpp:77] Creating layer scale5a_branch1
I0912 20:03:49.382616 27373 net.cpp:100] Creating Layer scale5a_branch1
I0912 20:03:49.382622 27373 net.cpp:434] scale5a_branch1 <- res5a_branch1
I0912 20:03:49.382627 27373 net.cpp:395] scale5a_branch1 -> res5a_branch1 (in-place)
I0912 20:03:49.382680 27373 layer_factory.hpp:77] Creating layer scale5a_branch1
I0912 20:03:49.382791 27373 net.cpp:150] Setting up scale5a_branch1
I0912 20:03:49.382802 27373 net.cpp:157] Top shape: 16 2048 7 7 (1605632)
I0912 20:03:49.382805 27373 net.cpp:165] Memory required for data: 3356459072
I0912 20:03:49.382812 27373 layer_factory.hpp:77] Creating layer res5a_branch2a
I0912 20:03:49.382823 27373 net.cpp:100] Creating Layer res5a_branch2a
I0912 20:03:49.382829 27373 net.cpp:434] res5a_branch2a <- res4f_res4f_relu_0_split_1
I0912 20:03:49.382838 27373 net.cpp:408] res5a_branch2a -> res5a_branch2a
I0912 20:03:49.383954 27373 net.cpp:150] Setting up res5a_branch2a
I0912 20:03:49.383977 27373 net.cpp:157] Top shape: 16 512 7 7 (401408)
I0912 20:03:49.383981 27373 net.cpp:165] Memory required for data: 3358064704
I0912 20:03:49.383985 27373 layer_factory.hpp:77] Creating layer bn5a_branch2a
I0912 20:03:49.383992 27373 net.cpp:100] Creating Layer bn5a_branch2a
I0912 20:03:49.383996 27373 net.cpp:434] bn5a_branch2a <- res5a_branch2a
I0912 20:03:49.384001 27373 net.cpp:395] bn5a_branch2a -> res5a_branch2a (in-place)
I0912 20:03:49.384186 27373 net.cpp:150] Setting up bn5a_branch2a
I0912 20:03:49.384197 27373 net.cpp:157] Top shape: 16 512 7 7 (401408)
I0912 20:03:49.384201 27373 net.cpp:165] Memory required for data: 3359670336
I0912 20:03:49.384208 27373 layer_factory.hpp:77] Creating layer scale5a_branch2a
I0912 20:03:49.384219 27373 net.cpp:100] Creating Layer scale5a_branch2a
I0912 20:03:49.384225 27373 net.cpp:434] scale5a_branch2a <- res5a_branch2a
I0912 20:03:49.384232 27373 net.cpp:395] scale5a_branch2a -> res5a_branch2a (in-place)
I0912 20:03:49.384279 27373 layer_factory.hpp:77] Creating layer scale5a_branch2a
I0912 20:03:49.384392 27373 net.cpp:150] Setting up scale5a_branch2a
I0912 20:03:49.384402 27373 net.cpp:157] Top shape: 16 512 7 7 (401408)
I0912 20:03:49.384405 27373 net.cpp:165] Memory required for data: 3361275968
I0912 20:03:49.384412 27373 layer_factory.hpp:77] Creating layer res5a_branch2a_relu
I0912 20:03:49.384419 27373 net.cpp:100] Creating Layer res5a_branch2a_relu
I0912 20:03:49.384424 27373 net.cpp:434] res5a_branch2a_relu <- res5a_branch2a
I0912 20:03:49.384430 27373 net.cpp:395] res5a_branch2a_relu -> res5a_branch2a (in-place)
I0912 20:03:49.384439 27373 net.cpp:150] Setting up res5a_branch2a_relu
I0912 20:03:49.384446 27373 net.cpp:157] Top shape: 16 512 7 7 (401408)
I0912 20:03:49.384451 27373 net.cpp:165] Memory required for data: 3362881600
I0912 20:03:49.384456 27373 layer_factory.hpp:77] Creating layer res5a_branch2b
I0912 20:03:49.384467 27373 net.cpp:100] Creating Layer res5a_branch2b
I0912 20:03:49.384474 27373 net.cpp:434] res5a_branch2b <- res5a_branch2a
I0912 20:03:49.384481 27373 net.cpp:408] res5a_branch2b -> res5a_branch2b
I0912 20:03:49.388279 27373 net.cpp:150] Setting up res5a_branch2b
I0912 20:03:49.388298 27373 net.cpp:157] Top shape: 16 512 7 7 (401408)
I0912 20:03:49.388300 27373 net.cpp:165] Memory required for data: 3364487232
I0912 20:03:49.388305 27373 layer_factory.hpp:77] Creating layer bn5a_branch2b
I0912 20:03:49.388310 27373 net.cpp:100] Creating Layer bn5a_branch2b
I0912 20:03:49.388314 27373 net.cpp:434] bn5a_branch2b <- res5a_branch2b
I0912 20:03:49.388319 27373 net.cpp:395] bn5a_branch2b -> res5a_branch2b (in-place)
I0912 20:03:49.388499 27373 net.cpp:150] Setting up bn5a_branch2b
I0912 20:03:49.388511 27373 net.cpp:157] Top shape: 16 512 7 7 (401408)
I0912 20:03:49.388514 27373 net.cpp:165] Memory required for data: 3366092864
I0912 20:03:49.388522 27373 layer_factory.hpp:77] Creating layer scale5a_branch2b
I0912 20:03:49.388530 27373 net.cpp:100] Creating Layer scale5a_branch2b
I0912 20:03:49.388536 27373 net.cpp:434] scale5a_branch2b <- res5a_branch2b
I0912 20:03:49.388543 27373 net.cpp:395] scale5a_branch2b -> res5a_branch2b (in-place)
I0912 20:03:49.388598 27373 layer_factory.hpp:77] Creating layer scale5a_branch2b
I0912 20:03:49.388717 27373 net.cpp:150] Setting up scale5a_branch2b
I0912 20:03:49.388731 27373 net.cpp:157] Top shape: 16 512 7 7 (401408)
I0912 20:03:49.388733 27373 net.cpp:165] Memory required for data: 3367698496
I0912 20:03:49.388739 27373 layer_factory.hpp:77] Creating layer res5a_branch2b_relu
I0912 20:03:49.388747 27373 net.cpp:100] Creating Layer res5a_branch2b_relu
I0912 20:03:49.388752 27373 net.cpp:434] res5a_branch2b_relu <- res5a_branch2b
I0912 20:03:49.388761 27373 net.cpp:395] res5a_branch2b_relu -> res5a_branch2b (in-place)
I0912 20:03:49.388772 27373 net.cpp:150] Setting up res5a_branch2b_relu
I0912 20:03:49.388778 27373 net.cpp:157] Top shape: 16 512 7 7 (401408)
I0912 20:03:49.388783 27373 net.cpp:165] Memory required for data: 3369304128
I0912 20:03:49.388800 27373 layer_factory.hpp:77] Creating layer res5a_branch2c
I0912 20:03:49.388811 27373 net.cpp:100] Creating Layer res5a_branch2c
I0912 20:03:49.388816 27373 net.cpp:434] res5a_branch2c <- res5a_branch2b
I0912 20:03:49.388825 27373 net.cpp:408] res5a_branch2c -> res5a_branch2c
I0912 20:03:49.390658 27373 net.cpp:150] Setting up res5a_branch2c
I0912 20:03:49.390672 27373 net.cpp:157] Top shape: 16 2048 7 7 (1605632)
I0912 20:03:49.390676 27373 net.cpp:165] Memory required for data: 3375726656
I0912 20:03:49.390681 27373 layer_factory.hpp:77] Creating layer bn5a_branch2c
I0912 20:03:49.390686 27373 net.cpp:100] Creating Layer bn5a_branch2c
I0912 20:03:49.390688 27373 net.cpp:434] bn5a_branch2c <- res5a_branch2c
I0912 20:03:49.390692 27373 net.cpp:395] bn5a_branch2c -> res5a_branch2c (in-place)
I0912 20:03:49.390902 27373 net.cpp:150] Setting up bn5a_branch2c
I0912 20:03:49.390913 27373 net.cpp:157] Top shape: 16 2048 7 7 (1605632)
I0912 20:03:49.390916 27373 net.cpp:165] Memory required for data: 3382149184
I0912 20:03:49.390924 27373 layer_factory.hpp:77] Creating layer scale5a_branch2c
I0912 20:03:49.390933 27373 net.cpp:100] Creating Layer scale5a_branch2c
I0912 20:03:49.390938 27373 net.cpp:434] scale5a_branch2c <- res5a_branch2c
I0912 20:03:49.390945 27373 net.cpp:395] scale5a_branch2c -> res5a_branch2c (in-place)
I0912 20:03:49.391000 27373 layer_factory.hpp:77] Creating layer scale5a_branch2c
I0912 20:03:49.391116 27373 net.cpp:150] Setting up scale5a_branch2c
I0912 20:03:49.391127 27373 net.cpp:157] Top shape: 16 2048 7 7 (1605632)
I0912 20:03:49.391130 27373 net.cpp:165] Memory required for data: 3388571712
I0912 20:03:49.391136 27373 layer_factory.hpp:77] Creating layer res5a
I0912 20:03:49.391146 27373 net.cpp:100] Creating Layer res5a
I0912 20:03:49.391152 27373 net.cpp:434] res5a <- res5a_branch1
I0912 20:03:49.391158 27373 net.cpp:434] res5a <- res5a_branch2c
I0912 20:03:49.391165 27373 net.cpp:408] res5a -> res5a
I0912 20:03:49.391201 27373 net.cpp:150] Setting up res5a
I0912 20:03:49.391211 27373 net.cpp:157] Top shape: 16 2048 7 7 (1605632)
I0912 20:03:49.391214 27373 net.cpp:165] Memory required for data: 3394994240
I0912 20:03:49.391217 27373 layer_factory.hpp:77] Creating layer res5a_relu
I0912 20:03:49.391224 27373 net.cpp:100] Creating Layer res5a_relu
I0912 20:03:49.391229 27373 net.cpp:434] res5a_relu <- res5a
I0912 20:03:49.391238 27373 net.cpp:395] res5a_relu -> res5a (in-place)
I0912 20:03:49.391247 27373 net.cpp:150] Setting up res5a_relu
I0912 20:03:49.391253 27373 net.cpp:157] Top shape: 16 2048 7 7 (1605632)
I0912 20:03:49.391258 27373 net.cpp:165] Memory required for data: 3401416768
I0912 20:03:49.391261 27373 layer_factory.hpp:77] Creating layer res5a_res5a_relu_0_split
I0912 20:03:49.391269 27373 net.cpp:100] Creating Layer res5a_res5a_relu_0_split
I0912 20:03:49.391274 27373 net.cpp:434] res5a_res5a_relu_0_split <- res5a
I0912 20:03:49.391281 27373 net.cpp:408] res5a_res5a_relu_0_split -> res5a_res5a_relu_0_split_0
I0912 20:03:49.391289 27373 net.cpp:408] res5a_res5a_relu_0_split -> res5a_res5a_relu_0_split_1
I0912 20:03:49.391338 27373 net.cpp:150] Setting up res5a_res5a_relu_0_split
I0912 20:03:49.391348 27373 net.cpp:157] Top shape: 16 2048 7 7 (1605632)
I0912 20:03:49.391351 27373 net.cpp:157] Top shape: 16 2048 7 7 (1605632)
I0912 20:03:49.391355 27373 net.cpp:165] Memory required for data: 3414261824
I0912 20:03:49.391358 27373 layer_factory.hpp:77] Creating layer res5b_branch2a
I0912 20:03:49.391366 27373 net.cpp:100] Creating Layer res5b_branch2a
I0912 20:03:49.391372 27373 net.cpp:434] res5b_branch2a <- res5a_res5a_relu_0_split_0
I0912 20:03:49.391379 27373 net.cpp:408] res5b_branch2a -> res5b_branch2a
I0912 20:03:49.393234 27373 net.cpp:150] Setting up res5b_branch2a
I0912 20:03:49.393249 27373 net.cpp:157] Top shape: 16 512 7 7 (401408)
I0912 20:03:49.393252 27373 net.cpp:165] Memory required for data: 3415867456
I0912 20:03:49.393256 27373 layer_factory.hpp:77] Creating layer bn5b_branch2a
I0912 20:03:49.393262 27373 net.cpp:100] Creating Layer bn5b_branch2a
I0912 20:03:49.393277 27373 net.cpp:434] bn5b_branch2a <- res5b_branch2a
I0912 20:03:49.393282 27373 net.cpp:395] bn5b_branch2a -> res5b_branch2a (in-place)
I0912 20:03:49.393477 27373 net.cpp:150] Setting up bn5b_branch2a
I0912 20:03:49.393491 27373 net.cpp:157] Top shape: 16 512 7 7 (401408)
I0912 20:03:49.393492 27373 net.cpp:165] Memory required for data: 3417473088
I0912 20:03:49.393501 27373 layer_factory.hpp:77] Creating layer scale5b_branch2a
I0912 20:03:49.393512 27373 net.cpp:100] Creating Layer scale5b_branch2a
I0912 20:03:49.393517 27373 net.cpp:434] scale5b_branch2a <- res5b_branch2a
I0912 20:03:49.393525 27373 net.cpp:395] scale5b_branch2a -> res5b_branch2a (in-place)
I0912 20:03:49.393573 27373 layer_factory.hpp:77] Creating layer scale5b_branch2a
I0912 20:03:49.393684 27373 net.cpp:150] Setting up scale5b_branch2a
I0912 20:03:49.393695 27373 net.cpp:157] Top shape: 16 512 7 7 (401408)
I0912 20:03:49.393698 27373 net.cpp:165] Memory required for data: 3419078720
I0912 20:03:49.393704 27373 layer_factory.hpp:77] Creating layer res5b_branch2a_relu
I0912 20:03:49.393712 27373 net.cpp:100] Creating Layer res5b_branch2a_relu
I0912 20:03:49.393718 27373 net.cpp:434] res5b_branch2a_relu <- res5b_branch2a
I0912 20:03:49.393725 27373 net.cpp:395] res5b_branch2a_relu -> res5b_branch2a (in-place)
I0912 20:03:49.393734 27373 net.cpp:150] Setting up res5b_branch2a_relu
I0912 20:03:49.393741 27373 net.cpp:157] Top shape: 16 512 7 7 (401408)
I0912 20:03:49.393746 27373 net.cpp:165] Memory required for data: 3420684352
I0912 20:03:49.393751 27373 layer_factory.hpp:77] Creating layer res5b_branch2b
I0912 20:03:49.393760 27373 net.cpp:100] Creating Layer res5b_branch2b
I0912 20:03:49.393767 27373 net.cpp:434] res5b_branch2b <- res5b_branch2a
I0912 20:03:49.393774 27373 net.cpp:408] res5b_branch2b -> res5b_branch2b
I0912 20:03:49.397573 27373 net.cpp:150] Setting up res5b_branch2b
I0912 20:03:49.397590 27373 net.cpp:157] Top shape: 16 512 7 7 (401408)
I0912 20:03:49.397593 27373 net.cpp:165] Memory required for data: 3422289984
I0912 20:03:49.397598 27373 layer_factory.hpp:77] Creating layer bn5b_branch2b
I0912 20:03:49.397606 27373 net.cpp:100] Creating Layer bn5b_branch2b
I0912 20:03:49.397609 27373 net.cpp:434] bn5b_branch2b <- res5b_branch2b
I0912 20:03:49.397614 27373 net.cpp:395] bn5b_branch2b -> res5b_branch2b (in-place)
I0912 20:03:49.397799 27373 net.cpp:150] Setting up bn5b_branch2b
I0912 20:03:49.397811 27373 net.cpp:157] Top shape: 16 512 7 7 (401408)
I0912 20:03:49.397814 27373 net.cpp:165] Memory required for data: 3423895616
I0912 20:03:49.397824 27373 layer_factory.hpp:77] Creating layer scale5b_branch2b
I0912 20:03:49.397832 27373 net.cpp:100] Creating Layer scale5b_branch2b
I0912 20:03:49.397837 27373 net.cpp:434] scale5b_branch2b <- res5b_branch2b
I0912 20:03:49.397845 27373 net.cpp:395] scale5b_branch2b -> res5b_branch2b (in-place)
I0912 20:03:49.397896 27373 layer_factory.hpp:77] Creating layer scale5b_branch2b
I0912 20:03:49.398005 27373 net.cpp:150] Setting up scale5b_branch2b
I0912 20:03:49.398015 27373 net.cpp:157] Top shape: 16 512 7 7 (401408)
I0912 20:03:49.398017 27373 net.cpp:165] Memory required for data: 3425501248
I0912 20:03:49.398025 27373 layer_factory.hpp:77] Creating layer res5b_branch2b_relu
I0912 20:03:49.398035 27373 net.cpp:100] Creating Layer res5b_branch2b_relu
I0912 20:03:49.398041 27373 net.cpp:434] res5b_branch2b_relu <- res5b_branch2b
I0912 20:03:49.398046 27373 net.cpp:395] res5b_branch2b_relu -> res5b_branch2b (in-place)
I0912 20:03:49.398054 27373 net.cpp:150] Setting up res5b_branch2b_relu
I0912 20:03:49.398061 27373 net.cpp:157] Top shape: 16 512 7 7 (401408)
I0912 20:03:49.398066 27373 net.cpp:165] Memory required for data: 3427106880
I0912 20:03:49.398071 27373 layer_factory.hpp:77] Creating layer res5b_branch2c
I0912 20:03:49.398082 27373 net.cpp:100] Creating Layer res5b_branch2c
I0912 20:03:49.398087 27373 net.cpp:434] res5b_branch2c <- res5b_branch2b
I0912 20:03:49.398094 27373 net.cpp:408] res5b_branch2c -> res5b_branch2c
I0912 20:03:49.399931 27373 net.cpp:150] Setting up res5b_branch2c
I0912 20:03:49.399955 27373 net.cpp:157] Top shape: 16 2048 7 7 (1605632)
I0912 20:03:49.399960 27373 net.cpp:165] Memory required for data: 3433529408
I0912 20:03:49.399963 27373 layer_factory.hpp:77] Creating layer bn5b_branch2c
I0912 20:03:49.399968 27373 net.cpp:100] Creating Layer bn5b_branch2c
I0912 20:03:49.399971 27373 net.cpp:434] bn5b_branch2c <- res5b_branch2c
I0912 20:03:49.399976 27373 net.cpp:395] bn5b_branch2c -> res5b_branch2c (in-place)
I0912 20:03:49.400162 27373 net.cpp:150] Setting up bn5b_branch2c
I0912 20:03:49.400174 27373 net.cpp:157] Top shape: 16 2048 7 7 (1605632)
I0912 20:03:49.400177 27373 net.cpp:165] Memory required for data: 3439951936
I0912 20:03:49.400187 27373 layer_factory.hpp:77] Creating layer scale5b_branch2c
I0912 20:03:49.400194 27373 net.cpp:100] Creating Layer scale5b_branch2c
I0912 20:03:49.400199 27373 net.cpp:434] scale5b_branch2c <- res5b_branch2c
I0912 20:03:49.400207 27373 net.cpp:395] scale5b_branch2c -> res5b_branch2c (in-place)
I0912 20:03:49.400257 27373 layer_factory.hpp:77] Creating layer scale5b_branch2c
I0912 20:03:49.400372 27373 net.cpp:150] Setting up scale5b_branch2c
I0912 20:03:49.400382 27373 net.cpp:157] Top shape: 16 2048 7 7 (1605632)
I0912 20:03:49.400385 27373 net.cpp:165] Memory required for data: 3446374464
I0912 20:03:49.400391 27373 layer_factory.hpp:77] Creating layer res5b
I0912 20:03:49.400400 27373 net.cpp:100] Creating Layer res5b
I0912 20:03:49.400406 27373 net.cpp:434] res5b <- res5a_res5a_relu_0_split_1
I0912 20:03:49.400413 27373 net.cpp:434] res5b <- res5b_branch2c
I0912 20:03:49.400420 27373 net.cpp:408] res5b -> res5b
I0912 20:03:49.400454 27373 net.cpp:150] Setting up res5b
I0912 20:03:49.400465 27373 net.cpp:157] Top shape: 16 2048 7 7 (1605632)
I0912 20:03:49.400470 27373 net.cpp:165] Memory required for data: 3452796992
I0912 20:03:49.400473 27373 layer_factory.hpp:77] Creating layer res5b_relu
I0912 20:03:49.400480 27373 net.cpp:100] Creating Layer res5b_relu
I0912 20:03:49.400485 27373 net.cpp:434] res5b_relu <- res5b
I0912 20:03:49.400492 27373 net.cpp:395] res5b_relu -> res5b (in-place)
I0912 20:03:49.400501 27373 net.cpp:150] Setting up res5b_relu
I0912 20:03:49.400507 27373 net.cpp:157] Top shape: 16 2048 7 7 (1605632)
I0912 20:03:49.400512 27373 net.cpp:165] Memory required for data: 3459219520
I0912 20:03:49.400516 27373 layer_factory.hpp:77] Creating layer res5b_res5b_relu_0_split
I0912 20:03:49.400523 27373 net.cpp:100] Creating Layer res5b_res5b_relu_0_split
I0912 20:03:49.400528 27373 net.cpp:434] res5b_res5b_relu_0_split <- res5b
I0912 20:03:49.400535 27373 net.cpp:408] res5b_res5b_relu_0_split -> res5b_res5b_relu_0_split_0
I0912 20:03:49.400543 27373 net.cpp:408] res5b_res5b_relu_0_split -> res5b_res5b_relu_0_split_1
I0912 20:03:49.400604 27373 net.cpp:150] Setting up res5b_res5b_relu_0_split
I0912 20:03:49.400620 27373 net.cpp:157] Top shape: 16 2048 7 7 (1605632)
I0912 20:03:49.400626 27373 net.cpp:157] Top shape: 16 2048 7 7 (1605632)
I0912 20:03:49.400630 27373 net.cpp:165] Memory required for data: 3472064576
I0912 20:03:49.400635 27373 layer_factory.hpp:77] Creating layer res5c_branch2a
I0912 20:03:49.400645 27373 net.cpp:100] Creating Layer res5c_branch2a
I0912 20:03:49.400650 27373 net.cpp:434] res5c_branch2a <- res5b_res5b_relu_0_split_0
I0912 20:03:49.400660 27373 net.cpp:408] res5c_branch2a -> res5c_branch2a
I0912 20:03:49.402506 27373 net.cpp:150] Setting up res5c_branch2a
I0912 20:03:49.402519 27373 net.cpp:157] Top shape: 16 512 7 7 (401408)
I0912 20:03:49.402523 27373 net.cpp:165] Memory required for data: 3473670208
I0912 20:03:49.402528 27373 layer_factory.hpp:77] Creating layer bn5c_branch2a
I0912 20:03:49.402532 27373 net.cpp:100] Creating Layer bn5c_branch2a
I0912 20:03:49.402535 27373 net.cpp:434] bn5c_branch2a <- res5c_branch2a
I0912 20:03:49.402539 27373 net.cpp:395] bn5c_branch2a -> res5c_branch2a (in-place)
I0912 20:03:49.402721 27373 net.cpp:150] Setting up bn5c_branch2a
I0912 20:03:49.402734 27373 net.cpp:157] Top shape: 16 512 7 7 (401408)
I0912 20:03:49.402736 27373 net.cpp:165] Memory required for data: 3475275840
I0912 20:03:49.402757 27373 layer_factory.hpp:77] Creating layer scale5c_branch2a
I0912 20:03:49.402770 27373 net.cpp:100] Creating Layer scale5c_branch2a
I0912 20:03:49.402776 27373 net.cpp:434] scale5c_branch2a <- res5c_branch2a
I0912 20:03:49.402784 27373 net.cpp:395] scale5c_branch2a -> res5c_branch2a (in-place)
I0912 20:03:49.402833 27373 layer_factory.hpp:77] Creating layer scale5c_branch2a
I0912 20:03:49.402945 27373 net.cpp:150] Setting up scale5c_branch2a
I0912 20:03:49.402956 27373 net.cpp:157] Top shape: 16 512 7 7 (401408)
I0912 20:03:49.402958 27373 net.cpp:165] Memory required for data: 3476881472
I0912 20:03:49.402964 27373 layer_factory.hpp:77] Creating layer res5c_branch2a_relu
I0912 20:03:49.402971 27373 net.cpp:100] Creating Layer res5c_branch2a_relu
I0912 20:03:49.402976 27373 net.cpp:434] res5c_branch2a_relu <- res5c_branch2a
I0912 20:03:49.402984 27373 net.cpp:395] res5c_branch2a_relu -> res5c_branch2a (in-place)
I0912 20:03:49.402994 27373 net.cpp:150] Setting up res5c_branch2a_relu
I0912 20:03:49.403002 27373 net.cpp:157] Top shape: 16 512 7 7 (401408)
I0912 20:03:49.403005 27373 net.cpp:165] Memory required for data: 3478487104
I0912 20:03:49.403010 27373 layer_factory.hpp:77] Creating layer res5c_branch2b
I0912 20:03:49.403020 27373 net.cpp:100] Creating Layer res5c_branch2b
I0912 20:03:49.403026 27373 net.cpp:434] res5c_branch2b <- res5c_branch2a
I0912 20:03:49.403033 27373 net.cpp:408] res5c_branch2b -> res5c_branch2b
I0912 20:03:49.407166 27373 net.cpp:150] Setting up res5c_branch2b
I0912 20:03:49.407197 27373 net.cpp:157] Top shape: 16 512 7 7 (401408)
I0912 20:03:49.407201 27373 net.cpp:165] Memory required for data: 3480092736
I0912 20:03:49.407207 27373 layer_factory.hpp:77] Creating layer bn5c_branch2b
I0912 20:03:49.407217 27373 net.cpp:100] Creating Layer bn5c_branch2b
I0912 20:03:49.407222 27373 net.cpp:434] bn5c_branch2b <- res5c_branch2b
I0912 20:03:49.407227 27373 net.cpp:395] bn5c_branch2b -> res5c_branch2b (in-place)
I0912 20:03:49.407426 27373 net.cpp:150] Setting up bn5c_branch2b
I0912 20:03:49.407438 27373 net.cpp:157] Top shape: 16 512 7 7 (401408)
I0912 20:03:49.407441 27373 net.cpp:165] Memory required for data: 3481698368
I0912 20:03:49.407449 27373 layer_factory.hpp:77] Creating layer scale5c_branch2b
I0912 20:03:49.407457 27373 net.cpp:100] Creating Layer scale5c_branch2b
I0912 20:03:49.407462 27373 net.cpp:434] scale5c_branch2b <- res5c_branch2b
I0912 20:03:49.407475 27373 net.cpp:395] scale5c_branch2b -> res5c_branch2b (in-place)
I0912 20:03:49.407532 27373 layer_factory.hpp:77] Creating layer scale5c_branch2b
I0912 20:03:49.407644 27373 net.cpp:150] Setting up scale5c_branch2b
I0912 20:03:49.407654 27373 net.cpp:157] Top shape: 16 512 7 7 (401408)
I0912 20:03:49.407656 27373 net.cpp:165] Memory required for data: 3483304000
I0912 20:03:49.407663 27373 layer_factory.hpp:77] Creating layer res5c_branch2b_relu
I0912 20:03:49.407672 27373 net.cpp:100] Creating Layer res5c_branch2b_relu
I0912 20:03:49.407677 27373 net.cpp:434] res5c_branch2b_relu <- res5c_branch2b
I0912 20:03:49.407683 27373 net.cpp:395] res5c_branch2b_relu -> res5c_branch2b (in-place)
I0912 20:03:49.407691 27373 net.cpp:150] Setting up res5c_branch2b_relu
I0912 20:03:49.407698 27373 net.cpp:157] Top shape: 16 512 7 7 (401408)
I0912 20:03:49.407702 27373 net.cpp:165] Memory required for data: 3484909632
I0912 20:03:49.407707 27373 layer_factory.hpp:77] Creating layer res5c_branch2c
I0912 20:03:49.407719 27373 net.cpp:100] Creating Layer res5c_branch2c
I0912 20:03:49.407726 27373 net.cpp:434] res5c_branch2c <- res5c_branch2b
I0912 20:03:49.407732 27373 net.cpp:408] res5c_branch2c -> res5c_branch2c
I0912 20:03:49.409615 27373 net.cpp:150] Setting up res5c_branch2c
I0912 20:03:49.409628 27373 net.cpp:157] Top shape: 16 2048 7 7 (1605632)
I0912 20:03:49.409631 27373 net.cpp:165] Memory required for data: 3491332160
I0912 20:03:49.409636 27373 layer_factory.hpp:77] Creating layer bn5c_branch2c
I0912 20:03:49.409641 27373 net.cpp:100] Creating Layer bn5c_branch2c
I0912 20:03:49.409659 27373 net.cpp:434] bn5c_branch2c <- res5c_branch2c
I0912 20:03:49.409664 27373 net.cpp:395] bn5c_branch2c -> res5c_branch2c (in-place)
I0912 20:03:49.409862 27373 net.cpp:150] Setting up bn5c_branch2c
I0912 20:03:49.409874 27373 net.cpp:157] Top shape: 16 2048 7 7 (1605632)
I0912 20:03:49.409878 27373 net.cpp:165] Memory required for data: 3497754688
I0912 20:03:49.409886 27373 layer_factory.hpp:77] Creating layer scale5c_branch2c
I0912 20:03:49.409895 27373 net.cpp:100] Creating Layer scale5c_branch2c
I0912 20:03:49.409900 27373 net.cpp:434] scale5c_branch2c <- res5c_branch2c
I0912 20:03:49.409907 27373 net.cpp:395] scale5c_branch2c -> res5c_branch2c (in-place)
I0912 20:03:49.409960 27373 layer_factory.hpp:77] Creating layer scale5c_branch2c
I0912 20:03:49.410087 27373 net.cpp:150] Setting up scale5c_branch2c
I0912 20:03:49.410106 27373 net.cpp:157] Top shape: 16 2048 7 7 (1605632)
I0912 20:03:49.410109 27373 net.cpp:165] Memory required for data: 3504177216
I0912 20:03:49.410115 27373 layer_factory.hpp:77] Creating layer res5c
I0912 20:03:49.410125 27373 net.cpp:100] Creating Layer res5c
I0912 20:03:49.410131 27373 net.cpp:434] res5c <- res5b_res5b_relu_0_split_1
I0912 20:03:49.410137 27373 net.cpp:434] res5c <- res5c_branch2c
I0912 20:03:49.410145 27373 net.cpp:408] res5c -> res5c
I0912 20:03:49.410181 27373 net.cpp:150] Setting up res5c
I0912 20:03:49.410194 27373 net.cpp:157] Top shape: 16 2048 7 7 (1605632)
I0912 20:03:49.410198 27373 net.cpp:165] Memory required for data: 3510599744
I0912 20:03:49.410202 27373 layer_factory.hpp:77] Creating layer res5c_relu
I0912 20:03:49.410208 27373 net.cpp:100] Creating Layer res5c_relu
I0912 20:03:49.410213 27373 net.cpp:434] res5c_relu <- res5c
I0912 20:03:49.410223 27373 net.cpp:395] res5c_relu -> res5c (in-place)
I0912 20:03:49.410230 27373 net.cpp:150] Setting up res5c_relu
I0912 20:03:49.410238 27373 net.cpp:157] Top shape: 16 2048 7 7 (1605632)
I0912 20:03:49.410243 27373 net.cpp:165] Memory required for data: 3517022272
I0912 20:03:49.410248 27373 layer_factory.hpp:77] Creating layer pool5
I0912 20:03:49.410254 27373 net.cpp:100] Creating Layer pool5
I0912 20:03:49.410259 27373 net.cpp:434] pool5 <- res5c
I0912 20:03:49.410267 27373 net.cpp:408] pool5 -> pool5
I0912 20:03:49.410305 27373 net.cpp:150] Setting up pool5
I0912 20:03:49.410317 27373 net.cpp:157] Top shape: 16 2048 1 1 (32768)
I0912 20:03:49.410320 27373 net.cpp:165] Memory required for data: 3517153344
I0912 20:03:49.410323 27373 layer_factory.hpp:77] Creating layer fc1000
I0912 20:03:49.410334 27373 net.cpp:100] Creating Layer fc1000
I0912 20:03:49.410341 27373 net.cpp:434] fc1000 <- pool5
I0912 20:03:49.410347 27373 net.cpp:408] fc1000 -> fc1000
I0912 20:03:49.413575 27373 net.cpp:150] Setting up fc1000
I0912 20:03:49.413589 27373 net.cpp:157] Top shape: 16 1000 (16000)
I0912 20:03:49.413594 27373 net.cpp:165] Memory required for data: 3517217344
I0912 20:03:49.413599 27373 layer_factory.hpp:77] Creating layer prob
I0912 20:03:49.413604 27373 net.cpp:100] Creating Layer prob
I0912 20:03:49.413607 27373 net.cpp:434] prob <- fc1000
I0912 20:03:49.413611 27373 net.cpp:408] prob -> prob
I0912 20:03:49.414096 27373 net.cpp:150] Setting up prob
I0912 20:03:49.414109 27373 net.cpp:157] Top shape: 16 1000 (16000)
I0912 20:03:49.414113 27373 net.cpp:165] Memory required for data: 3517281344
I0912 20:03:49.414115 27373 net.cpp:228] prob does not need backward computation.
I0912 20:03:49.414119 27373 net.cpp:228] fc1000 does not need backward computation.
I0912 20:03:49.414121 27373 net.cpp:228] pool5 does not need backward computation.
I0912 20:03:49.414124 27373 net.cpp:228] res5c_relu does not need backward computation.
…
