…
base_lr: 0.01
display: 1
max_iter: 40
lr_policy: "fixed"
solver_mode: GPU
device_id: 0
net: "fcn8.prototxt"
train_state {
  level: 0
  stage: ""
}
I1014 09:41:39.528383  6819 solver.cpp:91] Creating training net from net file: fcn8.prototxt
I1014 09:41:39.528683  6819 net.cpp:58] Initializing net from parameters: 
name: "FFN"
state {
  phase: TRAIN
  level: 0
  stage: ""
}
layer {
  name: "data"
  type: "Data"
  top: "data"
  top: "label"
  include {
    phase: TRAIN
  }
  data_param {
    source: "fake_data26752.lmdb"
    batch_size: 2048
    backend: LMDB
  }
}
layer {
  name: "H1"
  type: "InnerProduct"
  bottom: "data"
  top: "H1"
  inner_product_param {
    num_output: 2048
  }
}
layer {
  name: "H1_A"
  type: "Sigmoid"
  bottom: "H1"
  top: "H1"
}
layer {
  name: "H2"
  type: "InnerProduct"
  bottom: "H1"
  top: "H2"
  inner_product_param {
    num_output: 2048
  }
}
layer {
  name: "H2_A"
  type: "Sigmoid"
  bottom: "H2"
  top: "H2"
}
layer {
  name: "H3"
  type: "InnerProduct"
  bottom: "H2"
  top: "H3"
  inner_product_param {
    num_output: 2048
  }
}
layer {
  name: "H3_A"
  type: "Sigmoid"
  bottom: "H3"
  top: "H3"
}
layer {
  name: "H4"
  type: "InnerProduct"
  bottom: "H3"
  top: "H4"
  inner_product_param {
    num_output: 2048
  }
}
layer {
  name: "H4_A"
  type: "Sigmoid"
  bottom: "H4"
  top: "H4"
}
layer {
  name: "H5"
  type: "InnerProduct"
  bottom: "H4"
  top: "H5"
  inner_product_param {
    num_output: 2048
  }
}
layer {
  name: "H5_A"
  type: "Sigmoid"
  bottom: "H5"
  top: "H5"
}
layer {
  name: "H6"
  type: "InnerProduct"
  bottom: "H5"
  top: "H6"
  inner_product_param {
    num_output: 2048
  }
}
layer {
  name: "H6_A"
  type: "Sigmoid"
  bottom: "H6"
  top: "H6"
}
layer {
  name: "L"
  type: "InnerProduct"
  bottom: "H6"
  top: "L"
  inner_product_param {
    num_output: 1000
  }
}
layer {
  name: "loss"
  type: "SoftmaxWithLoss"
  bottom: "L"
  bottom: "label"
  top: "loss"
}
I1014 09:41:39.528761  6819 layer_factory.hpp:77] Creating layer data
I1014 09:41:39.530182  6819 net.cpp:100] Creating Layer data
I1014 09:41:39.530199  6819 net.cpp:408] data -> data
I1014 09:41:39.530217  6819 net.cpp:408] data -> label
I1014 09:41:39.531877  6825 db_lmdb.cpp:35] Opened lmdb fake_data26752.lmdb
I1014 09:41:39.540101  6819 data_layer.cpp:41] output data size: 2048,1,1,512
I1014 09:41:39.546736  6819 net.cpp:150] Setting up data
I1014 09:41:39.546766  6819 net.cpp:157] Top shape: 2048 1 1 512 (1048576)
I1014 09:41:39.546772  6819 net.cpp:157] Top shape: 2048 (2048)
I1014 09:41:39.546775  6819 net.cpp:165] Memory required for data: 4202496
I1014 09:41:39.546783  6819 layer_factory.hpp:77] Creating layer H1
I1014 09:41:39.546844  6819 net.cpp:100] Creating Layer H1
I1014 09:41:39.546851  6819 net.cpp:434] H1 <- data
I1014 09:41:39.546865  6819 net.cpp:408] H1 -> H1
I1014 09:41:39.548856  6819 net.cpp:150] Setting up H1
I1014 09:41:39.548873  6819 net.cpp:157] Top shape: 2048 2048 (4194304)
I1014 09:41:39.548877  6819 net.cpp:165] Memory required for data: 20979712
I1014 09:41:39.548894  6819 layer_factory.hpp:77] Creating layer H1_A
I1014 09:41:39.548904  6819 net.cpp:100] Creating Layer H1_A
I1014 09:41:39.548908  6819 net.cpp:434] H1_A <- H1
I1014 09:41:39.548913  6819 net.cpp:395] H1_A -> H1 (in-place)
I1014 09:41:39.548925  6819 net.cpp:150] Setting up H1_A
I1014 09:41:39.548929  6819 net.cpp:157] Top shape: 2048 2048 (4194304)
I1014 09:41:39.548933  6819 net.cpp:165] Memory required for data: 37756928
I1014 09:41:39.548935  6819 layer_factory.hpp:77] Creating layer H2
I1014 09:41:39.548943  6819 net.cpp:100] Creating Layer H2
I1014 09:41:39.548945  6819 net.cpp:434] H2 <- H1
I1014 09:41:39.548950  6819 net.cpp:408] H2 -> H2
I1014 09:41:39.553794  6826 blocking_queue.cpp:50] Waiting for data
I1014 09:41:39.556273  6819 net.cpp:150] Setting up H2
I1014 09:41:39.556298  6819 net.cpp:157] Top shape: 2048 2048 (4194304)
I1014 09:41:39.556303  6819 net.cpp:165] Memory required for data: 54534144
I1014 09:41:39.556313  6819 layer_factory.hpp:77] Creating layer H2_A
I1014 09:41:39.556324  6819 net.cpp:100] Creating Layer H2_A
I1014 09:41:39.556329  6819 net.cpp:434] H2_A <- H2
I1014 09:41:39.556334  6819 net.cpp:395] H2_A -> H2 (in-place)
I1014 09:41:39.556342  6819 net.cpp:150] Setting up H2_A
I1014 09:41:39.556346  6819 net.cpp:157] Top shape: 2048 2048 (4194304)
I1014 09:41:39.556349  6819 net.cpp:165] Memory required for data: 71311360
I1014 09:41:39.556352  6819 layer_factory.hpp:77] Creating layer H3
I1014 09:41:39.556357  6819 net.cpp:100] Creating Layer H3
I1014 09:41:39.556360  6819 net.cpp:434] H3 <- H2
I1014 09:41:39.556366  6819 net.cpp:408] H3 -> H3
I1014 09:41:39.563583  6819 net.cpp:150] Setting up H3
I1014 09:41:39.563611  6819 net.cpp:157] Top shape: 2048 2048 (4194304)
I1014 09:41:39.563614  6819 net.cpp:165] Memory required for data: 88088576
I1014 09:41:39.563627  6819 layer_factory.hpp:77] Creating layer H3_A
I1014 09:41:39.563635  6819 net.cpp:100] Creating Layer H3_A
I1014 09:41:39.563640  6819 net.cpp:434] H3_A <- H3
I1014 09:41:39.563647  6819 net.cpp:395] H3_A -> H3 (in-place)
I1014 09:41:39.563654  6819 net.cpp:150] Setting up H3_A
I1014 09:41:39.563658  6819 net.cpp:157] Top shape: 2048 2048 (4194304)
I1014 09:41:39.563662  6819 net.cpp:165] Memory required for data: 104865792
I1014 09:41:39.563664  6819 layer_factory.hpp:77] Creating layer H4
I1014 09:41:39.563669  6819 net.cpp:100] Creating Layer H4
I1014 09:41:39.563673  6819 net.cpp:434] H4 <- H3
I1014 09:41:39.563676  6819 net.cpp:408] H4 -> H4
I1014 09:41:39.570978  6819 net.cpp:150] Setting up H4
I1014 09:41:39.571007  6819 net.cpp:157] Top shape: 2048 2048 (4194304)
I1014 09:41:39.571010  6819 net.cpp:165] Memory required for data: 121643008
I1014 09:41:39.571018  6819 layer_factory.hpp:77] Creating layer H4_A
I1014 09:41:39.571028  6819 net.cpp:100] Creating Layer H4_A
I1014 09:41:39.571034  6819 net.cpp:434] H4_A <- H4
I1014 09:41:39.571041  6819 net.cpp:395] H4_A -> H4 (in-place)
I1014 09:41:39.571050  6819 net.cpp:150] Setting up H4_A
I1014 09:41:39.571054  6819 net.cpp:157] Top shape: 2048 2048 (4194304)
I1014 09:41:39.571058  6819 net.cpp:165] Memory required for data: 138420224
I1014 09:41:39.571060  6819 layer_factory.hpp:77] Creating layer H5
I1014 09:41:39.571066  6819 net.cpp:100] Creating Layer H5
I1014 09:41:39.571069  6819 net.cpp:434] H5 <- H4
I1014 09:41:39.571074  6819 net.cpp:408] H5 -> H5
I1014 09:41:39.578372  6819 net.cpp:150] Setting up H5
I1014 09:41:39.578402  6819 net.cpp:157] Top shape: 2048 2048 (4194304)
I1014 09:41:39.578405  6819 net.cpp:165] Memory required for data: 155197440
I1014 09:41:39.578418  6819 layer_factory.hpp:77] Creating layer H5_A
I1014 09:41:39.578426  6819 net.cpp:100] Creating Layer H5_A
I1014 09:41:39.578431  6819 net.cpp:434] H5_A <- H5
I1014 09:41:39.578436  6819 net.cpp:395] H5_A -> H5 (in-place)
I1014 09:41:39.578444  6819 net.cpp:150] Setting up H5_A
I1014 09:41:39.578449  6819 net.cpp:157] Top shape: 2048 2048 (4194304)
I1014 09:41:39.578451  6819 net.cpp:165] Memory required for data: 171974656
I1014 09:41:39.578454  6819 layer_factory.hpp:77] Creating layer H6
I1014 09:41:39.578462  6819 net.cpp:100] Creating Layer H6
I1014 09:41:39.578465  6819 net.cpp:434] H6 <- H5
I1014 09:41:39.578470  6819 net.cpp:408] H6 -> H6
I1014 09:41:39.585558  6819 net.cpp:150] Setting up H6
I1014 09:41:39.585589  6819 net.cpp:157] Top shape: 2048 2048 (4194304)
I1014 09:41:39.585593  6819 net.cpp:165] Memory required for data: 188751872
I1014 09:41:39.585602  6819 layer_factory.hpp:77] Creating layer H6_A
I1014 09:41:39.585611  6819 net.cpp:100] Creating Layer H6_A
I1014 09:41:39.585616  6819 net.cpp:434] H6_A <- H6
I1014 09:41:39.585621  6819 net.cpp:395] H6_A -> H6 (in-place)
I1014 09:41:39.585628  6819 net.cpp:150] Setting up H6_A
I1014 09:41:39.585633  6819 net.cpp:157] Top shape: 2048 2048 (4194304)
I1014 09:41:39.585654  6819 net.cpp:165] Memory required for data: 205529088
I1014 09:41:39.585659  6819 layer_factory.hpp:77] Creating layer L
I1014 09:41:39.585664  6819 net.cpp:100] Creating Layer L
I1014 09:41:39.585667  6819 net.cpp:434] L <- H6
I1014 09:41:39.585674  6819 net.cpp:408] L -> L
I1014 09:41:39.589607  6819 net.cpp:150] Setting up L
I1014 09:41:39.589627  6819 net.cpp:157] Top shape: 2048 1000 (2048000)
I1014 09:41:39.589630  6819 net.cpp:165] Memory required for data: 213721088
I1014 09:41:39.589637  6819 layer_factory.hpp:77] Creating layer loss
I1014 09:41:39.589644  6819 net.cpp:100] Creating Layer loss
I1014 09:41:39.589648  6819 net.cpp:434] loss <- L
I1014 09:41:39.589653  6819 net.cpp:434] loss <- label
I1014 09:41:39.589661  6819 net.cpp:408] loss -> loss
I1014 09:41:39.589684  6819 layer_factory.hpp:77] Creating layer loss
…
