I0912 20:03:41.778172 27366 caffe.cpp:343] Use GPU with device ID 0
I0912 20:03:42.909518 27366 net.cpp:322] The NetState phase (0) differed from the phase (1) specified by a rule in layer accuracy
I0912 20:03:42.909718 27366 net.cpp:58] Initializing net from parameters: 
name: "AlexNet"
state {
  phase: TRAIN
  level: 0
  stage: ""
}
layer {
  name: "data"
  type: "Data"
  top: "data"
  top: "label"
  include {
    phase: TRAIN
  }
  data_param {
    source: "cnn/fake_image_net.lmdb"
    batch_size: 16
    backend: LMDB
  }
}
layer {
  name: "conv1"
  type: "Convolution"
  bottom: "data"
  top: "conv1"
  param {
    lr_mult: 1
    decay_mult: 1
  }
  param {
    lr_mult: 2
    decay_mult: 0
  }
  convolution_param {
    num_output: 96
    kernel_size: 11
    stride: 4
    weight_filler {
      type: "gaussian"
      std: 0.01
    }
    bias_filler {
      type: "constant"
      value: 0
    }
  }
}
layer {
  name: "relu1"
  type: "ReLU"
  bottom: "conv1"
  top: "conv1"
}
layer {
  name: "pool1"
  type: "Pooling"
  bottom: "conv1"
  top: "pool1"
  pooling_param {
    pool: MAX
    kernel_size: 3
    stride: 2
  }
}
layer {
  name: "conv2"
  type: "Convolution"
  bottom: "pool1"
  top: "conv2"
  param {
    lr_mult: 1
    decay_mult: 1
  }
  param {
    lr_mult: 2
    decay_mult: 0
  }
  convolution_param {
    num_output: 256
    kernel_size: 5
    weight_filler {
      type: "gaussian"
      std: 0.01
    }
    bias_filler {
      type: "constant"
      value: 0.1
    }
  }
}
layer {
  name: "relu2"
  type: "ReLU"
  bottom: "conv2"
  top: "conv2"
}
layer {
  name: "pool2"
  type: "Pooling"
  bottom: "conv2"
  top: "pool2"
  pooling_param {
    pool: MAX
    kernel_size: 3
    stride: 2
  }
}
layer {
  name: "conv3"
  type: "Convolution"
  bottom: "pool2"
  top: "conv3"
  param {
    lr_mult: 1
    decay_mult: 1
  }
  param {
    lr_mult: 2
    decay_mult: 0
  }
  convolution_param {
    num_output: 384
    kernel_size: 3
    weight_filler {
      type: "gaussian"
      std: 0.01
    }
    bias_filler {
      type: "constant"
      value: 0
    }
  }
}
layer {
  name: "relu3"
  type: "ReLU"
  bottom: "conv3"
  top: "conv3"
}
layer {
  name: "conv4"
  type: "Convolution"
  bottom: "conv3"
  top: "conv4"
  param {
    lr_mult: 1
    decay_mult: 1
  }
  param {
    lr_mult: 2
    decay_mult: 0
  }
  convolution_param {
    num_output: 384
    kernel_size: 3
    weight_filler {
      type: "gaussian"
      std: 0.01
    }
    bias_filler {
      type: "constant"
      value: 0.1
    }
  }
}
layer {
  name: "relu4"
  type: "ReLU"
  bottom: "conv4"
  top: "conv4"
}
layer {
  name: "conv5"
  type: "Convolution"
  bottom: "conv4"
  top: "conv5"
  param {
    lr_mult: 1
    decay_mult: 1
  }
  param {
    lr_mult: 2
    decay_mult: 0
  }
  convolution_param {
    num_output: 256
    kernel_size: 3
    weight_filler {
      type: "gaussian"
      std: 0.01
    }
    bias_filler {
      type: "constant"
      value: 0.1
    }
  }
}
layer {
  name: "relu5"
  type: "ReLU"
  bottom: "conv5"
  top: "conv5"
}
layer {
  name: "pool5"
  type: "Pooling"
  bottom: "conv5"
  top: "pool5"
  pooling_param {
    pool: MAX
    kernel_size: 3
    stride: 2
  }
}
layer {
  name: "fc6"
  type: "InnerProduct"
  bottom: "pool5"
  top: "fc6"
  param {
    lr_mult: 1
    decay_mult: 1
  }
  param {
    lr_mult: 2
    decay_mult: 0
  }
  inner_product_param {
    num_output: 4096
    weight_filler {
      type: "gaussian"
      std: 0.005
    }
    bias_filler {
      type: "constant"
      value: 0.1
    }
  }
}
layer {
  name: "relu6"
  type: "ReLU"
  bottom: "fc6"
  top: "fc6"
}
layer {
  name: "fc7"
  type: "InnerProduct"
  bottom: "fc6"
  top: "fc7"
  param {
    lr_mult: 1
    decay_mult: 1
  }
  param {
    lr_mult: 2
    decay_mult: 0
  }
  inner_product_param {
    num_output: 4096
    weight_filler {
      type: "gaussian"
      std: 0.005
    }
    bias_filler {
      type: "constant"
      value: 0.1
    }
  }
}
layer {
  name: "relu7"
  type: "ReLU"
  bottom: "fc7"
  top: "fc7"
}
layer {
  name: "fc8"
  type: "InnerProduct"
  bottom: "fc7"
  top: "fc8"
  param {
    lr_mult: 1
    decay_mult: 1
  }
  param {
    lr_mult: 2
    decay_mult: 0
  }
  inner_product_param {
    num_output: 1000
    weight_filler {
      type: "gaussian"
      std: 0.01
    }
    bias_filler {
      type: "constant"
      value: 0
    }
  }
}
layer {
  name: "loss"
  type: "SoftmaxWithLoss"
  bottom: "fc8"
  bottom: "label"
  top: "loss"
}
I0912 20:03:42.909853 27366 layer_factory.hpp:77] Creating layer data
I0912 20:03:42.910449 27366 net.cpp:100] Creating Layer data
I0912 20:03:42.910465 27366 net.cpp:408] data -> data
I0912 20:03:42.910492 27366 net.cpp:408] data -> label
I0912 20:03:42.911947 27371 db_lmdb.cpp:35] Opened lmdb cnn/fake_image_net.lmdb
I0912 20:03:42.922547 27366 data_layer.cpp:41] output data size: 16,3,224,224
I0912 20:03:42.935410 27366 net.cpp:150] Setting up data
I0912 20:03:42.935456 27366 net.cpp:157] Top shape: 16 3 224 224 (2408448)
I0912 20:03:42.935467 27366 net.cpp:157] Top shape: 16 (16)
I0912 20:03:42.935472 27366 net.cpp:165] Memory required for data: 9633856
I0912 20:03:42.935483 27366 layer_factory.hpp:77] Creating layer conv1
I0912 20:03:42.935511 27366 net.cpp:100] Creating Layer conv1
I0912 20:03:42.935525 27366 net.cpp:434] conv1 <- data
I0912 20:03:42.935544 27366 net.cpp:408] conv1 -> conv1
I0912 20:03:42.937790 27366 net.cpp:150] Setting up conv1
I0912 20:03:42.937806 27366 net.cpp:157] Top shape: 16 96 54 54 (4478976)
I0912 20:03:42.937810 27366 net.cpp:165] Memory required for data: 27549760
I0912 20:03:42.937825 27366 layer_factory.hpp:77] Creating layer relu1
I0912 20:03:42.937834 27366 net.cpp:100] Creating Layer relu1
I0912 20:03:42.937837 27366 net.cpp:434] relu1 <- conv1
I0912 20:03:42.937844 27366 net.cpp:395] relu1 -> conv1 (in-place)
I0912 20:03:42.937856 27366 net.cpp:150] Setting up relu1
I0912 20:03:42.937863 27366 net.cpp:157] Top shape: 16 96 54 54 (4478976)
I0912 20:03:42.937867 27366 net.cpp:165] Memory required for data: 45465664
I0912 20:03:42.937887 27366 layer_factory.hpp:77] Creating layer pool1
I0912 20:03:42.937898 27366 net.cpp:100] Creating Layer pool1
I0912 20:03:42.937904 27366 net.cpp:434] pool1 <- conv1
I0912 20:03:42.937916 27366 net.cpp:408] pool1 -> pool1
I0912 20:03:42.938732 27366 net.cpp:150] Setting up pool1
I0912 20:03:42.938747 27366 net.cpp:157] Top shape: 16 96 27 27 (1119744)
I0912 20:03:42.938750 27366 net.cpp:165] Memory required for data: 49944640
I0912 20:03:42.938753 27366 layer_factory.hpp:77] Creating layer conv2
I0912 20:03:42.938766 27366 net.cpp:100] Creating Layer conv2
I0912 20:03:42.938769 27366 net.cpp:434] conv2 <- pool1
I0912 20:03:42.938776 27366 net.cpp:408] conv2 -> conv2
I0912 20:03:42.957890 27366 net.cpp:150] Setting up conv2
I0912 20:03:42.957922 27366 net.cpp:157] Top shape: 16 256 23 23 (2166784)
I0912 20:03:42.957926 27366 net.cpp:165] Memory required for data: 58611776
I0912 20:03:42.957939 27366 layer_factory.hpp:77] Creating layer relu2
I0912 20:03:42.957952 27366 net.cpp:100] Creating Layer relu2
I0912 20:03:42.957958 27366 net.cpp:434] relu2 <- conv2
I0912 20:03:42.957965 27366 net.cpp:395] relu2 -> conv2 (in-place)
I0912 20:03:42.957976 27366 net.cpp:150] Setting up relu2
I0912 20:03:42.957983 27366 net.cpp:157] Top shape: 16 256 23 23 (2166784)
I0912 20:03:42.957988 27366 net.cpp:165] Memory required for data: 67278912
I0912 20:03:42.957991 27366 layer_factory.hpp:77] Creating layer pool2
I0912 20:03:42.957998 27366 net.cpp:100] Creating Layer pool2
I0912 20:03:42.958003 27366 net.cpp:434] pool2 <- conv2
I0912 20:03:42.958011 27366 net.cpp:408] pool2 -> pool2
I0912 20:03:42.958065 27366 net.cpp:150] Setting up pool2
I0912 20:03:42.958079 27366 net.cpp:157] Top shape: 16 256 11 11 (495616)
I0912 20:03:42.958082 27366 net.cpp:165] Memory required for data: 69261376
I0912 20:03:42.958086 27366 layer_factory.hpp:77] Creating layer conv3
I0912 20:03:42.958101 27366 net.cpp:100] Creating Layer conv3
I0912 20:03:42.958108 27366 net.cpp:434] conv3 <- pool2
I0912 20:03:42.958117 27366 net.cpp:408] conv3 -> conv3
I0912 20:03:42.984616 27366 net.cpp:150] Setting up conv3
I0912 20:03:42.984649 27366 net.cpp:157] Top shape: 16 384 9 9 (497664)
I0912 20:03:42.984681 27366 net.cpp:165] Memory required for data: 71252032
I0912 20:03:42.984700 27366 layer_factory.hpp:77] Creating layer relu3
I0912 20:03:42.984719 27366 net.cpp:100] Creating Layer relu3
I0912 20:03:42.984725 27366 net.cpp:434] relu3 <- conv3
I0912 20:03:42.984733 27366 net.cpp:395] relu3 -> conv3 (in-place)
I0912 20:03:42.984745 27366 net.cpp:150] Setting up relu3
I0912 20:03:42.984752 27366 net.cpp:157] Top shape: 16 384 9 9 (497664)
I0912 20:03:42.984757 27366 net.cpp:165] Memory required for data: 73242688
I0912 20:03:42.984762 27366 layer_factory.hpp:77] Creating layer conv4
I0912 20:03:42.984786 27366 net.cpp:100] Creating Layer conv4
I0912 20:03:42.984791 27366 net.cpp:434] conv4 <- conv3
I0912 20:03:42.984800 27366 net.cpp:408] conv4 -> conv4
I0912 20:03:43.023967 27366 net.cpp:150] Setting up conv4
I0912 20:03:43.023999 27366 net.cpp:157] Top shape: 16 384 7 7 (301056)
I0912 20:03:43.024003 27366 net.cpp:165] Memory required for data: 74446912
I0912 20:03:43.024011 27366 layer_factory.hpp:77] Creating layer relu4
I0912 20:03:43.024021 27366 net.cpp:100] Creating Layer relu4
I0912 20:03:43.024029 27366 net.cpp:434] relu4 <- conv4
I0912 20:03:43.024035 27366 net.cpp:395] relu4 -> conv4 (in-place)
I0912 20:03:43.024046 27366 net.cpp:150] Setting up relu4
I0912 20:03:43.024054 27366 net.cpp:157] Top shape: 16 384 7 7 (301056)
I0912 20:03:43.024057 27366 net.cpp:165] Memory required for data: 75651136
I0912 20:03:43.024061 27366 layer_factory.hpp:77] Creating layer conv5
I0912 20:03:43.024076 27366 net.cpp:100] Creating Layer conv5
I0912 20:03:43.024081 27366 net.cpp:434] conv5 <- conv4
I0912 20:03:43.024090 27366 net.cpp:408] conv5 -> conv5
I0912 20:03:43.048626 27366 net.cpp:150] Setting up conv5
I0912 20:03:43.048655 27366 net.cpp:157] Top shape: 16 256 5 5 (102400)
I0912 20:03:43.048658 27366 net.cpp:165] Memory required for data: 76060736
I0912 20:03:43.048667 27366 layer_factory.hpp:77] Creating layer relu5
I0912 20:03:43.048674 27366 net.cpp:100] Creating Layer relu5
I0912 20:03:43.048677 27366 net.cpp:434] relu5 <- conv5
I0912 20:03:43.048683 27366 net.cpp:395] relu5 -> conv5 (in-place)
I0912 20:03:43.048689 27366 net.cpp:150] Setting up relu5
I0912 20:03:43.048693 27366 net.cpp:157] Top shape: 16 256 5 5 (102400)
I0912 20:03:43.048696 27366 net.cpp:165] Memory required for data: 76470336
I0912 20:03:43.048698 27366 layer_factory.hpp:77] Creating layer pool5
I0912 20:03:43.048705 27366 net.cpp:100] Creating Layer pool5
I0912 20:03:43.048709 27366 net.cpp:434] pool5 <- conv5
I0912 20:03:43.048714 27366 net.cpp:408] pool5 -> pool5
I0912 20:03:43.048760 27366 net.cpp:150] Setting up pool5
I0912 20:03:43.048771 27366 net.cpp:157] Top shape: 16 256 2 2 (16384)
I0912 20:03:43.048775 27366 net.cpp:165] Memory required for data: 76535872
I0912 20:03:43.048780 27366 layer_factory.hpp:77] Creating layer fc6
I0912 20:03:43.048799 27366 net.cpp:100] Creating Layer fc6
I0912 20:03:43.048805 27366 net.cpp:434] fc6 <- pool5
I0912 20:03:43.048812 27366 net.cpp:408] fc6 -> fc6
I0912 20:03:43.157850 27366 net.cpp:150] Setting up fc6
I0912 20:03:43.157882 27366 net.cpp:157] Top shape: 16 4096 (65536)
I0912 20:03:43.157886 27366 net.cpp:165] Memory required for data: 76798016
I0912 20:03:43.157896 27366 layer_factory.hpp:77] Creating layer relu6
I0912 20:03:43.157905 27366 net.cpp:100] Creating Layer relu6
I0912 20:03:43.157909 27366 net.cpp:434] relu6 <- fc6
I0912 20:03:43.157914 27366 net.cpp:395] relu6 -> fc6 (in-place)
I0912 20:03:43.157922 27366 net.cpp:150] Setting up relu6
I0912 20:03:43.157927 27366 net.cpp:157] Top shape: 16 4096 (65536)
I0912 20:03:43.157928 27366 net.cpp:165] Memory required for data: 77060160
I0912 20:03:43.157930 27366 layer_factory.hpp:77] Creating layer fc7
I0912 20:03:43.157943 27366 net.cpp:100] Creating Layer fc7
I0912 20:03:43.157948 27366 net.cpp:434] fc7 <- fc6
I0912 20:03:43.157953 27366 net.cpp:408] fc7 -> fc7
I0912 20:03:43.587596 27366 net.cpp:150] Setting up fc7
I0912 20:03:43.587630 27366 net.cpp:157] Top shape: 16 4096 (65536)
I0912 20:03:43.587635 27366 net.cpp:165] Memory required for data: 77322304
I0912 20:03:43.587662 27366 layer_factory.hpp:77] Creating layer relu7
I0912 20:03:43.587674 27366 net.cpp:100] Creating Layer relu7
I0912 20:03:43.587678 27366 net.cpp:434] relu7 <- fc7
I0912 20:03:43.587684 27366 net.cpp:395] relu7 -> fc7 (in-place)
I0912 20:03:43.587694 27366 net.cpp:150] Setting up relu7
I0912 20:03:43.587699 27366 net.cpp:157] Top shape: 16 4096 (65536)
I0912 20:03:43.587702 27366 net.cpp:165] Memory required for data: 77584448
I0912 20:03:43.587705 27366 layer_factory.hpp:77] Creating layer fc8
I0912 20:03:43.587715 27366 net.cpp:100] Creating Layer fc8
I0912 20:03:43.587719 27366 net.cpp:434] fc8 <- fc7
I0912 20:03:43.587725 27366 net.cpp:408] fc8 -> fc8
I0912 20:03:43.692113 27366 net.cpp:150] Setting up fc8
I0912 20:03:43.692147 27366 net.cpp:157] Top shape: 16 1000 (16000)
I0912 20:03:43.692149 27366 net.cpp:165] Memory required for data: 77648448
I0912 20:03:43.692158 27366 layer_factory.hpp:77] Creating layer loss
I0912 20:03:43.692168 27366 net.cpp:100] Creating Layer loss
I0912 20:03:43.692173 27366 net.cpp:434] loss <- fc8
I0912 20:03:43.692176 27366 net.cpp:434] loss <- label
I0912 20:03:43.692183 27366 net.cpp:408] loss -> loss
I0912 20:03:43.692206 27366 layer_factory.hpp:77] Creating layer loss
…
