…
display: 1
max_iter: 80
lr_policy: "fixed"
solver_mode: GPU
device_id: 0
net: "fcn5.prototxt"
train_state {
  level: 0
  stage: ""
}
I1026 00:28:56.342988 44927 solver.cpp:91] Creating training net from net file: fcn5.prototxt
I1026 00:28:56.343294 44927 net.cpp:58] Initializing net from parameters: 
name: "FCN5"
state {
  phase: TRAIN
  level: 0
  stage: ""
}
layer {
  name: "data"
  type: "Data"
  top: "data"
  top: "label"
  include {
    phase: TRAIN
  }
  data_param {
    source: "fake_data26752.lmdb"
    batch_size: 8192
    backend: LMDB
  }
}
layer {
  name: "H1"
  type: "InnerProduct"
  bottom: "data"
  top: "H1"
  inner_product_param {
    num_output: 2048
  }
}
layer {
  name: "H1_A"
  type: "Sigmoid"
  bottom: "H1"
  top: "H1"
}
layer {
  name: "H2"
  type: "InnerProduct"
  bottom: "H1"
  top: "H2"
  inner_product_param {
    num_output: 2048
  }
}
layer {
  name: "H2_A"
  type: "Sigmoid"
  bottom: "H2"
  top: "H2"
}
layer {
  name: "H3"
  type: "InnerProduct"
  bottom: "H2"
  top: "H3"
  inner_product_param {
    num_output: 2048
  }
}
layer {
  name: "H3_A"
  type: "Sigmoid"
  bottom: "H3"
  top: "H3"
}
layer {
  name: "L"
  type: "InnerProduct"
  bottom: "H3"
  top: "L"
  inner_product_param {
    num_output: 1000
  }
}
layer {
  name: "loss"
  type: "SoftmaxWithLoss"
  bottom: "L"
  bottom: "label"
  top: "loss"
}
I1026 00:28:56.343389 44927 layer_factory.hpp:77] Creating layer data
I1026 00:28:56.347898 44927 net.cpp:100] Creating Layer data
I1026 00:28:56.347928 44927 net.cpp:408] data -> data
I1026 00:28:56.347971 44927 net.cpp:408] data -> label
I1026 00:28:56.349723 44934 db_lmdb.cpp:35] Opened lmdb fake_data26752.lmdb
I1026 00:28:56.362938 44927 data_layer.cpp:41] output data size: 8192,1,1,512
I1026 00:28:56.394716 44927 net.cpp:150] Setting up data
I1026 00:28:56.394938 44927 net.cpp:157] Top shape: 8192 1 1 512 (4194304)
I1026 00:28:56.394968 44927 net.cpp:157] Top shape: 8192 (8192)
I1026 00:28:56.394973 44927 net.cpp:165] Memory required for data: 16809984
I1026 00:28:56.394980 44927 layer_factory.hpp:77] Creating layer H1
I1026 00:28:56.395007 44927 net.cpp:100] Creating Layer H1
I1026 00:28:56.395030 44927 net.cpp:434] H1 <- data
I1026 00:28:56.395058 44927 net.cpp:408] H1 -> H1
I1026 00:28:56.399761 44927 net.cpp:150] Setting up H1
I1026 00:28:56.399798 44927 net.cpp:157] Top shape: 8192 2048 (16777216)
I1026 00:28:56.399802 44927 net.cpp:165] Memory required for data: 83918848
I1026 00:28:56.399822 44927 layer_factory.hpp:77] Creating layer H1_A
I1026 00:28:56.399834 44927 net.cpp:100] Creating Layer H1_A
I1026 00:28:56.399839 44927 net.cpp:434] H1_A <- H1
I1026 00:28:56.399847 44927 net.cpp:395] H1_A -> H1 (in-place)
I1026 00:28:56.399871 44927 net.cpp:150] Setting up H1_A
I1026 00:28:56.399883 44927 net.cpp:157] Top shape: 8192 2048 (16777216)
I1026 00:28:56.399885 44927 net.cpp:165] Memory required for data: 151027712
I1026 00:28:56.399889 44927 layer_factory.hpp:77] Creating layer H2
I1026 00:28:56.399899 44927 net.cpp:100] Creating Layer H2
I1026 00:28:56.399902 44927 net.cpp:434] H2 <- H1
I1026 00:28:56.399909 44927 net.cpp:408] H2 -> H2
I1026 00:28:56.408944 44927 net.cpp:150] Setting up H2
I1026 00:28:56.408996 44927 net.cpp:157] Top shape: 8192 2048 (16777216)
I1026 00:28:56.409003 44927 net.cpp:165] Memory required for data: 218136576
I1026 00:28:56.409019 44927 layer_factory.hpp:77] Creating layer H2_A
I1026 00:28:56.409034 44927 net.cpp:100] Creating Layer H2_A
I1026 00:28:56.409054 44927 net.cpp:434] H2_A <- H2
I1026 00:28:56.409065 44927 net.cpp:395] H2_A -> H2 (in-place)
I1026 00:28:56.409076 44927 net.cpp:150] Setting up H2_A
I1026 00:28:56.409090 44927 net.cpp:157] Top shape: 8192 2048 (16777216)
I1026 00:28:56.409093 44927 net.cpp:165] Memory required for data: 285245440
I1026 00:28:56.409099 44927 layer_factory.hpp:77] Creating layer H3
I1026 00:28:56.409107 44927 net.cpp:100] Creating Layer H3
I1026 00:28:56.409111 44927 net.cpp:434] H3 <- H2
I1026 00:28:56.409155 44927 net.cpp:408] H3 -> H3
I1026 00:28:56.419252 44927 net.cpp:150] Setting up H3
I1026 00:28:56.419284 44927 net.cpp:157] Top shape: 8192 2048 (16777216)
I1026 00:28:56.419288 44927 net.cpp:165] Memory required for data: 352354304
I1026 00:28:56.419307 44927 layer_factory.hpp:77] Creating layer H3_A
I1026 00:28:56.419320 44927 net.cpp:100] Creating Layer H3_A
I1026 00:28:56.419327 44927 net.cpp:434] H3_A <- H3
I1026 00:28:56.419337 44927 net.cpp:395] H3_A -> H3 (in-place)
I1026 00:28:56.419350 44927 net.cpp:150] Setting up H3_A
I1026 00:28:56.419359 44927 net.cpp:157] Top shape: 8192 2048 (16777216)
I1026 00:28:56.419373 44927 net.cpp:165] Memory required for data: 419463168
I1026 00:28:56.419376 44927 layer_factory.hpp:77] Creating layer L
I1026 00:28:56.419384 44927 net.cpp:100] Creating Layer L
I1026 00:28:56.419387 44927 net.cpp:434] L <- H3
I1026 00:28:56.419394 44927 net.cpp:408] L -> L
I1026 00:28:56.424839 44927 net.cpp:150] Setting up L
I1026 00:28:56.424871 44927 net.cpp:157] Top shape: 8192 1000 (8192000)
I1026 00:28:56.424876 44927 net.cpp:165] Memory required for data: 452231168
I1026 00:28:56.424883 44927 layer_factory.hpp:77] Creating layer loss
I1026 00:28:56.424901 44927 net.cpp:100] Creating Layer loss
I1026 00:28:56.424906 44927 net.cpp:434] loss <- L
I1026 00:28:56.424911 44927 net.cpp:434] loss <- label
I1026 00:28:56.424933 44927 net.cpp:408] loss -> loss
I1026 00:28:56.424962 44927 layer_factory.hpp:77] Creating layer loss
…
