…
power: 0.75
momentum: 0.009
solver_mode: GPU
device_id: 0
net: "resnet-b16.prototxt"
train_state {
  level: 0
  stage: ""
}
I0921 20:46:51.563431 13143 solver.cpp:91] Creating training net from net file: resnet-b16.prototxt
I0921 20:46:51.566530 13143 net.cpp:58] Initializing net from parameters: 
name: "ResNet-50"
state {
  phase: TRAIN
  level: 0
  stage: ""
}
layer {
  name: "data"
  type: "Data"
  top: "data"
  top: "label"
  include {
    phase: TRAIN
  }
  data_param {
    source: "../fake_image_net.lmdb"
    batch_size: 16
    backend: LMDB
  }
}
layer {
  name: "conv1"
  type: "Convolution"
  bottom: "data"
  top: "conv1"
  convolution_param {
    num_output: 64
    kernel_size: 7
    stride: 2
  }
}
layer {
  name: "bn_conv1"
  type: "BatchNorm"
  bottom: "conv1"
  top: "conv1"
  batch_norm_param {
    use_global_stats: true
  }
}
layer {
  name: "scale_conv1"
  type: "Scale"
  bottom: "conv1"
  top: "conv1"
  scale_param {
    bias_term: true
  }
}
layer {
  name: "conv1_relu"
  type: "ReLU"
  bottom: "conv1"
  top: "conv1"
}
layer {
  name: "pool1"
  type: "Pooling"
  bottom: "conv1"
  top: "pool1"
  pooling_param {
    pool: MAX
    kernel_size: 3
    stride: 2
  }
}
layer {
  name: "res2a_branch1"
  type: "Convolution"
  bottom: "pool1"
  top: "res2a_branch1"
  convolution_param {
    num_output: 256
    bias_term: false
    pad: 0
    kernel_size: 1
    stride: 1
  }
}
layer {
  name: "bn2a_branch1"
  type: "BatchNorm"
  bottom: "res2a_branch1"
  top: "res2a_branch1"
  batch_norm_param {
    use_global_stats: true
  }
}
layer {
  name: "scale2a_branch1"
  type: "Scale"
  bottom: "res2a_branch1"
  top: "res2a_branch1"
  scale_param {
    bias_term: true
  }
}
layer {
  name: "res2a_branch2a"
  type: "Convolution"
  bottom: "pool1"
  top: "res2a_branch2a"
  convolution_param {
    num_output: 64
    bias_term: false
    pad: 0
    kernel_size: 1
    stride: 1
  }
}
layer {
  name: "bn2a_branch2a"
  type: "BatchNorm"
  bottom: "res2a_branch2a"
  top: "res2a_branch2a"
  batch_norm_param {
    use_global_stats: true
  }
}
layer {
  name: "scale2a_branch2a"
  type: "Scale"
  bottom: "res2a_branch2a"
  top: "res2a_branch2a"
  scale_param {
    bias_term: true
  }
}
layer {
  name: "res2a_branch2a_relu"
  type: "ReLU"
  bottom: "res2a_branch2a"
  top: "res2a_branch2a"
}
layer {
  name: "res2a_branch2b"
  type: "Convolution"
  bottom: "res2a_branch2a"
  top: "res2a_branch2b"
  convolution_param {
    num_output: 64
    bias_term: false
    pad: 1
    kernel_size: 3
    stride: 1
  }
}
layer {
  name: "bn2a_branch2b"
  type: "BatchNorm"
  bottom: "res2a_branch2b"
  top: "res2a_branch2b"
  batch_norm_param {
    use_global_stats: true
  }
}
layer {
  name: "scale2a_branch2b"
  type: "Scale"
  bottom: "res2a_branch2b"
  top: "res2a_branch2b"
  scale_param {
    bias_term: true
  }
}
layer {
  name: "res2a_branch2b_relu"
  type: "ReLU"
  bottom: "res2a_branch2b"
  top: "res2a_branch2b"
}
layer {
  name: "res2a_branch2c"
  type: "Convolution"
  bottom: "res2a_branch2b"
  top: "res2a_branch2c"
  convolution_param {
    num_output: 256
    bias_term: false
    pad: 0
    kernel_size: 1
    stride: 1
  }
}
layer {
  name: "bn2a_branch2c"
  type: "BatchNorm"
  bottom: "res2a_branch2c"
  top: "res2a_branch2c"
  batch_norm_param {
    use_global_stats: true
  }
}
layer {
  name: "scale2a_branch2c"
  type: "Scale"
  bottom: "res2a_branch2c"
  top: "res2a_branch2c"
  scale_param {
    bias_term: true
  }
}
layer {
  name: "res2a"
  type: "Eltwise"
  bottom: "res2a_branch1"
  bottom: "res2a_branch2c"
  top: "res2a"
}
layer {
  name: "res2a_relu"
  type: "ReLU"
  bottom: "res2a"
  top: "res2a"
}
layer {
  name: "res2b_branch2a"
  type: "Convolution"
  bottom: "res2a"
  top: "res2b_branch2a"
  convolution_param {
    num_output: 64
    bias_term: false
    pad: 0
    kernel_size: 1
    stride: 1
  }
}
layer {
  name: "bn2b_branch2a"
  type: "BatchNorm"
  bottom: "res2b_branch2a"
  top: "res2b_branch2a"
  batch_norm_param {
    use_global_stats: true
  }
}
layer {
  name: "scale2b_branch2a"
  type: "Scale"
  bottom: "res2b_branch2a"
  top: "res2b_branch2a"
  scale_param {
    bias_term: true
  }
}
layer {
  name: "res2b_branch2a_relu"
  type: "ReLU"
  bottom: "res2b_branch2a"
  top: "res2b_branch2a"
}
layer {
  name: "res2b_branch2b"
  type: "Convolution"
  bottom: "res2b_branch2a"
  top: "res2b_branch2b"
  convolution_param {
    num_output: 64
    bias_term: false
    pad: 1
    kernel_size: 3
    stride: 1
  }
}
layer {
  name: "bn2b_branch2b"
  type: "BatchNorm"
  bottom: "res2b_branch2b"
  top: "res2b_branch2b"
  batch_norm_param {
    use_global_stats: true
  }
}
layer {
  name: "scale2b_branch2b"
  type: "Scale"
  bottom: "res2b_branch2b"
  top: "res2b_branch2b"
  scale_param {
    bias_term: true
  }
}
layer {
  name: "res2b_branch2b_relu"
  type: "ReLU"
  bottom: "res2b_branch2b"
  top: "res2b_branch2b"
}
layer {
  name: "res2b_branch2c"
  type: "Convolution"
  bottom: "res2b_branch2b"
  top: "res2b_branch2c"
  convolution_param {
    num_output: 256
    bias_term: false
    pad: 0
    kernel_size: 1
    stride: 1
  }
}
layer {
  name: "bn2b_branch2c"
  type: "BatchNorm"
  bottom: "res2b_branch2c"
  top: "res2b_branch2c"
  batch_norm_param {
    use_global_stats: true
  }
}
layer {
  name: "scale2b_branch2c"
  type: "Scale"
  bottom: "res2b_branch2c"
  top: "res2b_branch2c"
  scale_param {
    bias_term: true
  }
}
layer {
  name: "res2b"
  type: "Eltwise"
  bottom: "res2a"
  bottom: "res2b_branch2c"
  top: "res2b"
}
layer {
  name: "res2b_relu"
  type: "ReLU"
  bottom: "res2b"
  top: "res2b"
}
layer {
  name: "res2c_branch2a"
  type: "Convolution"
  bottom: "res2b"
  top: "res2c_branch2a"
  convolution_param {
    num_output: 64
    bias_term: false
    pad: 0
    kernel_size: 1
    stride: 1
  }
}
layer {
  name: "bn2c_branch2a"
  type: "BatchNorm"
  bottom: "res2c_branch2a"
  top: "res2c_branch2a"
  batch_norm_param {
    use_global_stats: true
  }
}
layer {
  name: "scale2c_branch2a"
  type: "Scale"
  bottom: "res2c_branch2a"
  top: "res2c_branch2a"
  scale_param {
    bias_term: true
  }
}
layer {
  name: "res2c_branch2a_relu"
  type: "ReLU"
  bottom: "res2c_branch2a"
  top: "res2c_branch2a"
}
layer {
  name: "res2c_branch2b"
  type: "Convolution"
  bottom: "res2c_branch2a"
  top: "res2c_branch2b"
  convolution_param {
    num_output: 64
    bias_term: false
    pad: 1
    kernel_size: 3
    stride: 1
  }
}
layer {
  name: "bn2c_branch2b"
  type: "BatchNorm"
  bottom: "res2c_branch2b"
  top: "res2c_branch2b"
  batch_norm_param {
    use_global_stats: true
  }
}
layer {
  name: "scale2c_branch2b"
  type: "Scale"
  bottom: "res2c_branch2b"
  top: "res2c_branch2b"
  scale_param {
    bias_term: true
  }
}
layer {
  name: "res2c_branch2b_relu"
  type: "ReLU"
  bottom: "res2c_branch2b"
  top: "res2c_branch2b"
}
layer {
  name: "res2c_branch2c"
  type: "Convolution"
  bottom: "res2c_branch2b"
  top: "res2c_branch2c"
  convolution_param {
    num_output: 256
    bias_term: false
    pad: 0
    kernel_size: 1
    stride: 1
  }
}
layer {
  name: "bn2c_branch2c"
  type: "BatchNorm"
  bottom: "res2c_branch2c"
  top: "res2c_branch2c"
  batch_norm_param {
    use_global_stats: true
  }
}
layer {
  name: "scale2c_branch2c"
  type: "Scale"
  bottom: "res2c_branch2c"
  top: "res2c_branch2c"
  scale_param {
    bias_term: true
  }
}
layer {
  name: "res2c"
  type: "Eltwise"
  bottom: "res2b"
  bottom: "res2c_branch2c"
  top: "res2c"
}
layer {
  name: "res2c_relu"
  type: "ReLU"
  bottom: "res2c"
  top: "res2c"
}
layer {
  name: "res3a_branch1"
  type: "Convolution"
  bottom: "res2c"
  top: "res3a_branch1"
  convolution_param {
    num_output: 512
    bias_term: false
    pad: 0
    kernel_size: 1
    stride: 2
  }
}
layer {
  name: "bn3a_branch1"
  type: "BatchNorm"
  bottom: "res3a_branch1"
  top: "res3a_branch1"
  batch_norm_param {
    use_global_stats: true
  }
}
layer {
  name: "scale3a_branch1"
  type: "Scale"
  bottom: "res3a_branch1"
  top: "res3a_branch1"
  scale_param {
    bias_term: true
  }
}
layer {
  name: "res3a_branch2a"
  type: "Convolution"
  bottom: "res2c"
  top: "res3a_branch2a"
  convolution_param {
    num_output: 128
    bias_term: false
    pad: 0
    kernel_size: 1
    stride: 2
  }
}
layer {
  name: "bn3a_branch2a"
  type: "BatchNorm"
  bottom: "res3a_branch2a"
  top: "res3a_branch2a"
  batch_norm_param {
    use_global_stats: true
  }
}
layer {
  name: "scale3a_branch2a"
  type: "Scale"
  bottom: "res3a_branch2a"
  top: "res3a_branch2a"
  scale_param {
    bias_term: true
  }
}
layer {
  name: "res3a_branch2a_relu"
  type: "ReLU"
  bottom: "res3a_branch2a"
  top: "res3a_branch2a"
}
layer {
  name: "res3a_branch2b"
  type: "Convolution"
  bottom: "res3a_branch2a"
  top: "res3a_branch2b"
  convolution_param {
    num_output: 128
    bias_term: false
    pad: 1
    kernel_size: 3
    stride: 1
  }
}
layer {
  name: "bn3a_branch2b"
  type: "BatchNorm"
  bottom: "res3a_branch2b"
  top: "res3a_branch2b"
  batch_norm_param {
    use_global_stats: true
  }
}
layer {
  name: "scale3a_branch2b"
  type: "Scale"
  bottom: "res3a_branch2b"
  top: "res3a_branch2b"
  scale_param {
    bias_term: true
  }
}
layer {
  name: "res3a_branch2b_relu"
  type: "ReLU"
  bottom: "res3a_branch2b"
  top: "res3a_branch2b"
}
layer {
  name: "res3a_branch2c"
  type: "Convolution"
  bottom: "res3a_branch2b"
  top: "res3a_branch2c"
  convolution_param {
    num_output: 512
    bias_term: false
    pad: 0
    kernel_size: 1
    stride: 1
  }
}
layer {
  name: "bn3a_branch2c"
  type: "BatchNorm"
  bottom: "res3a_branch2c"
  top: "res3a_branch2c"
  batch_norm_param {
    use_global_stats: true
  }
}
layer {
  name: "scale3a_branch2c"
  type: "Scale"
  bottom: "res3a_branch2c"
  top: "res3a_branch2c"
  scale_param {
    bias_term: true
  }
}
layer {
  name: "res3a"
  type: "Eltwise"
  bottom: "res3a_branch1"
  bottom: "res3a_branch2c"
  top: "res3a"
}
layer {
  name: "res3a_relu"
  type: "ReLU"
  bottom: "res3a"
  top: "res3a"
}
layer {
  name: "res3b_branch2a"
  type: "Convolution"
  bottom: "res3a"
  top: "res3b_branch2a"
  convolution_param {
    num_output: 128
    bias_term: false
    pad: 0
    kernel_size: 1
    stride: 1
  }
}
layer {
  name: "bn3b_branch2a"
  type: "BatchNorm"
  bottom: "res3b_branch2a"
  top: "res3b_branch2a"
  batch_norm_param {
    use_global_stats: true
  }
}
layer {
  name: "scale3b_branch2a"
  type: "Scale"
  bottom: "res3b_branch2a"
  top: "res3b_branch2a"
  scale_param {
    bias_term: true
  }
}
layer {
  name: "res3b_branch2a_relu"
  type: "ReLU"
  bottom: "res3b_branch2a"
  top: "res3b_branch2a"
}
layer {
  name: "res3b_branch2b"
  type: "Convolution"
  bottom: "res3b_branch2a"
  top: "res3b_branch2b"
  convolution_param {
    num_output: 128
    bias_term: false
    pad: 1
    kernel_size: 3
    stride: 1
  }
}
layer {
  name: "bn3b_branch2b"
  type: "BatchNorm"
  bottom: "res3b_branch2b"
  top: "res3b_branch2b"
  batch_norm_param {
    use_global_stats: true
  }
}
layer {
  name: "scale3b_branch2b"
  type: "Scale"
  bottom: "res3b_branch2b"
  top: "res3b_branch2b"
  scale_param {
    bias_term: true
  }
}
layer {
  name: "res3b_branch2b_relu"
  type: "ReLU"
  bottom: "res3b_branch2b"
  top: "res3b_branch2b"
}
layer {
  name: "res3b_branch2c"
  type: "Convolution"
  bottom: "res3b_branch2b"
  top: "res3b_branch2c"
  convolution_param {
    num_output: 512
    bias_term: false
    pad: 0
    kernel_size: 1
    stride: 1
  }
}
layer {
  name: "bn3b_branch2c"
  type: "BatchNorm"
  bottom: "res3b_branch2c"
  top: "res3b_branch2c"
  batch_norm_param {
    use_global_stats: true
  }
}
layer {
  name: "scale3b_branch2c"
  type: "Scale"
  bottom: "res3b_branch2c"
  top: "res3b_branch2c"
  scale_param {
    bias_term: true
  }
}
layer {
  name: "res3b"
  type: "Eltwise"
  bottom: "res3a"
  bottom: "res3b_branch2c"
  top: "res3b"
}
layer {
  name: "res3b_relu"
  type: "ReLU"
  bottom: "res3b"
  top: "res3b"
}
layer {
  name: "res3c_branch2a"
  type: "Convolution"
  bottom: "res3b"
  top: "res3c_branch2a"
  convolution_param {
    num_output: 128
    bias_term: false
    pad: 0
    kernel_size: 1
    stride: 1
  }
}
layer {
  name: "bn3c_branch2a"
  type: "BatchNorm"
  bottom: "res3c_branch2a"
  top: "res3c_branch2a"
  batch_norm_param {
    use_global_stats: true
  }
}
layer {
  name: "scale3c_branch2a"
  type: "Scale"
  bottom: "res3c_branch2a"
  top: "res3c_branch2a"
  scale_param {
    bias_term: true
  }
}
layer {
  name: "res3c_branch2a_relu"
  type: "ReLU"
  bottom: "res3c_branch2a"
  top: "res3c_branch2a"
}
layer {
  name: "res3c_branch2b"
  type: "Convolution"
  bottom: "res3c_branch2a"
  top: "res3c_branch2b"
  convolution_param {
    num_output: 128
    bias_term: false
    pad: 1
    kernel_size: 3
    stride: 1
  }
}
layer {
  name: "bn3c_branch2b"
  type: "BatchNorm"
  bottom: "res3c_branch2b"
  top: "res3c_branch2b"
  batch_norm_param {
    use_global_stats: true
  }
}
layer {
  name: "scale3c_branch2b"
  type: "Scale"
  bottom: "res3c_branch2b"
  top: "res3c_branch2b"
  scale_param {
    bias_term: true
  }
}
layer {
  name: "res3c_branch2b_relu"
  type: "ReLU"
  bottom: "res3c_branch2b"
  top: "res3c_branch2b"
}
layer {
  name: "res3c_branch2c"
  type: "Convolution"
  bottom: "res3c_branch2b"
  top: "res3c_branch2c"
  convolution_param {
    num_output: 512
    bias_term: false
    pad: 0
    kernel_size: 1
    stride: 1
  }
}
layer {
  name: "bn3c_branch2c"
  type: "BatchNorm"
  bottom: "res3c_branch2c"
  top: "res3c_branch2c"
  batch_norm_param {
    use_global_stats: true
  }
}
layer {
  name: "scale3c_branch2c"
  type: "Scale"
  bottom: "res3c_branch2c"
  top: "res3c_branch2c"
  scale_param {
    bias_term: true
  }
}
layer {
  name: "res3c"
  type: "Eltwise"
  bottom: "res3b"
  bottom: "res3c_branch2c"
  top: "res3c"
}
layer {
  name: "res3c_relu"
  type: "ReLU"
  bottom: "res3c"
  top: "res3c"
}
layer {
  name: "res3d_branch2a"
  type: "Convolution"
  bottom: "res3c"
  top: "res3d_branch2a"
  convolution_param {
    num_output: 128
    bias_term: false
    pad: 0
    kernel_size: 1
    stride: 1
  }
}
layer {
  name: "bn3d_branch2a"
  type: "BatchNorm"
  bottom: "res3d_branch2a"
  top: "res3d_branch2a"
  batch_norm_param {
    use_global_stats: true
  }
}
layer {
  name: "scale3d_branch2a"
  type: "Scale"
  bottom: "res3d_branch2a"
  top: "res3d_branch2a"
  scale_param {
    bias_term: true
  }
}
layer {
  name: "res3d_branch2a_relu"
  type: "ReLU"
  bottom: "res3d_branch2a"
  top: "res3d_branch2a"
}
layer {
  name: "res3d_branch2b"
  type: "Convolution"
  bottom: "res3d_branch2a"
  top: "res3d_branch2b"
  convolution_param {
    num_output: 128
    bias_term: false
    pad: 1
    kernel_size: 3
    stride: 1
  }
}
layer {
  name: "bn3d_branch2b"
  type: "BatchNorm"
  bottom: "res3d_branch2b"
  top: "res3d_branch2b"
  batch_norm_param {
    use_global_stats: true
  }
}
layer {
  name: "scale3d_branch2b"
  type: "Scale"
  bottom: "res3d_branch2b"
  top: "res3d_branch2b"
  scale_param {
    bias_term: true
  }
}
layer {
  name: "res3d_branch2b_relu"
  type: "ReLU"
  bottom: "res3d_branch2b"
  top: "res3d_branch2b"
}
layer {
  name: "res3d_branch2c"
  type: "Convolution"
  bottom: "res3d_branch2b"
  top: "res3d_branch2c"
  convolution_param {
    num_output: 512
    bias_term: false
    pad: 0
    kernel_size: 1
    stride: 1
  }
}
layer {
  name: "bn3d_branch2c"
  type: "BatchNorm"
  bottom: "res3d_branch2c"
  top: "res3d_branch2c"
  batch_norm_param {
    use_global_stats: true
  }
}
layer {
  name: "scale3d_branch2c"
  type: "Scale"
  bottom: "res3d_branch2c"
  top: "res3d_branch2c"
  scale_param {
    bias_term: true
  }
}
layer {
  name: "res3d"
  type: "Eltwise"
  bottom: "res3c"
  bottom: "res3d_branch2c"
  top: "res3d"
}
layer {
  name: "res3d_relu"
  type: "ReLU"
  bottom: "res3d"
  top: "res3d"
}
layer {
  name: "res4a_branch1"
  type: "Convolution"
  bottom: "res3d"
  top: "res4a_branch1"
  convolution_param {
    num_output: 1024
    bias_term: false
    pad: 0
    kernel_size: 1
    stride: 2
  }
}
layer {
  name: "bn4a_branch1"
  type: "BatchNorm"
  bottom: "res4a_branch1"
  top: "res4a_branch1"
  batch_norm_param {
    use_global_stats: true
  }
}
layer {
  name: "scale4a_branch1"
  type: "Scale"
  bottom: "res4a_branch1"
  top: "res4a_branch1"
  scale_param {
    bias_term: true
  }
}
layer {
  name: "res4a_branch2a"
  type: "Convolution"
  bottom: "res3d"
  top: "res4a_branch2a"
  convolution_param {
    num_output: 256
    bias_term: false
    pad: 0
    kernel_size: 1
    stride: 2
  }
}
layer {
  name: "bn4a_branch2a"
  type: "BatchNorm"
  bottom: "res4a_branch2a"
  top: "res4a_branch2a"
  batch_norm_param {
    use_global_stats: true
  }
}
layer {
  name: "scale4a_branch2a"
  type: "Scale"
  bottom: "res4a_branch2a"
  top: "res4a_branch2a"
  scale_param {
    bias_term: true
  }
}
layer {
  name: "res4a_branch2a_relu"
  type: "ReLU"
  bottom: "res4a_branch2a"
  top: "res4a_branch2a"
}
layer {
  name: "res4a_branch2b"
  type: "Convolution"
  bottom: "res4a_branch2a"
  top: "res4a_branch2b"
  convolution_param {
    num_output: 256
    bias_term: false
    pad: 1
    kernel_size: 3
    stride: 1
  }
}
layer {
  name: "bn4a_branch2b"
  type: "BatchNorm"
  bottom: "res4a_branch2b"
  top: "res4a_branch2b"
  batch_norm_param {
    use_global_stats: true
  }
}
layer {
  name: "scale4a_branch2b"
  type: "Scale"
  bottom: "res4a_branch2b"
  top: "res4a_branch2b"
  scale_param {
    bias_term: true
  }
}
layer {
  name: "res4a_branch2b_relu"
  type: "ReLU"
  bottom: "res4a_branch2b"
  top: "res4a_branch2b"
}
layer {
  name: "res4a_branch2c"
  type: "Convolution"
  bottom: "res4a_branch2b"
  top: "res4a_branch2c"
  convolution_param {
    num_output: 1024
    bias_term: false
    pad: 0
    kernel_size: 1
    stride: 1
  }
}
layer {
  name: "bn4a_branch2c"
  type: "BatchNorm"
  bottom: "res4a_branch2c"
  top: "res4a_branch2c"
  batch_norm_param {
    use_global_stats: true
  }
}
layer {
  name: "scale4a_branch2c"
  type: "Scale"
  bottom: "res4a_branch2c"
  top: "res4a_branch2c"
  scale_param {
    bias_term: true
  }
}
layer {
  name: "res4a"
  type: "Eltwise"
  bottom: "res4a_branch1"
  bottom: "res4a_branch2c"
  top: "res4a"
}
layer {
  name: "res4a_relu"
  type: "ReLU"
  bottom: "res4a"
  top: "res4a"
}
layer {
  name: "res4b_branch2a"
  type: "Convolution"
  bottom: "res4a"
  top: "res4b_branch2a"
  convolution_param {
    num_output: 256
    bias_term: false
    pad: 0
    kernel_size: 1
    stride: 1
  }
}
layer {
  name: "bn4b_branch2a"
  type: "BatchNorm"
  bottom: "res4b_branch2a"
  top: "res4b_branch2a"
  batch_norm_param {
    use_global_stats: true
  }
}
layer {
  name: "scale4b_branch2a"
  type: "Scale"
  bottom: "res4b_branch2a"
  top: "res4b_branch2a"
  scale_param {
    bias_term: true
  }
}
layer {
  name: "res4b_branch2a_relu"
  type: "ReLU"
  bottom: "res4b_branch2a"
  top: "res4b_branch2a"
}
layer {
  name: "res4b_branch2b"
  type: "Convolution"
  bottom: "res4b_branch2a"
  top: "res4b_branch2b"
  convolution_param {
    num_output: 256
    bias_term: false
    pad: 1
    kernel_size: 3
    stride: 1
  }
}
layer {
  name: "bn4b_branch2b"
  type: "BatchNorm"
  bottom: "res4b_branch2b"
  top: "res4b_branch2b"
  batch_norm_param {
    use_global_stats: true
  }
}
layer {
  name: "scale4b_branch2b"
  type: "Scale"
  bottom: "res4b_branch2b"
  top: "res4b_branch2b"
  scale_param {
    bias_term: true
  }
}
layer {
  name: "res4b_branch2b_relu"
  type: "ReLU"
  bottom: "res4b_branch2b"
  top: "res4b_branch2b"
}
layer {
  name: "res4b_branch2c"
  type: "Convolution"
  bottom: "res4b_branch2b"
  top: "res4b_branch2c"
  convolution_param {
    num_output: 1024
    bias_term: false
    pad: 0
    kernel_size: 1
    stride: 1
  }
}
layer {
  name: "bn4b_branch2c"
  type: "BatchNorm"
  bottom: "res4b_branch2c"
  top: "res4b_branch2c"
  batch_norm_param {
    use_global_stats: true
  }
}
layer {
  name: "scale4b_branch2c"
  type: "Scale"
  bottom: "res4b_branch2c"
  top: "res4b_branch2c"
  scale_param {
    bias_term: true
  }
}
layer {
  name: "res4b"
  type: "Eltwise"
  bottom: "res4a"
  bottom: "res4b_branch2c"
  top: "res4b"
}
layer {
  name: "res4b_relu"
  type: "ReLU"
  bottom: "res4b"
  top: "res4b"
}
layer {
  name: "res4c_branch2a"
  type: "Convolution"
  bottom: "res4b"
  top: "res4c_branch2a"
  convolution_param {
    num_output: 256
    bias_term: false
    pad: 0
    kernel_size: 1
    stride: 1
  }
}
layer {
  name: "bn4c_branch2a"
  type: "BatchNorm"
  bottom: "res4c_branch2a"
  top: "res4c_branch2a"
  batch_norm_param {
    use_global_stats: true
  }
}
layer {
  name: "scale4c_branch2a"
  type: "Scale"
  bottom: "res4c_branch2a"
  top: "res4c_branch2a"
  scale_param {
    bias_term: true
  }
}
layer {
  name: "res4c_branch2a_relu"
  type: "ReLU"
  bottom: "res4c_branch2a"
  top: "res4c_branch2a"
}
layer {
  name: "res4c_branch2b"
  type: "Convolution"
  bottom: "res4c_branch2a"
  top: "res4c_branch2b"
  convolution_param {
    num_output: 256
    bias_term: false
    pad: 1
    kernel_size: 3
    stride: 1
  }
}
layer {
  name: "bn4c_branch2b"
  type: "BatchNorm"
  bottom: "res4c_branch2b"
  top: "res4c_branch2b"
  batch_norm_param {
    use_global_stats: true
  }
}
layer {
  name: "scale4c_branch2b"
  type: "Scale"
  bottom: "res4c_branch2b"
  top: "res4c_branch2b"
  scale_param {
    bias_term: true
  }
}
layer {
  name: "res4c_branch2b_relu"
  type: "ReLU"
  bottom: "res4c_branch2b"
  top: "res4c_branch2b"
}
layer {
  name: "res4c_branch2c"
  type: "Convolution"
  bottom: "res4c_branch2b"
  top: "res4c_branch2c"
  convolution_param {
    num_output: 1024
    bias_term: false
    pad: 0
    kernel_size: 1
    stride: 1
  }
}
layer {
  name: "bn4c_branch2c"
  type: "BatchNorm"
  bottom: "res4c_branch2c"
  top: "res4c_branch2c"
  batch_norm_param {
    use_global_stats: true
  }
}
layer {
  name: "scale4c_branch2c"
  type: "Scale"
  bottom: "res4c_branch2c"
  top: "res4c_branch2c"
  scale_param {
    bias_term: true
  }
}
layer {
  name: "res4c"
  type: "Eltwise"
  bottom: "res4b"
  bottom: "res4c_branch2c"
  top: "res4c"
}
layer {
  name: "res4c_relu"
  type: "ReLU"
  bottom: "res4c"
  top: "res4c"
}
layer {
  name: "res4d_branch2a"
  type: "Convolution"
  bottom: "res4c"
  top: "res4d_branch2a"
  convolution_param {
    num_output: 256
    bias_term: false
    pad: 0
    kernel_size: 1
    stride: 1
  }
}
layer {
  name: "bn4d_branch2a"
  type: "BatchNorm"
  bottom: "res4d_branch2a"
  top: "res4d_branch2a"
  batch_norm_param {
    use_global_stats: true
  }
}
layer {
  name: "scale4d_branch2a"
  type: "Scale"
  bottom: "res4d_branch2a"
  top: "res4d_branch2a"
  scale_param {
    bias_term: true
  }
}
layer {
  name: "res4d_branch2a_relu"
  type: "ReLU"
  bottom: "res4d_branch2a"
  top: "res4d_branch2a"
}
layer {
  name: "res4d_branch2b"
  type: "Convolution"
  bottom: "res4d_branch2a"
  top: "res4d_branch2b"
  convolution_param {
    num_output: 256
    bias_term: false
    pad: 1
    kernel_size: 3
    stride: 1
  }
}
layer {
  name: "bn4d_branch2b"
  type: "BatchNorm"
  bottom: "res4d_branch2b"
  top: "res4d_branch2b"
  batch_norm_param {
    use_global_stats: true
  }
}
layer {
  name: "scale4d_branch2b"
  type: "Scale"
  bottom: "res4d_branch2b"
  top: "res4d_branch2b"
  scale_param {
    bias_term: true
  }
}
layer {
  name: "res4d_branch2b_relu"
  type: "ReLU"
  bottom: "res4d_branch2b"
  top: "res4d_branch2b"
}
layer {
  name: "res4d_branch2c"
  type: "Convolution"
  bottom: "res4d_branch2b"
  top: "res4d_branch2c"
  convolution_param {
    num_output: 1024
    bias_term: false
    pad: 0
    kernel_size: 1
    stride: 1
  }
}
layer {
  name: "bn4d_branch2c"
  type: "BatchNorm"
  bottom: "res4d_branch2c"
  top: "res4d_branch2c"
  batch_norm_param {
    use_global_stats: true
  }
}
layer {
  name: "scale4d_branch2c"
  type: "Scale"
  bottom: "res4d_branch2c"
  top: "res4d_branch2c"
  scale_param {
    bias_term: true
  }
}
layer {
  name: "res4d"
  type: "Eltwise"
  bottom: "res4c"
  bottom: "res4d_branch2c"
  top: "res4d"
}
layer {
  name: "res4d_relu"
  type: "ReLU"
  bottom: "res4d"
  top: "res4d"
}
layer {
  name: "res4e_branch2a"
  type: "Convolution"
  bottom: "res4d"
  top: "res4e_branch2a"
  convolution_param {
    num_output: 256
    bias_term: false
    pad: 0
    kernel_size: 1
    stride: 1
  }
}
layer {
  name: "bn4e_branch2a"
  type: "BatchNorm"
  bottom: "res4e_branch2a"
  top: "res4e_branch2a"
  batch_norm_param {
    use_global_stats: true
  }
}
layer {
  name: "scale4e_branch2a"
  type: "Scale"
  bottom: "res4e_branch2a"
  top: "res4e_branch2a"
  scale_param {
    bias_term: true
  }
}
layer {
  name: "res4e_branch2a_relu"
  type: "ReLU"
  bottom: "res4e_branch2a"
  top: "res4e_branch2a"
}
layer {
  name: "res4e_branch2b"
  type: "Convolution"
  bottom: "res4e_branch2a"
  top: "res4e_branch2b"
  convolution_param {
    num_output: 256
    bias_term: false
    pad: 1
    kernel_size: 3
    stride: 1
  }
}
layer {
  name: "bn4e_branch2b"
  type: "BatchNorm"
  bottom: "res4e_branch2b"
  top: "res4e_branch2b"
  batch_norm_param {
    use_global_stats: true
  }
}
layer {
  name: "scale4e_branch2b"
  type: "Scale"
  bottom: "res4e_branch2b"
  top: "res4e_branch2b"
  scale_param {
    bias_term: true
  }
}
layer {
  name: "res4e_branch2b_relu"
  type: "ReLU"
  bottom: "res4e_branch2b"
  top: "res4e_branch2b"
}
layer {
  name: "res4e_branch2c"
  type: "Convolution"
  bottom: "res4e_branch2b"
  top: "res4e_branch2c"
  convolution_param {
    num_output: 1024
    bias_term: false
    pad: 0
    kernel_size: 1
    stride: 1
  }
}
layer {
  name: "bn4e_branch2c"
  type: "BatchNorm"
  bottom: "res4e_branch2c"
  top: "res4e_branch2c"
  batch_norm_param {
    use_global_stats: true
  }
}
layer {
  name: "scale4e_branch2c"
  type: "Scale"
  bottom: "res4e_branch2c"
  top: "res4e_branch2c"
  scale_param {
    bias_term: true
  }
}
layer {
  name: "res4e"
  type: "Eltwise"
  bottom: "res4d"
  bottom: "res4e_branch2c"
  top: "res4e"
}
layer {
  name: "res4e_relu"
  type: "ReLU"
  bottom: "res4e"
  top: "res4e"
}
layer {
  name: "res4f_branch2a"
  type: "Convolution"
  bottom: "res4e"
  top: "res4f_branch2a"
  convolution_param {
    num_output: 256
    bias_term: false
    pad: 0
    kernel_size: 1
    stride: 1
  }
}
layer {
  name: "bn4f_branch2a"
  type: "BatchNorm"
  bottom: "res4f_branch2a"
  top: "res4f_branch2a"
  batch_norm_param {
    use_global_stats: true
  }
}
layer {
  name: "scale4f_branch2a"
  type: "Scale"
  bottom: "res4f_branch2a"
  top: "res4f_branch2a"
  scale_param {
    bias_term: true
  }
}
layer {
  name: "res4f_branch2a_relu"
  type: "ReLU"
  bottom: "res4f_branch2a"
  top: "res4f_branch2a"
}
layer {
  name: "res4f_branch2b"
  type: "Convolution"
  bottom: "res4f_branch2a"
  top: "res4f_branch2b"
  convolution_param {
    num_output: 256
    bias_term: false
    pad: 1
    kernel_size: 3
    stride: 1
  }
}
layer {
  name: "bn4f_branch2b"
  type: "BatchNorm"
  bottom: "res4f_branch2b"
  top: "res4f_branch2b"
  batch_norm_param {
    use_global_stats: true
  }
}
layer {
  name: "scale4f_branch2b"
  type: "Scale"
  bottom: "res4f_branch2b"
  top: "res4f_branch2b"
  scale_param {
    bias_term: true
  }
}
layer {
  name: "res4f_branch2b_relu"
  type: "ReLU"
  bottom: "res4f_branch2b"
  top: "res4f_branch2b"
}
layer {
  name: "res4f_branch2c"
  type: "Convolution"
  bottom: "res4f_branch2b"
  top: "res4f_branch2c"
  convolution_param {
    num_output: 1024
    bias_term: false
    pad: 0
    kernel_size: 1
    stride: 1
  }
}
layer {
  name: "bn4f_branch2c"
  type: "BatchNorm"
  bottom: "res4f_branch2c"
  top: "res4f_branch2c"
  batch_norm_param {
    use_global_stats: true
  }
}
layer {
  name: "scale4f_branch2c"
  type: "Scale"
  bottom: "res4f_branch2c"
  top: "res4f_branch2c"
  scale_param {
    bias_term: true
  }
}
layer {
  name: "res4f"
  type: "Eltwise"
  bottom: "res4e"
  bottom: "res4f_branch2c"
  top: "res4f"
}
layer {
  name: "res4f_relu"
  type: "ReLU"
  bottom: "res4f"
  top: "res4f"
}
layer {
  name: "res5a_branch1"
  type: "Convolution"
  bottom: "res4f"
  top: "res5a_branch1"
  convolution_param {
    num_output: 2048
    bias_term: false
    pad: 0
    kernel_size: 1
    stride: 2
  }
}
layer {
  name: "bn5a_branch1"
  type: "BatchNorm"
  bottom: "res5a_branch1"
  top: "res5a_branch1"
  batch_norm_param {
    use_global_stats: true
  }
}
layer {
  name: "scale5a_branch1"
  type: "Scale"
  bottom: "res5a_branch1"
  top: "res5a_branch1"
  scale_param {
    bias_term: true
  }
}
layer {
  name: "res5a_branch2a"
  type: "Convolution"
  bottom: "res4f"
  top: "res5a_branch2a"
  convolution_param {
    num_output: 512
    bias_term: false
    pad: 0
    kernel_size: 1
    stride: 2
  }
}
layer {
  name: "bn5a_branch2a"
  type: "BatchNorm"
  bottom: "res5a_branch2a"
  top: "res5a_branch2a"
  batch_norm_param {
    use_global_stats: true
  }
}
layer {
  name: "scale5a_branch2a"
  type: "Scale"
  bottom: "res5a_branch2a"
  top: "res5a_branch2a"
  scale_param {
    bias_term: true
  }
}
layer {
  name: "res5a_branch2a_relu"
  type: "ReLU"
  bottom: "res5a_branch2a"
  top: "res5a_branch2a"
}
layer {
  name: "res5a_branch2b"
  type: "Convolution"
  bottom: "res5a_branch2a"
  top: "res5a_branch2b"
  convolution_param {
    num_output: 512
    bias_term: false
    pad: 1
    kernel_size: 3
    stride: 1
  }
}
layer {
  name: "bn5a_branch2b"
  type: "BatchNorm"
  bottom: "res5a_branch2b"
  top: "res5a_branch2b"
  batch_norm_param {
    use_global_stats: true
  }
}
layer {
  name: "scale5a_branch2b"
  type: "Scale"
  bottom: "res5a_branch2b"
  top: "res5a_branch2b"
  scale_param {
    bias_term: true
  }
}
layer {
  name: "res5a_branch2b_relu"
  type: "ReLU"
  bottom: "res5a_branch2b"
  top: "res5a_branch2b"
}
layer {
  name: "res5a_branch2c"
  type: "Convolution"
  bottom: "res5a_branch2b"
  top: "res5a_branch2c"
  convolution_param {
    num_output: 2048
    bias_term: false
    pad: 0
    kernel_size: 1
    stride: 1
  }
}
layer {
  name: "bn5a_branch2c"
  type: "BatchNorm"
  bottom: "res5a_branch2c"
  top: "res5a_branch2c"
  batch_norm_param {
    use_global_stats: true
  }
}
layer {
  name: "scale5a_branch2c"
  type: "Scale"
  bottom: "res5a_
I0921 20:46:51.567219 13143 layer_factory.hpp:77] Creating layer data
I0921 20:46:51.567672 13143 net.cpp:100] Creating Layer data
I0921 20:46:51.567687 13143 net.cpp:408] data -> data
I0921 20:46:51.567705 13143 net.cpp:408] data -> label
I0921 20:46:51.569897 13149 db_lmdb.cpp:35] Opened lmdb ../fake_image_net.lmdb
I0921 20:46:51.580967 13143 data_layer.cpp:41] output data size: 16,3,224,224
I0921 20:46:51.593564 13143 net.cpp:150] Setting up data
I0921 20:46:51.593606 13143 net.cpp:157] Top shape: 16 3 224 224 (2408448)
I0921 20:46:51.593613 13143 net.cpp:157] Top shape: 16 (16)
I0921 20:46:51.593617 13143 net.cpp:165] Memory required for data: 9633856
I0921 20:46:51.593626 13143 layer_factory.hpp:77] Creating layer conv1
I0921 20:46:51.593663 13143 net.cpp:100] Creating Layer conv1
I0921 20:46:51.593672 13143 net.cpp:434] conv1 <- data
I0921 20:46:51.593684 13143 net.cpp:408] conv1 -> conv1
I0921 20:46:51.594558 13143 net.cpp:150] Setting up conv1
I0921 20:46:51.594579 13143 net.cpp:157] Top shape: 16 64 109 109 (12166144)
I0921 20:46:51.594584 13143 net.cpp:165] Memory required for data: 58298432
I0921 20:46:51.594597 13143 layer_factory.hpp:77] Creating layer bn_conv1
I0921 20:46:51.594605 13143 net.cpp:100] Creating Layer bn_conv1
I0921 20:46:51.594609 13143 net.cpp:434] bn_conv1 <- conv1
I0921 20:46:51.594615 13143 net.cpp:395] bn_conv1 -> conv1 (in-place)
I0921 20:46:51.594784 13143 net.cpp:150] Setting up bn_conv1
I0921 20:46:51.594792 13143 net.cpp:157] Top shape: 16 64 109 109 (12166144)
I0921 20:46:51.594795 13143 net.cpp:165] Memory required for data: 106963008
I0921 20:46:51.594805 13143 layer_factory.hpp:77] Creating layer scale_conv1
I0921 20:46:51.594816 13143 net.cpp:100] Creating Layer scale_conv1
I0921 20:46:51.594820 13143 net.cpp:434] scale_conv1 <- conv1
I0921 20:46:51.594825 13143 net.cpp:395] scale_conv1 -> conv1 (in-place)
I0921 20:46:51.594859 13143 layer_factory.hpp:77] Creating layer scale_conv1
I0921 20:46:51.594972 13143 net.cpp:150] Setting up scale_conv1
I0921 20:46:51.594981 13143 net.cpp:157] Top shape: 16 64 109 109 (12166144)
I0921 20:46:51.594985 13143 net.cpp:165] Memory required for data: 155627584
I0921 20:46:51.594990 13143 layer_factory.hpp:77] Creating layer conv1_relu
I0921 20:46:51.594998 13143 net.cpp:100] Creating Layer conv1_relu
I0921 20:46:51.595001 13143 net.cpp:434] conv1_relu <- conv1
I0921 20:46:51.595024 13143 net.cpp:395] conv1_relu -> conv1 (in-place)
I0921 20:46:51.595034 13143 net.cpp:150] Setting up conv1_relu
I0921 20:46:51.595039 13143 net.cpp:157] Top shape: 16 64 109 109 (12166144)
I0921 20:46:51.595042 13143 net.cpp:165] Memory required for data: 204292160
I0921 20:46:51.595046 13143 layer_factory.hpp:77] Creating layer pool1
I0921 20:46:51.595052 13143 net.cpp:100] Creating Layer pool1
I0921 20:46:51.595054 13143 net.cpp:434] pool1 <- conv1
I0921 20:46:51.595060 13143 net.cpp:408] pool1 -> pool1
I0921 20:46:51.595105 13143 net.cpp:150] Setting up pool1
I0921 20:46:51.595113 13143 net.cpp:157] Top shape: 16 64 54 54 (2985984)
I0921 20:46:51.595115 13143 net.cpp:165] Memory required for data: 216236096
I0921 20:46:51.595118 13143 layer_factory.hpp:77] Creating layer pool1_pool1_0_split
I0921 20:46:51.595124 13143 net.cpp:100] Creating Layer pool1_pool1_0_split
I0921 20:46:51.595127 13143 net.cpp:434] pool1_pool1_0_split <- pool1
I0921 20:46:51.595131 13143 net.cpp:408] pool1_pool1_0_split -> pool1_pool1_0_split_0
I0921 20:46:51.595137 13143 net.cpp:408] pool1_pool1_0_split -> pool1_pool1_0_split_1
I0921 20:46:51.595163 13143 net.cpp:150] Setting up pool1_pool1_0_split
I0921 20:46:51.595170 13143 net.cpp:157] Top shape: 16 64 54 54 (2985984)
I0921 20:46:51.595173 13143 net.cpp:157] Top shape: 16 64 54 54 (2985984)
I0921 20:46:51.595176 13143 net.cpp:165] Memory required for data: 240123968
I0921 20:46:51.595180 13143 layer_factory.hpp:77] Creating layer res2a_branch1
I0921 20:46:51.595201 13143 net.cpp:100] Creating Layer res2a_branch1
I0921 20:46:51.595206 13143 net.cpp:434] res2a_branch1 <- pool1_pool1_0_split_0
I0921 20:46:51.595211 13143 net.cpp:408] res2a_branch1 -> res2a_branch1
I0921 20:46:51.595356 13143 net.cpp:150] Setting up res2a_branch1
I0921 20:46:51.595366 13143 net.cpp:157] Top shape: 16 256 54 54 (11943936)
I0921 20:46:51.595369 13143 net.cpp:165] Memory required for data: 287899712
I0921 20:46:51.595373 13143 layer_factory.hpp:77] Creating layer bn2a_branch1
I0921 20:46:51.595381 13143 net.cpp:100] Creating Layer bn2a_branch1
I0921 20:46:51.595383 13143 net.cpp:434] bn2a_branch1 <- res2a_branch1
I0921 20:46:51.595388 13143 net.cpp:395] bn2a_branch1 -> res2a_branch1 (in-place)
I0921 20:46:51.596026 13143 net.cpp:150] Setting up bn2a_branch1
I0921 20:46:51.596041 13143 net.cpp:157] Top shape: 16 256 54 54 (11943936)
I0921 20:46:51.596045 13143 net.cpp:165] Memory required for data: 335675456
I0921 20:46:51.596056 13143 layer_factory.hpp:77] Creating layer scale2a_branch1
I0921 20:46:51.596062 13143 net.cpp:100] Creating Layer scale2a_branch1
I0921 20:46:51.596065 13143 net.cpp:434] scale2a_branch1 <- res2a_branch1
I0921 20:46:51.596071 13143 net.cpp:395] scale2a_branch1 -> res2a_branch1 (in-place)
I0921 20:46:51.596106 13143 layer_factory.hpp:77] Creating layer scale2a_branch1
I0921 20:46:51.596190 13143 net.cpp:150] Setting up scale2a_branch1
I0921 20:46:51.596199 13143 net.cpp:157] Top shape: 16 256 54 54 (11943936)
I0921 20:46:51.596202 13143 net.cpp:165] Memory required for data: 383451200
I0921 20:46:51.596209 13143 layer_factory.hpp:77] Creating layer res2a_branch2a
I0921 20:46:51.596215 13143 net.cpp:100] Creating Layer res2a_branch2a
I0921 20:46:51.596218 13143 net.cpp:434] res2a_branch2a <- pool1_pool1_0_split_1
I0921 20:46:51.596225 13143 net.cpp:408] res2a_branch2a -> res2a_branch2a
I0921 20:46:51.596361 13143 net.cpp:150] Setting up res2a_branch2a
I0921 20:46:51.596370 13143 net.cpp:157] Top shape: 16 64 54 54 (2985984)
I0921 20:46:51.596374 13143 net.cpp:165] Memory required for data: 395395136
I0921 20:46:51.596379 13143 layer_factory.hpp:77] Creating layer bn2a_branch2a
I0921 20:46:51.596385 13143 net.cpp:100] Creating Layer bn2a_branch2a
I0921 20:46:51.596388 13143 net.cpp:434] bn2a_branch2a <- res2a_branch2a
I0921 20:46:51.596393 13143 net.cpp:395] bn2a_branch2a -> res2a_branch2a (in-place)
I0921 20:46:51.596549 13143 net.cpp:150] Setting up bn2a_branch2a
I0921 20:46:51.596557 13143 net.cpp:157] Top shape: 16 64 54 54 (2985984)
I0921 20:46:51.596570 13143 net.cpp:165] Memory required for data: 407339072
I0921 20:46:51.596582 13143 layer_factory.hpp:77] Creating layer scale2a_branch2a
I0921 20:46:51.596590 13143 net.cpp:100] Creating Layer scale2a_branch2a
I0921 20:46:51.596592 13143 net.cpp:434] scale2a_branch2a <- res2a_branch2a
I0921 20:46:51.596597 13143 net.cpp:395] scale2a_branch2a -> res2a_branch2a (in-place)
I0921 20:46:51.596676 13143 layer_factory.hpp:77] Creating layer scale2a_branch2a
I0921 20:46:51.597590 13143 net.cpp:150] Setting up scale2a_branch2a
I0921 20:46:51.597602 13143 net.cpp:157] Top shape: 16 64 54 54 (2985984)
I0921 20:46:51.597605 13143 net.cpp:165] Memory required for data: 419283008
I0921 20:46:51.597614 13143 layer_factory.hpp:77] Creating layer res2a_branch2a_relu
I0921 20:46:51.597623 13143 net.cpp:100] Creating Layer res2a_branch2a_relu
I0921 20:46:51.597627 13143 net.cpp:434] res2a_branch2a_relu <- res2a_branch2a
I0921 20:46:51.597632 13143 net.cpp:395] res2a_branch2a_relu -> res2a_branch2a (in-place)
I0921 20:46:51.597637 13143 net.cpp:150] Setting up res2a_branch2a_relu
I0921 20:46:51.597641 13143 net.cpp:157] Top shape: 16 64 54 54 (2985984)
I0921 20:46:51.597645 13143 net.cpp:165] Memory required for data: 431226944
I0921 20:46:51.597647 13143 layer_factory.hpp:77] Creating layer res2a_branch2b
I0921 20:46:51.597656 13143 net.cpp:100] Creating Layer res2a_branch2b
I0921 20:46:51.597658 13143 net.cpp:434] res2a_branch2b <- res2a_branch2a
I0921 20:46:51.597663 13143 net.cpp:408] res2a_branch2b -> res2a_branch2b
I0921 20:46:51.598325 13143 net.cpp:150] Setting up res2a_branch2b
I0921 20:46:51.598341 13143 net.cpp:157] Top shape: 16 64 54 54 (2985984)
I0921 20:46:51.598345 13143 net.cpp:165] Memory required for data: 443170880
I0921 20:46:51.598351 13143 layer_factory.hpp:77] Creating layer bn2a_branch2b
I0921 20:46:51.598356 13143 net.cpp:100] Creating Layer bn2a_branch2b
I0921 20:46:51.598361 13143 net.cpp:434] bn2a_branch2b <- res2a_branch2b
I0921 20:46:51.598366 13143 net.cpp:395] bn2a_branch2b -> res2a_branch2b (in-place)
I0921 20:46:51.598513 13143 net.cpp:150] Setting up bn2a_branch2b
I0921 20:46:51.598522 13143 net.cpp:157] Top shape: 16 64 54 54 (2985984)
I0921 20:46:51.598526 13143 net.cpp:165] Memory required for data: 455114816
I0921 20:46:51.598532 13143 layer_factory.hpp:77] Creating layer scale2a_branch2b
I0921 20:46:51.598542 13143 net.cpp:100] Creating Layer scale2a_branch2b
I0921 20:46:51.598546 13143 net.cpp:434] scale2a_branch2b <- res2a_branch2b
I0921 20:46:51.598551 13143 net.cpp:395] scale2a_branch2b -> res2a_branch2b (in-place)
I0921 20:46:51.598583 13143 layer_factory.hpp:77] Creating layer scale2a_branch2b
I0921 20:46:51.598675 13143 net.cpp:150] Setting up scale2a_branch2b
I0921 20:46:51.598685 13143 net.cpp:157] Top shape: 16 64 54 54 (2985984)
I0921 20:46:51.598687 13143 net.cpp:165] Memory required for data: 467058752
I0921 20:46:51.598693 13143 layer_factory.hpp:77] Creating layer res2a_branch2b_relu
I0921 20:46:51.598700 13143 net.cpp:100] Creating Layer res2a_branch2b_relu
I0921 20:46:51.598703 13143 net.cpp:434] res2a_branch2b_relu <- res2a_branch2b
I0921 20:46:51.598707 13143 net.cpp:395] res2a_branch2b_relu -> res2a_branch2b (in-place)
I0921 20:46:51.598712 13143 net.cpp:150] Setting up res2a_branch2b_relu
I0921 20:46:51.598716 13143 net.cpp:157] Top shape: 16 64 54 54 (2985984)
I0921 20:46:51.598719 13143 net.cpp:165] Memory required for data: 479002688
I0921 20:46:51.598722 13143 layer_factory.hpp:77] Creating layer res2a_branch2c
I0921 20:46:51.598731 13143 net.cpp:100] Creating Layer res2a_branch2c
I0921 20:46:51.598733 13143 net.cpp:434] res2a_branch2c <- res2a_branch2b
I0921 20:46:51.598737 13143 net.cpp:408] res2a_branch2c -> res2a_branch2c
I0921 20:46:51.598881 13143 net.cpp:150] Setting up res2a_branch2c
I0921 20:46:51.598889 13143 net.cpp:157] Top shape: 16 256 54 54 (11943936)
I0921 20:46:51.598892 13143 net.cpp:165] Memory required for data: 526778432
I0921 20:46:51.598897 13143 layer_factory.hpp:77] Creating layer bn2a_branch2c
I0921 20:46:51.598902 13143 net.cpp:100] Creating Layer bn2a_branch2c
I0921 20:46:51.598917 13143 net.cpp:434] bn2a_branch2c <- res2a_branch2c
I0921 20:46:51.598922 13143 net.cpp:395] bn2a_branch2c -> res2a_branch2c (in-place)
I0921 20:46:51.599064 13143 net.cpp:150] Setting up bn2a_branch2c
I0921 20:46:51.599073 13143 net.cpp:157] Top shape: 16 256 54 54 (11943936)
I0921 20:46:51.599077 13143 net.cpp:165] Memory required for data: 574554176
I0921 20:46:51.599084 13143 layer_factory.hpp:77] Creating layer scale2a_branch2c
I0921 20:46:51.599089 13143 net.cpp:100] Creating Layer scale2a_branch2c
I0921 20:46:51.599092 13143 net.cpp:434] scale2a_branch2c <- res2a_branch2c
I0921 20:46:51.599097 13143 net.cpp:395] scale2a_branch2c -> res2a_branch2c (in-place)
I0921 20:46:51.599130 13143 layer_factory.hpp:77] Creating layer scale2a_branch2c
I0921 20:46:51.599215 13143 net.cpp:150] Setting up scale2a_branch2c
I0921 20:46:51.599225 13143 net.cpp:157] Top shape: 16 256 54 54 (11943936)
I0921 20:46:51.599228 13143 net.cpp:165] Memory required for data: 622329920
I0921 20:46:51.599233 13143 layer_factory.hpp:77] Creating layer res2a
I0921 20:46:51.599241 13143 net.cpp:100] Creating Layer res2a
I0921 20:46:51.599244 13143 net.cpp:434] res2a <- res2a_branch1
I0921 20:46:51.599248 13143 net.cpp:434] res2a <- res2a_branch2c
I0921 20:46:51.599252 13143 net.cpp:408] res2a -> res2a
I0921 20:46:51.599273 13143 net.cpp:150] Setting up res2a
I0921 20:46:51.599279 13143 net.cpp:157] Top shape: 16 256 54 54 (11943936)
I0921 20:46:51.599282 13143 net.cpp:165] Memory required for data: 670105664
I0921 20:46:51.599285 13143 layer_factory.hpp:77] Creating layer res2a_relu
I0921 20:46:51.599290 13143 net.cpp:100] Creating Layer res2a_relu
I0921 20:46:51.599294 13143 net.cpp:434] res2a_relu <- res2a
I0921 20:46:51.599299 13143 net.cpp:395] res2a_relu -> res2a (in-place)
I0921 20:46:51.599304 13143 net.cpp:150] Setting up res2a_relu
I0921 20:46:51.599308 13143 net.cpp:157] Top shape: 16 256 54 54 (11943936)
I0921 20:46:51.599311 13143 net.cpp:165] Memory required for data: 717881408
I0921 20:46:51.599314 13143 layer_factory.hpp:77] Creating layer res2a_res2a_relu_0_split
I0921 20:46:51.599319 13143 net.cpp:100] Creating Layer res2a_res2a_relu_0_split
I0921 20:46:51.599323 13143 net.cpp:434] res2a_res2a_relu_0_split <- res2a
I0921 20:46:51.599326 13143 net.cpp:408] res2a_res2a_relu_0_split -> res2a_res2a_relu_0_split_0
I0921 20:46:51.599331 13143 net.cpp:408] res2a_res2a_relu_0_split -> res2a_res2a_relu_0_split_1
I0921 20:46:51.599359 13143 net.cpp:150] Setting up res2a_res2a_relu_0_split
I0921 20:46:51.599364 13143 net.cpp:157] Top shape: 16 256 54 54 (11943936)
I0921 20:46:51.599367 13143 net.cpp:157] Top shape: 16 256 54 54 (11943936)
I0921 20:46:51.599370 13143 net.cpp:165] Memory required for data: 813432896
I0921 20:46:51.599373 13143 layer_factory.hpp:77] Creating layer res2b_branch2a
I0921 20:46:51.599380 13143 net.cpp:100] Creating Layer res2b_branch2a
I0921 20:46:51.599385 13143 net.cpp:434] res2b_branch2a <- res2a_res2a_relu_0_split_0
I0921 20:46:51.599390 13143 net.cpp:408] res2b_branch2a -> res2b_branch2a
I0921 20:46:51.599548 13143 net.cpp:150] Setting up res2b_branch2a
I0921 20:46:51.599560 13143 net.cpp:157] Top shape: 16 64 54 54 (2985984)
I0921 20:46:51.599563 13143 net.cpp:165] Memory required for data: 825376832
I0921 20:46:51.599567 13143 layer_factory.hpp:77] Creating layer bn2b_branch2a
I0921 20:46:51.599575 13143 net.cpp:100] Creating Layer bn2b_branch2a
I0921 20:46:51.599578 13143 net.cpp:434] bn2b_branch2a <- res2b_branch2a
I0921 20:46:51.599582 13143 net.cpp:395] bn2b_branch2a -> res2b_branch2a (in-place)
I0921 20:46:51.599725 13143 net.cpp:150] Setting up bn2b_branch2a
I0921 20:46:51.599735 13143 net.cpp:157] Top shape: 16 64 54 54 (2985984)
I0921 20:46:51.599737 13143 net.cpp:165] Memory required for data: 837320768
I0921 20:46:51.599748 13143 layer_factory.hpp:77] Creating layer scale2b_branch2a
I0921 20:46:51.599756 13143 net.cpp:100] Creating Layer scale2b_branch2a
I0921 20:46:51.599758 13143 net.cpp:434] scale2b_branch2a <- res2b_branch2a
I0921 20:46:51.599778 13143 net.cpp:395] scale2b_branch2a -> res2b_branch2a (in-place)
I0921 20:46:51.599814 13143 layer_factory.hpp:77] Creating layer scale2b_branch2a
I0921 20:46:51.599907 13143 net.cpp:150] Setting up scale2b_branch2a
I0921 20:46:51.599916 13143 net.cpp:157] Top shape: 16 64 54 54 (2985984)
I0921 20:46:51.599920 13143 net.cpp:165] Memory required for data: 849264704
I0921 20:46:51.599925 13143 layer_factory.hpp:77] Creating layer res2b_branch2a_relu
I0921 20:46:51.599931 13143 net.cpp:100] Creating Layer res2b_branch2a_relu
I0921 20:46:51.599934 13143 net.cpp:434] res2b_branch2a_relu <- res2b_branch2a
I0921 20:46:51.599941 13143 net.cpp:395] res2b_branch2a_relu -> res2b_branch2a (in-place)
I0921 20:46:51.599946 13143 net.cpp:150] Setting up res2b_branch2a_relu
I0921 20:46:51.599951 13143 net.cpp:157] Top shape: 16 64 54 54 (2985984)
I0921 20:46:51.599952 13143 net.cpp:165] Memory required for data: 861208640
I0921 20:46:51.599956 13143 layer_factory.hpp:77] Creating layer res2b_branch2b
I0921 20:46:51.599961 13143 net.cpp:100] Creating Layer res2b_branch2b
I0921 20:46:51.599966 13143 net.cpp:434] res2b_branch2b <- res2b_branch2a
I0921 20:46:51.599969 13143 net.cpp:408] res2b_branch2b -> res2b_branch2b
I0921 20:46:51.600138 13143 net.cpp:150] Setting up res2b_branch2b
I0921 20:46:51.600148 13143 net.cpp:157] Top shape: 16 64 54 54 (2985984)
I0921 20:46:51.600152 13143 net.cpp:165] Memory required for data: 873152576
I0921 20:46:51.600157 13143 layer_factory.hpp:77] Creating layer bn2b_branch2b
I0921 20:46:51.600162 13143 net.cpp:100] Creating Layer bn2b_branch2b
I0921 20:46:51.600165 13143 net.cpp:434] bn2b_branch2b <- res2b_branch2b
I0921 20:46:51.600169 13143 net.cpp:395] bn2b_branch2b -> res2b_branch2b (in-place)
I0921 20:46:51.600319 13143 net.cpp:150] Setting up bn2b_branch2b
I0921 20:46:51.600328 13143 net.cpp:157] Top shape: 16 64 54 54 (2985984)
I0921 20:46:51.600332 13143 net.cpp:165] Memory required for data: 885096512
I0921 20:46:51.600338 13143 layer_factory.hpp:77] Creating layer scale2b_branch2b
I0921 20:46:51.600343 13143 net.cpp:100] Creating Layer scale2b_branch2b
I0921 20:46:51.600347 13143 net.cpp:434] scale2b_branch2b <- res2b_branch2b
I0921 20:46:51.600350 13143 net.cpp:395] scale2b_branch2b -> res2b_branch2b (in-place)
I0921 20:46:51.600383 13143 layer_factory.hpp:77] Creating layer scale2b_branch2b
I0921 20:46:51.600478 13143 net.cpp:150] Setting up scale2b_branch2b
I0921 20:46:51.600486 13143 net.cpp:157] Top shape: 16 64 54 54 (2985984)
I0921 20:46:51.600489 13143 net.cpp:165] Memory required for data: 897040448
I0921 20:46:51.600494 13143 layer_factory.hpp:77] Creating layer res2b_branch2b_relu
I0921 20:46:51.600500 13143 net.cpp:100] Creating Layer res2b_branch2b_relu
I0921 20:46:51.600503 13143 net.cpp:434] res2b_branch2b_relu <- res2b_branch2b
I0921 20:46:51.600507 13143 net.cpp:395] res2b_branch2b_relu -> res2b_branch2b (in-place)
I0921 20:46:51.600512 13143 net.cpp:150] Setting up res2b_branch2b_relu
I0921 20:46:51.600517 13143 net.cpp:157] Top shape: 16 64 54 54 (2985984)
I0921 20:46:51.600518 13143 net.cpp:165] Memory required for data: 908984384
I0921 20:46:51.600522 13143 layer_factory.hpp:77] Creating layer res2b_branch2c
I0921 20:46:51.600533 13143 net.cpp:100] Creating Layer res2b_branch2c
I0921 20:46:51.600535 13143 net.cpp:434] res2b_branch2c <- res2b_branch2b
I0921 20:46:51.600540 13143 net.cpp:408] res2b_branch2c -> res2b_branch2c
I0921 20:46:51.600690 13143 net.cpp:150] Setting up res2b_branch2c
I0921 20:46:51.600699 13143 net.cpp:157] Top shape: 16 256 54 54 (11943936)
I0921 20:46:51.600703 13143 net.cpp:165] Memory required for data: 956760128
I0921 20:46:51.600708 13143 layer_factory.hpp:77] Creating layer bn2b_branch2c
I0921 20:46:51.600713 13143 net.cpp:100] Creating Layer bn2b_branch2c
I0921 20:46:51.600715 13143 net.cpp:434] bn2b_branch2c <- res2b_branch2c
I0921 20:46:51.600721 13143 net.cpp:395] bn2b_branch2c -> res2b_branch2c (in-place)
I0921 20:46:51.600860 13143 net.cpp:150] Setting up bn2b_branch2c
I0921 20:46:51.600868 13143 net.cpp:157] Top shape: 16 256 54 54 (11943936)
I0921 20:46:51.600883 13143 net.cpp:165] Memory required for data: 1004535872
I0921 20:46:51.600891 13143 layer_factory.hpp:77] Creating layer scale2b_branch2c
I0921 20:46:51.600898 13143 net.cpp:100] Creating Layer scale2b_branch2c
I0921 20:46:51.600900 13143 net.cpp:434] scale2b_branch2c <- res2b_branch2c
I0921 20:46:51.600904 13143 net.cpp:395] scale2b_branch2c -> res2b_branch2c (in-place)
I0921 20:46:51.600937 13143 layer_factory.hpp:77] Creating layer scale2b_branch2c
I0921 20:46:51.601027 13143 net.cpp:150] Setting up scale2b_branch2c
I0921 20:46:51.601035 13143 net.cpp:157] Top shape: 16 256 54 54 (11943936)
I0921 20:46:51.601038 13143 net.cpp:165] Memory required for data: 1052311616
I0921 20:46:51.601043 13143 layer_factory.hpp:77] Creating layer res2b
I0921 20:46:51.601048 13143 net.cpp:100] Creating Layer res2b
I0921 20:46:51.601052 13143 net.cpp:434] res2b <- res2a_res2a_relu_0_split_1
I0921 20:46:51.601056 13143 net.cpp:434] res2b <- res2b_branch2c
I0921 20:46:51.601061 13143 net.cpp:408] res2b -> res2b
I0921 20:46:51.601083 13143 net.cpp:150] Setting up res2b
I0921 20:46:51.601089 13143 net.cpp:157] Top shape: 16 256 54 54 (11943936)
I0921 20:46:51.601092 13143 net.cpp:165] Memory required for data: 1100087360
I0921 20:46:51.601095 13143 layer_factory.hpp:77] Creating layer res2b_relu
I0921 20:46:51.601099 13143 net.cpp:100] Creating Layer res2b_relu
I0921 20:46:51.601104 13143 net.cpp:434] res2b_relu <- res2b
I0921 20:46:51.601109 13143 net.cpp:395] res2b_relu -> res2b (in-place)
I0921 20:46:51.601114 13143 net.cpp:150] Setting up res2b_relu
I0921 20:46:51.601117 13143 net.cpp:157] Top shape: 16 256 54 54 (11943936)
I0921 20:46:51.601120 13143 net.cpp:165] Memory required for data: 1147863104
I0921 20:46:51.601124 13143 layer_factory.hpp:77] Creating layer res2b_res2b_relu_0_split
I0921 20:46:51.601127 13143 net.cpp:100] Creating Layer res2b_res2b_relu_0_split
I0921 20:46:51.601130 13143 net.cpp:434] res2b_res2b_relu_0_split <- res2b
I0921 20:46:51.601135 13143 net.cpp:408] res2b_res2b_relu_0_split -> res2b_res2b_relu_0_split_0
I0921 20:46:51.601138 13143 net.cpp:408] res2b_res2b_relu_0_split -> res2b_res2b_relu_0_split_1
I0921 20:46:51.601166 13143 net.cpp:150] Setting up res2b_res2b_relu_0_split
I0921 20:46:51.601172 13143 net.cpp:157] Top shape: 16 256 54 54 (11943936)
I0921 20:46:51.601176 13143 net.cpp:157] Top shape: 16 256 54 54 (11943936)
I0921 20:46:51.601179 13143 net.cpp:165] Memory required for data: 1243414592
I0921 20:46:51.601182 13143 layer_factory.hpp:77] Creating layer res2c_branch2a
I0921 20:46:51.601191 13143 net.cpp:100] Creating Layer res2c_branch2a
I0921 20:46:51.601193 13143 net.cpp:434] res2c_branch2a <- res2b_res2b_relu_0_split_0
I0921 20:46:51.601198 13143 net.cpp:408] res2c_branch2a -> res2c_branch2a
I0921 20:46:51.601341 13143 net.cpp:150] Setting up res2c_branch2a
I0921 20:46:51.601351 13143 net.cpp:157] Top shape: 16 64 54 54 (2985984)
I0921 20:46:51.601353 13143 net.cpp:165] Memory required for data: 1255358528
I0921 20:46:51.601358 13143 layer_factory.hpp:77] Creating layer bn2c_branch2a
I0921 20:46:51.601363 13143 net.cpp:100] Creating Layer bn2c_branch2a
I0921 20:46:51.601366 13143 net.cpp:434] bn2c_branch2a <- res2c_branch2a
I0921 20:46:51.601371 13143 net.cpp:395] bn2c_branch2a -> res2c_branch2a (in-place)
I0921 20:46:51.601518 13143 net.cpp:150] Setting up bn2c_branch2a
I0921 20:46:51.601527 13143 net.cpp:157] Top shape: 16 64 54 54 (2985984)
I0921 20:46:51.601531 13143 net.cpp:165] Memory required for data: 1267302464
I0921 20:46:51.601537 13143 layer_factory.hpp:77] Creating layer scale2c_branch2a
I0921 20:46:51.601543 13143 net.cpp:100] Creating Layer scale2c_branch2a
I0921 20:46:51.601547 13143 net.cpp:434] scale2c_branch2a <- res2c_branch2a
I0921 20:46:51.601552 13143 net.cpp:395] scale2c_branch2a -> res2c_branch2a (in-place)
I0921 20:46:51.601584 13143 layer_factory.hpp:77] Creating layer scale2c_branch2a
I0921 20:46:51.601676 13143 net.cpp:150] Setting up scale2c_branch2a
I0921 20:46:51.601685 13143 net.cpp:157] Top shape: 16 64 54 54 (2985984)
I0921 20:46:51.601696 13143 net.cpp:165] Memory required for data: 1279246400
I0921 20:46:51.601702 13143 layer_factory.hpp:77] Creating layer res2c_branch2a_relu
I0921 20:46:51.601712 13143 net.cpp:100] Creating Layer res2c_branch2a_relu
I0921 20:46:51.601716 13143 net.cpp:434] res2c_branch2a_relu <- res2c_branch2a
I0921 20:46:51.601719 13143 net.cpp:395] res2c_branch2a_relu -> res2c_branch2a (in-place)
I0921 20:46:51.601725 13143 net.cpp:150] Setting up res2c_branch2a_relu
I0921 20:46:51.601729 13143 net.cpp:157] Top shape: 16 64 54 54 (2985984)
I0921 20:46:51.601732 13143 net.cpp:165] Memory required for data: 1291190336
I0921 20:46:51.601735 13143 layer_factory.hpp:77] Creating layer res2c_branch2b
I0921 20:46:51.601742 13143 net.cpp:100] Creating Layer res2c_branch2b
I0921 20:46:51.601745 13143 net.cpp:434] res2c_branch2b <- res2c_branch2a
I0921 20:46:51.601750 13143 net.cpp:408] res2c_branch2b -> res2c_branch2b
I0921 20:46:51.601910 13143 net.cpp:150] Setting up res2c_branch2b
I0921 20:46:51.601919 13143 net.cpp:157] Top shape: 16 64 54 54 (2985984)
I0921 20:46:51.601922 13143 net.cpp:165] Memory required for data: 1303134272
I0921 20:46:51.601927 13143 layer_factory.hpp:77] Creating layer bn2c_branch2b
I0921 20:46:51.601933 13143 net.cpp:100] Creating Layer bn2c_branch2b
I0921 20:46:51.601938 13143 net.cpp:434] bn2c_branch2b <- res2c_branch2b
I0921 20:46:51.601941 13143 net.cpp:395] bn2c_branch2b -> res2c_branch2b (in-place)
I0921 20:46:51.602087 13143 net.cpp:150] Setting up bn2c_branch2b
I0921 20:46:51.602094 13143 net.cpp:157] Top shape: 16 64 54 54 (2985984)
I0921 20:46:51.602097 13143 net.cpp:165] Memory required for data: 1315078208
I0921 20:46:51.602108 13143 layer_factory.hpp:77] Creating layer scale2c_branch2b
I0921 20:46:51.602113 13143 net.cpp:100] Creating Layer scale2c_branch2b
I0921 20:46:51.602116 13143 net.cpp:434] scale2c_branch2b <- res2c_branch2b
I0921 20:46:51.602120 13143 net.cpp:395] scale2c_branch2b -> res2c_branch2b (in-place)
I0921 20:46:51.602152 13143 layer_factory.hpp:77] Creating layer scale2c_branch2b
I0921 20:46:51.602247 13143 net.cpp:150] Setting up scale2c_branch2b
I0921 20:46:51.602255 13143 net.cpp:157] Top shape: 16 64 54 54 (2985984)
I0921 20:46:51.602258 13143 net.cpp:165] Memory required for data: 1327022144
I0921 20:46:51.602264 13143 layer_factory.hpp:77] Creating layer res2c_branch2b_relu
I0921 20:46:51.602269 13143 net.cpp:100] Creating Layer res2c_branch2b_relu
I0921 20:46:51.602272 13143 net.cpp:434] res2c_branch2b_relu <- res2c_branch2b
I0921 20:46:51.602277 13143 net.cpp:395] res2c_branch2b_relu -> res2c_branch2b (in-place)
I0921 20:46:51.602283 13143 net.cpp:150] Setting up res2c_branch2b_relu
I0921 20:46:51.602288 13143 net.cpp:157] Top shape: 16 64 54 54 (2985984)
I0921 20:46:51.602289 13143 net.cpp:165] Memory required for data: 1338966080
I0921 20:46:51.602293 13143 layer_factory.hpp:77] Creating layer res2c_branch2c
I0921 20:46:51.602298 13143 net.cpp:100] Creating Layer res2c_branch2c
I0921 20:46:51.602301 13143 net.cpp:434] res2c_branch2c <- res2c_branch2b
I0921 20:46:51.602306 13143 net.cpp:408] res2c_branch2c -> res2c_branch2c
I0921 20:46:51.602454 13143 net.cpp:150] Setting up res2c_branch2c
I0921 20:46:51.602463 13143 net.cpp:157] Top shape: 16 256 54 54 (11943936)
I0921 20:46:51.602466 13143 net.cpp:165] Memory required for data: 1386741824
I0921 20:46:51.602470 13143 layer_factory.hpp:77] Creating layer bn2c_branch2c
I0921 20:46:51.602478 13143 net.cpp:100] Creating Layer bn2c_branch2c
I0921 20:46:51.602480 13143 net.cpp:434] bn2c_branch2c <- res2c_branch2c
I0921 20:46:51.602484 13143 net.cpp:395] bn2c_branch2c -> res2c_branch2c (in-place)
I0921 20:46:51.602620 13143 net.cpp:150] Setting up bn2c_branch2c
I0921 20:46:51.602628 13143 net.cpp:157] Top shape: 16 256 54 54 (11943936)
I0921 20:46:51.602632 13143 net.cpp:165] Memory required for data: 1434517568
I0921 20:46:51.602649 13143 layer_factory.hpp:77] Creating layer scale2c_branch2c
I0921 20:46:51.602655 13143 net.cpp:100] Creating Layer scale2c_branch2c
I0921 20:46:51.602658 13143 net.cpp:434] scale2c_branch2c <- res2c_branch2c
I0921 20:46:51.602674 13143 net.cpp:395] scale2c_branch2c -> res2c_branch2c (in-place)
I0921 20:46:51.602708 13143 layer_factory.hpp:77] Creating layer scale2c_branch2c
I0921 20:46:51.602794 13143 net.cpp:150] Setting up scale2c_branch2c
I0921 20:46:51.602803 13143 net.cpp:157] Top shape: 16 256 54 54 (11943936)
I0921 20:46:51.602807 13143 net.cpp:165] Memory required for data: 1482293312
I0921 20:46:51.602813 13143 layer_factory.hpp:77] Creating layer res2c
I0921 20:46:51.602818 13143 net.cpp:100] Creating Layer res2c
I0921 20:46:51.602823 13143 net.cpp:434] res2c <- res2b_res2b_relu_0_split_1
I0921 20:46:51.602826 13143 net.cpp:434] res2c <- res2c_branch2c
I0921 20:46:51.602831 13143 net.cpp:408] res2c -> res2c
I0921 20:46:51.602851 13143 net.cpp:150] Setting up res2c
I0921 20:46:51.602857 13143 net.cpp:157] Top shape: 16 256 54 54 (11943936)
I0921 20:46:51.602859 13143 net.cpp:165] Memory required for data: 1530069056
I0921 20:46:51.602864 13143 layer_factory.hpp:77] Creating layer res2c_relu
I0921 20:46:51.602867 13143 net.cpp:100] Creating Layer res2c_relu
I0921 20:46:51.602870 13143 net.cpp:434] res2c_relu <- res2c
I0921 20:46:51.602874 13143 net.cpp:395] res2c_relu -> res2c (in-place)
I0921 20:46:51.602880 13143 net.cpp:150] Setting up res2c_relu
I0921 20:46:51.602883 13143 net.cpp:157] Top shape: 16 256 54 54 (11943936)
I0921 20:46:51.602885 13143 net.cpp:165] Memory required for data: 1577844800
I0921 20:46:51.602888 13143 layer_factory.hpp:77] Creating layer res2c_res2c_relu_0_split
I0921 20:46:51.602893 13143 net.cpp:100] Creating Layer res2c_res2c_relu_0_split
I0921 20:46:51.602896 13143 net.cpp:434] res2c_res2c_relu_0_split <- res2c
I0921 20:46:51.602900 13143 net.cpp:408] res2c_res2c_relu_0_split -> res2c_res2c_relu_0_split_0
I0921 20:46:51.602905 13143 net.cpp:408] res2c_res2c_relu_0_split -> res2c_res2c_relu_0_split_1
I0921 20:46:51.602931 13143 net.cpp:150] Setting up res2c_res2c_relu_0_split
I0921 20:46:51.602936 13143 net.cpp:157] Top shape: 16 256 54 54 (11943936)
I0921 20:46:51.602939 13143 net.cpp:157] Top shape: 16 256 54 54 (11943936)
I0921 20:46:51.602942 13143 net.cpp:165] Memory required for data: 1673396288
I0921 20:46:51.602946 13143 layer_factory.hpp:77] Creating layer res3a_branch1
I0921 20:46:51.602952 13143 net.cpp:100] Creating Layer res3a_branch1
I0921 20:46:51.602957 13143 net.cpp:434] res3a_branch1 <- res2c_res2c_relu_0_split_0
I0921 20:46:51.602960 13143 net.cpp:408] res3a_branch1 -> res3a_branch1
I0921 20:46:51.603729 13143 net.cpp:150] Setting up res3a_branch1
I0921 20:46:51.603744 13143 net.cpp:157] Top shape: 16 512 27 27 (5971968)
I0921 20:46:51.603749 13143 net.cpp:165] Memory required for data: 1697284160
I0921 20:46:51.603754 13143 layer_factory.hpp:77] Creating layer bn3a_branch1
I0921 20:46:51.603762 13143 net.cpp:100] Creating Layer bn3a_branch1
I0921 20:46:51.603765 13143 net.cpp:434] bn3a_branch1 <- res3a_branch1
I0921 20:46:51.603770 13143 net.cpp:395] bn3a_branch1 -> res3a_branch1 (in-place)
I0921 20:46:51.604404 13143 net.cpp:150] Setting up bn3a_branch1
I0921 20:46:51.604418 13143 net.cpp:157] Top shape: 16 512 27 27 (5971968)
I0921 20:46:51.604423 13143 net.cpp:165] Memory required for data: 1721172032
I0921 20:46:51.604429 13143 layer_factory.hpp:77] Creating layer scale3a_branch1
I0921 20:46:51.604437 13143 net.cpp:100] Creating Layer scale3a_branch1
I0921 20:46:51.604441 13143 net.cpp:434] scale3a_branch1 <- res3a_branch1
I0921 20:46:51.604445 13143 net.cpp:395] scale3a_branch1 -> res3a_branch1 (in-place)
I0921 20:46:51.604485 13143 layer_factory.hpp:77] Creating layer scale3a_branch1
I0921 20:46:51.604569 13143 net.cpp:150] Setting up scale3a_branch1
I0921 20:46:51.604578 13143 net.cpp:157] Top shape: 16 512 27 27 (5971968)
I0921 20:46:51.604580 13143 net.cpp:165] Memory required for data: 1745059904
I0921 20:46:51.604586 13143 layer_factory.hpp:77] Creating layer res3a_branch2a
I0921 20:46:51.604594 13143 net.cpp:100] Creating Layer res3a_branch2a
I0921 20:46:51.604598 13143 net.cpp:434] res3a_branch2a <- res2c_res2c_relu_0_split_1
I0921 20:46:51.604614 13143 net.cpp:408] res3a_branch2a -> res3a_branch2a
I0921 20:46:51.604779 13143 net.cpp:150] Setting up res3a_branch2a
I0921 20:46:51.604787 13143 net.cpp:157] Top shape: 16 128 27 27 (1492992)
I0921 20:46:51.604790 13143 net.cpp:165] Memory required for data: 1751031872
I0921 20:46:51.604796 13143 layer_factory.hpp:77] Creating layer bn3a_branch2a
I0921 20:46:51.604801 13143 net.cpp:100] Creating Layer bn3a_branch2a
I0921 20:46:51.604804 13143 net.cpp:434] bn3a_branch2a <- res3a_branch2a
I0921 20:46:51.604810 13143 net.cpp:395] bn3a_branch2a -> res3a_branch2a (in-place)
I0921 20:46:51.604949 13143 net.cpp:150] Setting up bn3a_branch2a
I0921 20:46:51.604959 13143 net.cpp:157] Top shape: 16 128 27 27 (1492992)
I0921 20:46:51.604961 13143 net.cpp:165] Memory required for data: 1757003840
I0921 20:46:51.604969 13143 layer_factory.hpp:77] Creating layer scale3a_branch2a
I0921 20:46:51.604976 13143 net.cpp:100] Creating Layer scale3a_branch2a
I0921 20:46:51.604979 13143 net.cpp:434] scale3a_branch2a <- res3a_branch2a
I0921 20:46:51.604984 13143 net.cpp:395] scale3a_branch2a -> res3a_branch2a (in-place)
I0921 20:46:51.605015 13143 layer_factory.hpp:77] Creating layer scale3a_branch2a
I0921 20:46:51.605100 13143 net.cpp:150] Setting up scale3a_branch2a
I0921 20:46:51.605108 13143 net.cpp:157] Top shape: 16 128 27 27 (1492992)
I0921 20:46:51.605113 13143 net.cpp:165] Memory required for data: 1762975808
I0921 20:46:51.605118 13143 layer_factory.hpp:77] Creating layer res3a_branch2a_relu
I0921 20:46:51.605123 13143 net.cpp:100] Creating Layer res3a_branch2a_relu
I0921 20:46:51.605125 13143 net.cpp:434] res3a_branch2a_relu <- res3a_branch2a
I0921 20:46:51.605131 13143 net.cpp:395] res3a_branch2a_relu -> res3a_branch2a (in-place)
I0921 20:46:51.605136 13143 net.cpp:150] Setting up res3a_branch2a_relu
I0921 20:46:51.605140 13143 net.cpp:157] Top shape: 16 128 27 27 (1492992)
I0921 20:46:51.605144 13143 net.cpp:165] Memory required for data: 1768947776
I0921 20:46:51.605146 13143 layer_factory.hpp:77] Creating layer res3a_branch2b
I0921 20:46:51.605154 13143 net.cpp:100] Creating Layer res3a_branch2b
I0921 20:46:51.605156 13143 net.cpp:434] res3a_branch2b <- res3a_branch2a
I0921 20:46:51.605161 13143 net.cpp:408] res3a_branch2b -> res3a_branch2b
I0921 20:46:51.605878 13143 net.cpp:150] Setting up res3a_branch2b
I0921 20:46:51.605892 13143 net.cpp:157] Top shape: 16 128 27 27 (1492992)
I0921 20:46:51.605895 13143 net.cpp:165] Memory required for data: 1774919744
I0921 20:46:51.605901 13143 layer_factory.hpp:77] Creating layer bn3a_branch2b
I0921 20:46:51.605908 13143 net.cpp:100] Creating Layer bn3a_branch2b
I0921 20:46:51.605912 13143 net.cpp:434] bn3a_branch2b <- res3a_branch2b
I0921 20:46:51.605917 13143 net.cpp:395] bn3a_branch2b -> res3a_branch2b (in-place)
I0921 20:46:51.606060 13143 net.cpp:150] Setting up bn3a_branch2b
I0921 20:46:51.606070 13143 net.cpp:157] Top shape: 16 128 27 27 (1492992)
I0921 20:46:51.606072 13143 net.cpp:165] Memory required for data: 1780891712
I0921 20:46:51.606079 13143 layer_factory.hpp:77] Creating layer scale3a_branch2b
I0921 20:46:51.606086 13143 net.cpp:100] Creating Layer scale3a_branch2b
I0921 20:46:51.606091 13143 net.cpp:434] scale3a_branch2b <- res3a_branch2b
I0921 20:46:51.606094 13143 net.cpp:395] scale3a_branch2b -> res3a_branch2b (in-place)
I0921 20:46:51.606127 13143 layer_factory.hpp:77] Creating layer scale3a_branch2b
I0921 20:46:51.606210 13143 net.cpp:150] Setting up scale3a_branch2b
I0921 20:46:51.606220 13143 net.cpp:157] Top shape: 16 128 27 27 (1492992)
I0921 20:46:51.606222 13143 net.cpp:165] Memory required for data: 1786863680
I0921 20:46:51.606228 13143 layer_factory.hpp:77] Creating layer res3a_branch2b_relu
I0921 20:46:51.606233 13143 net.cpp:100] Creating Layer res3a_branch2b_relu
I0921 20:46:51.606237 13143 net.cpp:434] res3a_branch2b_relu <- res3a_branch2b
I0921 20:46:51.606242 13143 net.cpp:395] res3a_branch2b_relu -> res3a_branch2b (in-place)
I0921 20:46:51.606247 13143 net.cpp:150] Setting up res3a_branch2b_relu
I0921 20:46:51.606251 13143 net.cpp:157] Top shape: 16 128 27 27 (1492992)
I0921 20:46:51.606267 13143 net.cpp:165] Memory required for data: 1792835648
I0921 20:46:51.606271 13143 layer_factory.hpp:77] Creating layer res3a_branch2c
I0921 20:46:51.606279 13143 net.cpp:100] Creating Layer res3a_branch2c
I0921 20:46:51.606282 13143 net.cpp:434] res3a_branch2c <- res3a_branch2b
I0921 20:46:51.606287 13143 net.cpp:408] res3a_branch2c -> res3a_branch2c
I0921 20:46:51.606479 13143 net.cpp:150] Setting up res3a_branch2c
I0921 20:46:51.606489 13143 net.cpp:157] Top shape: 16 512 27 27 (5971968)
I0921 20:46:51.606492 13143 net.cpp:165] Memory required for data: 1816723520
I0921 20:46:51.606498 13143 layer_factory.hpp:77] Creating layer bn3a_branch2c
I0921 20:46:51.606509 13143 net.cpp:100] Creating Layer bn3a_branch2c
I0921 20:46:51.606513 13143 net.cpp:434] bn3a_branch2c <- res3a_branch2c
I0921 20:46:51.606518 13143 net.cpp:395] bn3a_branch2c -> res3a_branch2c (in-place)
I0921 20:46:51.606657 13143 net.cpp:150] Setting up bn3a_branch2c
I0921 20:46:51.606665 13143 net.cpp:157] Top shape: 16 512 27 27 (5971968)
I0921 20:46:51.606668 13143 net.cpp:165] Memory required for data: 1840611392
I0921 20:46:51.606675 13143 layer_factory.hpp:77] Creating layer scale3a_branch2c
I0921 20:46:51.606681 13143 net.cpp:100] Creating Layer scale3a_branch2c
I0921 20:46:51.606684 13143 net.cpp:434] scale3a_branch2c <- res3a_branch2c
I0921 20:46:51.606689 13143 net.cpp:395] scale3a_branch2c -> res3a_branch2c (in-place)
I0921 20:46:51.606721 13143 layer_factory.hpp:77] Creating layer scale3a_branch2c
I0921 20:46:51.606802 13143 net.cpp:150] Setting up scale3a_branch2c
I0921 20:46:51.606812 13143 net.cpp:157] Top shape: 16 512 27 27 (5971968)
I0921 20:46:51.606815 13143 net.cpp:165] Memory required for data: 1864499264
I0921 20:46:51.606822 13143 layer_factory.hpp:77] Creating layer res3a
I0921 20:46:51.606827 13143 net.cpp:100] Creating Layer res3a
I0921 20:46:51.606830 13143 net.cpp:434] res3a <- res3a_branch1
I0921 20:46:51.606834 13143 net.cpp:434] res3a <- res3a_branch2c
I0921 20:46:51.606838 13143 net.cpp:408] res3a -> res3a
I0921 20:46:51.606858 13143 net.cpp:150] Setting up res3a
I0921 20:46:51.606863 13143 net.cpp:157] Top shape: 16 512 27 27 (5971968)
I0921 20:46:51.606866 13143 net.cpp:165] Memory required for data: 1888387136
I0921 20:46:51.606869 13143 layer_factory.hpp:77] Creating layer res3a_relu
I0921 20:46:51.606874 13143 net.cpp:100] Creating Layer res3a_relu
I0921 20:46:51.606878 13143 net.cpp:434] res3a_relu <- res3a
I0921 20:46:51.606883 13143 net.cpp:395] res3a_relu -> res3a (in-place)
I0921 20:46:51.606887 13143 net.cpp:150] Setting up res3a_relu
I0921 20:46:51.606891 13143 net.cpp:157] Top shape: 16 512 27 27 (5971968)
I0921 20:46:51.606894 13143 net.cpp:165] Memory required for data: 1912275008
I0921 20:46:51.606897 13143 layer_factory.hpp:77] Creating layer res3a_res3a_relu_0_split
I0921 20:46:51.606902 13143 net.cpp:100] Creating Layer res3a_res3a_relu_0_split
I0921 20:46:51.606904 13143 net.cpp:434] res3a_res3a_relu_0_split <- res3a
I0921 20:46:51.606909 13143 net.cpp:408] res3a_res3a_relu_0_split -> res3a_res3a_relu_0_split_0
I0921 20:46:51.606914 13143 net.cpp:408] res3a_res3a_relu_0_split -> res3a_res3a_relu_0_split_1
I0921 20:46:51.606946 13143 net.cpp:150] Setting up res3a_res3a_relu_0_split
I0921 20:46:51.606952 13143 net.cpp:157] Top shape: 16 512 27 27 (5971968)
I0921 20:46:51.606956 13143 net.cpp:157] Top shape: 16 512 27 27 (5971968)
I0921 20:46:51.606959 13143 net.cpp:165] Memory required for data: 1960050752
I0921 20:46:51.606962 13143 layer_factory.hpp:77] Creating layer res3b_branch2a
I0921 20:46:51.606971 13143 net.cpp:100] Creating Layer res3b_branch2a
I0921 20:46:51.606974 13143 net.cpp:434] res3b_branch2a <- res3a_res3a_relu_0_split_0
I0921 20:46:51.606979 13143 net.cpp:408] res3b_branch2a -> res3b_branch2a
I0921 20:46:51.607674 13143 net.cpp:150] Setting up res3b_branch2a
I0921 20:46:51.607692 13143 net.cpp:157] Top shape: 16 128 27 27 (1492992)
I0921 20:46:51.607695 13143 net.cpp:165] Memory required for data: 1966022720
I0921 20:46:51.607709 13143 layer_factory.hpp:77] Creating layer bn3b_branch2a
I0921 20:46:51.607718 13143 net.cpp:100] Creating Layer bn3b_branch2a
I0921 20:46:51.607746 13143 net.cpp:434] bn3b_branch2a <- res3b_branch2a
I0921 20:46:51.607751 13143 net.cpp:395] bn3b_branch2a -> res3b_branch2a (in-place)
I0921 20:46:51.607897 13143 net.cpp:150] Setting up bn3b_branch2a
I0921 20:46:51.607906 13143 net.cpp:157] Top shape: 16 128 27 27 (1492992)
I0921 20:46:51.607909 13143 net.cpp:165] Memory required for data: 1971994688
I0921 20:46:51.607916 13143 layer_factory.hpp:77] Creating layer scale3b_branch2a
I0921 20:46:51.607924 13143 net.cpp:100] Creating Layer scale3b_branch2a
I0921 20:46:51.607928 13143 net.cpp:434] scale3b_branch2a <- res3b_branch2a
I0921 20:46:51.607931 13143 net.cpp:395] scale3b_branch2a -> res3b_branch2a (in-place)
I0921 20:46:51.607966 13143 layer_factory.hpp:77] Creating layer scale3b_branch2a
I0921 20:46:51.608057 13143 net.cpp:150] Setting up scale3b_branch2a
I0921 20:46:51.608064 13143 net.cpp:157] Top shape: 16 128 27 27 (1492992)
I0921 20:46:51.608068 13143 net.cpp:165] Memory required for data: 1977966656
I0921 20:46:51.608074 13143 layer_factory.hpp:77] Creating layer res3b_branch2a_relu
I0921 20:46:51.608079 13143 net.cpp:100] Creating Layer res3b_branch2a_relu
I0921 20:46:51.608083 13143 net.cpp:434] res3b_branch2a_relu <- res3b_branch2a
I0921 20:46:51.608086 13143 net.cpp:395] res3b_branch2a_relu -> res3b_branch2a (in-place)
I0921 20:46:51.608091 13143 net.cpp:150] Setting up res3b_branch2a_relu
I0921 20:46:51.608095 13143 net.cpp:157] Top shape: 16 128 27 27 (1492992)
I0921 20:46:51.608098 13143 net.cpp:165] Memory required for data: 1983938624
I0921 20:46:51.608101 13143 layer_factory.hpp:77] Creating layer res3b_branch2b
I0921 20:46:51.608109 13143 net.cpp:100] Creating Layer res3b_branch2b
I0921 20:46:51.608113 13143 net.cpp:434] res3b_branch2b <- res3b_branch2a
I0921 20:46:51.608117 13143 net.cpp:408] res3b_branch2b -> res3b_branch2b
I0921 20:46:51.608842 13143 net.cpp:150] Setting up res3b_branch2b
I0921 20:46:51.608857 13143 net.cpp:157] Top shape: 16 128 27 27 (1492992)
I0921 20:46:51.608860 13143 net.cpp:165] Memory required for data: 1989910592
I0921 20:46:51.608865 13143 layer_factory.hpp:77] Creating layer bn3b_branch2b
I0921 20:46:51.608877 13143 net.cpp:100] Creating Layer bn3b_branch2b
I0921 20:46:51.608881 13143 net.cpp:434] bn3b_branch2b <- res3b_branch2b
I0921 20:46:51.608886 13143 net.cpp:395] bn3b_branch2b -> res3b_branch2b (in-place)
I0921 20:46:51.609033 13143 net.cpp:150] Setting up bn3b_branch2b
I0921 20:46:51.609042 13143 net.cpp:157] Top shape: 16 128 27 27 (1492992)
I0921 20:46:51.609045 13143 net.cpp:165] Memory required for data: 1995882560
I0921 20:46:51.609052 13143 layer_factory.hpp:77] Creating layer scale3b_branch2b
I0921 20:46:51.609058 13143 net.cpp:100] Creating Layer scale3b_branch2b
I0921 20:46:51.609061 13143 net.cpp:434] scale3b_branch2b <- res3b_branch2b
I0921 20:46:51.609066 13143 net.cpp:395] scale3b_branch2b -> res3b_branch2b (in-place)
I0921 20:46:51.609098 13143 layer_factory.hpp:77] Creating layer scale3b_branch2b
I0921 20:46:51.609186 13143 net.cpp:150] Setting up scale3b_branch2b
I0921 20:46:51.609194 13143 net.cpp:157] Top shape: 16 128 27 27 (1492992)
I0921 20:46:51.609197 13143 net.cpp:165] Memory required for data: 2001854528
I0921 20:46:51.609203 13143 layer_factory.hpp:77] Creating layer res3b_branch2b_relu
I0921 20:46:51.609208 13143 net.cpp:100] Creating Layer res3b_branch2b_relu
I0921 20:46:51.609211 13143 net.cpp:434] res3b_branch2b_relu <- res3b_branch2b
I0921 20:46:51.609215 13143 net.cpp:395] res3b_branch2b_relu -> res3b_branch2b (in-place)
I0921 20:46:51.609220 13143 net.cpp:150] Setting up res3b_branch2b_relu
I0921 20:46:51.609225 13143 net.cpp:157] Top shape: 16 128 27 27 (1492992)
I0921 20:46:51.609227 13143 net.cpp:165] Memory required for data: 2007826496
I0921 20:46:51.609230 13143 layer_factory.hpp:77] Creating layer res3b_branch2c
I0921 20:46:51.609237 13143 net.cpp:100] Creating Layer res3b_branch2c
I0921 20:46:51.609241 13143 net.cpp:434] res3b_branch2c <- res3b_branch2b
I0921 20:46:51.609256 13143 net.cpp:408] res3b_branch2c -> res3b_branch2c
I0921 20:46:51.609439 13143 net.cpp:150] Setting up res3b_branch2c
I0921 20:46:51.609448 13143 net.cpp:157] Top shape: 16 512 27 27 (5971968)
I0921 20:46:51.609452 13143 net.cpp:165] Memory required for data: 2031714368
I0921 20:46:51.609457 13143 layer_factory.hpp:77] Creating layer bn3b_branch2c
I0921 20:46:51.609462 13143 net.cpp:100] Creating Layer bn3b_branch2c
I0921 20:46:51.609465 13143 net.cpp:434] bn3b_branch2c <- res3b_branch2c
I0921 20:46:51.609469 13143 net.cpp:395] bn3b_branch2c -> res3b_branch2c (in-place)
I0921 20:46:51.609616 13143 net.cpp:150] Setting up bn3b_branch2c
I0921 20:46:51.609624 13143 net.cpp:157] Top shape: 16 512 27 27 (5971968)
I0921 20:46:51.609627 13143 net.cpp:165] Memory required for data: 2055602240
I0921 20:46:51.609634 13143 layer_factory.hpp:77] Creating layer scale3b_branch2c
I0921 20:46:51.609640 13143 net.cpp:100] Creating Layer scale3b_branch2c
I0921 20:46:51.609643 13143 net.cpp:434] scale3b_branch2c <- res3b_branch2c
I0921 20:46:51.609648 13143 net.cpp:395] scale3b_branch2c -> res3b_branch2c (in-place)
I0921 20:46:51.609683 13143 layer_factory.hpp:77] Creating layer scale3b_branch2c
I0921 20:46:51.609769 13143 net.cpp:150] Setting up scale3b_branch2c
I0921 20:46:51.609777 13143 net.cpp:157] Top shape: 16 512 27 27 (5971968)
I0921 20:46:51.609781 13143 net.cpp:165] Memory required for data: 2079490112
I0921 20:46:51.609786 13143 layer_factory.hpp:77] Creating layer res3b
I0921 20:46:51.609792 13143 net.cpp:100] Creating Layer res3b
I0921 20:46:51.609797 13143 net.cpp:434] res3b <- res3a_res3a_relu_0_split_1
I0921 20:46:51.609800 13143 net.cpp:434] res3b <- res3b_branch2c
I0921 20:46:51.609804 13143 net.cpp:408] res3b -> res3b
I0921 20:46:51.609825 13143 net.cpp:150] Setting up res3b
I0921 20:46:51.609830 13143 net.cpp:157] Top shape: 16 512 27 27 (5971968)
I0921 20:46:51.609833 13143 net.cpp:165] Memory required for data: 2103377984
I0921 20:46:51.609836 13143 layer_factory.hpp:77] Creating layer res3b_relu
I0921 20:46:51.609841 13143 net.cpp:100] Creating Layer res3b_relu
I0921 20:46:51.609844 13143 net.cpp:434] res3b_relu <- res3b
I0921 20:46:51.609850 13143 net.cpp:395] res3b_relu -> res3b (in-place)
I0921 20:46:51.609855 13143 net.cpp:150] Setting up res3b_relu
I0921 20:46:51.609859 13143 net.cpp:157] Top shape: 16 512 27 27 (5971968)
I0921 20:46:51.609863 13143 net.cpp:165] Memory required for data: 2127265856
I0921 20:46:51.609865 13143 layer_factory.hpp:77] Creating layer res3b_res3b_relu_0_split
I0921 20:46:51.609870 13143 net.cpp:100] Creating Layer res3b_res3b_relu_0_split
I0921 20:46:51.609872 13143 net.cpp:434] res3b_res3b_relu_0_split <- res3b
I0921 20:46:51.609876 13143 net.cpp:408] res3b_res3b_relu_0_split -> res3b_res3b_relu_0_split_0
I0921 20:46:51.609882 13143 net.cpp:408] res3b_res3b_relu_0_split -> res3b_res3b_relu_0_split_1
I0921 20:46:51.609910 13143 net.cpp:150] Setting up res3b_res3b_relu_0_split
I0921 20:46:51.609915 13143 net.cpp:157] Top shape: 16 512 27 27 (5971968)
I0921 20:46:51.609920 13143 net.cpp:157] Top shape: 16 512 27 27 (5971968)
I0921 20:46:51.609922 13143 net.cpp:165] Memory required for data: 2175041600
I0921 20:46:51.609925 13143 layer_factory.hpp:77] Creating layer res3c_branch2a
I0921 20:46:51.609931 13143 net.cpp:100] Creating Layer res3c_branch2a
I0921 20:46:51.609935 13143 net.cpp:434] res3c_branch2a <- res3b_res3b_relu_0_split_0
I0921 20:46:51.609938 13143 net.cpp:408] res3c_branch2a -> res3c_branch2a
I0921 20:46:51.610116 13143 net.cpp:150] Setting up res3c_branch2a
I0921 20:46:51.610124 13143 net.cpp:157] Top shape: 16 128 27 27 (1492992)
I0921 20:46:51.610128 13143 net.cpp:165] Memory required for data: 2181013568
I0921 20:46:51.610132 13143 layer_factory.hpp:77] Creating layer bn3c_branch2a
I0921 20:46:51.610138 13143 net.cpp:100] Creating Layer bn3c_branch2a
I0921 20:46:51.610141 13143 net.cpp:434] bn3c_branch2a <- res3c_branch2a
I0921 20:46:51.610148 13143 net.cpp:395] bn3c_branch2a -> res3c_branch2a (in-place)
I0921 20:46:51.610301 13143 net.cpp:150] Setting up bn3c_branch2a
I0921 20:46:51.610309 13143 net.cpp:157] Top shape: 16 128 27 27 (1492992)
I0921 20:46:51.610313 13143 net.cpp:165] Memory required for data: 2186985536
I0921 20:46:51.610321 13143 layer_factory.hpp:77] Creating layer scale3c_branch2a
I0921 20:46:51.610326 13143 net.cpp:100] Creating Layer scale3c_branch2a
I0921 20:46:51.610329 13143 net.cpp:434] scale3c_branch2a <- res3c_branch2a
I0921 20:46:51.610333 13143 net.cpp:395] scale3c_branch2a -> res3c_branch2a (in-place)
I0921 20:46:51.610365 13143 layer_factory.hpp:77] Creating layer scale3c_branch2a
I0921 20:46:51.610451 13143 net.cpp:150] Setting up scale3c_branch2a
I0921 20:46:51.610460 13143 net.cpp:157] Top shape: 16 128 27 27 (1492992)
I0921 20:46:51.610463 13143 net.cpp:165] Memory required for data: 2192957504
I0921 20:46:51.610468 13143 layer_factory.hpp:77] Creating layer res3c_branch2a_relu
I0921 20:46:51.610474 13143 net.cpp:100] Creating Layer res3c_branch2a_relu
I0921 20:46:51.610477 13143 net.cpp:434] res3c_branch2a_relu <- res3c_branch2a
I0921 20:46:51.610481 13143 net.cpp:395] res3c_branch2a_relu -> res3c_branch2a (in-place)
I0921 20:46:51.610487 13143 net.cpp:150] Setting up res3c_branch2a_relu
I0921 20:46:51.610491 13143 net.cpp:157] Top shape: 16 128 27 27 (1492992)
I0921 20:46:51.610493 13143 net.cpp:165] Memory required for data: 2198929472
I0921 20:46:51.610496 13143 layer_factory.hpp:77] Creating layer res3c_branch2b
I0921 20:46:51.610504 13143 net.cpp:100] Creating Layer res3c_branch2b
I0921 20:46:51.610507 13143 net.cpp:434] res3c_branch2b <- res3c_branch2a
I0921 20:46:51.610512 13143 net.cpp:408] res3c_branch2b -> res3c_branch2b
I0921 20:46:51.611253 13143 net.cpp:150] Setting up res3c_branch2b
I0921 20:46:51.611266 13143 net.cpp:157] Top shape: 16 128 27 27 (1492992)
I0921 20:46:51.611270 13143 net.cpp:165] Memory required for data: 2204901440
I0921 20:46:51.611275 13143 layer_factory.hpp:77] Creating layer bn3c_branch2b
I0921 20:46:51.611282 13143 net.cpp:100] Creating Layer bn3c_branch2b
I0921 20:46:51.611286 13143 net.cpp:434] bn3c_branch2b <- res3c_branch2b
I0921 20:46:51.611291 13143 net.cpp:395] bn3c_branch2b -> res3c_branch2b (in-place)
I0921 20:46:51.611448 13143 net.cpp:150] Setting up bn3c_branch2b
I0921 20:46:51.611457 13143 net.cpp:157] Top shape: 16 128 27 27 (1492992)
I0921 20:46:51.611460 13143 net.cpp:165] Memory required for data: 2210873408
I0921 20:46:51.611467 13143 layer_factory.hpp:77] Creating layer scale3c_branch2b
I0921 20:46:51.611474 13143 net.cpp:100] Creating Layer scale3c_branch2b
I0921 20:46:51.611477 13143 net.cpp:434] scale3c_branch2b <- res3c_branch2b
I0921 20:46:51.611481 13143 net.cpp:395] scale3c_branch2b -> res3c_branch2b (in-place)
I0921 20:46:51.611515 13143 layer_factory.hpp:77] Creating layer scale3c_branch2b
I0921 20:46:51.611603 13143 net.cpp:150] Setting up scale3c_branch2b
I0921 20:46:51.611611 13143 net.cpp:157] Top shape: 16 128 27 27 (1492992)
I0921 20:46:51.611614 13143 net.cpp:165] Memory required for data: 2216845376
I0921 20:46:51.611619 13143 layer_factory.hpp:77] Creating layer res3c_branch2b_relu
I0921 20:46:51.611624 13143 net.cpp:100] Creating Layer res3c_branch2b_relu
I0921 20:46:51.611627 13143 net.cpp:434] res3c_branch2b_relu <- res3c_branch2b
I0921 20:46:51.611634 13143 net.cpp:395] res3c_branch2b_relu -> res3c_branch2b (in-place)
I0921 20:46:51.611639 13143 net.cpp:150] Setting up res3c_branch2b_relu
I0921 20:46:51.611642 13143 net.cpp:157] Top shape: 16 128 27 27 (1492992)
I0921 20:46:51.611645 13143 net.cpp:165] Memory required for data: 2222817344
I0921 20:46:51.611649 13143 layer_factory.hpp:77] Creating layer res3c_branch2c
I0921 20:46:51.611654 13143 net.cpp:100] Creating Layer res3c_branch2c
I0921 20:46:51.611657 13143 net.cpp:434] res3c_branch2c <- res3c_branch2b
I0921 20:46:51.611663 13143 net.cpp:408] res3c_branch2c -> res3c_branch2c
I0921 20:46:51.611851 13143 net.cpp:150] Setting up res3c_branch2c
I0921 20:46:51.611861 13143 net.cpp:157] Top shape: 16 512 27 27 (5971968)
I0921 20:46:51.611865 13143 net.cpp:165] Memory required for data: 2246705216
I0921 20:46:51.611879 13143 layer_factory.hpp:77] Creating layer bn3c_branch2c
I0921 20:46:51.611887 13143 net.cpp:100] Creating Layer bn3c_branch2c
I0921 20:46:51.611891 13143 net.cpp:434] bn3c_branch2c <- res3c_branch2c
I0921 20:46:51.611896 13143 net.cpp:395] bn3c_branch2c -> res3c_branch2c (in-place)
I0921 20:46:51.612046 13143 net.cpp:150] Setting up bn3c_branch2c
I0921 20:46:51.612054 13143 net.cpp:157] Top shape: 16 512 27 27 (5971968)
I0921 20:46:51.612058 13143 net.cpp:165] Memory required for data: 2270593088
I0921 20:46:51.612066 13143 layer_factory.hpp:77] Creating layer scale3c_branch2c
I0921 20:46:51.612071 13143 net.cpp:100] Creating Layer scale3c_branch2c
I0921 20:46:51.612074 13143 net.cpp:434] scale3c_branch2c <- res3c_branch2c
I0921 20:46:51.612078 13143 net.cpp:395] scale3c_branch2c -> res3c_branch2c (in-place)
I0921 20:46:51.612114 13143 layer_factory.hpp:77] Creating layer scale3c_branch2c
I0921 20:46:51.612205 13143 net.cpp:150] Setting up scale3c_branch2c
I0921 20:46:51.612213 13143 net.cpp:157] Top shape: 16 512 27 27 (5971968)
I0921 20:46:51.612216 13143 net.cpp:165] Memory required for data: 2294480960
I0921 20:46:51.612222 13143 layer_factory.hpp:77] Creating layer res3c
I0921 20:46:51.612228 13143 net.cpp:100] Creating Layer res3c
I0921 20:46:51.612232 13143 net.cpp:434] res3c <- res3b_res3b_relu_0_split_1
I0921 20:46:51.612236 13143 net.cpp:434] res3c <- res3c_branch2c
I0921 20:46:51.612241 13143 net.cpp:408] res3c -> res3c
I0921 20:46:51.612262 13143 net.cpp:150] Setting up res3c
I0921 20:46:51.612267 13143 net.cpp:157] Top shape: 16 512 27 27 (5971968)
I0921 20:46:51.612269 13143 net.cpp:165] Memory required for data: 2318368832
I0921 20:46:51.612272 13143 layer_factory.hpp:77] Creating layer res3c_relu
I0921 20:46:51.612277 13143 net.cpp:100] Creating Layer res3c_relu
I0921 20:46:51.612282 13143 net.cpp:434] res3c_relu <- res3c
I0921 20:46:51.612287 13143 net.cpp:395] res3c_relu -> res3c (in-place)
I0921 20:46:51.612292 13143 net.cpp:150] Setting up res3c_relu
I0921 20:46:51.612295 13143 net.cpp:157] Top shape: 16 512 27 27 (5971968)
I0921 20:46:51.612298 13143 net.cpp:165] Memory required for data: 2342256704
I0921 20:46:51.612300 13143 layer_factory.hpp:77] Creating layer res3c_res3c_relu_0_split
I0921 20:46:51.612305 13143 net.cpp:100] Creating Layer res3c_res3c_relu_0_split
I0921 20:46:51.612308 13143 net.cpp:434] res3c_res3c_relu_0_split <- res3c
I0921 20:46:51.612313 13143 net.cpp:408] res3c_res3c_relu_0_split -> res3c_res3c_relu_0_split_0
I0921 20:46:51.612318 13143 net.cpp:408] res3c_res3c_relu_0_split -> res3c_res3c_relu_0_split_1
I0921 20:46:51.612344 13143 net.cpp:150] Setting up res3c_res3c_relu_0_split
I0921 20:46:51.612349 13143 net.cpp:157] Top shape: 16 512 27 27 (5971968)
I0921 20:46:51.612354 13143 net.cpp:157] Top shape: 16 512 27 27 (5971968)
I0921 20:46:51.612356 13143 net.cpp:165] Memory required for data: 2390032448
I0921 20:46:51.612360 13143 layer_factory.hpp:77] Creating layer res3d_branch2a
I0921 20:46:51.612367 13143 net.cpp:100] Creating Layer res3d_branch2a
I0921 20:46:51.612370 13143 net.cpp:434] res3d_branch2a <- res3c_res3c_relu_0_split_0
I0921 20:46:51.612375 13143 net.cpp:408] res3d_branch2a -> res3d_branch2a
I0921 20:46:51.613036 13143 net.cpp:150] Setting up res3d_branch2a
I0921 20:46:51.613051 13143 net.cpp:157] Top shape: 16 128 27 27 (1492992)
I0921 20:46:51.613055 13143 net.cpp:165] Memory required for data: 2396004416
I0921 20:46:51.613060 13143 layer_factory.hpp:77] Creating layer bn3d_branch2a
I0921 20:46:51.613068 13143 net.cpp:100] Creating Layer bn3d_branch2a
I0921 20:46:51.613072 13143 net.cpp:434] bn3d_branch2a <- res3d_branch2a
I0921 20:46:51.613076 13143 net.cpp:395] bn3d_branch2a -> res3d_branch2a (in-place)
I0921 20:46:51.613221 13143 net.cpp:150] Setting up bn3d_branch2a
I0921 20:46:51.613230 13143 net.cpp:157] Top shape: 16 128 27 27 (1492992)
I0921 20:46:51.613234 13143 net.cpp:165] Memory required for data: 2401976384
I0921 20:46:51.613257 13143 layer_factory.hpp:77] Creating layer scale3d_branch2a
I0921 20:46:51.613275 13143 net.cpp:100] Creating Layer scale3d_branch2a
I0921 20:46:51.613279 13143 net.cpp:434] scale3d_branch2a <- res3d_branch2a
I0921 20:46:51.613284 13143 net.cpp:395] scale3d_branch2a -> res3d_branch2a (in-place)
I0921 20:46:51.613322 13143 layer_factory.hpp:77] Creating layer scale3d_branch2a
I0921 20:46:51.613428 13143 net.cpp:150] Setting up scale3d_branch2a
I0921 20:46:51.613437 13143 net.cpp:157] Top shape: 16 128 27 27 (1492992)
I0921 20:46:51.613441 13143 net.cpp:165] Memory required for data: 2407948352
I0921 20:46:51.613447 13143 layer_factory.hpp:77] Creating layer res3d_branch2a_relu
I0921 20:46:51.613452 13143 net.cpp:100] Creating Layer res3d_branch2a_relu
I0921 20:46:51.613456 13143 net.cpp:434] res3d_branch2a_relu <- res3d_branch2a
I0921 20:46:51.613461 13143 net.cpp:395] res3d_branch2a_relu -> res3d_branch2a (in-place)
I0921 20:46:51.613466 13143 net.cpp:150] Setting up res3d_branch2a_relu
I0921 20:46:51.613469 13143 net.cpp:157] Top shape: 16 128 27 27 (1492992)
I0921 20:46:51.613472 13143 net.cpp:165] Memory required for data: 2413920320
I0921 20:46:51.613476 13143 layer_factory.hpp:77] Creating layer res3d_branch2b
I0921 20:46:51.613481 13143 net.cpp:100] Creating Layer res3d_branch2b
I0921 20:46:51.613484 13143 net.cpp:434] res3d_branch2b <- res3d_branch2a
I0921 20:46:51.613490 13143 net.cpp:408] res3d_branch2b -> res3d_branch2b
I0921 20:46:51.614935 13143 net.cpp:150] Setting up res3d_branch2b
I0921 20:46:51.614949 13143 net.cpp:157] Top shape: 16 128 27 27 (1492992)
I0921 20:46:51.614958 13143 net.cpp:165] Memory required for data: 2419892288
I0921 20:46:51.614969 13143 layer_factory.hpp:77] Creating layer bn3d_branch2b
I0921 20:46:51.614975 13143 net.cpp:100] Creating Layer bn3d_branch2b
I0921 20:46:51.614979 13143 net.cpp:434] bn3d_branch2b <- res3d_branch2b
I0921 20:46:51.614984 13143 net.cpp:395] bn3d_branch2b -> res3d_branch2b (in-place)
I0921 20:46:51.615135 13143 net.cpp:150] Setting up bn3d_branch2b
I0921 20:46:51.615145 13143 net.cpp:157] Top shape: 16 128 27 27 (1492992)
I0921 20:46:51.615149 13143 net.cpp:165] Memory required for data: 2425864256
I0921 20:46:51.615156 13143 layer_factory.hpp:77] Creating layer scale3d_branch2b
I0921 20:46:51.615162 13143 net.cpp:100] Creating Layer scale3d_branch2b
I0921 20:46:51.615165 13143 net.cpp:434] scale3d_branch2b <- res3d_branch2b
I0921 20:46:51.615170 13143 net.cpp:395] scale3d_branch2b -> res3d_branch2b (in-place)
I0921 20:46:51.615206 13143 layer_factory.hpp:77] Creating layer scale3d_branch2b
I0921 20:46:51.615296 13143 net.cpp:150] Setting up scale3d_branch2b
I0921 20:46:51.615304 13143 net.cpp:157] Top shape: 16 128 27 27 (1492992)
I0921 20:46:51.615308 13143 net.cpp:165] Memory required for data: 2431836224
I0921 20:46:51.615314 13143 layer_factory.hpp:77] Creating layer res3d_branch2b_relu
I0921 20:46:51.615319 13143 net.cpp:100] Creating Layer res3d_branch2b_relu
I0921 20:46:51.615324 13143 net.cpp:434] res3d_branch2b_relu <- res3d_branch2b
I0921 20:46:51.615327 13143 net.cpp:395] res3d_branch2b_relu -> res3d_branch2b (in-place)
I0921 20:46:51.615332 13143 net.cpp:150] Setting up res3d_branch2b_relu
I0921 20:46:51.615336 13143 net.cpp:157] Top shape: 16 128 27 27 (1492992)
I0921 20:46:51.615339 13143 net.cpp:165] Memory required for data: 2437808192
I0921 20:46:51.615342 13143 layer_factory.hpp:77] Creating layer res3d_branch2c
I0921 20:46:51.615351 13143 net.cpp:100] Creating Layer res3d_branch2c
I0921 20:46:51.615355 13143 net.cpp:434] res3d_branch2c <- res3d_branch2b
I0921 20:46:51.615360 13143 net.cpp:408] res3d_branch2c -> res3d_branch2c
I0921 20:46:51.615555 13143 net.cpp:150] Setting up res3d_branch2c
I0921 20:46:51.615566 13143 net.cpp:157] Top shape: 16 512 27 27 (5971968)
I0921 20:46:51.615569 13143 net.cpp:165] Memory required for data: 2461696064
I0921 20:46:51.615573 13143 layer_factory.hpp:77] Creating layer bn3d_branch2c
I0921 20:46:51.615579 13143 net.cpp:100] Creating Layer bn3d_branch2c
I0921 20:46:51.615582 13143 net.cpp:434] bn3d_branch2c <- res3d_branch2c
I0921 20:46:51.615588 13143 net.cpp:395] bn3d_branch2c -> res3d_branch2c (in-place)
I0921 20:46:51.615753 13143 net.cpp:150] Setting up bn3d_branch2c
I0921 20:46:51.615763 13143 net.cpp:157] Top shape: 16 512 27 27 (5971968)
I0921 20:46:51.615767 13143 net.cpp:165] Memory required for data: 2485583936
I0921 20:46:51.615774 13143 layer_factory.hpp:77] Creating layer scale3d_branch2c
I0921 20:46:51.615780 13143 net.cpp:100] Creating Layer scale3d_branch2c
I0921 20:46:51.615783 13143 net.cpp:434] scale3d_branch2c <- res3d_branch2c
I0921 20:46:51.615787 13143 net.cpp:395] scale3d_branch2c -> res3d_branch2c (in-place)
I0921 20:46:51.615823 13143 layer_factory.hpp:77] Creating layer scale3d_branch2c
I0921 20:46:51.615909 13143 net.cpp:150] Setting up scale3d_branch2c
I0921 20:46:51.615917 13143 net.cpp:157] Top shape: 16 512 27 27 (5971968)
I0921 20:46:51.615921 13143 net.cpp:165] Memory required for data: 2509471808
I0921 20:46:51.615926 13143 layer_factory.hpp:77] Creating layer res3d
I0921 20:46:51.615933 13143 net.cpp:100] Creating Layer res3d
I0921 20:46:51.615936 13143 net.cpp:434] res3d <- res3c_res3c_relu_0_split_1
I0921 20:46:51.615941 13143 net.cpp:434] res3d <- res3d_branch2c
I0921 20:46:51.615944 13143 net.cpp:408] res3d -> res3d
I0921 20:46:51.615965 13143 net.cpp:150] Setting up res3d
I0921 20:46:51.615972 13143 net.cpp:157] Top shape: 16 512 27 27 (5971968)
I0921 20:46:51.615973 13143 net.cpp:165] Memory required for data: 2533359680
I0921 20:46:51.615977 13143 layer_factory.hpp:77] Creating layer res3d_relu
I0921 20:46:51.615981 13143 net.cpp:100] Creating Layer res3d_relu
I0921 20:46:51.615984 13143 net.cpp:434] res3d_relu <- res3d
I0921 20:46:51.615989 13143 net.cpp:395] res3d_relu -> res3d (in-place)
I0921 20:46:51.615994 13143 net.cpp:150] Setting up res3d_relu
I0921 20:46:51.615998 13143 net.cpp:157] Top shape: 16 512 27 27 (5971968)
I0921 20:46:51.616001 13143 net.cpp:165] Memory required for data: 2557247552
I0921 20:46:51.616004 13143 layer_factory.hpp:77] Creating layer res3d_res3d_relu_0_split
I0921 20:46:51.616008 13143 net.cpp:100] Creating Layer res3d_res3d_relu_0_split
I0921 20:46:51.616011 13143 net.cpp:434] res3d_res3d_relu_0_split <- res3d
I0921 20:46:51.616015 13143 net.cpp:408] res3d_res3d_relu_0_split -> res3d_res3d_relu_0_split_0
I0921 20:46:51.616020 13143 net.cpp:408] res3d_res3d_relu_0_split -> res3d_res3d_relu_0_split_1
I0921 20:46:51.616049 13143 net.cpp:150] Setting up res3d_res3d_relu_0_split
I0921 20:46:51.616053 13143 net.cpp:157] Top shape: 16 512 27 27 (5971968)
I0921 20:46:51.616057 13143 net.cpp:157] Top shape: 16 512 27 27 (5971968)
I0921 20:46:51.616060 13143 net.cpp:165] Memory required for data: 2605023296
I0921 20:46:51.616063 13143 layer_factory.hpp:77] Creating layer res4a_branch1
I0921 20:46:51.616070 13143 net.cpp:100] Creating Layer res4a_branch1
I0921 20:46:51.616073 13143 net.cpp:434] res4a_branch1 <- res3d_res3d_relu_0_split_0
I0921 20:46:51.616078 13143 net.cpp:408] res4a_branch1 -> res4a_branch1
I0921 20:46:51.617297 13143 net.cpp:150] Setting up res4a_branch1
I0921 20:46:51.617313 13143 net.cpp:157] Top shape: 16 1024 14 14 (3211264)
I0921 20:46:51.617317 13143 net.cpp:165] Memory required for data: 2617868352
I0921 20:46:51.617322 13143 layer_factory.hpp:77] Creating layer bn4a_branch1
I0921 20:46:51.617329 13143 net.cpp:100] Creating Layer bn4a_branch1
I0921 20:46:51.617332 13143 net.cpp:434] bn4a_branch1 <- res4a_branch1
I0921 20:46:51.617338 13143 net.cpp:395] bn4a_branch1 -> res4a_branch1 (in-place)
I0921 20:46:51.617501 13143 net.cpp:150] Setting up bn4a_branch1
I0921 20:46:51.617509 13143 net.cpp:157] Top shape: 16 1024 14 14 (3211264)
I0921 20:46:51.617513 13143 net.cpp:165] Memory required for data: 2630713408
I0921 20:46:51.617521 13143 layer_factory.hpp:77] Creating layer scale4a_branch1
I0921 20:46:51.617525 13143 net.cpp:100] Creating Layer scale4a_branch1
I0921 20:46:51.617529 13143 net.cpp:434] scale4a_branch1 <- res4a_branch1
I0921 20:46:51.617534 13143 net.cpp:395] scale4a_branch1 -> res4a_branch1 (in-place)
I0921 20:46:51.617565 13143 layer_factory.hpp:77] Creating layer scale4a_branch1
I0921 20:46:51.617667 13143 net.cpp:150] Setting up scale4a_branch1
I0921 20:46:51.617677 13143 net.cpp:157] Top shape: 16 1024 14 14 (3211264)
I0921 20:46:51.617681 13143 net.cpp:165] Memory required for data: 2643558464
I0921 20:46:51.617686 13143 layer_factory.hpp:77] Creating layer res4a_branch2a
I0921 20:46:51.617693 13143 net.cpp:100] Creating Layer res4a_branch2a
I0921 20:46:51.617697 13143 net.cpp:434] res4a_branch2a <- res3d_res3d_relu_0_split_1
I0921 20:46:51.617703 13143 net.cpp:408] res4a_branch2a -> res4a_branch2a
I0921 20:46:51.617959 13143 net.cpp:150] Setting up res4a_branch2a
I0921 20:46:51.617967 13143 net.cpp:157] Top shape: 16 256 14 14 (802816)
I0921 20:46:51.617970 13143 net.cpp:165] Memory required for data: 2646769728
I0921 20:46:51.617975 13143 layer_factory.hpp:77] Creating layer bn4a_branch2a
I0921 20:46:51.617980 13143 net.cpp:100] Creating Layer bn4a_branch2a
I0921 20:46:51.617985 13143 net.cpp:434] bn4a_branch2a <- res4a_branch2a
I0921 20:46:51.617997 13143 net.cpp:395] bn4a_branch2a -> res4a_branch2a (in-place)
I0921 20:46:51.618141 13143 net.cpp:150] Setting up bn4a_branch2a
I0921 20:46:51.618149 13143 net.cpp:157] Top shape: 16 256 14 14 (802816)
I0921 20:46:51.618152 13143 net.cpp:165] Memory required for data: 2649980992
I0921 20:46:51.618160 13143 layer_factory.hpp:77] Creating layer scale4a_branch2a
I0921 20:46:51.618165 13143 net.cpp:100] Creating Layer scale4a_branch2a
I0921 20:46:51.618168 13143 net.cpp:434] scale4a_branch2a <- res4a_branch2a
I0921 20:46:51.618172 13143 net.cpp:395] scale4a_branch2a -> res4a_branch2a (in-place)
I0921 20:46:51.618204 13143 layer_factory.hpp:77] Creating layer scale4a_branch2a
I0921 20:46:51.618286 13143 net.cpp:150] Setting up scale4a_branch2a
I0921 20:46:51.618294 13143 net.cpp:157] Top shape: 16 256 14 14 (802816)
I0921 20:46:51.618297 13143 net.cpp:165] Memory required for data: 2653192256
I0921 20:46:51.618304 13143 layer_factory.hpp:77] Creating layer res4a_branch2a_relu
I0921 20:46:51.618309 13143 net.cpp:100] Creating Layer res4a_branch2a_relu
I0921 20:46:51.618314 13143 net.cpp:434] res4a_branch2a_relu <- res4a_branch2a
I0921 20:46:51.618317 13143 net.cpp:395] res4a_branch2a_relu -> res4a_branch2a (in-place)
I0921 20:46:51.618322 13143 net.cpp:150] Setting up res4a_branch2a_relu
I0921 20:46:51.618326 13143 net.cpp:157] Top shape: 16 256 14 14 (802816)
I0921 20:46:51.618330 13143 net.cpp:165] Memory required for data: 2656403520
I0921 20:46:51.618332 13143 layer_factory.hpp:77] Creating layer res4a_branch2b
I0921 20:46:51.618340 13143 net.cpp:100] Creating Layer res4a_branch2b
I0921 20:46:51.618342 13143 net.cpp:434] res4a_branch2b <- res4a_branch2a
I0921 20:46:51.618347 13143 net.cpp:408] res4a_branch2b -> res4a_branch2b
I0921 20:46:51.619673 13143 net.cpp:150] Setting up res4a_branch2b
I0921 20:46:51.619688 13143 net.cpp:157] Top shape: 16 256 14 14 (802816)
I0921 20:46:51.619693 13143 net.cpp:165] Memory required for data: 2659614784
I0921 20:46:51.619698 13143 layer_factory.hpp:77] Creating layer bn4a_branch2b
I0921 20:46:51.619704 13143 net.cpp:100] Creating Layer bn4a_branch2b
I0921 20:46:51.619709 13143 net.cpp:434] bn4a_branch2b <- res4a_branch2b
I0921 20:46:51.619716 13143 net.cpp:395] bn4a_branch2b -> res4a_branch2b (in-place)
I0921 20:46:51.619891 13143 net.cpp:150] Setting up bn4a_branch2b
I0921 20:46:51.619910 13143 net.cpp:157] Top shape: 16 256 14 14 (802816)
I0921 20:46:51.619912 13143 net.cpp:165] Memory required for data: 2662826048
I0921 20:46:51.619920 13143 layer_factory.hpp:77] Creating layer scale4a_branch2b
I0921 20:46:51.619926 13143 net.cpp:100] Creating Layer scale4a_branch2b
I0921 20:46:51.619930 13143 net.cpp:434] scale4a_branch2b <- res4a_branch2b
I0921 20:46:51.619935 13143 net.cpp:395] scale4a_branch2b -> res4a_branch2b (in-place)
I0921 20:46:51.619971 13143 layer_factory.hpp:77] Creating layer scale4a_branch2b
I0921 20:46:51.620056 13143 net.cpp:150] Setting up scale4a_branch2b
I0921 20:46:51.620065 13143 net.cpp:157] Top shape: 16 256 14 14 (802816)
I0921 20:46:51.620069 13143 net.cpp:165] Memory required for data: 2666037312
I0921 20:46:51.620085 13143 layer_factory.hpp:77] Creating layer res4a_branch2b_relu
I0921 20:46:51.620092 13143 net.cpp:100] Creating Layer res4a_branch2b_relu
I0921 20:46:51.620096 13143 net.cpp:434] res4a_branch2b_relu <- res4a_branch2b
I0921 20:46:51.620100 13143 net.cpp:395] res4a_branch2b_relu -> res4a_branch2b (in-place)
I0921 20:46:51.620106 13143 net.cpp:150] Setting up res4a_branch2b_relu
I0921 20:46:51.620110 13143 net.cpp:157] Top shape: 16 256 14 14 (802816)
I0921 20:46:51.620113 13143 net.cpp:165] Memory required for data: 2669248576
I0921 20:46:51.620116 13143 layer_factory.hpp:77] Creating layer res4a_branch2c
I0921 20:46:51.620124 13143 net.cpp:100] Creating Layer res4a_branch2c
I0921 20:46:51.620128 13143 net.cpp:434] res4a_branch2c <- res4a_branch2b
I0921 20:46:51.620132 13143 net.cpp:408] res4a_branch2c -> res4a_branch2c
I0921 20:46:51.620926 13143 net.cpp:150] Setting up res4a_branch2c
I0921 20:46:51.620941 13143 net.cpp:157] Top shape: 16 1024 14 14 (3211264)
I0921 20:46:51.620945 13143 net.cpp:165] Memory required for data: 2682093632
I0921 20:46:51.620950 13143 layer_factory.hpp:77] Creating layer bn4a_branch2c
I0921 20:46:51.620957 13143 net.cpp:100] Creating Layer bn4a_branch2c
I0921 20:46:51.620961 13143 net.cpp:434] bn4a_branch2c <- res4a_branch2c
I0921 20:46:51.620966 13143 net.cpp:395] bn4a_branch2c -> res4a_branch2c (in-place)
I0921 20:46:51.621125 13143 net.cpp:150] Setting up bn4a_branch2c
I0921 20:46:51.621134 13143 net.cpp:157] Top shape: 16 1024 14 14 (3211264)
I0921 20:46:51.621137 13143 net.cpp:165] Memory required for data: 2694938688
I0921 20:46:51.621145 13143 layer_factory.hpp:77] Creating layer scale4a_branch2c
I0921 20:46:51.621151 13143 net.cpp:100] Creating Layer scale4a_branch2c
I0921 20:46:51.621155 13143 net.cpp:434] scale4a_branch2c <- res4a_branch2c
I0921 20:46:51.621160 13143 net.cpp:395] scale4a_branch2c -> res4a_branch2c (in-place)
I0921 20:46:51.621191 13143 layer_factory.hpp:77] Creating layer scale4a_branch2c
I0921 20:46:51.621289 13143 net.cpp:150] Setting up scale4a_branch2c
I0921 20:46:51.621297 13143 net.cpp:157] Top shape: 16 1024 14 14 (3211264)
I0921 20:46:51.621300 13143 net.cpp:165] Memory required for data: 2707783744
I0921 20:46:51.621306 13143 layer_factory.hpp:77] Creating layer res4a
I0921 20:46:51.621311 13143 net.cpp:100] Creating Layer res4a
I0921 20:46:51.621315 13143 net.cpp:434] res4a <- res4a_branch1
I0921 20:46:51.621320 13143 net.cpp:434] res4a <- res4a_branch2c
I0921 20:46:51.621325 13143 net.cpp:408] res4a -> res4a
I0921 20:46:51.621345 13143 net.cpp:150] Setting up res4a
I0921 20:46:51.621352 13143 net.cpp:157] Top shape: 16 1024 14 14 (3211264)
I0921 20:46:51.621356 13143 net.cpp:165] Memory required for data: 2720628800
I0921 20:46:51.621358 13143 layer_factory.hpp:77] Creating layer res4a_relu
I0921 20:46:51.621363 13143 net.cpp:100] Creating Layer res4a_relu
I0921 20:46:51.621366 13143 net.cpp:434] res4a_relu <- res4a
I0921 20:46:51.621371 13143 net.cpp:395] res4a_relu -> res4a (in-place)
I0921 20:46:51.621376 13143 net.cpp:150] Setting up res4a_relu
I0921 20:46:51.621379 13143 net.cpp:157] Top shape: 16 1024 14 14 (3211264)
I0921 20:46:51.621381 13143 net.cpp:165] Memory required for data: 2733473856
I0921 20:46:51.621384 13143 layer_factory.hpp:77] Creating layer res4a_res4a_relu_0_split
I0921 20:46:51.621389 13143 net.cpp:100] Creating Layer res4a_res4a_relu_0_split
I0921 20:46:51.621392 13143 net.cpp:434] res4a_res4a_relu_0_split <- res4a
I0921 20:46:51.621398 13143 net.cpp:408] res4a_res4a_relu_0_split -> res4a_res4a_relu_0_split_0
I0921 20:46:51.621403 13143 net.cpp:408] res4a_res4a_relu_0_split -> res4a_res4a_relu_0_split_1
I0921 20:46:51.621431 13143 net.cpp:150] Setting up res4a_res4a_relu_0_split
I0921 20:46:51.621438 13143 net.cpp:157] Top shape: 16 1024 14 14 (3211264)
I0921 20:46:51.621440 13143 net.cpp:157] Top shape: 16 1024 14 14 (3211264)
I0921 20:46:51.621443 13143 net.cpp:165] Memory required for data: 2759163968
I0921 20:46:51.621446 13143 layer_factory.hpp:77] Creating layer res4b_branch2a
I0921 20:46:51.621477 13143 net.cpp:100] Creating Layer res4b_branch2a
I0921 20:46:51.621482 13143 net.cpp:434] res4b_branch2a <- res4a_res4a_relu_0_split_0
I0921 20:46:51.621487 13143 net.cpp:408] res4b_branch2a -> res4b_branch2a
I0921 20:46:51.622277 13143 net.cpp:150] Setting up res4b_branch2a
I0921 20:46:51.622292 13143 net.cpp:157] Top shape: 16 256 14 14 (802816)
I0921 20:46:51.622295 13143 net.cpp:165] Memory required for data: 2762375232
I0921 20:46:51.622301 13143 layer_factory.hpp:77] Creating layer bn4b_branch2a
I0921 20:46:51.622308 13143 net.cpp:100] Creating Layer bn4b_branch2a
I0921 20:46:51.622313 13143 net.cpp:434] bn4b_branch2a <- res4b_branch2a
I0921 20:46:51.622331 13143 net.cpp:395] bn4b_branch2a -> res4b_branch2a (in-place)
I0921 20:46:51.622488 13143 net.cpp:150] Setting up bn4b_branch2a
I0921 20:46:51.622498 13143 net.cpp:157] Top shape: 16 256 14 14 (802816)
I0921 20:46:51.622500 13143 net.cpp:165] Memory required for data: 2765586496
I0921 20:46:51.622508 13143 layer_factory.hpp:77] Creating layer scale4b_branch2a
I0921 20:46:51.622514 13143 net.cpp:100] Creating Layer scale4b_branch2a
I0921 20:46:51.622516 13143 net.cpp:434] scale4b_branch2a <- res4b_branch2a
I0921 20:46:51.622521 13143 net.cpp:395] scale4b_branch2a -> res4b_branch2a (in-place)
I0921 20:46:51.622555 13143 layer_factory.hpp:77] Creating layer scale4b_branch2a
I0921 20:46:51.622649 13143 net.cpp:150] Setting up scale4b_branch2a
I0921 20:46:51.622658 13143 net.cpp:157] Top shape: 16 256 14 14 (802816)
I0921 20:46:51.622661 13143 net.cpp:165] Memory required for data: 2768797760
I0921 20:46:51.622668 13143 layer_factory.hpp:77] Creating layer res4b_branch2a_relu
I0921 20:46:51.622673 13143 net.cpp:100] Creating Layer res4b_branch2a_relu
I0921 20:46:51.622676 13143 net.cpp:434] res4b_branch2a_relu <- res4b_branch2a
I0921 20:46:51.622681 13143 net.cpp:395] res4b_branch2a_relu -> res4b_branch2a (in-place)
I0921 20:46:51.622686 13143 net.cpp:150] Setting up res4b_branch2a_relu
I0921 20:46:51.622690 13143 net.cpp:157] Top shape: 16 256 14 14 (802816)
I0921 20:46:51.622694 13143 net.cpp:165] Memory required for data: 2772009024
I0921 20:46:51.622696 13143 layer_factory.hpp:77] Creating layer res4b_branch2b
I0921 20:46:51.622704 13143 net.cpp:100] Creating Layer res4b_branch2b
I0921 20:46:51.622707 13143 net.cpp:434] res4b_branch2b <- res4b_branch2a
I0921 20:46:51.622711 13143 net.cpp:408] res4b_branch2b -> res4b_branch2b
I0921 20:46:51.623992 13143 net.cpp:150] Setting up res4b_branch2b
I0921 20:46:51.624007 13143 net.cpp:157] Top shape: 16 256 14 14 (802816)
I0921 20:46:51.624011 13143 net.cpp:165] Memory required for data: 2775220288
I0921 20:46:51.624017 13143 layer_factory.hpp:77] Creating layer bn4b_branch2b
I0921 20:46:51.624022 13143 net.cpp:100] Creating Layer bn4b_branch2b
I0921 20:46:51.624027 13143 net.cpp:434] bn4b_branch2b <- res4b_branch2b
I0921 20:46:51.624032 13143 net.cpp:395] bn4b_branch2b -> res4b_branch2b (in-place)
I0921 20:46:51.624181 13143 net.cpp:150] Setting up bn4b_branch2b
I0921 20:46:51.624191 13143 net.cpp:157] Top shape: 16 256 14 14 (802816)
I0921 20:46:51.624193 13143 net.cpp:165] Memory required for data: 2778431552
I0921 20:46:51.624202 13143 layer_factory.hpp:77] Creating layer scale4b_branch2b
I0921 20:46:51.624207 13143 net.cpp:100] Creating Layer scale4b_branch2b
I0921 20:46:51.624209 13143 net.cpp:434] scale4b_branch2b <- res4b_branch2b
I0921 20:46:51.624214 13143 net.cpp:395] scale4b_branch2b -> res4b_branch2b (in-place)
I0921 20:46:51.624248 13143 layer_factory.hpp:77] Creating layer scale4b_branch2b
I0921 20:46:51.624338 13143 net.cpp:150] Setting up scale4b_branch2b
I0921 20:46:51.624346 13143 net.cpp:157] Top shape: 16 256 14 14 (802816)
I0921 20:46:51.624349 13143 net.cpp:165] Memory required for data: 2781642816
I0921 20:46:51.624354 13143 layer_factory.hpp:77] Creating layer res4b_branch2b_relu
I0921 20:46:51.624361 13143 net.cpp:100] Creating Layer res4b_branch2b_relu
I0921 20:46:51.624364 13143 net.cpp:434] res4b_branch2b_relu <- res4b_branch2b
I0921 20:46:51.624368 13143 net.cpp:395] res4b_branch2b_relu -> res4b_branch2b (in-place)
I0921 20:46:51.624385 13143 net.cpp:150] Setting up res4b_branch2b_relu
I0921 20:46:51.624390 13143 net.cpp:157] Top shape: 16 256 14 14 (802816)
I0921 20:46:51.624393 13143 net.cpp:165] Memory required for data: 2784854080
I0921 20:46:51.624397 13143 layer_factory.hpp:77] Creating layer res4b_branch2c
I0921 20:46:51.624405 13143 net.cpp:100] Creating Layer res4b_branch2c
I0921 20:46:51.624408 13143 net.cpp:434] res4b_branch2c <- res4b_branch2b
I0921 20:46:51.624413 13143 net.cpp:408] res4b_branch2c -> res4b_branch2c
I0921 20:46:51.625193 13143 net.cpp:150] Setting up res4b_branch2c
I0921 20:46:51.625208 13143 net.cpp:157] Top shape: 16 1024 14 14 (3211264)
I0921 20:46:51.625211 13143 net.cpp:165] Memory required for data: 2797699136
I0921 20:46:51.625216 13143 layer_factory.hpp:77] Creating layer bn4b_branch2c
I0921 20:46:51.625224 13143 net.cpp:100] Creating Layer bn4b_branch2c
I0921 20:46:51.625227 13143 net.cpp:434] bn4b_branch2c <- res4b_branch2c
I0921 20:46:51.625232 13143 net.cpp:395] bn4b_branch2c -> res4b_branch2c (in-place)
I0921 20:46:51.625393 13143 net.cpp:150] Setting up bn4b_branch2c
I0921 20:46:51.625402 13143 net.cpp:157] Top shape: 16 1024 14 14 (3211264)
I0921 20:46:51.625406 13143 net.cpp:165] Memory required for data: 2810544192
I0921 20:46:51.625412 13143 layer_factory.hpp:77] Creating layer scale4b_branch2c
I0921 20:46:51.625430 13143 net.cpp:100] Creating Layer scale4b_branch2c
I0921 20:46:51.625435 13143 net.cpp:434] scale4b_branch2c <- res4b_branch2c
I0921 20:46:51.625440 13143 net.cpp:395] scale4b_branch2c -> res4b_branch2c (in-place)
I0921 20:46:51.625475 13143 layer_factory.hpp:77] Creating layer scale4b_branch2c
I0921 20:46:51.625573 13143 net.cpp:150] Setting up scale4b_branch2c
I0921 20:46:51.625582 13143 net.cpp:157] Top shape: 16 1024 14 14 (3211264)
I0921 20:46:51.625586 13143 net.cpp:165] Memory required for data: 2823389248
I0921 20:46:51.625591 13143 layer_factory.hpp:77] Creating layer res4b
I0921 20:46:51.625597 13143 net.cpp:100] Creating Layer res4b
I0921 20:46:51.625599 13143 net.cpp:434] res4b <- res4a_res4a_relu_0_split_1
I0921 20:46:51.625603 13143 net.cpp:434] res4b <- res4b_branch2c
I0921 20:46:51.625609 13143 net.cpp:408] res4b -> res4b
I0921 20:46:51.625630 13143 net.cpp:150] Setting up res4b
I0921 20:46:51.625638 13143 net.cpp:157] Top shape: 16 1024 14 14 (3211264)
I0921 20:46:51.625640 13143 net.cpp:165] Memory required for data: 2836234304
I0921 20:46:51.625643 13143 layer_factory.hpp:77] Creating layer res4b_relu
I0921 20:46:51.625648 13143 net.cpp:100] Creating Layer res4b_relu
I0921 20:46:51.625650 13143 net.cpp:434] res4b_relu <- res4b
I0921 20:46:51.625654 13143 net.cpp:395] res4b_relu -> res4b (in-place)
I0921 20:46:51.625659 13143 net.cpp:150] Setting up res4b_relu
I0921 20:46:51.625663 13143 net.cpp:157] Top shape: 16 1024 14 14 (3211264)
I0921 20:46:51.625666 13143 net.cpp:165] Memory required for data: 2849079360
I0921 20:46:51.625669 13143 layer_factory.hpp:77] Creating layer res4b_res4b_relu_0_split
I0921 20:46:51.625674 13143 net.cpp:100] Creating Layer res4b_res4b_relu_0_split
I0921 20:46:51.625677 13143 net.cpp:434] res4b_res4b_relu_0_split <- res4b
I0921 20:46:51.625682 13143 net.cpp:408] res4b_res4b_relu_0_split -> res4b_res4b_relu_0_split_0
I0921 20:46:51.625689 13143 net.cpp:408] res4b_res4b_relu_0_split -> res4b_res4b_relu_0_split_1
I0921 20:46:51.625715 13143 net.cpp:150] Setting up res4b_res4b_relu_0_split
I0921 20:46:51.625722 13143 net.cpp:157] Top shape: 16 1024 14 14 (3211264)
I0921 20:46:51.625725 13143 net.cpp:157] Top shape: 16 1024 14 14 (3211264)
I0921 20:46:51.625728 13143 net.cpp:165] Memory required for data: 2874769472
I0921 20:46:51.625731 13143 layer_factory.hpp:77] Creating layer res4c_branch2a
I0921 20:46:51.625738 13143 net.cpp:100] Creating Layer res4c_branch2a
I0921 20:46:51.625741 13143 net.cpp:434] res4c_branch2a <- res4b_res4b_relu_0_split_0
I0921 20:46:51.625746 13143 net.cpp:408] res4c_branch2a -> res4c_branch2a
I0921 20:46:51.626531 13143 net.cpp:150] Setting up res4c_branch2a
I0921 20:46:51.626555 13143 net.cpp:157] Top shape: 16 256 14 14 (802816)
I0921 20:46:51.626559 13143 net.cpp:165] Memory required for data: 2877980736
I0921 20:46:51.626564 13143 layer_factory.hpp:77] Creating layer bn4c_branch2a
I0921 20:46:51.626572 13143 net.cpp:100] Creating Layer bn4c_branch2a
I0921 20:46:51.626576 13143 net.cpp:434] bn4c_branch2a <- res4c_branch2a
I0921 20:46:51.626580 13143 net.cpp:395] bn4c_branch2a -> res4c_branch2a (in-place)
I0921 20:46:51.626739 13143 net.cpp:150] Setting up bn4c_branch2a
I0921 20:46:51.626746 13143 net.cpp:157] Top shape: 16 256 14 14 (802816)
I0921 20:46:51.626750 13143 net.cpp:165] Memory required for data: 2881192000
I0921 20:46:51.626757 13143 layer_factory.hpp:77] Creating layer scale4c_branch2a
I0921 20:46:51.626762 13143 net.cpp:100] Creating Layer scale4c_branch2a
I0921 20:46:51.626766 13143 net.cpp:434] scale4c_branch2a <- res4c_branch2a
I0921 20:46:51.626771 13143 net.cpp:395] scale4c_branch2a -> res4c_branch2a (in-place)
I0921 20:46:51.626806 13143 layer_factory.hpp:77] Creating layer scale4c_branch2a
I0921 20:46:51.626899 13143 net.cpp:150] Setting up scale4c_branch2a
I0921 20:46:51.626907 13143 net.cpp:157] Top shape: 16 256 14 14 (802816)
I0921 20:46:51.626911 13143 net.cpp:165] Memory required for data: 2884403264
I0921 20:46:51.626916 13143 layer_factory.hpp:77] Creating layer res4c_branch2a_relu
I0921 20:46:51.626921 13143 net.cpp:100] Creating Layer res4c_branch2a_relu
I0921 20:46:51.626925 13143 net.cpp:434] res4c_branch2a_relu <- res4c_branch2a
I0921 20:46:51.626929 13143 net.cpp:395] res4c_branch2a_relu -> res4c_branch2a (in-place)
I0921 20:46:51.626935 13143 net.cpp:150] Setting up res4c_branch2a_relu
I0921 20:46:51.626938 13143 net.cpp:157] Top shape: 16 256 14 14 (802816)
I0921 20:46:51.626941 13143 net.cpp:165] Memory required for data: 2887614528
I0921 20:46:51.626945 13143 layer_factory.hpp:77] Creating layer res4c_branch2b
I0921 20:46:51.626951 13143 net.cpp:100] Creating Layer res4c_branch2b
I0921 20:46:51.626955 13143 net.cpp:434] res4c_branch2b <- res4c_branch2a
I0921 20:46:51.626960 13143 net.cpp:408] res4c_branch2b -> res4c_branch2b
I0921 20:46:51.628257 13143 net.cpp:150] Setting up res4c_branch2b
I0921 20:46:51.628271 13143 net.cpp:157] Top shape: 16 256 14 14 (802816)
I0921 20:46:51.628275 13143 net.cpp:165] Memory required for data: 2890825792
I0921 20:46:51.628281 13143 layer_factory.hpp:77] Creating layer bn4c_branch2b
I0921 20:46:51.628291 13143 net.cpp:100] Creating Layer bn4c_branch2b
I0921 20:46:51.628296 13143 net.cpp:434] bn4c_branch2b <- res4c_branch2b
I0921 20:46:51.628300 13143 net.cpp:395] bn4c_branch2b -> res4c_branch2b (in-place)
I0921 20:46:51.628455 13143 net.cpp:150] Setting up bn4c_branch2b
I0921 20:46:51.628464 13143 net.cpp:157] Top shape: 16 256 14 14 (802816)
I0921 20:46:51.628468 13143 net.cpp:165] Memory required for data: 2894037056
I0921 20:46:51.628475 13143 layer_factory.hpp:77] Creating layer scale4c_branch2b
I0921 20:46:51.628481 13143 net.cpp:100] Creating Layer scale4c_branch2b
I0921 20:46:51.628485 13143 net.cpp:434] scale4c_branch2b <- res4c_branch2b
I0921 20:46:51.628489 13143 net.cpp:395] scale4c_branch2b -> res4c_branch2b (in-place)
I0921 20:46:51.628525 13143 layer_factory.hpp:77] Creating layer scale4c_branch2b
I0921 20:46:51.628614 13143 net.cpp:150] Setting up scale4c_branch2b
I0921 20:46:51.628623 13143 net.cpp:157] Top shape: 16 256 14 14 (802816)
I0921 20:46:51.628625 13143 net.cpp:165] Memory required for data: 2897248320
I0921 20:46:51.628631 13143 layer_factory.hpp:77] Creating layer res4c_branch2b_relu
I0921 20:46:51.628636 13143 net.cpp:100] Creating Layer res4c_branch2b_relu
I0921 20:46:51.628639 13143 net.cpp:434] res4c_branch2b_relu <- res4c_branch2b
I0921 20:46:51.628643 13143 net.cpp:395] res4c_branch2b_relu -> res4c_branch2b (in-place)
I0921 20:46:51.628648 13143 net.cpp:150] Setting up res4c_branch2b_relu
I0921 20:46:51.628653 13143 net.cpp:157] Top shape: 16 256 14 14 (802816)
I0921 20:46:51.628655 13143 net.cpp:165] Memory required for data: 2900459584
I0921 20:46:51.628659 13143 layer_factory.hpp:77] Creating layer res4c_branch2c
I0921 20:46:51.628676 13143 net.cpp:100] Creating Layer res4c_branch2c
I0921 20:46:51.628681 13143 net.cpp:434] res4c_branch2c <- res4c_branch2b
I0921 20:46:51.628687 13143 net.cpp:408] res4c_branch2c -> res4c_branch2c
I0921 20:46:51.630265 13143 net.cpp:150] Setting up res4c_branch2c
I0921 20:46:51.630280 13143 net.cpp:157] Top shape: 16 1024 14 14 (3211264)
I0921 20:46:51.630285 13143 net.cpp:165] Memory required for data: 2913304640
I0921 20:46:51.630290 13143 layer_factory.hpp:77] Creating layer bn4c_branch2c
I0921 20:46:51.630295 13143 net.cpp:100] Creating Layer bn4c_branch2c
I0921 20:46:51.630300 13143 net.cpp:434] bn4c_branch2c <- res4c_branch2c
I0921 20:46:51.630306 13143 net.cpp:395] bn4c_branch2c -> res4c_branch2c (in-place)
I0921 20:46:51.630467 13143 net.cpp:150] Setting up bn4c_branch2c
I0921 20:46:51.630476 13143 net.cpp:157] Top shape: 16 1024 14 14 (3211264)
I0921 20:46:51.630480 13143 net.cpp:165] Memory required for data: 2926149696
I0921 20:46:51.630486 13143 layer_factory.hpp:77] Creating layer scale4c_branch2c
I0921 20:46:51.630492 13143 net.cpp:100] Creating Layer scale4c_branch2c
I0921 20:46:51.630496 13143 net.cpp:434] scale4c_branch2c <- res4c_branch2c
I0921 20:46:51.630501 13143 net.cpp:395] scale4c_branch2c -> res4c_branch2c (in-place)
I0921 20:46:51.630534 13143 layer_factory.hpp:77] Creating layer scale4c_branch2c
I0921 20:46:51.630630 13143 net.cpp:150] Setting up scale4c_branch2c
I0921 20:46:51.630640 13143 net.cpp:157] Top shape: 16 1024 14 14 (3211264)
I0921 20:46:51.630642 13143 net.cpp:165] Memory required for data: 2938994752
I0921 20:46:51.630648 13143 layer_factory.hpp:77] Creating layer res4c
I0921 20:46:51.630656 13143 net.cpp:100] Creating Layer res4c
I0921 20:46:51.630659 13143 net.cpp:434] res4c <- res4b_res4b_relu_0_split_1
I0921 20:46:51.630663 13143 net.cpp:434] res4c <- res4c_branch2c
I0921 20:46:51.630667 13143 net.cpp:408] res4c -> res4c
I0921 20:46:51.630691 13143 net.cpp:150] Setting up res4c
I0921 20:46:51.630697 13143 net.cpp:157] Top shape: 16 1024 14 14 (3211264)
I0921 20:46:51.630699 13143 net.cpp:165] Memory required for data: 2951839808
I0921 20:46:51.630702 13143 layer_factory.hpp:77] Creating layer res4c_relu
I0921 20:46:51.630707 13143 net.cpp:100] Creating Layer res4c_relu
I0921 20:46:51.630710 13143 net.cpp:434] res4c_relu <- res4c
I0921 20:46:51.630715 13143 net.cpp:395] res4c_relu -> res4c (in-place)
I0921 20:46:51.630720 13143 net.cpp:150] Setting up res4c_relu
I0921 20:46:51.630724 13143 net.cpp:157] Top shape: 16 1024 14 14 (3211264)
I0921 20:46:51.630728 13143 net.cpp:165] Memory required for data: 2964684864
I0921 20:46:51.630730 13143 layer_factory.hpp:77] Creating layer res4c_res4c_relu_0_split
I0921 20:46:51.630735 13143 net.cpp:100] Creating Layer res4c_res4c_relu_0_split
I0921 20:46:51.630738 13143 net.cpp:434] res4c_res4c_relu_0_split <- res4c
I0921 20:46:51.630743 13143 net.cpp:408] res4c_res4c_relu_0_split -> res4c_res4c_relu_0_split_0
I0921 20:46:51.630748 13143 net.cpp:408] res4c_res4c_relu_0_split -> res4c_res4c_relu_0_split_1
I0921 20:46:51.630776 13143 net.cpp:150] Setting up res4c_res4c_relu_0_split
I0921 20:46:51.630781 13143 net.cpp:157] Top shape: 16 1024 14 14 (3211264)
I0921 20:46:51.630785 13143 net.cpp:157] Top shape: 16 1024 14 14 (3211264)
I0921 20:46:51.630787 13143 net.cpp:165] Memory required for data: 2990374976
I0921 20:46:51.630790 13143 layer_factory.hpp:77] Creating layer res4d_branch2a
I0921 20:46:51.630805 13143 net.cpp:100] Creating Layer res4d_branch2a
I0921 20:46:51.630808 13143 net.cpp:434] res4d_branch2a <- res4c_res4c_relu_0_split_0
I0921 20:46:51.630813 13143 net.cpp:408] res4d_branch2a -> res4d_branch2a
I0921 20:46:51.631608 13143 net.cpp:150] Setting up res4d_branch2a
I0921 20:46:51.631623 13143 net.cpp:157] Top shape: 16 256 14 14 (802816)
I0921 20:46:51.631628 13143 net.cpp:165] Memory required for data: 2993586240
I0921 20:46:51.631633 13143 layer_factory.hpp:77] Creating layer bn4d_branch2a
I0921 20:46:51.631639 13143 net.cpp:100] Creating Layer bn4d_branch2a
I0921 20:46:51.631654 13143 net.cpp:434] bn4d_branch2a <- res4d_branch2a
I0921 20:46:51.631661 13143 net.cpp:395] bn4d_branch2a -> res4d_branch2a (in-place)
I0921 20:46:51.631819 13143 net.cpp:150] Setting up bn4d_branch2a
I0921 20:46:51.631829 13143 net.cpp:157] Top shape: 16 256 14 14 (802816)
I0921 20:46:51.631832 13143 net.cpp:165] Memory required for data: 2996797504
I0921 20:46:51.631839 13143 layer_factory.hpp:77] Creating layer scale4d_branch2a
I0921 20:46:51.631845 13143 net.cpp:100] Creating Layer scale4d_branch2a
I0921 20:46:51.631849 13143 net.cpp:434] scale4d_branch2a <- res4d_branch2a
I0921 20:46:51.631852 13143 net.cpp:395] scale4d_branch2a -> res4d_branch2a (in-place)
I0921 20:46:51.631887 13143 layer_factory.hpp:77] Creating layer scale4d_branch2a
I0921 20:46:51.631980 13143 net.cpp:150] Setting up scale4d_branch2a
I0921 20:46:51.631989 13143 net.cpp:157] Top shape: 16 256 14 14 (802816)
I0921 20:46:51.631991 13143 net.cpp:165] Memory required for data: 3000008768
I0921 20:46:51.631997 13143 layer_factory.hpp:77] Creating layer res4d_branch2a_relu
I0921 20:46:51.632004 13143 net.cpp:100] Creating Layer res4d_branch2a_relu
I0921 20:46:51.632006 13143 net.cpp:434] res4d_branch2a_relu <- res4d_branch2a
I0921 20:46:51.632011 13143 net.cpp:395] res4d_branch2a_relu -> res4d_branch2a (in-place)
I0921 20:46:51.632017 13143 net.cpp:150] Setting up res4d_branch2a_relu
I0921 20:46:51.632021 13143 net.cpp:157] Top shape: 16 256 14 14 (802816)
I0921 20:46:51.632025 13143 net.cpp:165] Memory required for data: 3003220032
I0921 20:46:51.632027 13143 layer_factory.hpp:77] Creating layer res4d_branch2b
I0921 20:46:51.632033 13143 net.cpp:100] Creating Layer res4d_branch2b
I0921 20:46:51.632036 13143 net.cpp:434] res4d_branch2b <- res4d_branch2a
I0921 20:46:51.632042 13143 net.cpp:408] res4d_branch2b -> res4d_branch2b
I0921 20:46:51.633361 13143 net.cpp:150] Setting up res4d_branch2b
I0921 20:46:51.633376 13143 net.cpp:157] Top shape: 16 256 14 14 (802816)
I0921 20:46:51.633379 13143 net.cpp:165] Memory required for data: 3006431296
I0921 20:46:51.633385 13143 layer_factory.hpp:77] Creating layer bn4d_branch2b
I0921 20:46:51.633391 13143 net.cpp:100] Creating Layer bn4d_branch2b
I0921 20:46:51.633395 13143 net.cpp:434] bn4d_branch2b <- res4d_branch2b
I0921 20:46:51.633399 13143 net.cpp:395] bn4d_branch2b -> res4d_branch2b (in-place)
I0921 20:46:51.633553 13143 net.cpp:150] Setting up bn4d_branch2b
I0921 20:46:51.633563 13143 net.cpp:157] Top shape: 16 256 14 14 (802816)
I0921 20:46:51.633565 13143 net.cpp:165] Memory required for data: 3009642560
I0921 20:46:51.633572 13143 layer_factory.hpp:77] Creating layer scale4d_branch2b
I0921 20:46:51.633579 13143 net.cpp:100] Creating Layer scale4d_branch2b
I0921 20:46:51.633582 13143 net.cpp:434] scale4d_branch2b <- res4d_branch2b
I0921 20:46:51.633586 13143 net.cpp:395] scale4d_branch2b -> res4d_branch2b (in-place)
I0921 20:46:51.633625 13143 layer_factory.hpp:77] Creating layer scale4d_branch2b
I0921 20:46:51.633716 13143 net.cpp:150] Setting up scale4d_branch2b
I0921 20:46:51.633724 13143 net.cpp:157] Top shape: 16 256 14 14 (802816)
I0921 20:46:51.633728 13143 net.cpp:165] Memory required for data: 3012853824
I0921 20:46:51.633733 13143 layer_factory.hpp:77] Creating layer res4d_branch2b_relu
I0921 20:46:51.633740 13143 net.cpp:100] Creating Layer res4d_branch2b_relu
I0921 20:46:51.633744 13143 net.cpp:434] res4d_branch2b_relu <- res4d_branch2b
I0921 20:46:51.633747 13143 net.cpp:395] res4d_branch2b_relu -> res4d_branch2b (in-place)
I0921 20:46:51.633752 13143 net.cpp:150] Setting up res4d_branch2b_relu
I0921 20:46:51.633756 13143 net.cpp:157] Top shape: 16 256 14 14 (802816)
I0921 20:46:51.633759 13143 net.cpp:165] Memory required for data: 3016065088
I0921 20:46:51.633762 13143 layer_factory.hpp:77] Creating layer res4d_branch2c
I0921 20:46:51.633771 13143 net.cpp:100] Creating Layer res4d_branch2c
I0921 20:46:51.633775 13143 net.cpp:434] res4d_branch2c <- res4d_branch2b
I0921 20:46:51.633780 13143 net.cpp:408] res4d_branch2c -> res4d_branch2c
I0921 20:46:51.634565 13143 net.cpp:150] Setting up res4d_branch2c
I0921 20:46:51.634580 13143 net.cpp:157] Top shape: 16 1024 14 14 (3211264)
I0921 20:46:51.634583 13143 net.cpp:165] Memory required for data: 3028910144
I0921 20:46:51.634589 13143 layer_factory.hpp:77] Creating layer bn4d_branch2c
I0921 20:46:51.634596 13143 net.cpp:100] Creating Layer bn4d_branch2c
I0921 20:46:51.634600 13143 net.cpp:434] bn4d_branch2c <- res4d_branch2c
I0921 20:46:51.634605 13143 net.cpp:395] bn4d_branch2c -> res4d_branch2c (in-place)
I0921 20:46:51.634765 13143 net.cpp:150] Setting up bn4d_branch2c
I0921 20:46:51.634773 13143 net.cpp:157] Top shape: 16 1024 14 14 (3211264)
I0921 20:46:51.634776 13143 net.cpp:165] Memory required for data: 3041755200
I0921 20:46:51.634784 13143 layer_factory.hpp:77] Creating layer scale4d_branch2c
I0921 20:46:51.634789 13143 net.cpp:100] Creating Layer scale4d_branch2c
I0921 20:46:51.634793 13143 net.cpp:434] scale4d_branch2c <- res4d_branch2c
I0921 20:46:51.634799 13143 net.cpp:395] scale4d_branch2c -> res4d_branch2c (in-place)
I0921 20:46:51.634831 13143 layer_factory.hpp:77] Creating layer scale4d_branch2c
I0921 20:46:51.634930 13143 net.cpp:150] Setting up scale4d_branch2c
I0921 20:46:51.634939 13143 net.cpp:157] Top shape: 16 1024 14 14 (3211264)
I0921 20:46:51.634943 13143 net.cpp:165] Memory required for data: 3054600256
I0921 20:46:51.634948 13143 layer_factory.hpp:77] Creating layer res4d
I0921 20:46:51.634953 13143 net.cpp:100] Creating Layer res4d
I0921 20:46:51.634958 13143 net.cpp:434] res4d <- res4c_res4c_relu_0_split_1
I0921 20:46:51.634961 13143 net.cpp:434] res4d <- res4d_branch2c
I0921 20:46:51.634965 13143 net.cpp:408] res4d -> res4d
I0921 20:46:51.634987 13143 net.cpp:150] Setting up res4d
I0921 20:46:51.634994 13143 net.cpp:157] Top shape: 16 1024 14 14 (3211264)
I0921 20:46:51.634996 13143 net.cpp:165] Memory required for data: 3067445312
I0921 20:46:51.634999 13143 layer_factory.hpp:77] Creating layer res4d_relu
I0921 20:46:51.635005 13143 net.cpp:100] Creating Layer res4d_relu
I0921 20:46:51.635009 13143 net.cpp:434] res4d_relu <- res4d
I0921 20:46:51.635012 13143 net.cpp:395] res4d_relu -> res4d (in-place)
I0921 20:46:51.635017 13143 net.cpp:150] Setting up res4d_relu
I0921 20:46:51.635021 13143 net.cpp:157] Top shape: 16 1024 14 14 (3211264)
I0921 20:46:51.635025 13143 net.cpp:165] Memory required for data: 3080290368
I0921 20:46:51.635027 13143 layer_factory.hpp:77] Creating layer res4d_res4d_relu_0_split
I0921 20:46:51.635032 13143 net.cpp:100] Creating Layer res4d_res4d_relu_0_split
I0921 20:46:51.635035 13143 net.cpp:434] res4d_res4d_relu_0_split <- res4d
I0921 20:46:51.635040 13143 net.cpp:408] res4d_res4d_relu_0_split -> res4d_res4d_relu_0_split_0
I0921 20:46:51.635046 13143 net.cpp:408] res4d_res4d_relu_0_split -> res4d_res4d_relu_0_split_1
I0921 20:46:51.635076 13143 net.cpp:150] Setting up res4d_res4d_relu_0_split
I0921 20:46:51.635080 13143 net.cpp:157] Top shape: 16 1024 14 14 (3211264)
I0921 20:46:51.635084 13143 net.cpp:157] Top shape: 16 1024 14 14 (3211264)
I0921 20:46:51.635087 13143 net.cpp:165] Memory required for data: 3105980480
I0921 20:46:51.635089 13143 layer_factory.hpp:77] Creating layer res4e_branch2a
I0921 20:46:51.635098 13143 net.cpp:100] Creating Layer res4e_branch2a
I0921 20:46:51.635102 13143 net.cpp:434] res4e_branch2a <- res4d_res4d_relu_0_split_0
I0921 20:46:51.635107 13143 net.cpp:408] res4e_branch2a -> res4e_branch2a
I0921 20:46:51.635905 13143 net.cpp:150] Setting up res4e_branch2a
I0921 20:46:51.635921 13143 net.cpp:157] Top shape: 16 256 14 14 (802816)
I0921 20:46:51.635923 13143 net.cpp:165] Memory required for data: 3109191744
I0921 20:46:51.635928 13143 layer_factory.hpp:77] Creating layer bn4e_branch2a
I0921 20:46:51.635936 13143 net.cpp:100] Creating Layer bn4e_branch2a
I0921 20:46:51.635941 13143 net.cpp:434] bn4e_branch2a <- res4e_branch2a
I0921 20:46:51.635944 13143 net.cpp:395] bn4e_branch2a -> res4e_branch2a (in-place)
I0921 20:46:51.636104 13143 net.cpp:150] Setting up bn4e_branch2a
I0921 20:46:51.636113 13143 net.cpp:157] Top shape: 16 256 14 14 (802816)
I0921 20:46:51.636126 13143 net.cpp:165] Memory required for data: 3112403008
I0921 20:46:51.636134 13143 layer_factory.hpp:77] Creating layer scale4e_branch2a
I0921 20:46:51.636140 13143 net.cpp:100] Creating Layer scale4e_branch2a
I0921 20:46:51.636144 13143 net.cpp:434] scale4e_branch2a <- res4e_branch2a
I0921 20:46:51.636149 13143 net.cpp:395] scale4e_branch2a -> res4e_branch2a (in-place)
I0921 20:46:51.636186 13143 layer_factory.hpp:77] Creating layer scale4e_branch2a
I0921 20:46:51.636281 13143 net.cpp:150] Setting up scale4e_branch2a
I0921 20:46:51.636288 13143 net.cpp:157] Top shape: 16 256 14 14 (802816)
I0921 20:46:51.636291 13143 net.cpp:165] Memory required for data: 3115614272
I0921 20:46:51.636297 13143 layer_factory.hpp:77] Creating layer res4e_branch2a_relu
I0921 20:46:51.636303 13143 net.cpp:100] Creating Layer res4e_branch2a_relu
I0921 20:46:51.636307 13143 net.cpp:434] res4e_branch2a_relu <- res4e_branch2a
I0921 20:46:51.636312 13143 net.cpp:395] res4e_branch2a_relu -> res4e_branch2a (in-place)
I0921 20:46:51.636317 13143 net.cpp:150] Setting up res4e_branch2a_relu
I0921 20:46:51.636320 13143 net.cpp:157] Top shape: 16 256 14 14 (802816)
I0921 20:46:51.636323 13143 net.cpp:165] Memory required for data: 3118825536
I0921 20:46:51.636327 13143 layer_factory.hpp:77] Creating layer res4e_branch2b
I0921 20:46:51.636333 13143 net.cpp:100] Creating Layer res4e_branch2b
I0921 20:46:51.636337 13143 net.cpp:434] res4e_branch2b <- res4e_branch2a
I0921 20:46:51.636342 13143 net.cpp:408] res4e_branch2b -> res4e_branch2b
I0921 20:46:51.637648 13143 net.cpp:150] Setting up res4e_branch2b
I0921 20:46:51.637663 13143 net.cpp:157] Top shape: 16 256 14 14 (802816)
I0921 20:46:51.637667 13143 net.cpp:165] Memory required for data: 3122036800
I0921 20:46:51.637672 13143 layer_factory.hpp:77] Creating layer bn4e_branch2b
I0921 20:46:51.637678 13143 net.cpp:100] Creating Layer bn4e_branch2b
I0921 20:46:51.637682 13143 net.cpp:434] bn4e_branch2b <- res4e_branch2b
I0921 20:46:51.637687 13143 net.cpp:395] bn4e_branch2b -> res4e_branch2b (in-place)
I0921 20:46:51.637848 13143 net.cpp:150] Setting up bn4e_branch2b
I0921 20:46:51.637856 13143 net.cpp:157] Top shape: 16 256 14 14 (802816)
I0921 20:46:51.637861 13143 net.cpp:165] Memory required for data: 3125248064
I0921 20:46:51.637867 13143 layer_factory.hpp:77] Creating layer scale4e_branch2b
I0921 20:46:51.637872 13143 net.cpp:100] Creating Layer scale4e_branch2b
I0921 20:46:51.637876 13143 net.cpp:434] scale4e_branch2b <- res4e_branch2b
I0921 20:46:51.637881 13143 net.cpp:395] scale4e_branch2b -> res4e_branch2b (in-place)
I0921 20:46:51.637917 13143 layer_factory.hpp:77] Creating layer scale4e_branch2b
I0921 20:46:51.638012 13143 net.cpp:150] Setting up scale4e_branch2b
I0921 20:46:51.638021 13143 net.cpp:157] Top shape: 16 256 14 14 (802816)
I0921 20:46:51.638025 13143 net.cpp:165] Memory required for data: 3128459328
I0921 20:46:51.638031 13143 layer_factory.hpp:77] Creating layer res4e_branch2b_relu
I0921 20:46:51.638036 13143 net.cpp:100] Creating Layer res4e_branch2b_relu
I0921 20:46:51.638038 13143 net.cpp:434] res4e_branch2b_relu <- res4e_branch2b
I0921 20:46:51.638043 13143 net.cpp:395] res4e_branch2b_relu -> res4e_branch2b (in-place)
I0921 20:46:51.638049 13143 net.cpp:150] Setting up res4e_branch2b_relu
I0921 20:46:51.638053 13143 net.cpp:157] Top shape: 16 256 14 14 (802816)
I0921 20:46:51.638056 13143 net.cpp:165] Memory required for data: 3131670592
I0921 20:46:51.638059 13143 layer_factory.hpp:77] Creating layer res4e_branch2c
I0921 20:46:51.638067 13143 net.cpp:100] Creating Layer res4e_branch2c
I0921 20:46:51.638069 13143 net.cpp:434] res4e_branch2c <- res4e_branch2b
I0921 20:46:51.638075 13143 net.cpp:408] res4e_branch2c -> res4e_branch2c
I0921 20:46:51.638864 13143 net.cpp:150] Setting up res4e_branch2c
I0921 20:46:51.638878 13143 net.cpp:157] Top shape: 16 1024 14 14 (3211264)
I0921 20:46:51.638881 13143 net.cpp:165] Memory required for data: 3144515648
I0921 20:46:51.638887 13143 layer_factory.hpp:77] Creating layer bn4e_branch2c
I0921 20:46:51.638905 13143 net.cpp:100] Creating Layer bn4e_branch2c
I0921 20:46:51.638909 13143 net.cpp:434] bn4e_branch2c <- res4e_branch2c
I0921 20:46:51.638913 13143 net.cpp:395] bn4e_branch2c -> res4e_branch2c (in-place)
I0921 20:46:51.639081 13143 net.cpp:150] Setting up bn4e_branch2c
I0921 20:46:51.639091 13143 net.cpp:157] Top shape: 16 1024 14 14 (3211264)
I0921 20:46:51.639093 13143 net.cpp:165] Memory required for data: 3157360704
I0921 20:46:51.639101 13143 layer_factory.hpp:77] Creating layer scale4e_branch2c
I0921 20:46:51.639107 13143 net.cpp:100] Creating Layer scale4e_branch2c
I0921 20:46:51.639111 13143 net.cpp:434] scale4e_branch2c <- res4e_branch2c
I0921 20:46:51.639116 13143 net.cpp:395] scale4e_branch2c -> res4e_branch2c (in-place)
I0921 20:46:51.639152 13143 layer_factory.hpp:77] Creating layer scale4e_branch2c
I0921 20:46:51.639253 13143 net.cpp:150] Setting up scale4e_branch2c
I0921 20:46:51.639261 13143 net.cpp:157] Top shape: 16 1024 14 14 (3211264)
I0921 20:46:51.639266 13143 net.cpp:165] Memory required for data: 3170205760
I0921 20:46:51.639271 13143 layer_factory.hpp:77] Creating layer res4e
I0921 20:46:51.639276 13143 net.cpp:100] Creating Layer res4e
I0921 20:46:51.639281 13143 net.cpp:434] res4e <- res4d_res4d_relu_0_split_1
I0921 20:46:51.639284 13143 net.cpp:434] res4e <- res4e_branch2c
I0921 20:46:51.639289 13143 net.cpp:408] res4e -> res4e
I0921 20:46:51.639313 13143 net.cpp:150] Setting up res4e
I0921 20:46:51.639319 13143 net.cpp:157] Top shape: 16 1024 14 14 (3211264)
I0921 20:46:51.639322 13143 net.cpp:165] Memory required for data: 3183050816
I0921 20:46:51.639325 13143 layer_factory.hpp:77] Creating layer res4e_relu
I0921 20:46:51.639330 13143 net.cpp:100] Creating Layer res4e_relu
I0921 20:46:51.639333 13143 net.cpp:434] res4e_relu <- res4e
I0921 20:46:51.639338 13143 net.cpp:395] res4e_relu -> res4e (in-place)
I0921 20:46:51.639343 13143 net.cpp:150] Setting up res4e_relu
I0921 20:46:51.639346 13143 net.cpp:157] Top shape: 16 1024 14 14 (3211264)
I0921 20:46:51.639349 13143 net.cpp:165] Memory required for data: 3195895872
I0921 20:46:51.639351 13143 layer_factory.hpp:77] Creating layer res4e_res4e_relu_0_split
I0921 20:46:51.639358 13143 net.cpp:100] Creating Layer res4e_res4e_relu_0_split
I0921 20:46:51.639360 13143 net.cpp:434] res4e_res4e_relu_0_split <- res4e
I0921 20:46:51.639364 13143 net.cpp:408] res4e_res4e_relu_0_split -> res4e_res4e_relu_0_split_0
I0921 20:46:51.639370 13143 net.cpp:408] res4e_res4e_relu_0_split -> res4e_res4e_relu_0_split_1
I0921 20:46:51.639400 13143 net.cpp:150] Setting up res4e_res4e_relu_0_split
I0921 20:46:51.639405 13143 net.cpp:157] Top shape: 16 1024 14 14 (3211264)
I0921 20:46:51.639410 13143 net.cpp:157] Top shape: 16 1024 14 14 (3211264)
I0921 20:46:51.639412 13143 net.cpp:165] Memory required for data: 3221585984
I0921 20:46:51.639423 13143 layer_factory.hpp:77] Creating layer res4f_branch2a
I0921 20:46:51.639436 13143 net.cpp:100] Creating Layer res4f_branch2a
I0921 20:46:51.639441 13143 net.cpp:434] res4f_branch2a <- res4e_res4e_relu_0_split_0
I0921 20:46:51.639448 13143 net.cpp:408] res4f_branch2a -> res4f_branch2a
I0921 20:46:51.640246 13143 net.cpp:150] Setting up res4f_branch2a
I0921 20:46:51.640261 13143 net.cpp:157] Top shape: 16 256 14 14 (802816)
I0921 20:46:51.640264 13143 net.cpp:165] Memory required for data: 3224797248
I0921 20:46:51.640270 13143 layer_factory.hpp:77] Creating layer bn4f_branch2a
I0921 20:46:51.640278 13143 net.cpp:100] Creating Layer bn4f_branch2a
I0921 20:46:51.640281 13143 net.cpp:434] bn4f_branch2a <- res4f_branch2a
I0921 20:46:51.640286 13143 net.cpp:395] bn4f_branch2a -> res4f_branch2a (in-place)
I0921 20:46:51.640446 13143 net.cpp:150] Setting up bn4f_branch2a
I0921 20:46:51.640455 13143 net.cpp:157] Top shape: 16 256 14 14 (802816)
I0921 20:46:51.640458 13143 net.cpp:165] Memory required for data: 3228008512
I0921 20:46:51.640465 13143 layer_factory.hpp:77] Creating layer scale4f_branch2a
I0921 20:46:51.640472 13143 net.cpp:100] Creating Layer scale4f_branch2a
I0921 20:46:51.640475 13143 net.cpp:434] scale4f_branch2a <- res4f_branch2a
I0921 20:46:51.640489 13143 net.cpp:395] scale4f_branch2a -> res4f_branch2a (in-place)
I0921 20:46:51.640529 13143 layer_factory.hpp:77] Creating layer scale4f_branch2a
I0921 20:46:51.640627 13143 net.cpp:150] Setting up scale4f_branch2a
I0921 20:46:51.640635 13143 net.cpp:157] Top shape: 16 256 14 14 (802816)
I0921 20:46:51.640638 13143 net.cpp:165] Memory required for data: 3231219776
I0921 20:46:51.640645 13143 layer_factory.hpp:77] Creating layer res4f_branch2a_relu
I0921 20:46:51.640650 13143 net.cpp:100] Creating Layer res4f_branch2a_relu
I0921 20:46:51.640653 13143 net.cpp:434] res4f_branch2a_relu <- res4f_branch2a
I0921 20:46:51.640657 13143 net.cpp:395] res4f_branch2a_relu -> res4f_branch2a (in-place)
I0921 20:46:51.640662 13143 net.cpp:150] Setting up res4f_branch2a_relu
I0921 20:46:51.640666 13143 net.cpp:157] Top shape: 16 256 14 14 (802816)
I0921 20:46:51.640669 13143 net.cpp:165] Memory required for data: 3234431040
I0921 20:46:51.640672 13143 layer_factory.hpp:77] Creating layer res4f_branch2b
I0921 20:46:51.640679 13143 net.cpp:100] Creating Layer res4f_branch2b
I0921 20:46:51.640682 13143 net.cpp:434] res4f_branch2b <- res4f_branch2a
I0921 20:46:51.640688 13143 net.cpp:408] res4f_branch2b -> res4f_branch2b
I0921 20:46:51.641964 13143 net.cpp:150] Setting up res4f_branch2b
I0921 20:46:51.641979 13143 net.cpp:157] Top shape: 16 256 14 14 (802816)
I0921 20:46:51.641983 13143 net.cpp:165] Memory required for data: 3237642304
I0921 20:46:51.641988 13143 layer_factory.hpp:77] Creating layer bn4f_branch2b
I0921 20:46:51.641994 13143 net.cpp:100] Creating Layer bn4f_branch2b
I0921 20:46:51.641997 13143 net.cpp:434] bn4f_branch2b <- res4f_branch2b
I0921 20:46:51.642004 13143 net.cpp:395] bn4f_branch2b -> res4f_branch2b (in-place)
I0921 20:46:51.642171 13143 net.cpp:150] Setting up bn4f_branch2b
I0921 20:46:51.642179 13143 net.cpp:157] Top shape: 16 256 14 14 (802816)
I0921 20:46:51.642184 13143 net.cpp:165] Memory required for data: 3240853568
I0921 20:46:51.642190 13143 layer_factory.hpp:77] Creating layer scale4f_branch2b
I0921 20:46:51.642196 13143 net.cpp:100] Creating Layer scale4f_branch2b
I0921 20:46:51.642199 13143 net.cpp:434] scale4f_branch2b <- res4f_branch2b
I0921 20:46:51.642204 13143 net.cpp:395] scale4f_branch2b -> res4f_branch2b (in-place)
I0921 20:46:51.642241 13143 layer_factory.hpp:77] Creating layer scale4f_branch2b
I0921 20:46:51.642338 13143 net.cpp:150] Setting up scale4f_branch2b
I0921 20:46:51.642346 13143 net.cpp:157] Top shape: 16 256 14 14 (802816)
I0921 20:46:51.642349 13143 net.cpp:165] Memory required for data: 3244064832
I0921 20:46:51.642354 13143 layer_factory.hpp:77] Creating layer res4f_branch2b_relu
I0921 20:46:51.642361 13143 net.cpp:100] Creating Layer res4f_branch2b_relu
I0921 20:46:51.642364 13143 net.cpp:434] res4f_branch2b_relu <- res4f_branch2b
I0921 20:46:51.642369 13143 net.cpp:395] res4f_branch2b_relu -> res4f_branch2b (in-place)
I0921 20:46:51.642374 13143 net.cpp:150] Setting up res4f_branch2b_relu
I0921 20:46:51.642377 13143 net.cpp:157] Top shape: 16 256 14 14 (802816)
I0921 20:46:51.642380 13143 net.cpp:165] Memory required for data: 3247276096
I0921 20:46:51.642384 13143 layer_factory.hpp:77] Creating layer res4f_branch2c
I0921 20:46:51.642390 13143 net.cpp:100] Creating Layer res4f_branch2c
I0921 20:46:51.642395 13143 net.cpp:434] res4f_branch2c <- res4f_branch2b
I0921 20:46:51.642398 13143 net.cpp:408] res4f_branch2c -> res4f_branch2c
I0921 20:46:51.643193 13143 net.cpp:150] Setting up res4f_branch2c
I0921 20:46:51.643208 13143 net.cpp:157] Top shape: 16 1024 14 14 (3211264)
I0921 20:46:51.643210 13143 net.cpp:165] Memory required for data: 3260121152
I0921 20:46:51.643216 13143 layer_factory.hpp:77] Creating layer bn4f_branch2c
I0921 20:46:51.643223 13143 net.cpp:100] Creating Layer bn4f_branch2c
I0921 20:46:51.643225 13143 net.cpp:434] bn4f_branch2c <- res4f_branch2c
I0921 20:46:51.643230 13143 net.cpp:395] bn4f_branch2c -> res4f_branch2c (in-place)
I0921 20:46:51.643409 13143 net.cpp:150] Setting up bn4f_branch2c
I0921 20:46:51.643437 13143 net.cpp:157] Top shape: 16 1024 14 14 (3211264)
I0921 20:46:51.643442 13143 net.cpp:165] Memory required for data: 3272966208
I0921 20:46:51.643483 13143 layer_factory.hpp:77] Creating layer scale4f_branch2c
I0921 20:46:51.643493 13143 net.cpp:100] Creating Layer scale4f_branch2c
I0921 20:46:51.643497 13143 net.cpp:434] scale4f_branch2c <- res4f_branch2c
I0921 20:46:51.643502 13143 net.cpp:395] scale4f_branch2c -> res4f_branch2c (in-place)
I0921 20:46:51.643542 13143 layer_factory.hpp:77] Creating layer scale4f_branch2c
I0921 20:46:51.643648 13143 net.cpp:150] Setting up scale4f_branch2c
I0921 20:46:51.643657 13143 net.cpp:157] Top shape: 16 1024 14 14 (3211264)
I0921 20:46:51.643661 13143 net.cpp:165] Memory required for data: 3285811264
I0921 20:46:51.643666 13143 layer_factory.hpp:77] Creating layer res4f
I0921 20:46:51.643672 13143 net.cpp:100] Creating Layer res4f
I0921 20:46:51.643676 13143 net.cpp:434] res4f <- res4e_res4e_relu_0_split_1
I0921 20:46:51.643679 13143 net.cpp:434] res4f <- res4f_branch2c
I0921 20:46:51.643684 13143 net.cpp:408] res4f -> res4f
I0921 20:46:51.643707 13143 net.cpp:150] Setting up res4f
I0921 20:46:51.643715 13143 net.cpp:157] Top shape: 16 1024 14 14 (3211264)
I0921 20:46:51.643718 13143 net.cpp:165] Memory required for data: 3298656320
I0921 20:46:51.643721 13143 layer_factory.hpp:77] Creating layer res4f_relu
I0921 20:46:51.643728 13143 net.cpp:100] Creating Layer res4f_relu
I0921 20:46:51.643731 13143 net.cpp:434] res4f_relu <- res4f
I0921 20:46:51.643735 13143 net.cpp:395] res4f_relu -> res4f (in-place)
I0921 20:46:51.643740 13143 net.cpp:150] Setting up res4f_relu
I0921 20:46:51.643744 13143 net.cpp:157] Top shape: 16 1024 14 14 (3211264)
I0921 20:46:51.643748 13143 net.cpp:165] Memory required for data: 3311501376
I0921 20:46:51.643750 13143 layer_factory.hpp:77] Creating layer res4f_res4f_relu_0_split
I0921 20:46:51.643755 13143 net.cpp:100] Creating Layer res4f_res4f_relu_0_split
I0921 20:46:51.643759 13143 net.cpp:434] res4f_res4f_relu_0_split <- res4f
I0921 20:46:51.643764 13143 net.cpp:408] res4f_res4f_relu_0_split -> res4f_res4f_relu_0_split_0
I0921 20:46:51.643769 13143 net.cpp:408] res4f_res4f_relu_0_split -> res4f_res4f_relu_0_split_1
I0921 20:46:51.643800 13143 net.cpp:150] Setting up res4f_res4f_relu_0_split
I0921 20:46:51.643812 13143 net.cpp:157] Top shape: 16 1024 14 14 (3211264)
I0921 20:46:51.643816 13143 net.cpp:157] Top shape: 16 1024 14 14 (3211264)
I0921 20:46:51.643818 13143 net.cpp:165] Memory required for data: 3337191488
I0921 20:46:51.643822 13143 layer_factory.hpp:77] Creating layer res5a_branch1
I0921 20:46:51.643829 13143 net.cpp:100] Creating Layer res5a_branch1
I0921 20:46:51.643833 13143 net.cpp:434] res5a_branch1 <- res4f_res4f_relu_0_split_0
I0921 20:46:51.643838 13143 net.cpp:408] res5a_branch1 -> res5a_branch1
I0921 20:46:51.647369 13143 net.cpp:150] Setting up res5a_branch1
I0921 20:46:51.647392 13143 net.cpp:157] Top shape: 16 2048 7 7 (1605632)
I0921 20:46:51.647394 13143 net.cpp:165] Memory required for data: 3343614016
I0921 20:46:51.647400 13143 layer_factory.hpp:77] Creating layer bn5a_branch1
I0921 20:46:51.647409 13143 net.cpp:100] Creating Layer bn5a_branch1
I0921 20:46:51.647413 13143 net.cpp:434] bn5a_branch1 <- res5a_branch1
I0921 20:46:51.647426 13143 net.cpp:395] bn5a_branch1 -> res5a_branch1 (in-place)
I0921 20:46:51.647631 13143 net.cpp:150] Setting up bn5a_branch1
I0921 20:46:51.647642 13143 net.cpp:157] Top shape: 16 2048 7 7 (1605632)
I0921 20:46:51.647645 13143 net.cpp:165] Memory required for data: 3350036544
I0921 20:46:51.647653 13143 layer_factory.hpp:77] Creating layer scale5a_branch1
I0921 20:46:51.647660 13143 net.cpp:100] Creating Layer scale5a_branch1
I0921 20:46:51.647662 13143 net.cpp:434] scale5a_branch1 <- res5a_branch1
I0921 20:46:51.647668 13143 net.cpp:395] scale5a_branch1 -> res5a_branch1 (in-place)
I0921 20:46:51.647706 13143 layer_factory.hpp:77] Creating layer scale5a_branch1
I0921 20:46:51.647811 13143 net.cpp:150] Setting up scale5a_branch1
I0921 20:46:51.647819 13143 net.cpp:157] Top shape: 16 2048 7 7 (1605632)
I0921 20:46:51.647836 13143 net.cpp:165] Memory required for data: 3356459072
I0921 20:46:51.647842 13143 layer_factory.hpp:77] Creating layer res5a_branch2a
I0921 20:46:51.647850 13143 net.cpp:100] Creating Layer res5a_branch2a
I0921 20:46:51.647855 13143 net.cpp:434] res5a_branch2a <- res4f_res4f_relu_0_split_1
I0921 20:46:51.647861 13143 net.cpp:408] res5a_branch2a -> res5a_branch2a
I0921 20:46:51.649075 13143 net.cpp:150] Setting up res5a_branch2a
I0921 20:46:51.649091 13143 net.cpp:157] Top shape: 16 512 7 7 (401408)
I0921 20:46:51.649094 13143 net.cpp:165] Memory required for data: 3358064704
I0921 20:46:51.649099 13143 layer_factory.hpp:77] Creating layer bn5a_branch2a
I0921 20:46:51.649106 13143 net.cpp:100] Creating Layer bn5a_branch2a
I0921 20:46:51.649109 13143 net.cpp:434] bn5a_branch2a <- res5a_branch2a
I0921 20:46:51.649114 13143 net.cpp:395] bn5a_branch2a -> res5a_branch2a (in-place)
I0921 20:46:51.649296 13143 net.cpp:150] Setting up bn5a_branch2a
I0921 20:46:51.649307 13143 net.cpp:157] Top shape: 16 512 7 7 (401408)
I0921 20:46:51.649310 13143 net.cpp:165] Memory required for data: 3359670336
I0921 20:46:51.649318 13143 layer_factory.hpp:77] Creating layer scale5a_branch2a
I0921 20:46:51.649324 13143 net.cpp:100] Creating Layer scale5a_branch2a
I0921 20:46:51.649328 13143 net.cpp:434] scale5a_branch2a <- res5a_branch2a
I0921 20:46:51.649333 13143 net.cpp:395] scale5a_branch2a -> res5a_branch2a (in-place)
I0921 20:46:51.649370 13143 layer_factory.hpp:77] Creating layer scale5a_branch2a
I0921 20:46:51.649473 13143 net.cpp:150] Setting up scale5a_branch2a
I0921 20:46:51.649482 13143 net.cpp:157] Top shape: 16 512 7 7 (401408)
I0921 20:46:51.649485 13143 net.cpp:165] Memory required for data: 3361275968
I0921 20:46:51.649490 13143 layer_factory.hpp:77] Creating layer res5a_branch2a_relu
I0921 20:46:51.649498 13143 net.cpp:100] Creating Layer res5a_branch2a_relu
I0921 20:46:51.649502 13143 net.cpp:434] res5a_branch2a_relu <- res5a_branch2a
I0921 20:46:51.649505 13143 net.cpp:395] res5a_branch2a_relu -> res5a_branch2a (in-place)
I0921 20:46:51.649511 13143 net.cpp:150] Setting up res5a_branch2a_relu
I0921 20:46:51.649516 13143 net.cpp:157] Top shape: 16 512 7 7 (401408)
I0921 20:46:51.649518 13143 net.cpp:165] Memory required for data: 3362881600
I0921 20:46:51.649521 13143 layer_factory.hpp:77] Creating layer res5a_branch2b
I0921 20:46:51.649529 13143 net.cpp:100] Creating Layer res5a_branch2b
I0921 20:46:51.649533 13143 net.cpp:434] res5a_branch2b <- res5a_branch2a
I0921 20:46:51.649538 13143 net.cpp:408] res5a_branch2b -> res5a_branch2b
I0921 20:46:51.653583 13143 net.cpp:150] Setting up res5a_branch2b
I0921 20:46:51.653609 13143 net.cpp:157] Top shape: 16 512 7 7 (401408)
I0921 20:46:51.653612 13143 net.cpp:165] Memory required for data: 3364487232
I0921 20:46:51.653619 13143 layer_factory.hpp:77] Creating layer bn5a_branch2b
I0921 20:46:51.653627 13143 net.cpp:100] Creating Layer bn5a_branch2b
I0921 20:46:51.653632 13143 net.cpp:434] bn5a_branch2b <- res5a_branch2b
I0921 20:46:51.653636 13143 net.cpp:395] bn5a_branch2b -> res5a_branch2b (in-place)
I0921 20:46:51.653815 13143 net.cpp:150] Setting up bn5a_branch2b
I0921 20:46:51.653825 13143 net.cpp:157] Top shape: 16 512 7 7 (401408)
I0921 20:46:51.653827 13143 net.cpp:165] Memory required for data: 3366092864
I0921 20:46:51.653836 13143 layer_factory.hpp:77] Creating layer scale5a_branch2b
I0921 20:46:51.653841 13143 net.cpp:100] Creating Layer scale5a_branch2b
I0921 20:46:51.653844 13143 net.cpp:434] scale5a_branch2b <- res5a_branch2b
I0921 20:46:51.653851 13143 net.cpp:395] scale5a_branch2b -> res5a_branch2b (in-place)
I0921 20:46:51.653887 13143 layer_factory.hpp:77] Creating layer scale5a_branch2b
I0921 20:46:51.653990 13143 net.cpp:150] Setting up scale5a_branch2b
I0921 20:46:51.653998 13143 net.cpp:157] Top shape: 16 512 7 7 (401408)
I0921 20:46:51.654002 13143 net.cpp:165] Memory required for data: 3367698496
I0921 20:46:51.654007 13143 layer_factory.hpp:77] Creating layer res5a_branch2b_relu
I0921 20:46:51.654013 13143 net.cpp:100] Creating Layer res5a_branch2b_relu
I0921 20:46:51.654031 13143 net.cpp:434] res5a_branch2b_relu <- res5a_branch2b
I0921 20:46:51.654036 13143 net.cpp:395] res5a_branch2b_relu -> res5a_branch2b (in-place)
I0921 20:46:51.654042 13143 net.cpp:150] Setting up res5a_branch2b_relu
I0921 20:46:51.654047 13143 net.cpp:157] Top shape: 16 512 7 7 (401408)
I0921 20:46:51.654049 13143 net.cpp:165] Memory required for data: 3369304128
I0921 20:46:51.654052 13143 layer_factory.hpp:77] Creating layer res5a_branch2c
I0921 20:46:51.654062 13143 net.cpp:100] Creating Layer res5a_branch2c
I0921 20:46:51.654064 13143 net.cpp:434] res5a_branch2c <- res5a_branch2b
I0921 20:46:51.654070 13143 net.cpp:408] res5a_branch2c -> res5a_branch2c
I0921 20:46:51.656137 13143 net.cpp:150] Setting up res5a_branch2c
I0921 20:46:51.656158 13143 net.cpp:157] Top shape: 16 2048 7 7 (1605632)
I0921 20:46:51.656162 13143 net.cpp:165] Memory required for data: 3375726656
I0921 20:46:51.656168 13143 layer_factory.hpp:77] Creating layer bn5a_branch2c
I0921 20:46:51.656175 13143 net.cpp:100] Creating Layer bn5a_branch2c
I0921 20:46:51.656180 13143 net.cpp:434] bn5a_branch2c <- res5a_branch2c
I0921 20:46:51.656186 13143 net.cpp:395] bn5a_branch2c -> res5a_branch2c (in-place)
I0921 20:46:51.656373 13143 net.cpp:150] Setting up bn5a_branch2c
I0921 20:46:51.656381 13143 net.cpp:157] Top shape: 16 2048 7 7 (1605632)
I0921 20:46:51.656385 13143 net.cpp:165] Memory required for data: 3382149184
I0921 20:46:51.656393 13143 layer_factory.hpp:77] Creating layer scale5a_branch2c
I0921 20:46:51.656399 13143 net.cpp:100] Creating Layer scale5a_branch2c
I0921 20:46:51.656404 13143 net.cpp:434] scale5a_branch2c <- res5a_branch2c
I0921 20:46:51.656407 13143 net.cpp:395] scale5a_branch2c -> res5a_branch2c (in-place)
I0921 20:46:51.656446 13143 layer_factory.hpp:77] Creating layer scale5a_branch2c
I0921 20:46:51.656553 13143 net.cpp:150] Setting up scale5a_branch2c
I0921 20:46:51.656561 13143 net.cpp:157] Top shape: 16 2048 7 7 (1605632)
I0921 20:46:51.656565 13143 net.cpp:165] Memory required for data: 3388571712
I0921 20:46:51.656570 13143 layer_factory.hpp:77] Creating layer res5a
I0921 20:46:51.656576 13143 net.cpp:100] Creating Layer res5a
I0921 20:46:51.656580 13143 net.cpp:434] res5a <- res5a_branch1
I0921 20:46:51.656584 13143 net.cpp:434] res5a <- res5a_branch2c
I0921 20:46:51.656597 13143 net.cpp:408] res5a -> res5a
I0921 20:46:51.656620 13143 net.cpp:150] Setting up res5a
I0921 20:46:51.656627 13143 net.cpp:157] Top shape: 16 2048 7 7 (1605632)
I0921 20:46:51.656630 13143 net.cpp:165] Memory required for data: 3394994240
I0921 20:46:51.656635 13143 layer_factory.hpp:77] Creating layer res5a_relu
I0921 20:46:51.656641 13143 net.cpp:100] Creating Layer res5a_relu
I0921 20:46:51.656644 13143 net.cpp:434] res5a_relu <- res5a
I0921 20:46:51.656648 13143 net.cpp:395] res5a_relu -> res5a (in-place)
I0921 20:46:51.656653 13143 net.cpp:150] Setting up res5a_relu
I0921 20:46:51.656658 13143 net.cpp:157] Top shape: 16 2048 7 7 (1605632)
I0921 20:46:51.656661 13143 net.cpp:165] Memory required for data: 3401416768
I0921 20:46:51.656664 13143 layer_factory.hpp:77] Creating layer res5a_res5a_relu_0_split
I0921 20:46:51.656671 13143 net.cpp:100] Creating Layer res5a_res5a_relu_0_split
I0921 20:46:51.656673 13143 net.cpp:434] res5a_res5a_relu_0_split <- res5a
I0921 20:46:51.656678 13143 net.cpp:408] res5a_res5a_relu_0_split -> res5a_res5a_relu_0_split_0
I0921 20:46:51.656683 13143 net.cpp:408] res5a_res5a_relu_0_split -> res5a_res5a_relu_0_split_1
I0921 20:46:51.656715 13143 net.cpp:150] Setting up res5a_res5a_relu_0_split
I0921 20:46:51.656723 13143 net.cpp:157] Top shape: 16 2048 7 7 (1605632)
I0921 20:46:51.656726 13143 net.cpp:157] Top shape: 16 2048 7 7 (1605632)
I0921 20:46:51.656729 13143 net.cpp:165] Memory required for data: 3414261824
I0921 20:46:51.656733 13143 layer_factory.hpp:77] Creating layer res5b_branch2a
I0921 20:46:51.656739 13143 net.cpp:100] Creating Layer res5b_branch2a
I0921 20:46:51.656744 13143 net.cpp:434] res5b_branch2a <- res5a_res5a_relu_0_split_0
I0921 20:46:51.656759 13143 net.cpp:408] res5b_branch2a -> res5b_branch2a
I0921 20:46:51.658800 13143 net.cpp:150] Setting up res5b_branch2a
I0921 20:46:51.658820 13143 net.cpp:157] Top shape: 16 512 7 7 (401408)
I0921 20:46:51.658823 13143 net.cpp:165] Memory required for data: 3415867456
I0921 20:46:51.658830 13143 layer_factory.hpp:77] Creating layer bn5b_branch2a
I0921 20:46:51.658838 13143 net.cpp:100] Creating Layer bn5b_branch2a
I0921 20:46:51.658841 13143 net.cpp:434] bn5b_branch2a <- res5b_branch2a
I0921 20:46:51.658846 13143 net.cpp:395] bn5b_branch2a -> res5b_branch2a (in-place)
I0921 20:46:51.659025 13143 net.cpp:150] Setting up bn5b_branch2a
I0921 20:46:51.659034 13143 net.cpp:157] Top shape: 16 512 7 7 (401408)
I0921 20:46:51.659037 13143 net.cpp:165] Memory required for data: 3417473088
I0921 20:46:51.659045 13143 layer_factory.hpp:77] Creating layer scale5b_branch2a
I0921 20:46:51.659051 13143 net.cpp:100] Creating Layer scale5b_branch2a
I0921 20:46:51.659054 13143 net.cpp:434] scale5b_branch2a <- res5b_branch2a
I0921 20:46:51.659059 13143 net.cpp:395] scale5b_branch2a -> res5b_branch2a (in-place)
I0921 20:46:51.659096 13143 layer_factory.hpp:77] Creating layer scale5b_branch2a
I0921 20:46:51.659201 13143 net.cpp:150] Setting up scale5b_branch2a
I0921 20:46:51.659210 13143 net.cpp:157] Top shape: 16 512 7 7 (401408)
I0921 20:46:51.659214 13143 net.cpp:165] Memory required for data: 3419078720
I0921 20:46:51.659219 13143 layer_factory.hpp:77] Creating layer res5b_branch2a_relu
I0921 20:46:51.659226 13143 net.cpp:100] Creating Layer res5b_branch2a_relu
I0921 20:46:51.659230 13143 net.cpp:434] res5b_branch2a_relu <- res5b_branch2a
I0921 20:46:51.659235 13143 net.cpp:395] res5b_branch2a_relu -> res5b_branch2a (in-place)
I0921 20:46:51.659240 13143 net.cpp:150] Setting up res5b_branch2a_relu
I0921 20:46:51.659245 13143 net.cpp:157] Top shape: 16 512 7 7 (401408)
I0921 20:46:51.659247 13143 net.cpp:165] Memory required for data: 3420684352
I0921 20:46:51.659250 13143 layer_factory.hpp:77] Creating layer res5b_branch2b
I0921 20:46:51.659258 13143 net.cpp:100] Creating Layer res5b_branch2b
I0921 20:46:51.659261 13143 net.cpp:434] res5b_branch2b <- res5b_branch2a
I0921 20:46:51.659265 13143 net.cpp:408] res5b_branch2b -> res5b_branch2b
I0921 20:46:51.663672 13143 net.cpp:150] Setting up res5b_branch2b
I0921 20:46:51.663712 13143 net.cpp:157] Top shape: 16 512 7 7 (401408)
I0921 20:46:51.663715 13143 net.cpp:165] Memory required for data: 3422289984
I0921 20:46:51.663723 13143 layer_factory.hpp:77] Creating layer bn5b_branch2b
I0921 20:46:51.663734 13143 net.cpp:100] Creating Layer bn5b_branch2b
I0921 20:46:51.663738 13143 net.cpp:434] bn5b_branch2b <- res5b_branch2b
I0921 20:46:51.663744 13143 net.cpp:395] bn5b_branch2b -> res5b_branch2b (in-place)
I0921 20:46:51.663938 13143 net.cpp:150] Setting up bn5b_branch2b
I0921 20:46:51.663947 13143 net.cpp:157] Top shape: 16 512 7 7 (401408)
I0921 20:46:51.663950 13143 net.cpp:165] Memory required for data: 3423895616
I0921 20:46:51.663959 13143 layer_factory.hpp:77] Creating layer scale5b_branch2b
I0921 20:46:51.663965 13143 net.cpp:100] Creating Layer scale5b_branch2b
I0921 20:46:51.663969 13143 net.cpp:434] scale5b_branch2b <- res5b_branch2b
I0921 20:46:51.663974 13143 net.cpp:395] scale5b_branch2b -> res5b_branch2b (in-place)
I0921 20:46:51.664016 13143 layer_factory.hpp:77] Creating layer scale5b_branch2b
I0921 20:46:51.664124 13143 net.cpp:150] Setting up scale5b_branch2b
I0921 20:46:51.664132 13143 net.cpp:157] Top shape: 16 512 7 7 (401408)
I0921 20:46:51.664136 13143 net.cpp:165] Memory required for data: 3425501248
I0921 20:46:51.664141 13143 layer_factory.hpp:77] Creating layer res5b_branch2b_relu
I0921 20:46:51.664149 13143 net.cpp:100] Creating Layer res5b_branch2b_relu
I0921 20:46:51.664151 13143 net.cpp:434] res5b_branch2b_relu <- res5b_branch2b
I0921 20:46:51.664157 13143 net.cpp:395] res5b_branch2b_relu -> res5b_branch2b (in-place)
I0921 20:46:51.664162 13143 net.cpp:150] Setting up res5b_branch2b_relu
I0921 20:46:51.664167 13143 net.cpp:157] Top shape: 16 512 7 7 (401408)
I0921 20:46:51.664186 13143 net.cpp:165] Memory required for data: 3427106880
I0921 20:46:51.664189 13143 layer_factory.hpp:77] Creating layer res5b_branch2c
I0921 20:46:51.664199 13143 net.cpp:100] Creating Layer res5b_branch2c
I0921 20:46:51.664202 13143 net.cpp:434] res5b_branch2c <- res5b_branch2b
I0921 20:46:51.664207 13143 net.cpp:408] res5b_branch2c -> res5b_branch2c
I0921 20:46:51.666286 13143 net.cpp:150] Setting up res5b_branch2c
I0921 20:46:51.666303 13143 net.cpp:157] Top shape: 16 2048 7 7 (1605632)
I0921 20:46:51.666307 13143 net.cpp:165] Memory required for data: 3433529408
I0921 20:46:51.666312 13143 layer_factory.hpp:77] Creating layer bn5b_branch2c
I0921 20:46:51.666321 13143 net.cpp:100] Creating Layer bn5b_branch2c
I0921 20:46:51.666326 13143 net.cpp:434] bn5b_branch2c <- res5b_branch2c
I0921 20:46:51.666329 13143 net.cpp:395] bn5b_branch2c -> res5b_branch2c (in-place)
I0921 20:46:51.666512 13143 net.cpp:150] Setting up bn5b_branch2c
I0921 20:46:51.666522 13143 net.cpp:157] Top shape: 16 2048 7 7 (1605632)
I0921 20:46:51.666525 13143 net.cpp:165] Memory required for data: 3439951936
I0921 20:46:51.666532 13143 layer_factory.hpp:77] Creating layer scale5b_branch2c
I0921 20:46:51.666538 13143 net.cpp:100] Creating Layer scale5b_branch2c
I0921 20:46:51.666541 13143 net.cpp:434] scale5b_branch2c <- res5b_branch2c
I0921 20:46:51.666548 13143 net.cpp:395] scale5b_branch2c -> res5b_branch2c (in-place)
I0921 20:46:51.666584 13143 layer_factory.hpp:77] Creating layer scale5b_branch2c
I0921 20:46:51.666695 13143 net.cpp:150] Setting up scale5b_branch2c
I0921 20:46:51.666704 13143 net.cpp:157] Top shape: 16 2048 7 7 (1605632)
I0921 20:46:51.666708 13143 net.cpp:165] Memory required for data: 3446374464
I0921 20:46:51.666713 13143 layer_factory.hpp:77] Creating layer res5b
I0921 20:46:51.666719 13143 net.cpp:100] Creating Layer res5b
I0921 20:46:51.666723 13143 net.cpp:434] res5b <- res5a_res5a_relu_0_split_1
I0921 20:46:51.666728 13143 net.cpp:434] res5b <- res5b_branch2c
I0921 20:46:51.666731 13143 net.cpp:408] res5b -> res5b
I0921 20:46:51.666756 13143 net.cpp:150] Setting up res5b
I0921 20:46:51.666764 13143 net.cpp:157] Top shape: 16 2048 7 7 (1605632)
I0921 20:46:51.666767 13143 net.cpp:165] Memory required for data: 3452796992
I0921 20:46:51.666770 13143 layer_factory.hpp:77] Creating layer res5b_relu
I0921 20:46:51.666775 13143 net.cpp:100] Creating Layer res5b_relu
I0921 20:46:51.666779 13143 net.cpp:434] res5b_relu <- res5b
I0921 20:46:51.666785 13143 net.cpp:395] res5b_relu -> res5b (in-place)
I0921 20:46:51.666790 13143 net.cpp:150] Setting up res5b_relu
I0921 20:46:51.666793 13143 net.cpp:157] Top shape: 16 2048 7 7 (1605632)
I0921 20:46:51.666797 13143 net.cpp:165] Memory required for data: 3459219520
I0921 20:46:51.666800 13143 layer_factory.hpp:77] Creating layer res5b_res5b_relu_0_split
I0921 20:46:51.666805 13143 net.cpp:100] Creating Layer res5b_res5b_relu_0_split
I0921 20:46:51.666808 13143 net.cpp:434] res5b_res5b_relu_0_split <- res5b
I0921 20:46:51.666812 13143 net.cpp:408] res5b_res5b_relu_0_split -> res5b_res5b_relu_0_split_0
I0921 20:46:51.666817 13143 net.cpp:408] res5b_res5b_relu_0_split -> res5b_res5b_relu_0_split_1
I0921 20:46:51.666849 13143 net.cpp:150] Setting up res5b_res5b_relu_0_split
I0921 20:46:51.666857 13143 net.cpp:157] Top shape: 16 2048 7 7 (1605632)
I0921 20:46:51.666862 13143 net.cpp:157] Top shape: 16 2048 7 7 (1605632)
I0921 20:46:51.666863 13143 net.cpp:165] Memory required for data: 3472064576
I0921 20:46:51.666867 13143 layer_factory.hpp:77] Creating layer res5c_branch2a
I0921 20:46:51.666877 13143 net.cpp:100] Creating Layer res5c_branch2a
I0921 20:46:51.666882 13143 net.cpp:434] res5c_branch2a <- res5b_res5b_relu_0_split_0
I0921 20:46:51.666885 13143 net.cpp:408] res5c_branch2a -> res5c_branch2a
I0921 20:46:51.668943 13143 net.cpp:150] Setting up res5c_branch2a
I0921 20:46:51.668963 13143 net.cpp:157] Top shape: 16 512 7 7 (401408)
I0921 20:46:51.668967 13143 net.cpp:165] Memory required for data: 3473670208
I0921 20:46:51.668972 13143 layer_factory.hpp:77] Creating layer bn5c_branch2a
I0921 20:46:51.668997 13143 net.cpp:100] Creating Layer bn5c_branch2a
I0921 20:46:51.669001 13143 net.cpp:434] bn5c_branch2a <- res5c_branch2a
I0921 20:46:51.669008 13143 net.cpp:395] bn5c_branch2a -> res5c_branch2a (in-place)
I0921 20:46:51.669189 13143 net.cpp:150] Setting up bn5c_branch2a
I0921 20:46:51.669199 13143 net.cpp:157] Top shape: 16 512 7 7 (401408)
I0921 20:46:51.669203 13143 net.cpp:165] Memory required for data: 3475275840
I0921 20:46:51.669210 13143 layer_factory.hpp:77] Creating layer scale5c_branch2a
I0921 20:46:51.669216 13143 net.cpp:100] Creating Layer scale5c_branch2a
I0921 20:46:51.669220 13143 net.cpp:434] scale5c_branch2a <- res5c_branch2a
I0921 20:46:51.669224 13143 net.cpp:395] scale5c_branch2a -> res5c_branch2a (in-place)
I0921 20:46:51.669262 13143 layer_factory.hpp:77] Creating layer scale5c_branch2a
I0921 20:46:51.669368 13143 net.cpp:150] Setting up scale5c_branch2a
I0921 20:46:51.669376 13143 net.cpp:157] Top shape: 16 512 7 7 (401408)
I0921 20:46:51.669379 13143 net.cpp:165] Memory required for data: 3476881472
I0921 20:46:51.669385 13143 layer_factory.hpp:77] Creating layer res5c_branch2a_relu
I0921 20:46:51.669390 13143 net.cpp:100] Creating Layer res5c_branch2a_relu
I0921 20:46:51.669394 13143 net.cpp:434] res5c_branch2a_relu <- res5c_branch2a
I0921 20:46:51.669399 13143 net.cpp:395] res5c_branch2a_relu -> res5c_branch2a (in-place)
I0921 20:46:51.669405 13143 net.cpp:150] Setting up res5c_branch2a_relu
I0921 20:46:51.669409 13143 net.cpp:157] Top shape: 16 512 7 7 (401408)
I0921 20:46:51.669412 13143 net.cpp:165] Memory required for data: 3478487104
I0921 20:46:51.669415 13143 layer_factory.hpp:77] Creating layer res5c_branch2b
I0921 20:46:51.669422 13143 net.cpp:100] Creating Layer res5c_branch2b
I0921 20:46:51.669425 13143 net.cpp:434] res5c_branch2b <- res5c_branch2a
I0921 20:46:51.669430 13143 net.cpp:408] res5c_branch2b -> res5c_branch2b
I0921 20:46:51.673792 13143 net.cpp:150] Setting up res5c_branch2b
I0921 20:46:51.673833 13143 net.cpp:157] Top shape: 16 512 7 7 (401408)
I0921 20:46:51.673836 13143 net.cpp:165] Memory required for data: 3480092736
I0921 20:46:51.673846 13143 layer_factory.hpp:77] Creating layer bn5c_branch2b
I0921 20:46:51.673856 13143 net.cpp:100] Creating Layer bn5c_branch2b
I0921 20:46:51.673862 13143 net.cpp:434] bn5c_branch2b <- res5c_branch2b
I0921 20:46:51.673868 13143 net.cpp:395] bn5c_branch2b -> res5c_branch2b (in-place)
I0921 20:46:51.674064 13143 net.cpp:150] Setting up bn5c_branch2b
I0921 20:46:51.674073 13143 net.cpp:157] Top shape: 16 512 7 7 (401408)
I0921 20:46:51.674077 13143 net.cpp:165] Memory required for data: 3481698368
I0921 20:46:51.674084 13143 layer_factory.hpp:77] Creating layer scale5c_branch2b
I0921 20:46:51.674091 13143 net.cpp:100] Creating Layer scale5c_branch2b
I0921 20:46:51.674094 13143 net.cpp:434] scale5c_branch2b <- res5c_branch2b
I0921 20:46:51.674099 13143 net.cpp:395] scale5c_branch2b -> res5c_branch2b (in-place)
I0921 20:46:51.674156 13143 layer_factory.hpp:77] Creating layer scale5c_branch2b
I0921 20:46:51.674264 13143 net.cpp:150] Setting up scale5c_branch2b
I0921 20:46:51.674273 13143 net.cpp:157] Top shape: 16 512 7 7 (401408)
I0921 20:46:51.674276 13143 net.cpp:165] Memory required for data: 3483304000
I0921 20:46:51.674281 13143 layer_factory.hpp:77] Creating layer res5c_branch2b_relu
I0921 20:46:51.674289 13143 net.cpp:100] Creating Layer res5c_branch2b_relu
I0921 20:46:51.674293 13143 net.cpp:434] res5c_branch2b_relu <- res5c_branch2b
I0921 20:46:51.674298 13143 net.cpp:395] res5c_branch2b_relu -> res5c_branch2b (in-place)
I0921 20:46:51.674304 13143 net.cpp:150] Setting up res5c_branch2b_relu
I0921 20:46:51.674307 13143 net.cpp:157] Top shape: 16 512 7 7 (401408)
I0921 20:46:51.674310 13143 net.cpp:165] Memory required for data: 3484909632
I0921 20:46:51.674314 13143 layer_factory.hpp:77] Creating layer res5c_branch2c
I0921 20:46:51.674321 13143 net.cpp:100] Creating Layer res5c_branch2c
I0921 20:46:51.674324 13143 net.cpp:434] res5c_branch2c <- res5c_branch2b
I0921 20:46:51.674346 13143 net.cpp:408] res5c_branch2c -> res5c_branch2c
I0921 20:46:51.676450 13143 net.cpp:150] Setting up res5c_branch2c
I0921 20:46:51.676470 13143 net.cpp:157] Top shape: 16 2048 7 7 (1605632)
I0921 20:46:51.676473 13143 net.cpp:165] Memory required for data: 3491332160
I0921 20:46:51.676478 13143 layer_factory.hpp:77] Creating layer bn5c_branch2c
I0921 20:46:51.676486 13143 net.cpp:100] Creating Layer bn5c_branch2c
I0921 20:46:51.676491 13143 net.cpp:434] bn5c_branch2c <- res5c_branch2c
I0921 20:46:51.676496 13143 net.cpp:395] bn5c_branch2c -> res5c_branch2c (in-place)
I0921 20:46:51.676676 13143 net.cpp:150] Setting up bn5c_branch2c
I0921 20:46:51.676686 13143 net.cpp:157] Top shape: 16 2048 7 7 (1605632)
I0921 20:46:51.676688 13143 net.cpp:165] Memory required for data: 3497754688
I0921 20:46:51.676697 13143 layer_factory.hpp:77] Creating layer scale5c_branch2c
I0921 20:46:51.676703 13143 net.cpp:100] Creating Layer scale5c_branch2c
I0921 20:46:51.676707 13143 net.cpp:434] scale5c_branch2c <- res5c_branch2c
I0921 20:46:51.676710 13143 net.cpp:395] scale5c_branch2c -> res5c_branch2c (in-place)
I0921 20:46:51.676748 13143 layer_factory.hpp:77] Creating layer scale5c_branch2c
I0921 20:46:51.676856 13143 net.cpp:150] Setting up scale5c_branch2c
I0921 20:46:51.676867 13143 net.cpp:157] Top shape: 16 2048 7 7 (1605632)
I0921 20:46:51.676869 13143 net.cpp:165] Memory required for data: 3504177216
I0921 20:46:51.676875 13143 layer_factory.hpp:77] Creating layer res5c
I0921 20:46:51.676882 13143 net.cpp:100] Creating Layer res5c
I0921 20:46:51.676885 13143 net.cpp:434] res5c <- res5b_res5b_relu_0_split_1
I0921 20:46:51.676889 13143 net.cpp:434] res5c <- res5c_branch2c
I0921 20:46:51.676894 13143 net.cpp:408] res5c -> res5c
I0921 20:46:51.676918 13143 net.cpp:150] Setting up res5c
I0921 20:46:51.676928 13143 net.cpp:157] Top shape: 16 2048 7 7 (1605632)
I0921 20:46:51.676930 13143 net.cpp:165] Memory required for data: 3510599744
I0921 20:46:51.676934 13143 layer_factory.hpp:77] Creating layer res5c_relu
I0921 20:46:51.676939 13143 net.cpp:100] Creating Layer res5c_relu
I0921 20:46:51.676942 13143 net.cpp:434] res5c_relu <- res5c
I0921 20:46:51.676946 13143 net.cpp:395] res5c_relu -> res5c (in-place)
I0921 20:46:51.676951 13143 net.cpp:150] Setting up res5c_relu
I0921 20:46:51.676955 13143 net.cpp:157] Top shape: 16 2048 7 7 (1605632)
I0921 20:46:51.676959 13143 net.cpp:165] Memory required for data: 3517022272
I0921 20:46:51.676961 13143 layer_factory.hpp:77] Creating layer pool5
I0921 20:46:51.676969 13143 net.cpp:100] Creating Layer pool5
I0921 20:46:51.676972 13143 net.cpp:434] pool5 <- res5c
I0921 20:46:51.676977 13143 net.cpp:408] pool5 -> pool5
I0921 20:46:51.677001 13143 net.cpp:150] Setting up pool5
I0921 20:46:51.677008 13143 net.cpp:157] Top shape: 16 2048 1 1 (32768)
I0921 20:46:51.677011 13143 net.cpp:165] Memory required for data: 3517153344
I0921 20:46:51.677014 13143 layer_factory.hpp:77] Creating layer fc1000
I0921 20:46:51.677021 13143 net.cpp:100] Creating Layer fc1000
I0921 20:46:51.677024 13143 net.cpp:434] fc1000 <- pool5
I0921 20:46:51.677031 13143 net.cpp:408] fc1000 -> fc1000
I0921 20:46:51.680737 13143 net.cpp:150] Setting up fc1000
I0921 20:46:51.680773 13143 net.cpp:157] Top shape: 16 1000 (16000)
I0921 20:46:51.680776 13143 net.cpp:165] Memory required for data: 3517217344
I0921 20:46:51.680785 13143 layer_factory.hpp:77] Creating layer loss
I0921 20:46:51.680800 13143 net.cpp:100] Creating Layer loss
I0921 20:46:51.680805 13143 net.cpp:434] loss <- fc1000
I0921 20:46:51.680811 13143 net.cpp:434] loss <- label
I0921 20:46:51.680820 13143 net.cpp:408] loss -> loss
I0921 20:46:51.680837 13143 layer_factory.hpp:77] Creating layer loss
…
