…
display: 1
max_iter: 40
lr_policy: "fixed"
solver_mode: GPU
device_id: 0
net: "fcn5.prototxt"
train_state {
  level: 0
  stage: ""
}
I1014 09:41:20.828344  6763 solver.cpp:91] Creating training net from net file: fcn5.prototxt
I1014 09:41:20.828627  6763 net.cpp:58] Initializing net from parameters: 
name: "FCN5"
state {
  phase: TRAIN
  level: 0
  stage: ""
}
layer {
  name: "data"
  type: "Data"
  top: "data"
  top: "label"
  include {
    phase: TRAIN
  }
  data_param {
    source: "fake_data26752.lmdb"
    batch_size: 4096
    backend: LMDB
  }
}
layer {
  name: "H1"
  type: "InnerProduct"
  bottom: "data"
  top: "H1"
  inner_product_param {
    num_output: 2048
  }
}
layer {
  name: "H1_A"
  type: "Sigmoid"
  bottom: "H1"
  top: "H1"
}
layer {
  name: "H2"
  type: "InnerProduct"
  bottom: "H1"
  top: "H2"
  inner_product_param {
    num_output: 2048
  }
}
layer {
  name: "H2_A"
  type: "Sigmoid"
  bottom: "H2"
  top: "H2"
}
layer {
  name: "H3"
  type: "InnerProduct"
  bottom: "H2"
  top: "H3"
  inner_product_param {
    num_output: 2048
  }
}
layer {
  name: "H3_A"
  type: "Sigmoid"
  bottom: "H3"
  top: "H3"
}
layer {
  name: "L"
  type: "InnerProduct"
  bottom: "H3"
  top: "L"
  inner_product_param {
    num_output: 1000
  }
}
layer {
  name: "loss"
  type: "SoftmaxWithLoss"
  bottom: "L"
  bottom: "label"
  top: "loss"
}
I1014 09:41:20.828704  6763 layer_factory.hpp:77] Creating layer data
I1014 09:41:20.831526  6763 net.cpp:100] Creating Layer data
I1014 09:41:20.831544  6763 net.cpp:408] data -> data
I1014 09:41:20.831565  6763 net.cpp:408] data -> label
I1014 09:41:20.833279  6770 db_lmdb.cpp:35] Opened lmdb fake_data26752.lmdb
I1014 09:41:20.842773  6763 data_layer.cpp:41] output data size: 4096,1,1,512
I1014 09:41:20.855258  6763 net.cpp:150] Setting up data
I1014 09:41:20.855324  6763 net.cpp:157] Top shape: 4096 1 1 512 (2097152)
I1014 09:41:20.855334  6763 net.cpp:157] Top shape: 4096 (4096)
I1014 09:41:20.855337  6763 net.cpp:165] Memory required for data: 8404992
I1014 09:41:20.855347  6763 layer_factory.hpp:77] Creating layer H1
I1014 09:41:20.855368  6763 net.cpp:100] Creating Layer H1
I1014 09:41:20.855375  6763 net.cpp:434] H1 <- data
I1014 09:41:20.855386  6763 net.cpp:408] H1 -> H1
I1014 09:41:20.857516  6763 net.cpp:150] Setting up H1
I1014 09:41:20.857532  6763 net.cpp:157] Top shape: 4096 2048 (8388608)
I1014 09:41:20.857537  6763 net.cpp:165] Memory required for data: 41959424
I1014 09:41:20.857554  6763 layer_factory.hpp:77] Creating layer H1_A
I1014 09:41:20.857566  6763 net.cpp:100] Creating Layer H1_A
I1014 09:41:20.857570  6763 net.cpp:434] H1_A <- H1
I1014 09:41:20.857575  6763 net.cpp:395] H1_A -> H1 (in-place)
I1014 09:41:20.857589  6763 net.cpp:150] Setting up H1_A
I1014 09:41:20.857592  6763 net.cpp:157] Top shape: 4096 2048 (8388608)
I1014 09:41:20.857595  6763 net.cpp:165] Memory required for data: 75513856
I1014 09:41:20.857599  6763 layer_factory.hpp:77] Creating layer H2
I1014 09:41:20.857606  6763 net.cpp:100] Creating Layer H2
I1014 09:41:20.857609  6763 net.cpp:434] H2 <- H1
I1014 09:41:20.857614  6763 net.cpp:408] H2 -> H2
I1014 09:41:20.862838  6771 blocking_queue.cpp:50] Waiting for data
I1014 09:41:20.865231  6763 net.cpp:150] Setting up H2
I1014 09:41:20.865255  6763 net.cpp:157] Top shape: 4096 2048 (8388608)
I1014 09:41:20.865259  6763 net.cpp:165] Memory required for data: 109068288
I1014 09:41:20.865272  6763 layer_factory.hpp:77] Creating layer H2_A
I1014 09:41:20.865283  6763 net.cpp:100] Creating Layer H2_A
I1014 09:41:20.865288  6763 net.cpp:434] H2_A <- H2
I1014 09:41:20.865294  6763 net.cpp:395] H2_A -> H2 (in-place)
I1014 09:41:20.865303  6763 net.cpp:150] Setting up H2_A
I1014 09:41:20.865306  6763 net.cpp:157] Top shape: 4096 2048 (8388608)
I1014 09:41:20.865309  6763 net.cpp:165] Memory required for data: 142622720
I1014 09:41:20.865312  6763 layer_factory.hpp:77] Creating layer H3
I1014 09:41:20.865339  6763 net.cpp:100] Creating Layer H3
I1014 09:41:20.865344  6763 net.cpp:434] H3 <- H2
I1014 09:41:20.865350  6763 net.cpp:408] H3 -> H3
I1014 09:41:20.872938  6763 net.cpp:150] Setting up H3
I1014 09:41:20.872969  6763 net.cpp:157] Top shape: 4096 2048 (8388608)
I1014 09:41:20.872973  6763 net.cpp:165] Memory required for data: 176177152
I1014 09:41:20.872985  6763 layer_factory.hpp:77] Creating layer H3_A
I1014 09:41:20.872993  6763 net.cpp:100] Creating Layer H3_A
I1014 09:41:20.872997  6763 net.cpp:434] H3_A <- H3
I1014 09:41:20.873003  6763 net.cpp:395] H3_A -> H3 (in-place)
I1014 09:41:20.873010  6763 net.cpp:150] Setting up H3_A
I1014 09:41:20.873014  6763 net.cpp:157] Top shape: 4096 2048 (8388608)
I1014 09:41:20.873018  6763 net.cpp:165] Memory required for data: 209731584
I1014 09:41:20.873020  6763 layer_factory.hpp:77] Creating layer L
I1014 09:41:20.873028  6763 net.cpp:100] Creating Layer L
I1014 09:41:20.873030  6763 net.cpp:434] L <- H3
I1014 09:41:20.873035  6763 net.cpp:408] L -> L
I1014 09:41:20.877015  6763 net.cpp:150] Setting up L
I1014 09:41:20.877033  6763 net.cpp:157] Top shape: 4096 1000 (4096000)
I1014 09:41:20.877038  6763 net.cpp:165] Memory required for data: 226115584
I1014 09:41:20.877043  6763 layer_factory.hpp:77] Creating layer loss
I1014 09:41:20.877053  6763 net.cpp:100] Creating Layer loss
I1014 09:41:20.877058  6763 net.cpp:434] loss <- L
I1014 09:41:20.877061  6763 net.cpp:434] loss <- label
I1014 09:41:20.877068  6763 net.cpp:408] loss -> loss
I1014 09:41:20.877095  6763 layer_factory.hpp:77] Creating layer loss
…
