…
max_iter: 200
lr_policy: "fixed"
solver_mode: GPU
device_id: 0
net: "ffn26752-b64.prototxt"
train_state {
  level: 0
  stage: ""
}
I0921 20:46:15.720125 13068 solver.cpp:91] Creating training net from net file: ffn26752-b64.prototxt
I0921 20:46:15.720351 13068 net.cpp:58] Initializing net from parameters: 
name: "FFN"
state {
  phase: TRAIN
  level: 0
  stage: ""
}
layer {
  name: "data"
  type: "Data"
  top: "data"
  top: "label"
  include {
    phase: TRAIN
  }
  data_param {
    source: "fake_data26752.lmdb"
    batch_size: 64
    backend: LMDB
  }
}
layer {
  name: "H1"
  type: "InnerProduct"
  bottom: "data"
  top: "H1"
  inner_product_param {
    num_output: 2048
  }
}
layer {
  name: "H1_A"
  type: "Sigmoid"
  bottom: "H1"
  top: "H1"
}
layer {
  name: "H2"
  type: "InnerProduct"
  bottom: "H1"
  top: "H2"
  inner_product_param {
    num_output: 2048
  }
}
layer {
  name: "H2_A"
  type: "Sigmoid"
  bottom: "H2"
  top: "H2"
}
layer {
  name: "H3"
  type: "InnerProduct"
  bottom: "H2"
  top: "H3"
  inner_product_param {
    num_output: 2048
  }
}
layer {
  name: "H3_A"
  type: "Sigmoid"
  bottom: "H3"
  top: "H3"
}
layer {
  name: "L"
  type: "InnerProduct"
  bottom: "H3"
  top: "L"
  inner_product_param {
    num_output: 26752
  }
}
layer {
  name: "loss"
  type: "SoftmaxWithLoss"
  bottom: "L"
  bottom: "label"
  top: "loss"
}
I0921 20:46:15.720412 13068 layer_factory.hpp:77] Creating layer data
I0921 20:46:15.720877 13068 net.cpp:100] Creating Layer data
I0921 20:46:15.720890 13068 net.cpp:408] data -> data
I0921 20:46:15.720921 13068 net.cpp:408] data -> label
I0921 20:46:15.722517 13075 db_lmdb.cpp:35] Opened lmdb fake_data26752.lmdb
I0921 20:46:15.731571 13068 data_layer.cpp:41] output data size: 64,1,1,26752
I0921 20:46:15.740866 13068 net.cpp:150] Setting up data
I0921 20:46:15.740916 13068 net.cpp:157] Top shape: 64 1 1 26752 (1712128)
I0921 20:46:15.740923 13068 net.cpp:157] Top shape: 64 (64)
I0921 20:46:15.740926 13068 net.cpp:165] Memory required for data: 6848768
I0921 20:46:15.740936 13068 layer_factory.hpp:77] Creating layer H1
I0921 20:46:15.740968 13068 net.cpp:100] Creating Layer H1
I0921 20:46:15.740977 13068 net.cpp:434] H1 <- data
I0921 20:46:15.740988 13068 net.cpp:408] H1 -> H1
I0921 20:46:15.844807 13068 net.cpp:150] Setting up H1
I0921 20:46:15.844847 13068 net.cpp:157] Top shape: 64 2048 (131072)
I0921 20:46:15.844852 13068 net.cpp:165] Memory required for data: 7373056
I0921 20:46:15.844876 13068 layer_factory.hpp:77] Creating layer H1_A
I0921 20:46:15.844890 13068 net.cpp:100] Creating Layer H1_A
I0921 20:46:15.844894 13068 net.cpp:434] H1_A <- H1
I0921 20:46:15.844900 13068 net.cpp:395] H1_A -> H1 (in-place)
I0921 20:46:15.844910 13068 net.cpp:150] Setting up H1_A
I0921 20:46:15.844914 13068 net.cpp:157] Top shape: 64 2048 (131072)
I0921 20:46:15.844918 13068 net.cpp:165] Memory required for data: 7897344
I0921 20:46:15.844920 13068 layer_factory.hpp:77] Creating layer H2
I0921 20:46:15.844928 13068 net.cpp:100] Creating Layer H2
I0921 20:46:15.844931 13068 net.cpp:434] H2 <- H1
I0921 20:46:15.844935 13068 net.cpp:408] H2 -> H2
I0921 20:46:15.852947 13068 net.cpp:150] Setting up H2
I0921 20:46:15.852988 13068 net.cpp:157] Top shape: 64 2048 (131072)
I0921 20:46:15.852993 13068 net.cpp:165] Memory required for data: 8421632
I0921 20:46:15.853006 13068 layer_factory.hpp:77] Creating layer H2_A
I0921 20:46:15.853019 13068 net.cpp:100] Creating Layer H2_A
I0921 20:46:15.853024 13068 net.cpp:434] H2_A <- H2
I0921 20:46:15.853029 13068 net.cpp:395] H2_A -> H2 (in-place)
I0921 20:46:15.853040 13068 net.cpp:150] Setting up H2_A
I0921 20:46:15.853044 13068 net.cpp:157] Top shape: 64 2048 (131072)
I0921 20:46:15.853047 13068 net.cpp:165] Memory required for data: 8945920
I0921 20:46:15.853050 13068 layer_factory.hpp:77] Creating layer H3
I0921 20:46:15.853058 13068 net.cpp:100] Creating Layer H3
I0921 20:46:15.853061 13068 net.cpp:434] H3 <- H2
I0921 20:46:15.853085 13068 net.cpp:408] H3 -> H3
I0921 20:46:15.860785 13068 net.cpp:150] Setting up H3
I0921 20:46:15.860824 13068 net.cpp:157] Top shape: 64 2048 (131072)
I0921 20:46:15.860828 13068 net.cpp:165] Memory required for data: 9470208
I0921 20:46:15.860841 13068 layer_factory.hpp:77] Creating layer H3_A
I0921 20:46:15.860853 13068 net.cpp:100] Creating Layer H3_A
I0921 20:46:15.860857 13068 net.cpp:434] H3_A <- H3
I0921 20:46:15.860863 13068 net.cpp:395] H3_A -> H3 (in-place)
I0921 20:46:15.860874 13068 net.cpp:150] Setting up H3_A
I0921 20:46:15.860878 13068 net.cpp:157] Top shape: 64 2048 (131072)
I0921 20:46:15.860880 13068 net.cpp:165] Memory required for data: 9994496
I0921 20:46:15.860883 13068 layer_factory.hpp:77] Creating layer L
I0921 20:46:15.860890 13068 net.cpp:100] Creating Layer L
I0921 20:46:15.860893 13068 net.cpp:434] L <- H3
I0921 20:46:15.860898 13068 net.cpp:408] L -> L
I0921 20:46:15.962268 13068 net.cpp:150] Setting up L
I0921 20:46:15.962311 13068 net.cpp:157] Top shape: 64 26752 (1712128)
I0921 20:46:15.962314 13068 net.cpp:165] Memory required for data: 16843008
I0921 20:46:15.962326 13068 layer_factory.hpp:77] Creating layer loss
I0921 20:46:15.962343 13068 net.cpp:100] Creating Layer loss
I0921 20:46:15.962348 13068 net.cpp:434] loss <- L
I0921 20:46:15.962353 13068 net.cpp:434] loss <- label
I0921 20:46:15.962362 13068 net.cpp:408] loss -> loss
I0921 20:46:15.962384 13068 layer_factory.hpp:77] Creating layer loss
…
