…
base_lr: 0.01
display: 1
max_iter: 40
lr_policy: "fixed"
solver_mode: GPU
device_id: 0
net: "fcn8.prototxt"
train_state {
  level: 0
  stage: ""
}
I1014 09:41:25.910519  6777 solver.cpp:91] Creating training net from net file: fcn8.prototxt
I1014 09:41:25.910810  6777 net.cpp:58] Initializing net from parameters: 
name: "FFN"
state {
  phase: TRAIN
  level: 0
  stage: ""
}
layer {
  name: "data"
  type: "Data"
  top: "data"
  top: "label"
  include {
    phase: TRAIN
  }
  data_param {
    source: "fake_data26752.lmdb"
    batch_size: 4096
    backend: LMDB
  }
}
layer {
  name: "H1"
  type: "InnerProduct"
  bottom: "data"
  top: "H1"
  inner_product_param {
    num_output: 2048
  }
}
layer {
  name: "H1_A"
  type: "Sigmoid"
  bottom: "H1"
  top: "H1"
}
layer {
  name: "H2"
  type: "InnerProduct"
  bottom: "H1"
  top: "H2"
  inner_product_param {
    num_output: 2048
  }
}
layer {
  name: "H2_A"
  type: "Sigmoid"
  bottom: "H2"
  top: "H2"
}
layer {
  name: "H3"
  type: "InnerProduct"
  bottom: "H2"
  top: "H3"
  inner_product_param {
    num_output: 2048
  }
}
layer {
  name: "H3_A"
  type: "Sigmoid"
  bottom: "H3"
  top: "H3"
}
layer {
  name: "H4"
  type: "InnerProduct"
  bottom: "H3"
  top: "H4"
  inner_product_param {
    num_output: 2048
  }
}
layer {
  name: "H4_A"
  type: "Sigmoid"
  bottom: "H4"
  top: "H4"
}
layer {
  name: "H5"
  type: "InnerProduct"
  bottom: "H4"
  top: "H5"
  inner_product_param {
    num_output: 2048
  }
}
layer {
  name: "H5_A"
  type: "Sigmoid"
  bottom: "H5"
  top: "H5"
}
layer {
  name: "H6"
  type: "InnerProduct"
  bottom: "H5"
  top: "H6"
  inner_product_param {
    num_output: 2048
  }
}
layer {
  name: "H6_A"
  type: "Sigmoid"
  bottom: "H6"
  top: "H6"
}
layer {
  name: "L"
  type: "InnerProduct"
  bottom: "H6"
  top: "L"
  inner_product_param {
    num_output: 1000
  }
}
layer {
  name: "loss"
  type: "SoftmaxWithLoss"
  bottom: "L"
  bottom: "label"
  top: "loss"
}
I1014 09:41:25.910890  6777 layer_factory.hpp:77] Creating layer data
I1014 09:41:25.913287  6777 net.cpp:100] Creating Layer data
I1014 09:41:25.913302  6777 net.cpp:408] data -> data
I1014 09:41:25.913322  6777 net.cpp:408] data -> label
I1014 09:41:25.915051  6783 db_lmdb.cpp:35] Opened lmdb fake_data26752.lmdb
I1014 09:41:25.923172  6777 data_layer.cpp:41] output data size: 4096,1,1,512
I1014 09:41:25.934535  6777 net.cpp:150] Setting up data
I1014 09:41:25.934581  6777 net.cpp:157] Top shape: 4096 1 1 512 (2097152)
I1014 09:41:25.934588  6777 net.cpp:157] Top shape: 4096 (4096)
I1014 09:41:25.934592  6777 net.cpp:165] Memory required for data: 8404992
I1014 09:41:25.934600  6777 layer_factory.hpp:77] Creating layer H1
I1014 09:41:25.934620  6777 net.cpp:100] Creating Layer H1
I1014 09:41:25.934625  6777 net.cpp:434] H1 <- data
I1014 09:41:25.934638  6777 net.cpp:408] H1 -> H1
I1014 09:41:25.936615  6777 net.cpp:150] Setting up H1
I1014 09:41:25.936633  6777 net.cpp:157] Top shape: 4096 2048 (8388608)
I1014 09:41:25.936637  6777 net.cpp:165] Memory required for data: 41959424
I1014 09:41:25.936655  6777 layer_factory.hpp:77] Creating layer H1_A
I1014 09:41:25.936666  6777 net.cpp:100] Creating Layer H1_A
I1014 09:41:25.936668  6777 net.cpp:434] H1_A <- H1
I1014 09:41:25.936676  6777 net.cpp:395] H1_A -> H1 (in-place)
I1014 09:41:25.936687  6777 net.cpp:150] Setting up H1_A
I1014 09:41:25.936692  6777 net.cpp:157] Top shape: 4096 2048 (8388608)
I1014 09:41:25.936695  6777 net.cpp:165] Memory required for data: 75513856
I1014 09:41:25.936698  6777 layer_factory.hpp:77] Creating layer H2
I1014 09:41:25.936703  6777 net.cpp:100] Creating Layer H2
I1014 09:41:25.936707  6777 net.cpp:434] H2 <- H1
I1014 09:41:25.936712  6777 net.cpp:408] H2 -> H2
I1014 09:41:25.941910  6784 blocking_queue.cpp:50] Waiting for data
I1014 09:41:25.943923  6777 net.cpp:150] Setting up H2
I1014 09:41:25.943946  6777 net.cpp:157] Top shape: 4096 2048 (8388608)
I1014 09:41:25.943969  6777 net.cpp:165] Memory required for data: 109068288
I1014 09:41:25.943982  6777 layer_factory.hpp:77] Creating layer H2_A
I1014 09:41:25.943996  6777 net.cpp:100] Creating Layer H2_A
I1014 09:41:25.944000  6777 net.cpp:434] H2_A <- H2
I1014 09:41:25.944005  6777 net.cpp:395] H2_A -> H2 (in-place)
I1014 09:41:25.944015  6777 net.cpp:150] Setting up H2_A
I1014 09:41:25.944020  6777 net.cpp:157] Top shape: 4096 2048 (8388608)
I1014 09:41:25.944022  6777 net.cpp:165] Memory required for data: 142622720
I1014 09:41:25.944025  6777 layer_factory.hpp:77] Creating layer H3
I1014 09:41:25.944031  6777 net.cpp:100] Creating Layer H3
I1014 09:41:25.944034  6777 net.cpp:434] H3 <- H2
I1014 09:41:25.944038  6777 net.cpp:408] H3 -> H3
I1014 09:41:25.951177  6777 net.cpp:150] Setting up H3
I1014 09:41:25.951206  6777 net.cpp:157] Top shape: 4096 2048 (8388608)
I1014 09:41:25.951210  6777 net.cpp:165] Memory required for data: 176177152
I1014 09:41:25.951223  6777 layer_factory.hpp:77] Creating layer H3_A
I1014 09:41:25.951231  6777 net.cpp:100] Creating Layer H3_A
I1014 09:41:25.951236  6777 net.cpp:434] H3_A <- H3
I1014 09:41:25.951242  6777 net.cpp:395] H3_A -> H3 (in-place)
I1014 09:41:25.951251  6777 net.cpp:150] Setting up H3_A
I1014 09:41:25.951256  6777 net.cpp:157] Top shape: 4096 2048 (8388608)
I1014 09:41:25.951258  6777 net.cpp:165] Memory required for data: 209731584
I1014 09:41:25.951261  6777 layer_factory.hpp:77] Creating layer H4
I1014 09:41:25.951267  6777 net.cpp:100] Creating Layer H4
I1014 09:41:25.951270  6777 net.cpp:434] H4 <- H3
I1014 09:41:25.951275  6777 net.cpp:408] H4 -> H4
I1014 09:41:25.958348  6777 net.cpp:150] Setting up H4
I1014 09:41:25.958377  6777 net.cpp:157] Top shape: 4096 2048 (8388608)
I1014 09:41:25.958382  6777 net.cpp:165] Memory required for data: 243286016
I1014 09:41:25.958391  6777 layer_factory.hpp:77] Creating layer H4_A
I1014 09:41:25.958402  6777 net.cpp:100] Creating Layer H4_A
I1014 09:41:25.958406  6777 net.cpp:434] H4_A <- H4
I1014 09:41:25.958412  6777 net.cpp:395] H4_A -> H4 (in-place)
I1014 09:41:25.958421  6777 net.cpp:150] Setting up H4_A
I1014 09:41:25.958425  6777 net.cpp:157] Top shape: 4096 2048 (8388608)
I1014 09:41:25.958428  6777 net.cpp:165] Memory required for data: 276840448
I1014 09:41:25.958431  6777 layer_factory.hpp:77] Creating layer H5
I1014 09:41:25.958439  6777 net.cpp:100] Creating Layer H5
I1014 09:41:25.958442  6777 net.cpp:434] H5 <- H4
I1014 09:41:25.958446  6777 net.cpp:408] H5 -> H5
I1014 09:41:25.965718  6777 net.cpp:150] Setting up H5
I1014 09:41:25.965749  6777 net.cpp:157] Top shape: 4096 2048 (8388608)
I1014 09:41:25.965752  6777 net.cpp:165] Memory required for data: 310394880
I1014 09:41:25.965764  6777 layer_factory.hpp:77] Creating layer H5_A
I1014 09:41:25.965773  6777 net.cpp:100] Creating Layer H5_A
I1014 09:41:25.965777  6777 net.cpp:434] H5_A <- H5
I1014 09:41:25.965783  6777 net.cpp:395] H5_A -> H5 (in-place)
I1014 09:41:25.965791  6777 net.cpp:150] Setting up H5_A
I1014 09:41:25.965795  6777 net.cpp:157] Top shape: 4096 2048 (8388608)
I1014 09:41:25.965798  6777 net.cpp:165] Memory required for data: 343949312
I1014 09:41:25.965801  6777 layer_factory.hpp:77] Creating layer H6
I1014 09:41:25.965807  6777 net.cpp:100] Creating Layer H6
I1014 09:41:25.965811  6777 net.cpp:434] H6 <- H5
I1014 09:41:25.965816  6777 net.cpp:408] H6 -> H6
I1014 09:41:25.973091  6777 net.cpp:150] Setting up H6
I1014 09:41:25.973121  6777 net.cpp:157] Top shape: 4096 2048 (8388608)
I1014 09:41:25.973124  6777 net.cpp:165] Memory required for data: 377503744
I1014 09:41:25.973134  6777 layer_factory.hpp:77] Creating layer H6_A
I1014 09:41:25.973142  6777 net.cpp:100] Creating Layer H6_A
I1014 09:41:25.973146  6777 net.cpp:434] H6_A <- H6
I1014 09:41:25.973155  6777 net.cpp:395] H6_A -> H6 (in-place)
I1014 09:41:25.973162  6777 net.cpp:150] Setting up H6_A
I1014 09:41:25.973166  6777 net.cpp:157] Top shape: 4096 2048 (8388608)
I1014 09:41:25.973170  6777 net.cpp:165] Memory required for data: 411058176
I1014 09:41:25.973191  6777 layer_factory.hpp:77] Creating layer L
I1014 09:41:25.973198  6777 net.cpp:100] Creating Layer L
I1014 09:41:25.973201  6777 net.cpp:434] L <- H6
I1014 09:41:25.973206  6777 net.cpp:408] L -> L
I1014 09:41:25.977197  6777 net.cpp:150] Setting up L
I1014 09:41:25.977217  6777 net.cpp:157] Top shape: 4096 1000 (4096000)
I1014 09:41:25.977221  6777 net.cpp:165] Memory required for data: 427442176
I1014 09:41:25.977227  6777 layer_factory.hpp:77] Creating layer loss
I1014 09:41:25.977236  6777 net.cpp:100] Creating Layer loss
I1014 09:41:25.977238  6777 net.cpp:434] loss <- L
I1014 09:41:25.977242  6777 net.cpp:434] loss <- label
I1014 09:41:25.977249  6777 net.cpp:408] loss -> loss
I1014 09:41:25.977274  6777 layer_factory.hpp:77] Creating layer loss
…
