…
I1026 00:29:53.826287 44949 solver.cpp:91] Creating training net from net file: alexnet.prototxt
I1026 00:29:53.826925 44949 net.cpp:322] The NetState phase (0) differed from the phase (1) specified by a rule in layer accuracy
I1026 00:29:53.827126 44949 net.cpp:58] Initializing net from parameters: 
name: "AlexNet"
state {
  phase: TRAIN
  level: 0
  stage: ""
}
layer {
  name: "data"
  type: "Data"
  top: "data"
  top: "label"
  include {
    phase: TRAIN
  }
  data_param {
    source: "fake_image_net.lmdb"
    batch_size: 16
    backend: LMDB
  }
}
layer {
  name: "conv1"
  type: "Convolution"
  bottom: "data"
  top: "conv1"
  param {
    lr_mult: 1
    decay_mult: 1
  }
  param {
    lr_mult: 2
    decay_mult: 0
  }
  convolution_param {
    num_output: 96
    kernel_size: 11
    stride: 4
    weight_filler {
      type: "gaussian"
      std: 0.01
    }
    bias_filler {
      type: "constant"
      value: 0
    }
  }
}
layer {
  name: "relu1"
  type: "ReLU"
  bottom: "conv1"
  top: "conv1"
}
layer {
  name: "pool1"
  type: "Pooling"
  bottom: "conv1"
  top: "pool1"
  pooling_param {
    pool: MAX
    kernel_size: 3
    stride: 2
  }
}
layer {
  name: "conv2"
  type: "Convolution"
  bottom: "pool1"
  top: "conv2"
  param {
    lr_mult: 1
    decay_mult: 1
  }
  param {
    lr_mult: 2
    decay_mult: 0
  }
  convolution_param {
    num_output: 256
    kernel_size: 5
    weight_filler {
      type: "gaussian"
      std: 0.01
    }
    bias_filler {
      type: "constant"
      value: 0.1
    }
  }
}
layer {
  name: "relu2"
  type: "ReLU"
  bottom: "conv2"
  top: "conv2"
}
layer {
  name: "pool2"
  type: "Pooling"
  bottom: "conv2"
  top: "pool2"
  pooling_param {
    pool: MAX
    kernel_size: 3
    stride: 2
  }
}
layer {
  name: "conv3"
  type: "Convolution"
  bottom: "pool2"
  top: "conv3"
  param {
    lr_mult: 1
    decay_mult: 1
  }
  param {
    lr_mult: 2
    decay_mult: 0
  }
  convolution_param {
    num_output: 384
    kernel_size: 3
    weight_filler {
      type: "gaussian"
      std: 0.01
    }
    bias_filler {
      type: "constant"
      value: 0
    }
  }
}
layer {
  name: "relu3"
  type: "ReLU"
  bottom: "conv3"
  top: "conv3"
}
layer {
  name: "conv4"
  type: "Convolution"
  bottom: "conv3"
  top: "conv4"
  param {
    lr_mult: 1
    decay_mult: 1
  }
  param {
    lr_mult: 2
    decay_mult: 0
  }
  convolution_param {
    num_output: 384
    kernel_size: 3
    weight_filler {
      type: "gaussian"
      std: 0.01
    }
    bias_filler {
      type: "constant"
      value: 0.1
    }
  }
}
layer {
  name: "relu4"
  type: "ReLU"
  bottom: "conv4"
  top: "conv4"
}
layer {
  name: "conv5"
  type: "Convolution"
  bottom: "conv4"
  top: "conv5"
  param {
    lr_mult: 1
    decay_mult: 1
  }
  param {
    lr_mult: 2
    decay_mult: 0
  }
  convolution_param {
    num_output: 256
    kernel_size: 3
    weight_filler {
      type: "gaussian"
      std: 0.01
    }
    bias_filler {
      type: "constant"
      value: 0.1
    }
  }
}
layer {
  name: "relu5"
  type: "ReLU"
  bottom: "conv5"
  top: "conv5"
}
layer {
  name: "pool5"
  type: "Pooling"
  bottom: "conv5"
  top: "pool5"
  pooling_param {
    pool: MAX
    kernel_size: 3
    stride: 2
  }
}
layer {
  name: "fc6"
  type: "InnerProduct"
  bottom: "pool5"
  top: "fc6"
  param {
    lr_mult: 1
    decay_mult: 1
  }
  param {
    lr_mult: 2
    decay_mult: 0
  }
  inner_product_param {
    num_output: 4096
    weight_filler {
      type: "gaussian"
      std: 0.005
    }
    bias_filler {
      type: "constant"
      value: 0.1
    }
  }
}
layer {
  name: "relu6"
  type: "ReLU"
  bottom: "fc6"
  top: "fc6"
}
layer {
  name: "fc7"
  type: "InnerProduct"
  bottom: "fc6"
  top: "fc7"
  param {
    lr_mult: 1
    decay_mult: 1
  }
  param {
    lr_mult: 2
    decay_mult: 0
  }
  inner_product_param {
    num_output: 4096
    weight_filler {
      type: "gaussian"
      std: 0.005
    }
    bias_filler {
      type: "constant"
      value: 0.1
    }
  }
}
layer {
  name: "relu7"
  type: "ReLU"
  bottom: "fc7"
  top: "fc7"
}
layer {
  name: "fc8"
  type: "InnerProduct"
  bottom: "fc7"
  top: "fc8"
  param {
    lr_mult: 1
    decay_mult: 1
  }
  param {
    lr_mult: 2
    decay_mult: 0
  }
  inner_product_param {
    num_output: 1000
    weight_filler {
      type: "gaussian"
      std: 0.01
    }
    bias_filler {
      type: "constant"
      value: 0
    }
  }
}
layer {
  name: "loss"
  type: "SoftmaxWithLoss"
  bottom: "fc8"
  bottom: "label"
  top: "loss"
}
I1026 00:29:53.827270 44949 layer_factory.hpp:77] Creating layer data
I1026 00:29:53.827805 44949 net.cpp:100] Creating Layer data
I1026 00:29:53.827821 44949 net.cpp:408] data -> data
I1026 00:29:53.827855 44949 net.cpp:408] data -> label
I1026 00:29:53.829684 44954 db_lmdb.cpp:35] Opened lmdb fake_image_net.lmdb
I1026 00:29:53.842640 44949 data_layer.cpp:41] output data size: 16,3,224,224
I1026 00:29:53.861366 44949 net.cpp:150] Setting up data
I1026 00:29:53.861531 44949 net.cpp:157] Top shape: 16 3 224 224 (2408448)
I1026 00:29:53.861560 44949 net.cpp:157] Top shape: 16 (16)
I1026 00:29:53.861564 44949 net.cpp:165] Memory required for data: 9633856
I1026 00:29:53.861572 44949 layer_factory.hpp:77] Creating layer conv1
I1026 00:29:53.861598 44949 net.cpp:100] Creating Layer conv1
I1026 00:29:53.861621 44949 net.cpp:434] conv1 <- data
I1026 00:29:53.861650 44949 net.cpp:408] conv1 -> conv1
I1026 00:29:53.865705 44949 net.cpp:150] Setting up conv1
I1026 00:29:53.865739 44949 net.cpp:157] Top shape: 16 96 54 54 (4478976)
I1026 00:29:53.865744 44949 net.cpp:165] Memory required for data: 27549760
I1026 00:29:53.865764 44949 layer_factory.hpp:77] Creating layer relu1
I1026 00:29:53.865773 44949 net.cpp:100] Creating Layer relu1
I1026 00:29:53.865777 44949 net.cpp:434] relu1 <- conv1
I1026 00:29:53.865797 44949 net.cpp:395] relu1 -> conv1 (in-place)
I1026 00:29:53.865808 44949 net.cpp:150] Setting up relu1
I1026 00:29:53.865819 44949 net.cpp:157] Top shape: 16 96 54 54 (4478976)
I1026 00:29:53.865823 44949 net.cpp:165] Memory required for data: 45465664
I1026 00:29:53.865826 44949 layer_factory.hpp:77] Creating layer pool1
I1026 00:29:53.865834 44949 net.cpp:100] Creating Layer pool1
I1026 00:29:53.865839 44949 net.cpp:434] pool1 <- conv1
I1026 00:29:53.865844 44949 net.cpp:408] pool1 -> pool1
I1026 00:29:53.865906 44949 net.cpp:150] Setting up pool1
I1026 00:29:53.865916 44949 net.cpp:157] Top shape: 16 96 27 27 (1119744)
I1026 00:29:53.865921 44949 net.cpp:165] Memory required for data: 49944640
I1026 00:29:53.865924 44949 layer_factory.hpp:77] Creating layer conv2
I1026 00:29:53.865936 44949 net.cpp:100] Creating Layer conv2
I1026 00:29:53.865941 44949 net.cpp:434] conv2 <- pool1
I1026 00:29:53.865947 44949 net.cpp:408] conv2 -> conv2
I1026 00:29:53.886569 44949 net.cpp:150] Setting up conv2
I1026 00:29:53.886618 44949 net.cpp:157] Top shape: 16 256 23 23 (2166784)
I1026 00:29:53.886623 44949 net.cpp:165] Memory required for data: 58611776
I1026 00:29:53.886656 44949 layer_factory.hpp:77] Creating layer relu2
I1026 00:29:53.886669 44949 net.cpp:100] Creating Layer relu2
I1026 00:29:53.886677 44949 net.cpp:434] relu2 <- conv2
I1026 00:29:53.886685 44949 net.cpp:395] relu2 -> conv2 (in-place)
I1026 00:29:53.886713 44949 net.cpp:150] Setting up relu2
I1026 00:29:53.886718 44949 net.cpp:157] Top shape: 16 256 23 23 (2166784)
I1026 00:29:53.886721 44949 net.cpp:165] Memory required for data: 67278912
I1026 00:29:53.886724 44949 layer_factory.hpp:77] Creating layer pool2
I1026 00:29:53.886732 44949 net.cpp:100] Creating Layer pool2
I1026 00:29:53.886735 44949 net.cpp:434] pool2 <- conv2
I1026 00:29:53.886740 44949 net.cpp:408] pool2 -> pool2
I1026 00:29:53.886782 44949 net.cpp:150] Setting up pool2
I1026 00:29:53.886791 44949 net.cpp:157] Top shape: 16 256 11 11 (495616)
I1026 00:29:53.886795 44949 net.cpp:165] Memory required for data: 69261376
I1026 00:29:53.886824 44949 layer_factory.hpp:77] Creating layer conv3
I1026 00:29:53.886840 44949 net.cpp:100] Creating Layer conv3
I1026 00:29:53.886845 44949 net.cpp:434] conv3 <- pool2
I1026 00:29:53.886853 44949 net.cpp:408] conv3 -> conv3
I1026 00:29:53.888377 44955 blocking_queue.cpp:50] Waiting for data
I1026 00:29:53.912750 44949 net.cpp:150] Setting up conv3
I1026 00:29:53.912802 44949 net.cpp:157] Top shape: 16 384 9 9 (497664)
I1026 00:29:53.912807 44949 net.cpp:165] Memory required for data: 71252032
I1026 00:29:53.912827 44949 layer_factory.hpp:77] Creating layer relu3
I1026 00:29:53.912855 44949 net.cpp:100] Creating Layer relu3
I1026 00:29:53.912861 44949 net.cpp:434] relu3 <- conv3
I1026 00:29:53.912871 44949 net.cpp:395] relu3 -> conv3 (in-place)
I1026 00:29:53.912884 44949 net.cpp:150] Setting up relu3
I1026 00:29:53.912889 44949 net.cpp:157] Top shape: 16 384 9 9 (497664)
I1026 00:29:53.912892 44949 net.cpp:165] Memory required for data: 73242688
I1026 00:29:53.912895 44949 layer_factory.hpp:77] Creating layer conv4
I1026 00:29:53.912909 44949 net.cpp:100] Creating Layer conv4
I1026 00:29:53.912916 44949 net.cpp:434] conv4 <- conv3
I1026 00:29:53.912925 44949 net.cpp:408] conv4 -> conv4
I1026 00:29:53.949262 44949 net.cpp:150] Setting up conv4
I1026 00:29:53.949313 44949 net.cpp:157] Top shape: 16 384 7 7 (301056)
I1026 00:29:53.949318 44949 net.cpp:165] Memory required for data: 74446912
I1026 00:29:53.949331 44949 layer_factory.hpp:77] Creating layer relu4
I1026 00:29:53.949343 44949 net.cpp:100] Creating Layer relu4
I1026 00:29:53.949348 44949 net.cpp:434] relu4 <- conv4
I1026 00:29:53.949374 44949 net.cpp:395] relu4 -> conv4 (in-place)
I1026 00:29:53.949388 44949 net.cpp:150] Setting up relu4
I1026 00:29:53.949391 44949 net.cpp:157] Top shape: 16 384 7 7 (301056)
I1026 00:29:53.949395 44949 net.cpp:165] Memory required for data: 75651136
I1026 00:29:53.949398 44949 layer_factory.hpp:77] Creating layer conv5
I1026 00:29:53.949412 44949 net.cpp:100] Creating Layer conv5
I1026 00:29:53.949421 44949 net.cpp:434] conv5 <- conv4
I1026 00:29:53.949427 44949 net.cpp:408] conv5 -> conv5
I1026 00:29:53.973825 44949 net.cpp:150] Setting up conv5
I1026 00:29:53.973851 44949 net.cpp:157] Top shape: 16 256 5 5 (102400)
I1026 00:29:53.973856 44949 net.cpp:165] Memory required for data: 76060736
I1026 00:29:53.973868 44949 layer_factory.hpp:77] Creating layer relu5
I1026 00:29:53.973875 44949 net.cpp:100] Creating Layer relu5
I1026 00:29:53.973877 44949 net.cpp:434] relu5 <- conv5
I1026 00:29:53.973882 44949 net.cpp:395] relu5 -> conv5 (in-place)
I1026 00:29:53.973888 44949 net.cpp:150] Setting up relu5
I1026 00:29:53.973893 44949 net.cpp:157] Top shape: 16 256 5 5 (102400)
I1026 00:29:53.973896 44949 net.cpp:165] Memory required for data: 76470336
I1026 00:29:53.973899 44949 layer_factory.hpp:77] Creating layer pool5
I1026 00:29:53.973920 44949 net.cpp:100] Creating Layer pool5
I1026 00:29:53.973923 44949 net.cpp:434] pool5 <- conv5
I1026 00:29:53.973932 44949 net.cpp:408] pool5 -> pool5
I1026 00:29:53.973980 44949 net.cpp:150] Setting up pool5
I1026 00:29:53.973990 44949 net.cpp:157] Top shape: 16 256 2 2 (16384)
I1026 00:29:53.973994 44949 net.cpp:165] Memory required for data: 76535872
I1026 00:29:53.973997 44949 layer_factory.hpp:77] Creating layer fc6
I1026 00:29:53.974014 44949 net.cpp:100] Creating Layer fc6
I1026 00:29:53.974020 44949 net.cpp:434] fc6 <- pool5
I1026 00:29:53.974026 44949 net.cpp:408] fc6 -> fc6
I1026 00:29:54.086119 44949 net.cpp:150] Setting up fc6
I1026 00:29:54.086155 44949 net.cpp:157] Top shape: 16 4096 (65536)
I1026 00:29:54.086159 44949 net.cpp:165] Memory required for data: 76798016
I1026 00:29:54.086168 44949 layer_factory.hpp:77] Creating layer relu6
I1026 00:29:54.086176 44949 net.cpp:100] Creating Layer relu6
I1026 00:29:54.086180 44949 net.cpp:434] relu6 <- fc6
I1026 00:29:54.086189 44949 net.cpp:395] relu6 -> fc6 (in-place)
I1026 00:29:54.086196 44949 net.cpp:150] Setting up relu6
I1026 00:29:54.086215 44949 net.cpp:157] Top shape: 16 4096 (65536)
I1026 00:29:54.086218 44949 net.cpp:165] Memory required for data: 77060160
I1026 00:29:54.086241 44949 layer_factory.hpp:77] Creating layer fc7
I1026 00:29:54.086253 44949 net.cpp:100] Creating Layer fc7
I1026 00:29:54.086263 44949 net.cpp:434] fc7 <- fc6
I1026 00:29:54.086272 44949 net.cpp:408] fc7 -> fc7
I1026 00:29:54.534684 44949 net.cpp:150] Setting up fc7
I1026 00:29:54.534747 44949 net.cpp:157] Top shape: 16 4096 (65536)
I1026 00:29:54.534754 44949 net.cpp:165] Memory required for data: 77322304
I1026 00:29:54.534778 44949 layer_factory.hpp:77] Creating layer relu7
I1026 00:29:54.534811 44949 net.cpp:100] Creating Layer relu7
I1026 00:29:54.534817 44949 net.cpp:434] relu7 <- fc7
I1026 00:29:54.534831 44949 net.cpp:395] relu7 -> fc7 (in-place)
I1026 00:29:54.534852 44949 net.cpp:150] Setting up relu7
I1026 00:29:54.534859 44949 net.cpp:157] Top shape: 16 4096 (65536)
I1026 00:29:54.534862 44949 net.cpp:165] Memory required for data: 77584448
I1026 00:29:54.534865 44949 layer_factory.hpp:77] Creating layer fc8
I1026 00:29:54.534875 44949 net.cpp:100] Creating Layer fc8
I1026 00:29:54.534878 44949 net.cpp:434] fc8 <- fc7
I1026 00:29:54.534886 44949 net.cpp:408] fc8 -> fc8
I1026 00:29:54.643684 44949 net.cpp:150] Setting up fc8
I1026 00:29:54.643700 44949 net.cpp:157] Top shape: 16 1000 (16000)
I1026 00:29:54.643718 44949 net.cpp:165] Memory required for data: 77648448
I1026 00:29:54.643724 44949 layer_factory.hpp:77] Creating layer loss
I1026 00:29:54.643738 44949 net.cpp:100] Creating Layer loss
I1026 00:29:54.643741 44949 net.cpp:434] loss <- fc8
I1026 00:29:54.643746 44949 net.cpp:434] loss <- label
I1026 00:29:54.643764 44949 net.cpp:408] loss -> loss
I1026 00:29:54.643802 44949 layer_factory.hpp:77] Creating layer loss
…
