…
base_lr: 0.01
display: 1
max_iter: 80
lr_policy: "fixed"
solver_mode: GPU
device_id: 0
net: "fcn8.prototxt"
train_state {
  level: 0
  stage: ""
}
I1026 01:40:46.751945 38748 solver.cpp:91] Creating training net from net file: fcn8.prototxt
I1026 01:40:46.752315 38748 net.cpp:58] Initializing net from parameters: 
name: "FFN"
state {
  phase: TRAIN
  level: 0
  stage: ""
}
layer {
  name: "data"
  type: "Data"
  top: "data"
  top: "label"
  include {
    phase: TRAIN
  }
  data_param {
    source: "fake_data26752.lmdb"
    batch_size: 4096
    backend: LMDB
  }
}
layer {
  name: "H1"
  type: "InnerProduct"
  bottom: "data"
  top: "H1"
  inner_product_param {
    num_output: 2048
  }
}
layer {
  name: "H1_A"
  type: "Sigmoid"
  bottom: "H1"
  top: "H1"
}
layer {
  name: "H2"
  type: "InnerProduct"
  bottom: "H1"
  top: "H2"
  inner_product_param {
    num_output: 2048
  }
}
layer {
  name: "H2_A"
  type: "Sigmoid"
  bottom: "H2"
  top: "H2"
}
layer {
  name: "H3"
  type: "InnerProduct"
  bottom: "H2"
  top: "H3"
  inner_product_param {
    num_output: 2048
  }
}
layer {
  name: "H3_A"
  type: "Sigmoid"
  bottom: "H3"
  top: "H3"
}
layer {
  name: "H4"
  type: "InnerProduct"
  bottom: "H3"
  top: "H4"
  inner_product_param {
    num_output: 2048
  }
}
layer {
  name: "H4_A"
  type: "Sigmoid"
  bottom: "H4"
  top: "H4"
}
layer {
  name: "H5"
  type: "InnerProduct"
  bottom: "H4"
  top: "H5"
  inner_product_param {
    num_output: 2048
  }
}
layer {
  name: "H5_A"
  type: "Sigmoid"
  bottom: "H5"
  top: "H5"
}
layer {
  name: "H6"
  type: "InnerProduct"
  bottom: "H5"
  top: "H6"
  inner_product_param {
    num_output: 2048
  }
}
layer {
  name: "H6_A"
  type: "Sigmoid"
  bottom: "H6"
  top: "H6"
}
layer {
  name: "L"
  type: "InnerProduct"
  bottom: "H6"
  top: "L"
  inner_product_param {
    num_output: 1000
  }
}
layer {
  name: "loss"
  type: "SoftmaxWithLoss"
  bottom: "L"
  bottom: "label"
  top: "loss"
}
I1026 01:40:46.752405 38748 layer_factory.hpp:77] Creating layer data
I1026 01:40:46.755003 38748 net.cpp:100] Creating Layer data
I1026 01:40:46.755035 38748 net.cpp:408] data -> data
I1026 01:40:46.755081 38748 net.cpp:408] data -> label
I1026 01:40:46.756808 38753 db_lmdb.cpp:35] Opened lmdb fake_data26752.lmdb
I1026 01:40:46.767447 38748 data_layer.cpp:41] output data size: 4096,1,1,512
I1026 01:40:46.784032 38748 net.cpp:150] Setting up data
I1026 01:40:46.784109 38748 net.cpp:157] Top shape: 4096 1 1 512 (2097152)
I1026 01:40:46.784117 38748 net.cpp:157] Top shape: 4096 (4096)
I1026 01:40:46.784121 38748 net.cpp:165] Memory required for data: 8404992
I1026 01:40:46.784132 38748 layer_factory.hpp:77] Creating layer H1
I1026 01:40:46.784167 38748 net.cpp:100] Creating Layer H1
I1026 01:40:46.784175 38748 net.cpp:434] H1 <- data
I1026 01:40:46.784194 38748 net.cpp:408] H1 -> H1
I1026 01:40:46.787214 38754 blocking_queue.cpp:50] Waiting for data
I1026 01:40:46.787299 38748 net.cpp:150] Setting up H1
I1026 01:40:46.787317 38748 net.cpp:157] Top shape: 4096 2048 (8388608)
I1026 01:40:46.787320 38748 net.cpp:165] Memory required for data: 41959424
I1026 01:40:46.787353 38748 layer_factory.hpp:77] Creating layer H1_A
I1026 01:40:46.787370 38748 net.cpp:100] Creating Layer H1_A
I1026 01:40:46.787376 38748 net.cpp:434] H1_A <- H1
I1026 01:40:46.787381 38748 net.cpp:395] H1_A -> H1 (in-place)
I1026 01:40:46.787392 38748 net.cpp:150] Setting up H1_A
I1026 01:40:46.787397 38748 net.cpp:157] Top shape: 4096 2048 (8388608)
I1026 01:40:46.787400 38748 net.cpp:165] Memory required for data: 75513856
I1026 01:40:46.787403 38748 layer_factory.hpp:77] Creating layer H2
I1026 01:40:46.787410 38748 net.cpp:100] Creating Layer H2
I1026 01:40:46.787412 38748 net.cpp:434] H2 <- H1
I1026 01:40:46.787423 38748 net.cpp:408] H2 -> H2
I1026 01:40:46.796540 38748 net.cpp:150] Setting up H2
I1026 01:40:46.796576 38748 net.cpp:157] Top shape: 4096 2048 (8388608)
I1026 01:40:46.796607 38748 net.cpp:165] Memory required for data: 109068288
I1026 01:40:46.796619 38748 layer_factory.hpp:77] Creating layer H2_A
I1026 01:40:46.796630 38748 net.cpp:100] Creating Layer H2_A
I1026 01:40:46.796635 38748 net.cpp:434] H2_A <- H2
I1026 01:40:46.796643 38748 net.cpp:395] H2_A -> H2 (in-place)
I1026 01:40:46.796651 38748 net.cpp:150] Setting up H2_A
I1026 01:40:46.796663 38748 net.cpp:157] Top shape: 4096 2048 (8388608)
I1026 01:40:46.796666 38748 net.cpp:165] Memory required for data: 142622720
I1026 01:40:46.796670 38748 layer_factory.hpp:77] Creating layer H3
I1026 01:40:46.796685 38748 net.cpp:100] Creating Layer H3
I1026 01:40:46.796689 38748 net.cpp:434] H3 <- H2
I1026 01:40:46.796694 38748 net.cpp:408] H3 -> H3
I1026 01:40:46.805730 38748 net.cpp:150] Setting up H3
I1026 01:40:46.805771 38748 net.cpp:157] Top shape: 4096 2048 (8388608)
I1026 01:40:46.805775 38748 net.cpp:165] Memory required for data: 176177152
I1026 01:40:46.805789 38748 layer_factory.hpp:77] Creating layer H3_A
I1026 01:40:46.805800 38748 net.cpp:100] Creating Layer H3_A
I1026 01:40:46.805805 38748 net.cpp:434] H3_A <- H3
I1026 01:40:46.805811 38748 net.cpp:395] H3_A -> H3 (in-place)
I1026 01:40:46.805819 38748 net.cpp:150] Setting up H3_A
I1026 01:40:46.805824 38748 net.cpp:157] Top shape: 4096 2048 (8388608)
I1026 01:40:46.805827 38748 net.cpp:165] Memory required for data: 209731584
I1026 01:40:46.805830 38748 layer_factory.hpp:77] Creating layer H4
I1026 01:40:46.805836 38748 net.cpp:100] Creating Layer H4
I1026 01:40:46.805840 38748 net.cpp:434] H4 <- H3
I1026 01:40:46.805845 38748 net.cpp:408] H4 -> H4
I1026 01:40:46.814832 38748 net.cpp:150] Setting up H4
I1026 01:40:46.814869 38748 net.cpp:157] Top shape: 4096 2048 (8388608)
I1026 01:40:46.814873 38748 net.cpp:165] Memory required for data: 243286016
I1026 01:40:46.814883 38748 layer_factory.hpp:77] Creating layer H4_A
I1026 01:40:46.814895 38748 net.cpp:100] Creating Layer H4_A
I1026 01:40:46.814899 38748 net.cpp:434] H4_A <- H4
I1026 01:40:46.814908 38748 net.cpp:395] H4_A -> H4 (in-place)
I1026 01:40:46.814918 38748 net.cpp:150] Setting up H4_A
I1026 01:40:46.814921 38748 net.cpp:157] Top shape: 4096 2048 (8388608)
I1026 01:40:46.814925 38748 net.cpp:165] Memory required for data: 276840448
I1026 01:40:46.814929 38748 layer_factory.hpp:77] Creating layer H5
I1026 01:40:46.814935 38748 net.cpp:100] Creating Layer H5
I1026 01:40:46.814939 38748 net.cpp:434] H5 <- H4
I1026 01:40:46.814944 38748 net.cpp:408] H5 -> H5
I1026 01:40:46.824342 38748 net.cpp:150] Setting up H5
I1026 01:40:46.824379 38748 net.cpp:157] Top shape: 4096 2048 (8388608)
I1026 01:40:46.824383 38748 net.cpp:165] Memory required for data: 310394880
I1026 01:40:46.824398 38748 layer_factory.hpp:77] Creating layer H5_A
I1026 01:40:46.824409 38748 net.cpp:100] Creating Layer H5_A
I1026 01:40:46.824414 38748 net.cpp:434] H5_A <- H5
I1026 01:40:46.824419 38748 net.cpp:395] H5_A -> H5 (in-place)
I1026 01:40:46.824427 38748 net.cpp:150] Setting up H5_A
I1026 01:40:46.824431 38748 net.cpp:157] Top shape: 4096 2048 (8388608)
I1026 01:40:46.824434 38748 net.cpp:165] Memory required for data: 343949312
I1026 01:40:46.824439 38748 layer_factory.hpp:77] Creating layer H6
I1026 01:40:46.824445 38748 net.cpp:100] Creating Layer H6
I1026 01:40:46.824447 38748 net.cpp:434] H6 <- H5
I1026 01:40:46.824455 38748 net.cpp:408] H6 -> H6
I1026 01:40:46.833827 38748 net.cpp:150] Setting up H6
I1026 01:40:46.833861 38748 net.cpp:157] Top shape: 4096 2048 (8388608)
I1026 01:40:46.833866 38748 net.cpp:165] Memory required for data: 377503744
I1026 01:40:46.833874 38748 layer_factory.hpp:77] Creating layer H6_A
I1026 01:40:46.833883 38748 net.cpp:100] Creating Layer H6_A
I1026 01:40:46.833886 38748 net.cpp:434] H6_A <- H6
I1026 01:40:46.833892 38748 net.cpp:395] H6_A -> H6 (in-place)
I1026 01:40:46.833900 38748 net.cpp:150] Setting up H6_A
I1026 01:40:46.833904 38748 net.cpp:157] Top shape: 4096 2048 (8388608)
I1026 01:40:46.833907 38748 net.cpp:165] Memory required for data: 411058176
I1026 01:40:46.833910 38748 layer_factory.hpp:77] Creating layer L
I1026 01:40:46.833940 38748 net.cpp:100] Creating Layer L
I1026 01:40:46.833943 38748 net.cpp:434] L <- H6
I1026 01:40:46.833948 38748 net.cpp:408] L -> L
I1026 01:40:46.839129 38748 net.cpp:150] Setting up L
I1026 01:40:46.839156 38748 net.cpp:157] Top shape: 4096 1000 (4096000)
I1026 01:40:46.839160 38748 net.cpp:165] Memory required for data: 427442176
I1026 01:40:46.839167 38748 layer_factory.hpp:77] Creating layer loss
I1026 01:40:46.839181 38748 net.cpp:100] Creating Layer loss
I1026 01:40:46.839185 38748 net.cpp:434] loss <- L
I1026 01:40:46.839190 38748 net.cpp:434] loss <- label
I1026 01:40:46.839200 38748 net.cpp:408] loss -> loss
I1026 01:40:46.839223 38748 layer_factory.hpp:77] Creating layer loss
…
