…
display: 1
max_iter: 40
lr_policy: "fixed"
solver_mode: GPU
device_id: 0
net: "resnet.prototxt"
train_state {
  level: 0
  stage: ""
}
I1026 00:30:00.104847 44957 solver.cpp:91] Creating training net from net file: resnet.prototxt
I1026 00:30:00.107813 44957 net.cpp:58] Initializing net from parameters: 
name: "ResNet-50"
state {
  phase: TRAIN
  level: 0
  stage: ""
}
layer {
  name: "data"
  type: "Data"
  top: "data"
  top: "label"
  include {
    phase: TRAIN
  }
  data_param {
    source: "fake_image_net.lmdb"
    batch_size: 16
    backend: LMDB
  }
}
layer {
  name: "conv1"
  type: "Convolution"
  bottom: "data"
  top: "conv1"
  convolution_param {
    num_output: 64
    kernel_size: 7
    stride: 2
  }
}
layer {
  name: "bn_conv1"
  type: "BatchNorm"
  bottom: "conv1"
  top: "conv1"
  batch_norm_param {
    use_global_stats: true
  }
}
layer {
  name: "scale_conv1"
  type: "Scale"
  bottom: "conv1"
  top: "conv1"
  scale_param {
    bias_term: true
  }
}
layer {
  name: "conv1_relu"
  type: "ReLU"
  bottom: "conv1"
  top: "conv1"
}
layer {
  name: "pool1"
  type: "Pooling"
  bottom: "conv1"
  top: "pool1"
  pooling_param {
    pool: MAX
    kernel_size: 3
    stride: 2
  }
}
layer {
  name: "res2a_branch1"
  type: "Convolution"
  bottom: "pool1"
  top: "res2a_branch1"
  convolution_param {
    num_output: 256
    bias_term: false
    pad: 0
    kernel_size: 1
    stride: 1
  }
}
layer {
  name: "bn2a_branch1"
  type: "BatchNorm"
  bottom: "res2a_branch1"
  top: "res2a_branch1"
  batch_norm_param {
    use_global_stats: true
  }
}
layer {
  name: "scale2a_branch1"
  type: "Scale"
  bottom: "res2a_branch1"
  top: "res2a_branch1"
  scale_param {
    bias_term: true
  }
}
layer {
  name: "res2a_branch2a"
  type: "Convolution"
  bottom: "pool1"
  top: "res2a_branch2a"
  convolution_param {
    num_output: 64
    bias_term: false
    pad: 0
    kernel_size: 1
    stride: 1
  }
}
layer {
  name: "bn2a_branch2a"
  type: "BatchNorm"
  bottom: "res2a_branch2a"
  top: "res2a_branch2a"
  batch_norm_param {
    use_global_stats: true
  }
}
layer {
  name: "scale2a_branch2a"
  type: "Scale"
  bottom: "res2a_branch2a"
  top: "res2a_branch2a"
  scale_param {
    bias_term: true
  }
}
layer {
  name: "res2a_branch2a_relu"
  type: "ReLU"
  bottom: "res2a_branch2a"
  top: "res2a_branch2a"
}
layer {
  name: "res2a_branch2b"
  type: "Convolution"
  bottom: "res2a_branch2a"
  top: "res2a_branch2b"
  convolution_param {
    num_output: 64
    bias_term: false
    pad: 1
    kernel_size: 3
    stride: 1
  }
}
layer {
  name: "bn2a_branch2b"
  type: "BatchNorm"
  bottom: "res2a_branch2b"
  top: "res2a_branch2b"
  batch_norm_param {
    use_global_stats: true
  }
}
layer {
  name: "scale2a_branch2b"
  type: "Scale"
  bottom: "res2a_branch2b"
  top: "res2a_branch2b"
  scale_param {
    bias_term: true
  }
}
layer {
  name: "res2a_branch2b_relu"
  type: "ReLU"
  bottom: "res2a_branch2b"
  top: "res2a_branch2b"
}
layer {
  name: "res2a_branch2c"
  type: "Convolution"
  bottom: "res2a_branch2b"
  top: "res2a_branch2c"
  convolution_param {
    num_output: 256
    bias_term: false
    pad: 0
    kernel_size: 1
    stride: 1
  }
}
layer {
  name: "bn2a_branch2c"
  type: "BatchNorm"
  bottom: "res2a_branch2c"
  top: "res2a_branch2c"
  batch_norm_param {
    use_global_stats: true
  }
}
layer {
  name: "scale2a_branch2c"
  type: "Scale"
  bottom: "res2a_branch2c"
  top: "res2a_branch2c"
  scale_param {
    bias_term: true
  }
}
layer {
  name: "res2a"
  type: "Eltwise"
  bottom: "res2a_branch1"
  bottom: "res2a_branch2c"
  top: "res2a"
}
layer {
  name: "res2a_relu"
  type: "ReLU"
  bottom: "res2a"
  top: "res2a"
}
layer {
  name: "res2b_branch2a"
  type: "Convolution"
  bottom: "res2a"
  top: "res2b_branch2a"
  convolution_param {
    num_output: 64
    bias_term: false
    pad: 0
    kernel_size: 1
    stride: 1
  }
}
layer {
  name: "bn2b_branch2a"
  type: "BatchNorm"
  bottom: "res2b_branch2a"
  top: "res2b_branch2a"
  batch_norm_param {
    use_global_stats: true
  }
}
layer {
  name: "scale2b_branch2a"
  type: "Scale"
  bottom: "res2b_branch2a"
  top: "res2b_branch2a"
  scale_param {
    bias_term: true
  }
}
layer {
  name: "res2b_branch2a_relu"
  type: "ReLU"
  bottom: "res2b_branch2a"
  top: "res2b_branch2a"
}
layer {
  name: "res2b_branch2b"
  type: "Convolution"
  bottom: "res2b_branch2a"
  top: "res2b_branch2b"
  convolution_param {
    num_output: 64
    bias_term: false
    pad: 1
    kernel_size: 3
    stride: 1
  }
}
layer {
  name: "bn2b_branch2b"
  type: "BatchNorm"
  bottom: "res2b_branch2b"
  top: "res2b_branch2b"
  batch_norm_param {
    use_global_stats: true
  }
}
layer {
  name: "scale2b_branch2b"
  type: "Scale"
  bottom: "res2b_branch2b"
  top: "res2b_branch2b"
  scale_param {
    bias_term: true
  }
}
layer {
  name: "res2b_branch2b_relu"
  type: "ReLU"
  bottom: "res2b_branch2b"
  top: "res2b_branch2b"
}
layer {
  name: "res2b_branch2c"
  type: "Convolution"
  bottom: "res2b_branch2b"
  top: "res2b_branch2c"
  convolution_param {
    num_output: 256
    bias_term: false
    pad: 0
    kernel_size: 1
    stride: 1
  }
}
layer {
  name: "bn2b_branch2c"
  type: "BatchNorm"
  bottom: "res2b_branch2c"
  top: "res2b_branch2c"
  batch_norm_param {
    use_global_stats: true
  }
}
layer {
  name: "scale2b_branch2c"
  type: "Scale"
  bottom: "res2b_branch2c"
  top: "res2b_branch2c"
  scale_param {
    bias_term: true
  }
}
layer {
  name: "res2b"
  type: "Eltwise"
  bottom: "res2a"
  bottom: "res2b_branch2c"
  top: "res2b"
}
layer {
  name: "res2b_relu"
  type: "ReLU"
  bottom: "res2b"
  top: "res2b"
}
layer {
  name: "res2c_branch2a"
  type: "Convolution"
  bottom: "res2b"
  top: "res2c_branch2a"
  convolution_param {
    num_output: 64
    bias_term: false
    pad: 0
    kernel_size: 1
    stride: 1
  }
}
layer {
  name: "bn2c_branch2a"
  type: "BatchNorm"
  bottom: "res2c_branch2a"
  top: "res2c_branch2a"
  batch_norm_param {
    use_global_stats: true
  }
}
layer {
  name: "scale2c_branch2a"
  type: "Scale"
  bottom: "res2c_branch2a"
  top: "res2c_branch2a"
  scale_param {
    bias_term: true
  }
}
layer {
  name: "res2c_branch2a_relu"
  type: "ReLU"
  bottom: "res2c_branch2a"
  top: "res2c_branch2a"
}
layer {
  name: "res2c_branch2b"
  type: "Convolution"
  bottom: "res2c_branch2a"
  top: "res2c_branch2b"
  convolution_param {
    num_output: 64
    bias_term: false
    pad: 1
    kernel_size: 3
    stride: 1
  }
}
layer {
  name: "bn2c_branch2b"
  type: "BatchNorm"
  bottom: "res2c_branch2b"
  top: "res2c_branch2b"
  batch_norm_param {
    use_global_stats: true
  }
}
layer {
  name: "scale2c_branch2b"
  type: "Scale"
  bottom: "res2c_branch2b"
  top: "res2c_branch2b"
  scale_param {
    bias_term: true
  }
}
layer {
  name: "res2c_branch2b_relu"
  type: "ReLU"
  bottom: "res2c_branch2b"
  top: "res2c_branch2b"
}
layer {
  name: "res2c_branch2c"
  type: "Convolution"
  bottom: "res2c_branch2b"
  top: "res2c_branch2c"
  convolution_param {
    num_output: 256
    bias_term: false
    pad: 0
    kernel_size: 1
    stride: 1
  }
}
layer {
  name: "bn2c_branch2c"
  type: "BatchNorm"
  bottom: "res2c_branch2c"
  top: "res2c_branch2c"
  batch_norm_param {
    use_global_stats: true
  }
}
layer {
  name: "scale2c_branch2c"
  type: "Scale"
  bottom: "res2c_branch2c"
  top: "res2c_branch2c"
  scale_param {
    bias_term: true
  }
}
layer {
  name: "res2c"
  type: "Eltwise"
  bottom: "res2b"
  bottom: "res2c_branch2c"
  top: "res2c"
}
layer {
  name: "res2c_relu"
  type: "ReLU"
  bottom: "res2c"
  top: "res2c"
}
layer {
  name: "res3a_branch1"
  type: "Convolution"
  bottom: "res2c"
  top: "res3a_branch1"
  convolution_param {
    num_output: 512
    bias_term: false
    pad: 0
    kernel_size: 1
    stride: 2
  }
}
layer {
  name: "bn3a_branch1"
  type: "BatchNorm"
  bottom: "res3a_branch1"
  top: "res3a_branch1"
  batch_norm_param {
    use_global_stats: true
  }
}
layer {
  name: "scale3a_branch1"
  type: "Scale"
  bottom: "res3a_branch1"
  top: "res3a_branch1"
  scale_param {
    bias_term: true
  }
}
layer {
  name: "res3a_branch2a"
  type: "Convolution"
  bottom: "res2c"
  top: "res3a_branch2a"
  convolution_param {
    num_output: 128
    bias_term: false
    pad: 0
    kernel_size: 1
    stride: 2
  }
}
layer {
  name: "bn3a_branch2a"
  type: "BatchNorm"
  bottom: "res3a_branch2a"
  top: "res3a_branch2a"
  batch_norm_param {
    use_global_stats: true
  }
}
layer {
  name: "scale3a_branch2a"
  type: "Scale"
  bottom: "res3a_branch2a"
  top: "res3a_branch2a"
  scale_param {
    bias_term: true
  }
}
layer {
  name: "res3a_branch2a_relu"
  type: "ReLU"
  bottom: "res3a_branch2a"
  top: "res3a_branch2a"
}
layer {
  name: "res3a_branch2b"
  type: "Convolution"
  bottom: "res3a_branch2a"
  top: "res3a_branch2b"
  convolution_param {
    num_output: 128
    bias_term: false
    pad: 1
    kernel_size: 3
    stride: 1
  }
}
layer {
  name: "bn3a_branch2b"
  type: "BatchNorm"
  bottom: "res3a_branch2b"
  top: "res3a_branch2b"
  batch_norm_param {
    use_global_stats: true
  }
}
layer {
  name: "scale3a_branch2b"
  type: "Scale"
  bottom: "res3a_branch2b"
  top: "res3a_branch2b"
  scale_param {
    bias_term: true
  }
}
layer {
  name: "res3a_branch2b_relu"
  type: "ReLU"
  bottom: "res3a_branch2b"
  top: "res3a_branch2b"
}
layer {
  name: "res3a_branch2c"
  type: "Convolution"
  bottom: "res3a_branch2b"
  top: "res3a_branch2c"
  convolution_param {
    num_output: 512
    bias_term: false
    pad: 0
    kernel_size: 1
    stride: 1
  }
}
layer {
  name: "bn3a_branch2c"
  type: "BatchNorm"
  bottom: "res3a_branch2c"
  top: "res3a_branch2c"
  batch_norm_param {
    use_global_stats: true
  }
}
layer {
  name: "scale3a_branch2c"
  type: "Scale"
  bottom: "res3a_branch2c"
  top: "res3a_branch2c"
  scale_param {
    bias_term: true
  }
}
layer {
  name: "res3a"
  type: "Eltwise"
  bottom: "res3a_branch1"
  bottom: "res3a_branch2c"
  top: "res3a"
}
layer {
  name: "res3a_relu"
  type: "ReLU"
  bottom: "res3a"
  top: "res3a"
}
layer {
  name: "res3b_branch2a"
  type: "Convolution"
  bottom: "res3a"
  top: "res3b_branch2a"
  convolution_param {
    num_output: 128
    bias_term: false
    pad: 0
    kernel_size: 1
    stride: 1
  }
}
layer {
  name: "bn3b_branch2a"
  type: "BatchNorm"
  bottom: "res3b_branch2a"
  top: "res3b_branch2a"
  batch_norm_param {
    use_global_stats: true
  }
}
layer {
  name: "scale3b_branch2a"
  type: "Scale"
  bottom: "res3b_branch2a"
  top: "res3b_branch2a"
  scale_param {
    bias_term: true
  }
}
layer {
  name: "res3b_branch2a_relu"
  type: "ReLU"
  bottom: "res3b_branch2a"
  top: "res3b_branch2a"
}
layer {
  name: "res3b_branch2b"
  type: "Convolution"
  bottom: "res3b_branch2a"
  top: "res3b_branch2b"
  convolution_param {
    num_output: 128
    bias_term: false
    pad: 1
    kernel_size: 3
    stride: 1
  }
}
layer {
  name: "bn3b_branch2b"
  type: "BatchNorm"
  bottom: "res3b_branch2b"
  top: "res3b_branch2b"
  batch_norm_param {
    use_global_stats: true
  }
}
layer {
  name: "scale3b_branch2b"
  type: "Scale"
  bottom: "res3b_branch2b"
  top: "res3b_branch2b"
  scale_param {
    bias_term: true
  }
}
layer {
  name: "res3b_branch2b_relu"
  type: "ReLU"
  bottom: "res3b_branch2b"
  top: "res3b_branch2b"
}
layer {
  name: "res3b_branch2c"
  type: "Convolution"
  bottom: "res3b_branch2b"
  top: "res3b_branch2c"
  convolution_param {
    num_output: 512
    bias_term: false
    pad: 0
    kernel_size: 1
    stride: 1
  }
}
layer {
  name: "bn3b_branch2c"
  type: "BatchNorm"
  bottom: "res3b_branch2c"
  top: "res3b_branch2c"
  batch_norm_param {
    use_global_stats: true
  }
}
layer {
  name: "scale3b_branch2c"
  type: "Scale"
  bottom: "res3b_branch2c"
  top: "res3b_branch2c"
  scale_param {
    bias_term: true
  }
}
layer {
  name: "res3b"
  type: "Eltwise"
  bottom: "res3a"
  bottom: "res3b_branch2c"
  top: "res3b"
}
layer {
  name: "res3b_relu"
  type: "ReLU"
  bottom: "res3b"
  top: "res3b"
}
layer {
  name: "res3c_branch2a"
  type: "Convolution"
  bottom: "res3b"
  top: "res3c_branch2a"
  convolution_param {
    num_output: 128
    bias_term: false
    pad: 0
    kernel_size: 1
    stride: 1
  }
}
layer {
  name: "bn3c_branch2a"
  type: "BatchNorm"
  bottom: "res3c_branch2a"
  top: "res3c_branch2a"
  batch_norm_param {
    use_global_stats: true
  }
}
layer {
  name: "scale3c_branch2a"
  type: "Scale"
  bottom: "res3c_branch2a"
  top: "res3c_branch2a"
  scale_param {
    bias_term: true
  }
}
layer {
  name: "res3c_branch2a_relu"
  type: "ReLU"
  bottom: "res3c_branch2a"
  top: "res3c_branch2a"
}
layer {
  name: "res3c_branch2b"
  type: "Convolution"
  bottom: "res3c_branch2a"
  top: "res3c_branch2b"
  convolution_param {
    num_output: 128
    bias_term: false
    pad: 1
    kernel_size: 3
    stride: 1
  }
}
layer {
  name: "bn3c_branch2b"
  type: "BatchNorm"
  bottom: "res3c_branch2b"
  top: "res3c_branch2b"
  batch_norm_param {
    use_global_stats: true
  }
}
layer {
  name: "scale3c_branch2b"
  type: "Scale"
  bottom: "res3c_branch2b"
  top: "res3c_branch2b"
  scale_param {
    bias_term: true
  }
}
layer {
  name: "res3c_branch2b_relu"
  type: "ReLU"
  bottom: "res3c_branch2b"
  top: "res3c_branch2b"
}
layer {
  name: "res3c_branch2c"
  type: "Convolution"
  bottom: "res3c_branch2b"
  top: "res3c_branch2c"
  convolution_param {
    num_output: 512
    bias_term: false
    pad: 0
    kernel_size: 1
    stride: 1
  }
}
layer {
  name: "bn3c_branch2c"
  type: "BatchNorm"
  bottom: "res3c_branch2c"
  top: "res3c_branch2c"
  batch_norm_param {
    use_global_stats: true
  }
}
layer {
  name: "scale3c_branch2c"
  type: "Scale"
  bottom: "res3c_branch2c"
  top: "res3c_branch2c"
  scale_param {
    bias_term: true
  }
}
layer {
  name: "res3c"
  type: "Eltwise"
  bottom: "res3b"
  bottom: "res3c_branch2c"
  top: "res3c"
}
layer {
  name: "res3c_relu"
  type: "ReLU"
  bottom: "res3c"
  top: "res3c"
}
layer {
  name: "res3d_branch2a"
  type: "Convolution"
  bottom: "res3c"
  top: "res3d_branch2a"
  convolution_param {
    num_output: 128
    bias_term: false
    pad: 0
    kernel_size: 1
    stride: 1
  }
}
layer {
  name: "bn3d_branch2a"
  type: "BatchNorm"
  bottom: "res3d_branch2a"
  top: "res3d_branch2a"
  batch_norm_param {
    use_global_stats: true
  }
}
layer {
  name: "scale3d_branch2a"
  type: "Scale"
  bottom: "res3d_branch2a"
  top: "res3d_branch2a"
  scale_param {
    bias_term: true
  }
}
layer {
  name: "res3d_branch2a_relu"
  type: "ReLU"
  bottom: "res3d_branch2a"
  top: "res3d_branch2a"
}
layer {
  name: "res3d_branch2b"
  type: "Convolution"
  bottom: "res3d_branch2a"
  top: "res3d_branch2b"
  convolution_param {
    num_output: 128
    bias_term: false
    pad: 1
    kernel_size: 3
    stride: 1
  }
}
layer {
  name: "bn3d_branch2b"
  type: "BatchNorm"
  bottom: "res3d_branch2b"
  top: "res3d_branch2b"
  batch_norm_param {
    use_global_stats: true
  }
}
layer {
  name: "scale3d_branch2b"
  type: "Scale"
  bottom: "res3d_branch2b"
  top: "res3d_branch2b"
  scale_param {
    bias_term: true
  }
}
layer {
  name: "res3d_branch2b_relu"
  type: "ReLU"
  bottom: "res3d_branch2b"
  top: "res3d_branch2b"
}
layer {
  name: "res3d_branch2c"
  type: "Convolution"
  bottom: "res3d_branch2b"
  top: "res3d_branch2c"
  convolution_param {
    num_output: 512
    bias_term: false
    pad: 0
    kernel_size: 1
    stride: 1
  }
}
layer {
  name: "bn3d_branch2c"
  type: "BatchNorm"
  bottom: "res3d_branch2c"
  top: "res3d_branch2c"
  batch_norm_param {
    use_global_stats: true
  }
}
layer {
  name: "scale3d_branch2c"
  type: "Scale"
  bottom: "res3d_branch2c"
  top: "res3d_branch2c"
  scale_param {
    bias_term: true
  }
}
layer {
  name: "res3d"
  type: "Eltwise"
  bottom: "res3c"
  bottom: "res3d_branch2c"
  top: "res3d"
}
layer {
  name: "res3d_relu"
  type: "ReLU"
  bottom: "res3d"
  top: "res3d"
}
layer {
  name: "res4a_branch1"
  type: "Convolution"
  bottom: "res3d"
  top: "res4a_branch1"
  convolution_param {
    num_output: 1024
    bias_term: false
    pad: 0
    kernel_size: 1
    stride: 2
  }
}
layer {
  name: "bn4a_branch1"
  type: "BatchNorm"
  bottom: "res4a_branch1"
  top: "res4a_branch1"
  batch_norm_param {
    use_global_stats: true
  }
}
layer {
  name: "scale4a_branch1"
  type: "Scale"
  bottom: "res4a_branch1"
  top: "res4a_branch1"
  scale_param {
    bias_term: true
  }
}
layer {
  name: "res4a_branch2a"
  type: "Convolution"
  bottom: "res3d"
  top: "res4a_branch2a"
  convolution_param {
    num_output: 256
    bias_term: false
    pad: 0
    kernel_size: 1
    stride: 2
  }
}
layer {
  name: "bn4a_branch2a"
  type: "BatchNorm"
  bottom: "res4a_branch2a"
  top: "res4a_branch2a"
  batch_norm_param {
    use_global_stats: true
  }
}
layer {
  name: "scale4a_branch2a"
  type: "Scale"
  bottom: "res4a_branch2a"
  top: "res4a_branch2a"
  scale_param {
    bias_term: true
  }
}
layer {
  name: "res4a_branch2a_relu"
  type: "ReLU"
  bottom: "res4a_branch2a"
  top: "res4a_branch2a"
}
layer {
  name: "res4a_branch2b"
  type: "Convolution"
  bottom: "res4a_branch2a"
  top: "res4a_branch2b"
  convolution_param {
    num_output: 256
    bias_term: false
    pad: 1
    kernel_size: 3
    stride: 1
  }
}
layer {
  name: "bn4a_branch2b"
  type: "BatchNorm"
  bottom: "res4a_branch2b"
  top: "res4a_branch2b"
  batch_norm_param {
    use_global_stats: true
  }
}
layer {
  name: "scale4a_branch2b"
  type: "Scale"
  bottom: "res4a_branch2b"
  top: "res4a_branch2b"
  scale_param {
    bias_term: true
  }
}
layer {
  name: "res4a_branch2b_relu"
  type: "ReLU"
  bottom: "res4a_branch2b"
  top: "res4a_branch2b"
}
layer {
  name: "res4a_branch2c"
  type: "Convolution"
  bottom: "res4a_branch2b"
  top: "res4a_branch2c"
  convolution_param {
    num_output: 1024
    bias_term: false
    pad: 0
    kernel_size: 1
    stride: 1
  }
}
layer {
  name: "bn4a_branch2c"
  type: "BatchNorm"
  bottom: "res4a_branch2c"
  top: "res4a_branch2c"
  batch_norm_param {
    use_global_stats: true
  }
}
layer {
  name: "scale4a_branch2c"
  type: "Scale"
  bottom: "res4a_branch2c"
  top: "res4a_branch2c"
  scale_param {
    bias_term: true
  }
}
layer {
  name: "res4a"
  type: "Eltwise"
  bottom: "res4a_branch1"
  bottom: "res4a_branch2c"
  top: "res4a"
}
layer {
  name: "res4a_relu"
  type: "ReLU"
  bottom: "res4a"
  top: "res4a"
}
layer {
  name: "res4b_branch2a"
  type: "Convolution"
  bottom: "res4a"
  top: "res4b_branch2a"
  convolution_param {
    num_output: 256
    bias_term: false
    pad: 0
    kernel_size: 1
    stride: 1
  }
}
layer {
  name: "bn4b_branch2a"
  type: "BatchNorm"
  bottom: "res4b_branch2a"
  top: "res4b_branch2a"
  batch_norm_param {
    use_global_stats: true
  }
}
layer {
  name: "scale4b_branch2a"
  type: "Scale"
  bottom: "res4b_branch2a"
  top: "res4b_branch2a"
  scale_param {
    bias_term: true
  }
}
layer {
  name: "res4b_branch2a_relu"
  type: "ReLU"
  bottom: "res4b_branch2a"
  top: "res4b_branch2a"
}
layer {
  name: "res4b_branch2b"
  type: "Convolution"
  bottom: "res4b_branch2a"
  top: "res4b_branch2b"
  convolution_param {
    num_output: 256
    bias_term: false
    pad: 1
    kernel_size: 3
    stride: 1
  }
}
layer {
  name: "bn4b_branch2b"
  type: "BatchNorm"
  bottom: "res4b_branch2b"
  top: "res4b_branch2b"
  batch_norm_param {
    use_global_stats: true
  }
}
layer {
  name: "scale4b_branch2b"
  type: "Scale"
  bottom: "res4b_branch2b"
  top: "res4b_branch2b"
  scale_param {
    bias_term: true
  }
}
layer {
  name: "res4b_branch2b_relu"
  type: "ReLU"
  bottom: "res4b_branch2b"
  top: "res4b_branch2b"
}
layer {
  name: "res4b_branch2c"
  type: "Convolution"
  bottom: "res4b_branch2b"
  top: "res4b_branch2c"
  convolution_param {
    num_output: 1024
    bias_term: false
    pad: 0
    kernel_size: 1
    stride: 1
  }
}
layer {
  name: "bn4b_branch2c"
  type: "BatchNorm"
  bottom: "res4b_branch2c"
  top: "res4b_branch2c"
  batch_norm_param {
    use_global_stats: true
  }
}
layer {
  name: "scale4b_branch2c"
  type: "Scale"
  bottom: "res4b_branch2c"
  top: "res4b_branch2c"
  scale_param {
    bias_term: true
  }
}
layer {
  name: "res4b"
  type: "Eltwise"
  bottom: "res4a"
  bottom: "res4b_branch2c"
  top: "res4b"
}
layer {
  name: "res4b_relu"
  type: "ReLU"
  bottom: "res4b"
  top: "res4b"
}
layer {
  name: "res4c_branch2a"
  type: "Convolution"
  bottom: "res4b"
  top: "res4c_branch2a"
  convolution_param {
    num_output: 256
    bias_term: false
    pad: 0
    kernel_size: 1
    stride: 1
  }
}
layer {
  name: "bn4c_branch2a"
  type: "BatchNorm"
  bottom: "res4c_branch2a"
  top: "res4c_branch2a"
  batch_norm_param {
    use_global_stats: true
  }
}
layer {
  name: "scale4c_branch2a"
  type: "Scale"
  bottom: "res4c_branch2a"
  top: "res4c_branch2a"
  scale_param {
    bias_term: true
  }
}
layer {
  name: "res4c_branch2a_relu"
  type: "ReLU"
  bottom: "res4c_branch2a"
  top: "res4c_branch2a"
}
layer {
  name: "res4c_branch2b"
  type: "Convolution"
  bottom: "res4c_branch2a"
  top: "res4c_branch2b"
  convolution_param {
    num_output: 256
    bias_term: false
    pad: 1
    kernel_size: 3
    stride: 1
  }
}
layer {
  name: "bn4c_branch2b"
  type: "BatchNorm"
  bottom: "res4c_branch2b"
  top: "res4c_branch2b"
  batch_norm_param {
    use_global_stats: true
  }
}
layer {
  name: "scale4c_branch2b"
  type: "Scale"
  bottom: "res4c_branch2b"
  top: "res4c_branch2b"
  scale_param {
    bias_term: true
  }
}
layer {
  name: "res4c_branch2b_relu"
  type: "ReLU"
  bottom: "res4c_branch2b"
  top: "res4c_branch2b"
}
layer {
  name: "res4c_branch2c"
  type: "Convolution"
  bottom: "res4c_branch2b"
  top: "res4c_branch2c"
  convolution_param {
    num_output: 1024
    bias_term: false
    pad: 0
    kernel_size: 1
    stride: 1
  }
}
layer {
  name: "bn4c_branch2c"
  type: "BatchNorm"
  bottom: "res4c_branch2c"
  top: "res4c_branch2c"
  batch_norm_param {
    use_global_stats: true
  }
}
layer {
  name: "scale4c_branch2c"
  type: "Scale"
  bottom: "res4c_branch2c"
  top: "res4c_branch2c"
  scale_param {
    bias_term: true
  }
}
layer {
  name: "res4c"
  type: "Eltwise"
  bottom: "res4b"
  bottom: "res4c_branch2c"
  top: "res4c"
}
layer {
  name: "res4c_relu"
  type: "ReLU"
  bottom: "res4c"
  top: "res4c"
}
layer {
  name: "res4d_branch2a"
  type: "Convolution"
  bottom: "res4c"
  top: "res4d_branch2a"
  convolution_param {
    num_output: 256
    bias_term: false
    pad: 0
    kernel_size: 1
    stride: 1
  }
}
layer {
  name: "bn4d_branch2a"
  type: "BatchNorm"
  bottom: "res4d_branch2a"
  top: "res4d_branch2a"
  batch_norm_param {
    use_global_stats: true
  }
}
layer {
  name: "scale4d_branch2a"
  type: "Scale"
  bottom: "res4d_branch2a"
  top: "res4d_branch2a"
  scale_param {
    bias_term: true
  }
}
layer {
  name: "res4d_branch2a_relu"
  type: "ReLU"
  bottom: "res4d_branch2a"
  top: "res4d_branch2a"
}
layer {
  name: "res4d_branch2b"
  type: "Convolution"
  bottom: "res4d_branch2a"
  top: "res4d_branch2b"
  convolution_param {
    num_output: 256
    bias_term: false
    pad: 1
    kernel_size: 3
    stride: 1
  }
}
layer {
  name: "bn4d_branch2b"
  type: "BatchNorm"
  bottom: "res4d_branch2b"
  top: "res4d_branch2b"
  batch_norm_param {
    use_global_stats: true
  }
}
layer {
  name: "scale4d_branch2b"
  type: "Scale"
  bottom: "res4d_branch2b"
  top: "res4d_branch2b"
  scale_param {
    bias_term: true
  }
}
layer {
  name: "res4d_branch2b_relu"
  type: "ReLU"
  bottom: "res4d_branch2b"
  top: "res4d_branch2b"
}
layer {
  name: "res4d_branch2c"
  type: "Convolution"
  bottom: "res4d_branch2b"
  top: "res4d_branch2c"
  convolution_param {
    num_output: 1024
    bias_term: false
    pad: 0
    kernel_size: 1
    stride: 1
  }
}
layer {
  name: "bn4d_branch2c"
  type: "BatchNorm"
  bottom: "res4d_branch2c"
  top: "res4d_branch2c"
  batch_norm_param {
    use_global_stats: true
  }
}
layer {
  name: "scale4d_branch2c"
  type: "Scale"
  bottom: "res4d_branch2c"
  top: "res4d_branch2c"
  scale_param {
    bias_term: true
  }
}
layer {
  name: "res4d"
  type: "Eltwise"
  bottom: "res4c"
  bottom: "res4d_branch2c"
  top: "res4d"
}
layer {
  name: "res4d_relu"
  type: "ReLU"
  bottom: "res4d"
  top: "res4d"
}
layer {
  name: "res4e_branch2a"
  type: "Convolution"
  bottom: "res4d"
  top: "res4e_branch2a"
  convolution_param {
    num_output: 256
    bias_term: false
    pad: 0
    kernel_size: 1
    stride: 1
  }
}
layer {
  name: "bn4e_branch2a"
  type: "BatchNorm"
  bottom: "res4e_branch2a"
  top: "res4e_branch2a"
  batch_norm_param {
    use_global_stats: true
  }
}
layer {
  name: "scale4e_branch2a"
  type: "Scale"
  bottom: "res4e_branch2a"
  top: "res4e_branch2a"
  scale_param {
    bias_term: true
  }
}
layer {
  name: "res4e_branch2a_relu"
  type: "ReLU"
  bottom: "res4e_branch2a"
  top: "res4e_branch2a"
}
layer {
  name: "res4e_branch2b"
  type: "Convolution"
  bottom: "res4e_branch2a"
  top: "res4e_branch2b"
  convolution_param {
    num_output: 256
    bias_term: false
    pad: 1
    kernel_size: 3
    stride: 1
  }
}
layer {
  name: "bn4e_branch2b"
  type: "BatchNorm"
  bottom: "res4e_branch2b"
  top: "res4e_branch2b"
  batch_norm_param {
    use_global_stats: true
  }
}
layer {
  name: "scale4e_branch2b"
  type: "Scale"
  bottom: "res4e_branch2b"
  top: "res4e_branch2b"
  scale_param {
    bias_term: true
  }
}
layer {
  name: "res4e_branch2b_relu"
  type: "ReLU"
  bottom: "res4e_branch2b"
  top: "res4e_branch2b"
}
layer {
  name: "res4e_branch2c"
  type: "Convolution"
  bottom: "res4e_branch2b"
  top: "res4e_branch2c"
  convolution_param {
    num_output: 1024
    bias_term: false
    pad: 0
    kernel_size: 1
    stride: 1
  }
}
layer {
  name: "bn4e_branch2c"
  type: "BatchNorm"
  bottom: "res4e_branch2c"
  top: "res4e_branch2c"
  batch_norm_param {
    use_global_stats: true
  }
}
layer {
  name: "scale4e_branch2c"
  type: "Scale"
  bottom: "res4e_branch2c"
  top: "res4e_branch2c"
  scale_param {
    bias_term: true
  }
}
layer {
  name: "res4e"
  type: "Eltwise"
  bottom: "res4d"
  bottom: "res4e_branch2c"
  top: "res4e"
}
layer {
  name: "res4e_relu"
  type: "ReLU"
  bottom: "res4e"
  top: "res4e"
}
layer {
  name: "res4f_branch2a"
  type: "Convolution"
  bottom: "res4e"
  top: "res4f_branch2a"
  convolution_param {
    num_output: 256
    bias_term: false
    pad: 0
    kernel_size: 1
    stride: 1
  }
}
layer {
  name: "bn4f_branch2a"
  type: "BatchNorm"
  bottom: "res4f_branch2a"
  top: "res4f_branch2a"
  batch_norm_param {
    use_global_stats: true
  }
}
layer {
  name: "scale4f_branch2a"
  type: "Scale"
  bottom: "res4f_branch2a"
  top: "res4f_branch2a"
  scale_param {
    bias_term: true
  }
}
layer {
  name: "res4f_branch2a_relu"
  type: "ReLU"
  bottom: "res4f_branch2a"
  top: "res4f_branch2a"
}
layer {
  name: "res4f_branch2b"
  type: "Convolution"
  bottom: "res4f_branch2a"
  top: "res4f_branch2b"
  convolution_param {
    num_output: 256
    bias_term: false
    pad: 1
    kernel_size: 3
    stride: 1
  }
}
layer {
  name: "bn4f_branch2b"
  type: "BatchNorm"
  bottom: "res4f_branch2b"
  top: "res4f_branch2b"
  batch_norm_param {
    use_global_stats: true
  }
}
layer {
  name: "scale4f_branch2b"
  type: "Scale"
  bottom: "res4f_branch2b"
  top: "res4f_branch2b"
  scale_param {
    bias_term: true
  }
}
layer {
  name: "res4f_branch2b_relu"
  type: "ReLU"
  bottom: "res4f_branch2b"
  top: "res4f_branch2b"
}
layer {
  name: "res4f_branch2c"
  type: "Convolution"
  bottom: "res4f_branch2b"
  top: "res4f_branch2c"
  convolution_param {
    num_output: 1024
    bias_term: false
    pad: 0
    kernel_size: 1
    stride: 1
  }
}
layer {
  name: "bn4f_branch2c"
  type: "BatchNorm"
  bottom: "res4f_branch2c"
  top: "res4f_branch2c"
  batch_norm_param {
    use_global_stats: true
  }
}
layer {
  name: "scale4f_branch2c"
  type: "Scale"
  bottom: "res4f_branch2c"
  top: "res4f_branch2c"
  scale_param {
    bias_term: true
  }
}
layer {
  name: "res4f"
  type: "Eltwise"
  bottom: "res4e"
  bottom: "res4f_branch2c"
  top: "res4f"
}
layer {
  name: "res4f_relu"
  type: "ReLU"
  bottom: "res4f"
  top: "res4f"
}
layer {
  name: "res5a_branch1"
  type: "Convolution"
  bottom: "res4f"
  top: "res5a_branch1"
  convolution_param {
    num_output: 2048
    bias_term: false
    pad: 0
    kernel_size: 1
    stride: 2
  }
}
layer {
  name: "bn5a_branch1"
  type: "BatchNorm"
  bottom: "res5a_branch1"
  top: "res5a_branch1"
  batch_norm_param {
    use_global_stats: true
  }
}
layer {
  name: "scale5a_branch1"
  type: "Scale"
  bottom: "res5a_branch1"
  top: "res5a_branch1"
  scale_param {
    bias_term: true
  }
}
layer {
  name: "res5a_branch2a"
  type: "Convolution"
  bottom: "res4f"
  top: "res5a_branch2a"
  convolution_param {
    num_output: 512
    bias_term: false
    pad: 0
    kernel_size: 1
    stride: 2
  }
}
layer {
  name: "bn5a_branch2a"
  type: "BatchNorm"
  bottom: "res5a_branch2a"
  top: "res5a_branch2a"
  batch_norm_param {
    use_global_stats: true
  }
}
layer {
  name: "scale5a_branch2a"
  type: "Scale"
  bottom: "res5a_branch2a"
  top: "res5a_branch2a"
  scale_param {
    bias_term: true
  }
}
layer {
  name: "res5a_branch2a_relu"
  type: "ReLU"
  bottom: "res5a_branch2a"
  top: "res5a_branch2a"
}
layer {
  name: "res5a_branch2b"
  type: "Convolution"
  bottom: "res5a_branch2a"
  top: "res5a_branch2b"
  convolution_param {
    num_output: 512
    bias_term: false
    pad: 1
    kernel_size: 3
    stride: 1
  }
}
layer {
  name: "bn5a_branch2b"
  type: "BatchNorm"
  bottom: "res5a_branch2b"
  top: "res5a_branch2b"
  batch_norm_param {
    use_global_stats: true
  }
}
layer {
  name: "scale5a_branch2b"
  type: "Scale"
  bottom: "res5a_branch2b"
  top: "res5a_branch2b"
  scale_param {
    bias_term: true
  }
}
layer {
  name: "res5a_branch2b_relu"
  type: "ReLU"
  bottom: "res5a_branch2b"
  top: "res5a_branch2b"
}
layer {
  name: "res5a_branch2c"
  type: "Convolution"
  bottom: "res5a_branch2b"
  top: "res5a_branch2c"
  convolution_param {
    num_output: 2048
    bias_term: false
    pad: 0
    kernel_size: 1
    stride: 1
  }
}
layer {
  name: "bn5a_branch2c"
  type: "BatchNorm"
  bottom: "res5a_branch2c"
  top: "res5a_branch2c"
  batch_norm_param {
    use_global_stats: true
  }
}
layer {
  name: "scale5a_branch2c"
  type: "Scale"
  bottom: "res5a_bra
I1026 00:30:00.108535 44957 layer_factory.hpp:77] Creating layer data
I1026 00:30:00.109031 44957 net.cpp:100] Creating Layer data
I1026 00:30:00.109047 44957 net.cpp:408] data -> data
I1026 00:30:00.109155 44957 net.cpp:408] data -> label
I1026 00:30:00.111399 44962 db_lmdb.cpp:35] Opened lmdb fake_image_net.lmdb
I1026 00:30:00.123646 44957 data_layer.cpp:41] output data size: 16,3,224,224
I1026 00:30:00.141711 44957 net.cpp:150] Setting up data
I1026 00:30:00.141929 44957 net.cpp:157] Top shape: 16 3 224 224 (2408448)
I1026 00:30:00.141948 44957 net.cpp:157] Top shape: 16 (16)
I1026 00:30:00.141966 44957 net.cpp:165] Memory required for data: 9633856
I1026 00:30:00.141975 44957 layer_factory.hpp:77] Creating layer conv1
I1026 00:30:00.141995 44957 net.cpp:100] Creating Layer conv1
I1026 00:30:00.142002 44957 net.cpp:434] conv1 <- data
I1026 00:30:00.142017 44957 net.cpp:408] conv1 -> conv1
I1026 00:30:00.143750 44957 net.cpp:150] Setting up conv1
I1026 00:30:00.143777 44957 net.cpp:157] Top shape: 16 64 109 109 (12166144)
I1026 00:30:00.143781 44957 net.cpp:165] Memory required for data: 58298432
I1026 00:30:00.143798 44957 layer_factory.hpp:77] Creating layer bn_conv1
I1026 00:30:00.143808 44957 net.cpp:100] Creating Layer bn_conv1
I1026 00:30:00.143812 44957 net.cpp:434] bn_conv1 <- conv1
I1026 00:30:00.143822 44957 net.cpp:395] bn_conv1 -> conv1 (in-place)
I1026 00:30:00.144008 44957 net.cpp:150] Setting up bn_conv1
I1026 00:30:00.144018 44957 net.cpp:157] Top shape: 16 64 109 109 (12166144)
I1026 00:30:00.144022 44957 net.cpp:165] Memory required for data: 106963008
I1026 00:30:00.144033 44957 layer_factory.hpp:77] Creating layer scale_conv1
I1026 00:30:00.144049 44957 net.cpp:100] Creating Layer scale_conv1
I1026 00:30:00.144055 44957 net.cpp:434] scale_conv1 <- conv1
I1026 00:30:00.144060 44957 net.cpp:395] scale_conv1 -> conv1 (in-place)
I1026 00:30:00.144099 44957 layer_factory.hpp:77] Creating layer scale_conv1
I1026 00:30:00.144217 44957 net.cpp:150] Setting up scale_conv1
I1026 00:30:00.144227 44957 net.cpp:157] Top shape: 16 64 109 109 (12166144)
I1026 00:30:00.144230 44957 net.cpp:165] Memory required for data: 155627584
I1026 00:30:00.144237 44957 layer_factory.hpp:77] Creating layer conv1_relu
I1026 00:30:00.144245 44957 net.cpp:100] Creating Layer conv1_relu
I1026 00:30:00.144254 44957 net.cpp:434] conv1_relu <- conv1
I1026 00:30:00.144259 44957 net.cpp:395] conv1_relu -> conv1 (in-place)
I1026 00:30:00.144318 44957 net.cpp:150] Setting up conv1_relu
I1026 00:30:00.144327 44957 net.cpp:157] Top shape: 16 64 109 109 (12166144)
I1026 00:30:00.144331 44957 net.cpp:165] Memory required for data: 204292160
I1026 00:30:00.144335 44957 layer_factory.hpp:77] Creating layer pool1
I1026 00:30:00.144345 44957 net.cpp:100] Creating Layer pool1
I1026 00:30:00.144347 44957 net.cpp:434] pool1 <- conv1
I1026 00:30:00.144353 44957 net.cpp:408] pool1 -> pool1
I1026 00:30:00.144412 44957 net.cpp:150] Setting up pool1
I1026 00:30:00.144421 44957 net.cpp:157] Top shape: 16 64 54 54 (2985984)
I1026 00:30:00.144425 44957 net.cpp:165] Memory required for data: 216236096
I1026 00:30:00.144428 44957 layer_factory.hpp:77] Creating layer pool1_pool1_0_split
I1026 00:30:00.144435 44957 net.cpp:100] Creating Layer pool1_pool1_0_split
I1026 00:30:00.144439 44957 net.cpp:434] pool1_pool1_0_split <- pool1
I1026 00:30:00.144444 44957 net.cpp:408] pool1_pool1_0_split -> pool1_pool1_0_split_0
I1026 00:30:00.144454 44957 net.cpp:408] pool1_pool1_0_split -> pool1_pool1_0_split_1
I1026 00:30:00.145445 44957 net.cpp:150] Setting up pool1_pool1_0_split
I1026 00:30:00.145463 44957 net.cpp:157] Top shape: 16 64 54 54 (2985984)
I1026 00:30:00.145481 44957 net.cpp:157] Top shape: 16 64 54 54 (2985984)
I1026 00:30:00.145484 44957 net.cpp:165] Memory required for data: 240123968
I1026 00:30:00.145488 44957 layer_factory.hpp:77] Creating layer res2a_branch1
I1026 00:30:00.145501 44957 net.cpp:100] Creating Layer res2a_branch1
I1026 00:30:00.145508 44957 net.cpp:434] res2a_branch1 <- pool1_pool1_0_split_0
I1026 00:30:00.145514 44957 net.cpp:408] res2a_branch1 -> res2a_branch1
I1026 00:30:00.145673 44957 net.cpp:150] Setting up res2a_branch1
I1026 00:30:00.145684 44957 net.cpp:157] Top shape: 16 256 54 54 (11943936)
I1026 00:30:00.145687 44957 net.cpp:165] Memory required for data: 287899712
I1026 00:30:00.145694 44957 layer_factory.hpp:77] Creating layer bn2a_branch1
I1026 00:30:00.145699 44957 net.cpp:100] Creating Layer bn2a_branch1
I1026 00:30:00.145704 44957 net.cpp:434] bn2a_branch1 <- res2a_branch1
I1026 00:30:00.145709 44957 net.cpp:395] bn2a_branch1 -> res2a_branch1 (in-place)
I1026 00:30:00.147245 44957 net.cpp:150] Setting up bn2a_branch1
I1026 00:30:00.147260 44957 net.cpp:157] Top shape: 16 256 54 54 (11943936)
I1026 00:30:00.147264 44957 net.cpp:165] Memory required for data: 335675456
I1026 00:30:00.147275 44957 layer_factory.hpp:77] Creating layer scale2a_branch1
I1026 00:30:00.147284 44957 net.cpp:100] Creating Layer scale2a_branch1
I1026 00:30:00.147289 44957 net.cpp:434] scale2a_branch1 <- res2a_branch1
I1026 00:30:00.147295 44957 net.cpp:395] scale2a_branch1 -> res2a_branch1 (in-place)
I1026 00:30:00.147336 44957 layer_factory.hpp:77] Creating layer scale2a_branch1
I1026 00:30:00.147433 44957 net.cpp:150] Setting up scale2a_branch1
I1026 00:30:00.147444 44957 net.cpp:157] Top shape: 16 256 54 54 (11943936)
I1026 00:30:00.147446 44957 net.cpp:165] Memory required for data: 383451200
I1026 00:30:00.147454 44957 layer_factory.hpp:77] Creating layer res2a_branch2a
I1026 00:30:00.147485 44957 net.cpp:100] Creating Layer res2a_branch2a
I1026 00:30:00.147491 44957 net.cpp:434] res2a_branch2a <- pool1_pool1_0_split_1
I1026 00:30:00.147497 44957 net.cpp:408] res2a_branch2a -> res2a_branch2a
I1026 00:30:00.147645 44957 net.cpp:150] Setting up res2a_branch2a
I1026 00:30:00.147655 44957 net.cpp:157] Top shape: 16 64 54 54 (2985984)
I1026 00:30:00.147660 44957 net.cpp:165] Memory required for data: 395395136
I1026 00:30:00.147665 44957 layer_factory.hpp:77] Creating layer bn2a_branch2a
I1026 00:30:00.147680 44957 net.cpp:100] Creating Layer bn2a_branch2a
I1026 00:30:00.147682 44957 net.cpp:434] bn2a_branch2a <- res2a_branch2a
I1026 00:30:00.147687 44957 net.cpp:395] bn2a_branch2a -> res2a_branch2a (in-place)
I1026 00:30:00.147828 44957 net.cpp:150] Setting up bn2a_branch2a
I1026 00:30:00.147837 44957 net.cpp:157] Top shape: 16 64 54 54 (2985984)
I1026 00:30:00.147841 44957 net.cpp:165] Memory required for data: 407339072
I1026 00:30:00.147868 44957 layer_factory.hpp:77] Creating layer scale2a_branch2a
I1026 00:30:00.147876 44957 net.cpp:100] Creating Layer scale2a_branch2a
I1026 00:30:00.147881 44957 net.cpp:434] scale2a_branch2a <- res2a_branch2a
I1026 00:30:00.147886 44957 net.cpp:395] scale2a_branch2a -> res2a_branch2a (in-place)
I1026 00:30:00.147924 44957 layer_factory.hpp:77] Creating layer scale2a_branch2a
I1026 00:30:00.148025 44957 net.cpp:150] Setting up scale2a_branch2a
I1026 00:30:00.148036 44957 net.cpp:157] Top shape: 16 64 54 54 (2985984)
I1026 00:30:00.148039 44957 net.cpp:165] Memory required for data: 419283008
I1026 00:30:00.148046 44957 layer_factory.hpp:77] Creating layer res2a_branch2a_relu
I1026 00:30:00.148051 44957 net.cpp:100] Creating Layer res2a_branch2a_relu
I1026 00:30:00.148054 44957 net.cpp:434] res2a_branch2a_relu <- res2a_branch2a
I1026 00:30:00.148059 44957 net.cpp:395] res2a_branch2a_relu -> res2a_branch2a (in-place)
I1026 00:30:00.148066 44957 net.cpp:150] Setting up res2a_branch2a_relu
I1026 00:30:00.148069 44957 net.cpp:157] Top shape: 16 64 54 54 (2985984)
I1026 00:30:00.148073 44957 net.cpp:165] Memory required for data: 431226944
I1026 00:30:00.148077 44957 layer_factory.hpp:77] Creating layer res2a_branch2b
I1026 00:30:00.148085 44957 net.cpp:100] Creating Layer res2a_branch2b
I1026 00:30:00.148088 44957 net.cpp:434] res2a_branch2b <- res2a_branch2a
I1026 00:30:00.148093 44957 net.cpp:408] res2a_branch2b -> res2a_branch2b
I1026 00:30:00.149011 44957 net.cpp:150] Setting up res2a_branch2b
I1026 00:30:00.149024 44957 net.cpp:157] Top shape: 16 64 54 54 (2985984)
I1026 00:30:00.149039 44957 net.cpp:165] Memory required for data: 443170880
I1026 00:30:00.149044 44957 layer_factory.hpp:77] Creating layer bn2a_branch2b
I1026 00:30:00.149052 44957 net.cpp:100] Creating Layer bn2a_branch2b
I1026 00:30:00.149056 44957 net.cpp:434] bn2a_branch2b <- res2a_branch2b
I1026 00:30:00.149061 44957 net.cpp:395] bn2a_branch2b -> res2a_branch2b (in-place)
I1026 00:30:00.149229 44957 net.cpp:150] Setting up bn2a_branch2b
I1026 00:30:00.149238 44957 net.cpp:157] Top shape: 16 64 54 54 (2985984)
I1026 00:30:00.149242 44957 net.cpp:165] Memory required for data: 455114816
I1026 00:30:00.149250 44957 layer_factory.hpp:77] Creating layer scale2a_branch2b
I1026 00:30:00.149260 44957 net.cpp:100] Creating Layer scale2a_branch2b
I1026 00:30:00.149266 44957 net.cpp:434] scale2a_branch2b <- res2a_branch2b
I1026 00:30:00.149271 44957 net.cpp:395] scale2a_branch2b -> res2a_branch2b (in-place)
I1026 00:30:00.149307 44957 layer_factory.hpp:77] Creating layer scale2a_branch2b
I1026 00:30:00.149408 44957 net.cpp:150] Setting up scale2a_branch2b
I1026 00:30:00.149417 44957 net.cpp:157] Top shape: 16 64 54 54 (2985984)
I1026 00:30:00.149420 44957 net.cpp:165] Memory required for data: 467058752
I1026 00:30:00.149426 44957 layer_factory.hpp:77] Creating layer res2a_branch2b_relu
I1026 00:30:00.149436 44957 net.cpp:100] Creating Layer res2a_branch2b_relu
I1026 00:30:00.149442 44957 net.cpp:434] res2a_branch2b_relu <- res2a_branch2b
I1026 00:30:00.149446 44957 net.cpp:395] res2a_branch2b_relu -> res2a_branch2b (in-place)
I1026 00:30:00.149452 44957 net.cpp:150] Setting up res2a_branch2b_relu
I1026 00:30:00.149457 44957 net.cpp:157] Top shape: 16 64 54 54 (2985984)
I1026 00:30:00.149461 44957 net.cpp:165] Memory required for data: 479002688
I1026 00:30:00.149463 44957 layer_factory.hpp:77] Creating layer res2a_branch2c
I1026 00:30:00.149472 44957 net.cpp:100] Creating Layer res2a_branch2c
I1026 00:30:00.149477 44957 net.cpp:434] res2a_branch2c <- res2a_branch2b
I1026 00:30:00.149489 44957 net.cpp:408] res2a_branch2c -> res2a_branch2c
I1026 00:30:00.149634 44957 net.cpp:150] Setting up res2a_branch2c
I1026 00:30:00.149644 44957 net.cpp:157] Top shape: 16 256 54 54 (11943936)
I1026 00:30:00.149647 44957 net.cpp:165] Memory required for data: 526778432
I1026 00:30:00.149653 44957 layer_factory.hpp:77] Creating layer bn2a_branch2c
I1026 00:30:00.149662 44957 net.cpp:100] Creating Layer bn2a_branch2c
I1026 00:30:00.149665 44957 net.cpp:434] bn2a_branch2c <- res2a_branch2c
I1026 00:30:00.149683 44957 net.cpp:395] bn2a_branch2c -> res2a_branch2c (in-place)
I1026 00:30:00.149827 44957 net.cpp:150] Setting up bn2a_branch2c
I1026 00:30:00.149837 44957 net.cpp:157] Top shape: 16 256 54 54 (11943936)
I1026 00:30:00.149840 44957 net.cpp:165] Memory required for data: 574554176
I1026 00:30:00.149847 44957 layer_factory.hpp:77] Creating layer scale2a_branch2c
I1026 00:30:00.149853 44957 net.cpp:100] Creating Layer scale2a_branch2c
I1026 00:30:00.149857 44957 net.cpp:434] scale2a_branch2c <- res2a_branch2c
I1026 00:30:00.149863 44957 net.cpp:395] scale2a_branch2c -> res2a_branch2c (in-place)
I1026 00:30:00.149899 44957 layer_factory.hpp:77] Creating layer scale2a_branch2c
I1026 00:30:00.149994 44957 net.cpp:150] Setting up scale2a_branch2c
I1026 00:30:00.150002 44957 net.cpp:157] Top shape: 16 256 54 54 (11943936)
I1026 00:30:00.150007 44957 net.cpp:165] Memory required for data: 622329920
I1026 00:30:00.150012 44957 layer_factory.hpp:77] Creating layer res2a
I1026 00:30:00.150022 44957 net.cpp:100] Creating Layer res2a
I1026 00:30:00.150027 44957 net.cpp:434] res2a <- res2a_branch1
I1026 00:30:00.150032 44957 net.cpp:434] res2a <- res2a_branch2c
I1026 00:30:00.150038 44957 net.cpp:408] res2a -> res2a
I1026 00:30:00.150065 44957 net.cpp:150] Setting up res2a
I1026 00:30:00.150074 44957 net.cpp:157] Top shape: 16 256 54 54 (11943936)
I1026 00:30:00.150077 44957 net.cpp:165] Memory required for data: 670105664
I1026 00:30:00.150081 44957 layer_factory.hpp:77] Creating layer res2a_relu
I1026 00:30:00.150086 44957 net.cpp:100] Creating Layer res2a_relu
I1026 00:30:00.150089 44957 net.cpp:434] res2a_relu <- res2a
I1026 00:30:00.150096 44957 net.cpp:395] res2a_relu -> res2a (in-place)
I1026 00:30:00.150101 44957 net.cpp:150] Setting up res2a_relu
I1026 00:30:00.150106 44957 net.cpp:157] Top shape: 16 256 54 54 (11943936)
I1026 00:30:00.150110 44957 net.cpp:165] Memory required for data: 717881408
I1026 00:30:00.150112 44957 layer_factory.hpp:77] Creating layer res2a_res2a_relu_0_split
I1026 00:30:00.150118 44957 net.cpp:100] Creating Layer res2a_res2a_relu_0_split
I1026 00:30:00.150121 44957 net.cpp:434] res2a_res2a_relu_0_split <- res2a
I1026 00:30:00.150125 44957 net.cpp:408] res2a_res2a_relu_0_split -> res2a_res2a_relu_0_split_0
I1026 00:30:00.150131 44957 net.cpp:408] res2a_res2a_relu_0_split -> res2a_res2a_relu_0_split_1
I1026 00:30:00.150163 44957 net.cpp:150] Setting up res2a_res2a_relu_0_split
I1026 00:30:00.150172 44957 net.cpp:157] Top shape: 16 256 54 54 (11943936)
I1026 00:30:00.150177 44957 net.cpp:157] Top shape: 16 256 54 54 (11943936)
I1026 00:30:00.150180 44957 net.cpp:165] Memory required for data: 813432896
I1026 00:30:00.150183 44957 layer_factory.hpp:77] Creating layer res2b_branch2a
I1026 00:30:00.150192 44957 net.cpp:100] Creating Layer res2b_branch2a
I1026 00:30:00.150195 44957 net.cpp:434] res2b_branch2a <- res2a_res2a_relu_0_split_0
I1026 00:30:00.150200 44957 net.cpp:408] res2b_branch2a -> res2b_branch2a
I1026 00:30:00.150352 44957 net.cpp:150] Setting up res2b_branch2a
I1026 00:30:00.150362 44957 net.cpp:157] Top shape: 16 64 54 54 (2985984)
I1026 00:30:00.150365 44957 net.cpp:165] Memory required for data: 825376832
I1026 00:30:00.150370 44957 layer_factory.hpp:77] Creating layer bn2b_branch2a
I1026 00:30:00.150377 44957 net.cpp:100] Creating Layer bn2b_branch2a
I1026 00:30:00.150380 44957 net.cpp:434] bn2b_branch2a <- res2b_branch2a
I1026 00:30:00.150384 44957 net.cpp:395] bn2b_branch2a -> res2b_branch2a (in-place)
I1026 00:30:00.150537 44957 net.cpp:150] Setting up bn2b_branch2a
I1026 00:30:00.150547 44957 net.cpp:157] Top shape: 16 64 54 54 (2985984)
I1026 00:30:00.150550 44957 net.cpp:165] Memory required for data: 837320768
I1026 00:30:00.150562 44957 layer_factory.hpp:77] Creating layer scale2b_branch2a
I1026 00:30:00.150585 44957 net.cpp:100] Creating Layer scale2b_branch2a
I1026 00:30:00.150591 44957 net.cpp:434] scale2b_branch2a <- res2b_branch2a
I1026 00:30:00.150614 44957 net.cpp:395] scale2b_branch2a -> res2b_branch2a (in-place)
I1026 00:30:00.150671 44957 layer_factory.hpp:77] Creating layer scale2b_branch2a
I1026 00:30:00.150776 44957 net.cpp:150] Setting up scale2b_branch2a
I1026 00:30:00.150786 44957 net.cpp:157] Top shape: 16 64 54 54 (2985984)
I1026 00:30:00.150789 44957 net.cpp:165] Memory required for data: 849264704
I1026 00:30:00.150796 44957 layer_factory.hpp:77] Creating layer res2b_branch2a_relu
I1026 00:30:00.150801 44957 net.cpp:100] Creating Layer res2b_branch2a_relu
I1026 00:30:00.150805 44957 net.cpp:434] res2b_branch2a_relu <- res2b_branch2a
I1026 00:30:00.150812 44957 net.cpp:395] res2b_branch2a_relu -> res2b_branch2a (in-place)
I1026 00:30:00.150818 44957 net.cpp:150] Setting up res2b_branch2a_relu
I1026 00:30:00.150823 44957 net.cpp:157] Top shape: 16 64 54 54 (2985984)
I1026 00:30:00.150826 44957 net.cpp:165] Memory required for data: 861208640
I1026 00:30:00.150830 44957 layer_factory.hpp:77] Creating layer res2b_branch2b
I1026 00:30:00.150838 44957 net.cpp:100] Creating Layer res2b_branch2b
I1026 00:30:00.150842 44957 net.cpp:434] res2b_branch2b <- res2b_branch2a
I1026 00:30:00.150847 44957 net.cpp:408] res2b_branch2b -> res2b_branch2b
I1026 00:30:00.151024 44957 net.cpp:150] Setting up res2b_branch2b
I1026 00:30:00.151036 44957 net.cpp:157] Top shape: 16 64 54 54 (2985984)
I1026 00:30:00.151038 44957 net.cpp:165] Memory required for data: 873152576
I1026 00:30:00.151043 44957 layer_factory.hpp:77] Creating layer bn2b_branch2b
I1026 00:30:00.151049 44957 net.cpp:100] Creating Layer bn2b_branch2b
I1026 00:30:00.151053 44957 net.cpp:434] bn2b_branch2b <- res2b_branch2b
I1026 00:30:00.151060 44957 net.cpp:395] bn2b_branch2b -> res2b_branch2b (in-place)
I1026 00:30:00.151219 44957 net.cpp:150] Setting up bn2b_branch2b
I1026 00:30:00.151228 44957 net.cpp:157] Top shape: 16 64 54 54 (2985984)
I1026 00:30:00.151232 44957 net.cpp:165] Memory required for data: 885096512
I1026 00:30:00.151239 44957 layer_factory.hpp:77] Creating layer scale2b_branch2b
I1026 00:30:00.151245 44957 net.cpp:100] Creating Layer scale2b_branch2b
I1026 00:30:00.151248 44957 net.cpp:434] scale2b_branch2b <- res2b_branch2b
I1026 00:30:00.151255 44957 net.cpp:395] scale2b_branch2b -> res2b_branch2b (in-place)
I1026 00:30:00.151289 44957 layer_factory.hpp:77] Creating layer scale2b_branch2b
I1026 00:30:00.151391 44957 net.cpp:150] Setting up scale2b_branch2b
I1026 00:30:00.151401 44957 net.cpp:157] Top shape: 16 64 54 54 (2985984)
I1026 00:30:00.151403 44957 net.cpp:165] Memory required for data: 897040448
I1026 00:30:00.151409 44957 layer_factory.hpp:77] Creating layer res2b_branch2b_relu
I1026 00:30:00.151415 44957 net.cpp:100] Creating Layer res2b_branch2b_relu
I1026 00:30:00.151418 44957 net.cpp:434] res2b_branch2b_relu <- res2b_branch2b
I1026 00:30:00.151425 44957 net.cpp:395] res2b_branch2b_relu -> res2b_branch2b (in-place)
I1026 00:30:00.151432 44957 net.cpp:150] Setting up res2b_branch2b_relu
I1026 00:30:00.151437 44957 net.cpp:157] Top shape: 16 64 54 54 (2985984)
I1026 00:30:00.151439 44957 net.cpp:165] Memory required for data: 908984384
I1026 00:30:00.151443 44957 layer_factory.hpp:77] Creating layer res2b_branch2c
I1026 00:30:00.151461 44957 net.cpp:100] Creating Layer res2b_branch2c
I1026 00:30:00.151468 44957 net.cpp:434] res2b_branch2c <- res2b_branch2b
I1026 00:30:00.151473 44957 net.cpp:408] res2b_branch2c -> res2b_branch2c
I1026 00:30:00.151630 44957 net.cpp:150] Setting up res2b_branch2c
I1026 00:30:00.151641 44957 net.cpp:157] Top shape: 16 256 54 54 (11943936)
I1026 00:30:00.151644 44957 net.cpp:165] Memory required for data: 956760128
I1026 00:30:00.151649 44957 layer_factory.hpp:77] Creating layer bn2b_branch2c
I1026 00:30:00.151655 44957 net.cpp:100] Creating Layer bn2b_branch2c
I1026 00:30:00.151659 44957 net.cpp:434] bn2b_branch2c <- res2b_branch2c
I1026 00:30:00.151666 44957 net.cpp:395] bn2b_branch2c -> res2b_branch2c (in-place)
I1026 00:30:00.151813 44957 net.cpp:150] Setting up bn2b_branch2c
I1026 00:30:00.151823 44957 net.cpp:157] Top shape: 16 256 54 54 (11943936)
I1026 00:30:00.151825 44957 net.cpp:165] Memory required for data: 1004535872
I1026 00:30:00.151844 44957 layer_factory.hpp:77] Creating layer scale2b_branch2c
I1026 00:30:00.151851 44957 net.cpp:100] Creating Layer scale2b_branch2c
I1026 00:30:00.151855 44957 net.cpp:434] scale2b_branch2c <- res2b_branch2c
I1026 00:30:00.151860 44957 net.cpp:395] scale2b_branch2c -> res2b_branch2c (in-place)
I1026 00:30:00.151896 44957 layer_factory.hpp:77] Creating layer scale2b_branch2c
I1026 00:30:00.151991 44957 net.cpp:150] Setting up scale2b_branch2c
I1026 00:30:00.152001 44957 net.cpp:157] Top shape: 16 256 54 54 (11943936)
I1026 00:30:00.152004 44957 net.cpp:165] Memory required for data: 1052311616
I1026 00:30:00.152010 44957 layer_factory.hpp:77] Creating layer res2b
I1026 00:30:00.152019 44957 net.cpp:100] Creating Layer res2b
I1026 00:30:00.152022 44957 net.cpp:434] res2b <- res2a_res2a_relu_0_split_1
I1026 00:30:00.152026 44957 net.cpp:434] res2b <- res2b_branch2c
I1026 00:30:00.152031 44957 net.cpp:408] res2b -> res2b
I1026 00:30:00.152055 44957 net.cpp:150] Setting up res2b
I1026 00:30:00.152065 44957 net.cpp:157] Top shape: 16 256 54 54 (11943936)
I1026 00:30:00.152068 44957 net.cpp:165] Memory required for data: 1100087360
I1026 00:30:00.152071 44957 layer_factory.hpp:77] Creating layer res2b_relu
I1026 00:30:00.152076 44957 net.cpp:100] Creating Layer res2b_relu
I1026 00:30:00.152079 44957 net.cpp:434] res2b_relu <- res2b
I1026 00:30:00.152086 44957 net.cpp:395] res2b_relu -> res2b (in-place)
I1026 00:30:00.152092 44957 net.cpp:150] Setting up res2b_relu
I1026 00:30:00.152096 44957 net.cpp:157] Top shape: 16 256 54 54 (11943936)
I1026 00:30:00.152099 44957 net.cpp:165] Memory required for data: 1147863104
I1026 00:30:00.152103 44957 layer_factory.hpp:77] Creating layer res2b_res2b_relu_0_split
I1026 00:30:00.152107 44957 net.cpp:100] Creating Layer res2b_res2b_relu_0_split
I1026 00:30:00.152110 44957 net.cpp:434] res2b_res2b_relu_0_split <- res2b
I1026 00:30:00.152115 44957 net.cpp:408] res2b_res2b_relu_0_split -> res2b_res2b_relu_0_split_0
I1026 00:30:00.152120 44957 net.cpp:408] res2b_res2b_relu_0_split -> res2b_res2b_relu_0_split_1
I1026 00:30:00.152150 44957 net.cpp:150] Setting up res2b_res2b_relu_0_split
I1026 00:30:00.152159 44957 net.cpp:157] Top shape: 16 256 54 54 (11943936)
I1026 00:30:00.152163 44957 net.cpp:157] Top shape: 16 256 54 54 (11943936)
I1026 00:30:00.152166 44957 net.cpp:165] Memory required for data: 1243414592
I1026 00:30:00.152170 44957 layer_factory.hpp:77] Creating layer res2c_branch2a
I1026 00:30:00.152179 44957 net.cpp:100] Creating Layer res2c_branch2a
I1026 00:30:00.152182 44957 net.cpp:434] res2c_branch2a <- res2b_res2b_relu_0_split_0
I1026 00:30:00.152187 44957 net.cpp:408] res2c_branch2a -> res2c_branch2a
I1026 00:30:00.152343 44957 net.cpp:150] Setting up res2c_branch2a
I1026 00:30:00.152353 44957 net.cpp:157] Top shape: 16 64 54 54 (2985984)
I1026 00:30:00.152356 44957 net.cpp:165] Memory required for data: 1255358528
I1026 00:30:00.152361 44957 layer_factory.hpp:77] Creating layer bn2c_branch2a
I1026 00:30:00.152367 44957 net.cpp:100] Creating Layer bn2c_branch2a
I1026 00:30:00.152370 44957 net.cpp:434] bn2c_branch2a <- res2c_branch2a
I1026 00:30:00.152375 44957 net.cpp:395] bn2c_branch2a -> res2c_branch2a (in-place)
I1026 00:30:00.152531 44957 net.cpp:150] Setting up bn2c_branch2a
I1026 00:30:00.152540 44957 net.cpp:157] Top shape: 16 64 54 54 (2985984)
I1026 00:30:00.152544 44957 net.cpp:165] Memory required for data: 1267302464
I1026 00:30:00.152551 44957 layer_factory.hpp:77] Creating layer scale2c_branch2a
I1026 00:30:00.152557 44957 net.cpp:100] Creating Layer scale2c_branch2a
I1026 00:30:00.152560 44957 net.cpp:434] scale2c_branch2a <- res2c_branch2a
I1026 00:30:00.152565 44957 net.cpp:395] scale2c_branch2a -> res2c_branch2a (in-place)
I1026 00:30:00.152602 44957 layer_factory.hpp:77] Creating layer scale2c_branch2a
I1026 00:30:00.152704 44957 net.cpp:150] Setting up scale2c_branch2a
I1026 00:30:00.152714 44957 net.cpp:157] Top shape: 16 64 54 54 (2985984)
I1026 00:30:00.152717 44957 net.cpp:165] Memory required for data: 1279246400
I1026 00:30:00.152734 44957 layer_factory.hpp:77] Creating layer res2c_branch2a_relu
I1026 00:30:00.152743 44957 net.cpp:100] Creating Layer res2c_branch2a_relu
I1026 00:30:00.152746 44957 net.cpp:434] res2c_branch2a_relu <- res2c_branch2a
I1026 00:30:00.152751 44957 net.cpp:395] res2c_branch2a_relu -> res2c_branch2a (in-place)
I1026 00:30:00.152757 44957 net.cpp:150] Setting up res2c_branch2a_relu
I1026 00:30:00.152761 44957 net.cpp:157] Top shape: 16 64 54 54 (2985984)
I1026 00:30:00.152765 44957 net.cpp:165] Memory required for data: 1291190336
I1026 00:30:00.152768 44957 layer_factory.hpp:77] Creating layer res2c_branch2b
I1026 00:30:00.152776 44957 net.cpp:100] Creating Layer res2c_branch2b
I1026 00:30:00.152779 44957 net.cpp:434] res2c_branch2b <- res2c_branch2a
I1026 00:30:00.152784 44957 net.cpp:408] res2c_branch2b -> res2c_branch2b
I1026 00:30:00.152957 44957 net.cpp:150] Setting up res2c_branch2b
I1026 00:30:00.152968 44957 net.cpp:157] Top shape: 16 64 54 54 (2985984)
I1026 00:30:00.152971 44957 net.cpp:165] Memory required for data: 1303134272
I1026 00:30:00.152977 44957 layer_factory.hpp:77] Creating layer bn2c_branch2b
I1026 00:30:00.152983 44957 net.cpp:100] Creating Layer bn2c_branch2b
I1026 00:30:00.152987 44957 net.cpp:434] bn2c_branch2b <- res2c_branch2b
I1026 00:30:00.152992 44957 net.cpp:395] bn2c_branch2b -> res2c_branch2b (in-place)
I1026 00:30:00.153142 44957 net.cpp:150] Setting up bn2c_branch2b
I1026 00:30:00.153151 44957 net.cpp:157] Top shape: 16 64 54 54 (2985984)
I1026 00:30:00.153156 44957 net.cpp:165] Memory required for data: 1315078208
I1026 00:30:00.153162 44957 layer_factory.hpp:77] Creating layer scale2c_branch2b
I1026 00:30:00.153168 44957 net.cpp:100] Creating Layer scale2c_branch2b
I1026 00:30:00.153172 44957 net.cpp:434] scale2c_branch2b <- res2c_branch2b
I1026 00:30:00.153177 44957 net.cpp:395] scale2c_branch2b -> res2c_branch2b (in-place)
I1026 00:30:00.153220 44957 layer_factory.hpp:77] Creating layer scale2c_branch2b
I1026 00:30:00.153331 44957 net.cpp:150] Setting up scale2c_branch2b
I1026 00:30:00.153340 44957 net.cpp:157] Top shape: 16 64 54 54 (2985984)
I1026 00:30:00.153344 44957 net.cpp:165] Memory required for data: 1327022144
I1026 00:30:00.153350 44957 layer_factory.hpp:77] Creating layer res2c_branch2b_relu
I1026 00:30:00.153357 44957 net.cpp:100] Creating Layer res2c_branch2b_relu
I1026 00:30:00.153362 44957 net.cpp:434] res2c_branch2b_relu <- res2c_branch2b
I1026 00:30:00.153365 44957 net.cpp:395] res2c_branch2b_relu -> res2c_branch2b (in-place)
I1026 00:30:00.153372 44957 net.cpp:150] Setting up res2c_branch2b_relu
I1026 00:30:00.153375 44957 net.cpp:157] Top shape: 16 64 54 54 (2985984)
I1026 00:30:00.153379 44957 net.cpp:165] Memory required for data: 1338966080
I1026 00:30:00.153383 44957 layer_factory.hpp:77] Creating layer res2c_branch2c
I1026 00:30:00.153390 44957 net.cpp:100] Creating Layer res2c_branch2c
I1026 00:30:00.153394 44957 net.cpp:434] res2c_branch2c <- res2c_branch2b
I1026 00:30:00.153399 44957 net.cpp:408] res2c_branch2c -> res2c_branch2c
I1026 00:30:00.154520 44957 net.cpp:150] Setting up res2c_branch2c
I1026 00:30:00.154534 44957 net.cpp:157] Top shape: 16 256 54 54 (11943936)
I1026 00:30:00.154552 44957 net.cpp:165] Memory required for data: 1386741824
I1026 00:30:00.154557 44957 layer_factory.hpp:77] Creating layer bn2c_branch2c
I1026 00:30:00.154573 44957 net.cpp:100] Creating Layer bn2c_branch2c
I1026 00:30:00.154578 44957 net.cpp:434] bn2c_branch2c <- res2c_branch2c
I1026 00:30:00.154583 44957 net.cpp:395] bn2c_branch2c -> res2c_branch2c (in-place)
I1026 00:30:00.154745 44957 net.cpp:150] Setting up bn2c_branch2c
I1026 00:30:00.154755 44957 net.cpp:157] Top shape: 16 256 54 54 (11943936)
I1026 00:30:00.154759 44957 net.cpp:165] Memory required for data: 1434517568
I1026 00:30:00.154778 44957 layer_factory.hpp:77] Creating layer scale2c_branch2c
I1026 00:30:00.154788 44957 net.cpp:100] Creating Layer scale2c_branch2c
I1026 00:30:00.154793 44957 net.cpp:434] scale2c_branch2c <- res2c_branch2c
I1026 00:30:00.154798 44957 net.cpp:395] scale2c_branch2c -> res2c_branch2c (in-place)
I1026 00:30:00.154855 44957 layer_factory.hpp:77] Creating layer scale2c_branch2c
I1026 00:30:00.154960 44957 net.cpp:150] Setting up scale2c_branch2c
I1026 00:30:00.154971 44957 net.cpp:157] Top shape: 16 256 54 54 (11943936)
I1026 00:30:00.154975 44957 net.cpp:165] Memory required for data: 1482293312
I1026 00:30:00.154983 44957 layer_factory.hpp:77] Creating layer res2c
I1026 00:30:00.154988 44957 net.cpp:100] Creating Layer res2c
I1026 00:30:00.154991 44957 net.cpp:434] res2c <- res2b_res2b_relu_0_split_1
I1026 00:30:00.154995 44957 net.cpp:434] res2c <- res2c_branch2c
I1026 00:30:00.155000 44957 net.cpp:408] res2c -> res2c
I1026 00:30:00.155024 44957 net.cpp:150] Setting up res2c
I1026 00:30:00.155032 44957 net.cpp:157] Top shape: 16 256 54 54 (11943936)
I1026 00:30:00.155035 44957 net.cpp:165] Memory required for data: 1530069056
I1026 00:30:00.155040 44957 layer_factory.hpp:77] Creating layer res2c_relu
I1026 00:30:00.155045 44957 net.cpp:100] Creating Layer res2c_relu
I1026 00:30:00.155047 44957 net.cpp:434] res2c_relu <- res2c
I1026 00:30:00.155051 44957 net.cpp:395] res2c_relu -> res2c (in-place)
I1026 00:30:00.155057 44957 net.cpp:150] Setting up res2c_relu
I1026 00:30:00.155062 44957 net.cpp:157] Top shape: 16 256 54 54 (11943936)
I1026 00:30:00.155066 44957 net.cpp:165] Memory required for data: 1577844800
I1026 00:30:00.155068 44957 layer_factory.hpp:77] Creating layer res2c_res2c_relu_0_split
I1026 00:30:00.155073 44957 net.cpp:100] Creating Layer res2c_res2c_relu_0_split
I1026 00:30:00.155076 44957 net.cpp:434] res2c_res2c_relu_0_split <- res2c
I1026 00:30:00.155081 44957 net.cpp:408] res2c_res2c_relu_0_split -> res2c_res2c_relu_0_split_0
I1026 00:30:00.155088 44957 net.cpp:408] res2c_res2c_relu_0_split -> res2c_res2c_relu_0_split_1
I1026 00:30:00.155115 44957 net.cpp:150] Setting up res2c_res2c_relu_0_split
I1026 00:30:00.155124 44957 net.cpp:157] Top shape: 16 256 54 54 (11943936)
I1026 00:30:00.155128 44957 net.cpp:157] Top shape: 16 256 54 54 (11943936)
I1026 00:30:00.155131 44957 net.cpp:165] Memory required for data: 1673396288
I1026 00:30:00.155134 44957 layer_factory.hpp:77] Creating layer res3a_branch1
I1026 00:30:00.155144 44957 net.cpp:100] Creating Layer res3a_branch1
I1026 00:30:00.155148 44957 net.cpp:434] res3a_branch1 <- res2c_res2c_relu_0_split_0
I1026 00:30:00.155153 44957 net.cpp:408] res3a_branch1 -> res3a_branch1
I1026 00:30:00.156194 44957 net.cpp:150] Setting up res3a_branch1
I1026 00:30:00.156208 44957 net.cpp:157] Top shape: 16 512 27 27 (5971968)
I1026 00:30:00.156211 44957 net.cpp:165] Memory required for data: 1697284160
I1026 00:30:00.156216 44957 layer_factory.hpp:77] Creating layer bn3a_branch1
I1026 00:30:00.156224 44957 net.cpp:100] Creating Layer bn3a_branch1
I1026 00:30:00.156229 44957 net.cpp:434] bn3a_branch1 <- res3a_branch1
I1026 00:30:00.156234 44957 net.cpp:395] bn3a_branch1 -> res3a_branch1 (in-place)
I1026 00:30:00.157125 44957 net.cpp:150] Setting up bn3a_branch1
I1026 00:30:00.157137 44957 net.cpp:157] Top shape: 16 512 27 27 (5971968)
I1026 00:30:00.157140 44957 net.cpp:165] Memory required for data: 1721172032
I1026 00:30:00.157165 44957 layer_factory.hpp:77] Creating layer scale3a_branch1
I1026 00:30:00.157171 44957 net.cpp:100] Creating Layer scale3a_branch1
I1026 00:30:00.157177 44957 net.cpp:434] scale3a_branch1 <- res3a_branch1
I1026 00:30:00.157183 44957 net.cpp:395] scale3a_branch1 -> res3a_branch1 (in-place)
I1026 00:30:00.157227 44957 layer_factory.hpp:77] Creating layer scale3a_branch1
I1026 00:30:00.157325 44957 net.cpp:150] Setting up scale3a_branch1
I1026 00:30:00.157333 44957 net.cpp:157] Top shape: 16 512 27 27 (5971968)
I1026 00:30:00.157337 44957 net.cpp:165] Memory required for data: 1745059904
I1026 00:30:00.157343 44957 layer_factory.hpp:77] Creating layer res3a_branch2a
I1026 00:30:00.157352 44957 net.cpp:100] Creating Layer res3a_branch2a
I1026 00:30:00.157358 44957 net.cpp:434] res3a_branch2a <- res2c_res2c_relu_0_split_1
I1026 00:30:00.157366 44957 net.cpp:408] res3a_branch2a -> res3a_branch2a
I1026 00:30:00.157558 44957 net.cpp:150] Setting up res3a_branch2a
I1026 00:30:00.157569 44957 net.cpp:157] Top shape: 16 128 27 27 (1492992)
I1026 00:30:00.157572 44957 net.cpp:165] Memory required for data: 1751031872
I1026 00:30:00.157578 44957 layer_factory.hpp:77] Creating layer bn3a_branch2a
I1026 00:30:00.157584 44957 net.cpp:100] Creating Layer bn3a_branch2a
I1026 00:30:00.157588 44957 net.cpp:434] bn3a_branch2a <- res3a_branch2a
I1026 00:30:00.157593 44957 net.cpp:395] bn3a_branch2a -> res3a_branch2a (in-place)
I1026 00:30:00.157740 44957 net.cpp:150] Setting up bn3a_branch2a
I1026 00:30:00.157750 44957 net.cpp:157] Top shape: 16 128 27 27 (1492992)
I1026 00:30:00.157753 44957 net.cpp:165] Memory required for data: 1757003840
I1026 00:30:00.157763 44957 layer_factory.hpp:77] Creating layer scale3a_branch2a
I1026 00:30:00.157773 44957 net.cpp:100] Creating Layer scale3a_branch2a
I1026 00:30:00.157776 44957 net.cpp:434] scale3a_branch2a <- res3a_branch2a
I1026 00:30:00.157781 44957 net.cpp:395] scale3a_branch2a -> res3a_branch2a (in-place)
I1026 00:30:00.157816 44957 layer_factory.hpp:77] Creating layer scale3a_branch2a
I1026 00:30:00.157910 44957 net.cpp:150] Setting up scale3a_branch2a
I1026 00:30:00.157919 44957 net.cpp:157] Top shape: 16 128 27 27 (1492992)
I1026 00:30:00.157923 44957 net.cpp:165] Memory required for data: 1762975808
I1026 00:30:00.157929 44957 layer_factory.hpp:77] Creating layer res3a_branch2a_relu
I1026 00:30:00.157937 44957 net.cpp:100] Creating Layer res3a_branch2a_relu
I1026 00:30:00.157940 44957 net.cpp:434] res3a_branch2a_relu <- res3a_branch2a
I1026 00:30:00.157945 44957 net.cpp:395] res3a_branch2a_relu -> res3a_branch2a (in-place)
I1026 00:30:00.157951 44957 net.cpp:150] Setting up res3a_branch2a_relu
I1026 00:30:00.157956 44957 net.cpp:157] Top shape: 16 128 27 27 (1492992)
I1026 00:30:00.157959 44957 net.cpp:165] Memory required for data: 1768947776
I1026 00:30:00.157963 44957 layer_factory.hpp:77] Creating layer res3a_branch2b
I1026 00:30:00.157971 44957 net.cpp:100] Creating Layer res3a_branch2b
I1026 00:30:00.157974 44957 net.cpp:434] res3a_branch2b <- res3a_branch2a
I1026 00:30:00.157980 44957 net.cpp:408] res3a_branch2b -> res3a_branch2b
I1026 00:30:00.159854 44957 net.cpp:150] Setting up res3a_branch2b
I1026 00:30:00.159868 44957 net.cpp:157] Top shape: 16 128 27 27 (1492992)
I1026 00:30:00.159885 44957 net.cpp:165] Memory required for data: 1774919744
I1026 00:30:00.159890 44957 layer_factory.hpp:77] Creating layer bn3a_branch2b
I1026 00:30:00.159898 44957 net.cpp:100] Creating Layer bn3a_branch2b
I1026 00:30:00.159900 44957 net.cpp:434] bn3a_branch2b <- res3a_branch2b
I1026 00:30:00.159905 44957 net.cpp:395] bn3a_branch2b -> res3a_branch2b (in-place)
I1026 00:30:00.160075 44957 net.cpp:150] Setting up bn3a_branch2b
I1026 00:30:00.160085 44957 net.cpp:157] Top shape: 16 128 27 27 (1492992)
I1026 00:30:00.160089 44957 net.cpp:165] Memory required for data: 1780891712
I1026 00:30:00.160095 44957 layer_factory.hpp:77] Creating layer scale3a_branch2b
I1026 00:30:00.160115 44957 net.cpp:100] Creating Layer scale3a_branch2b
I1026 00:30:00.160122 44957 net.cpp:434] scale3a_branch2b <- res3a_branch2b
I1026 00:30:00.160127 44957 net.cpp:395] scale3a_branch2b -> res3a_branch2b (in-place)
I1026 00:30:00.160166 44957 layer_factory.hpp:77] Creating layer scale3a_branch2b
I1026 00:30:00.160264 44957 net.cpp:150] Setting up scale3a_branch2b
I1026 00:30:00.160274 44957 net.cpp:157] Top shape: 16 128 27 27 (1492992)
I1026 00:30:00.160277 44957 net.cpp:165] Memory required for data: 1786863680
I1026 00:30:00.160284 44957 layer_factory.hpp:77] Creating layer res3a_branch2b_relu
I1026 00:30:00.160290 44957 net.cpp:100] Creating Layer res3a_branch2b_relu
I1026 00:30:00.160292 44957 net.cpp:434] res3a_branch2b_relu <- res3a_branch2b
I1026 00:30:00.160300 44957 net.cpp:395] res3a_branch2b_relu -> res3a_branch2b (in-place)
I1026 00:30:00.160306 44957 net.cpp:150] Setting up res3a_branch2b_relu
I1026 00:30:00.160310 44957 net.cpp:157] Top shape: 16 128 27 27 (1492992)
I1026 00:30:00.160327 44957 net.cpp:165] Memory required for data: 1792835648
I1026 00:30:00.160331 44957 layer_factory.hpp:77] Creating layer res3a_branch2c
I1026 00:30:00.160341 44957 net.cpp:100] Creating Layer res3a_branch2c
I1026 00:30:00.160344 44957 net.cpp:434] res3a_branch2c <- res3a_branch2b
I1026 00:30:00.160349 44957 net.cpp:408] res3a_branch2c -> res3a_branch2c
I1026 00:30:00.160567 44957 net.cpp:150] Setting up res3a_branch2c
I1026 00:30:00.160578 44957 net.cpp:157] Top shape: 16 512 27 27 (5971968)
I1026 00:30:00.160583 44957 net.cpp:165] Memory required for data: 1816723520
I1026 00:30:00.160588 44957 layer_factory.hpp:77] Creating layer bn3a_branch2c
I1026 00:30:00.160603 44957 net.cpp:100] Creating Layer bn3a_branch2c
I1026 00:30:00.160609 44957 net.cpp:434] bn3a_branch2c <- res3a_branch2c
I1026 00:30:00.160614 44957 net.cpp:395] bn3a_branch2c -> res3a_branch2c (in-place)
I1026 00:30:00.160765 44957 net.cpp:150] Setting up bn3a_branch2c
I1026 00:30:00.160774 44957 net.cpp:157] Top shape: 16 512 27 27 (5971968)
I1026 00:30:00.160778 44957 net.cpp:165] Memory required for data: 1840611392
I1026 00:30:00.160786 44957 layer_factory.hpp:77] Creating layer scale3a_branch2c
I1026 00:30:00.160792 44957 net.cpp:100] Creating Layer scale3a_branch2c
I1026 00:30:00.160795 44957 net.cpp:434] scale3a_branch2c <- res3a_branch2c
I1026 00:30:00.160802 44957 net.cpp:395] scale3a_branch2c -> res3a_branch2c (in-place)
I1026 00:30:00.160838 44957 layer_factory.hpp:77] Creating layer scale3a_branch2c
I1026 00:30:00.160933 44957 net.cpp:150] Setting up scale3a_branch2c
I1026 00:30:00.160943 44957 net.cpp:157] Top shape: 16 512 27 27 (5971968)
I1026 00:30:00.160945 44957 net.cpp:165] Memory required for data: 1864499264
I1026 00:30:00.160951 44957 layer_factory.hpp:77] Creating layer res3a
I1026 00:30:00.160959 44957 net.cpp:100] Creating Layer res3a
I1026 00:30:00.160961 44957 net.cpp:434] res3a <- res3a_branch1
I1026 00:30:00.160966 44957 net.cpp:434] res3a <- res3a_branch2c
I1026 00:30:00.160970 44957 net.cpp:408] res3a -> res3a
I1026 00:30:00.160995 44957 net.cpp:150] Setting up res3a
I1026 00:30:00.161005 44957 net.cpp:157] Top shape: 16 512 27 27 (5971968)
I1026 00:30:00.161007 44957 net.cpp:165] Memory required for data: 1888387136
I1026 00:30:00.161010 44957 layer_factory.hpp:77] Creating layer res3a_relu
I1026 00:30:00.161018 44957 net.cpp:100] Creating Layer res3a_relu
I1026 00:30:00.161021 44957 net.cpp:434] res3a_relu <- res3a
I1026 00:30:00.161026 44957 net.cpp:395] res3a_relu -> res3a (in-place)
I1026 00:30:00.161032 44957 net.cpp:150] Setting up res3a_relu
I1026 00:30:00.161036 44957 net.cpp:157] Top shape: 16 512 27 27 (5971968)
I1026 00:30:00.161039 44957 net.cpp:165] Memory required for data: 1912275008
I1026 00:30:00.161042 44957 layer_factory.hpp:77] Creating layer res3a_res3a_relu_0_split
I1026 00:30:00.161047 44957 net.cpp:100] Creating Layer res3a_res3a_relu_0_split
I1026 00:30:00.161051 44957 net.cpp:434] res3a_res3a_relu_0_split <- res3a
I1026 00:30:00.161057 44957 net.cpp:408] res3a_res3a_relu_0_split -> res3a_res3a_relu_0_split_0
I1026 00:30:00.161063 44957 net.cpp:408] res3a_res3a_relu_0_split -> res3a_res3a_relu_0_split_1
I1026 00:30:00.161092 44957 net.cpp:150] Setting up res3a_res3a_relu_0_split
I1026 00:30:00.161100 44957 net.cpp:157] Top shape: 16 512 27 27 (5971968)
I1026 00:30:00.161104 44957 net.cpp:157] Top shape: 16 512 27 27 (5971968)
I1026 00:30:00.161108 44957 net.cpp:165] Memory required for data: 1960050752
I1026 00:30:00.161110 44957 layer_factory.hpp:77] Creating layer res3b_branch2a
I1026 00:30:00.161120 44957 net.cpp:100] Creating Layer res3b_branch2a
I1026 00:30:00.161124 44957 net.cpp:434] res3b_branch2a <- res3a_res3a_relu_0_split_0
I1026 00:30:00.161129 44957 net.cpp:408] res3b_branch2a -> res3b_branch2a
I1026 00:30:00.162191 44957 net.cpp:150] Setting up res3b_branch2a
I1026 00:30:00.162204 44957 net.cpp:157] Top shape: 16 128 27 27 (1492992)
I1026 00:30:00.162221 44957 net.cpp:165] Memory required for data: 1966022720
I1026 00:30:00.162227 44957 layer_factory.hpp:77] Creating layer bn3b_branch2a
I1026 00:30:00.162245 44957 net.cpp:100] Creating Layer bn3b_branch2a
I1026 00:30:00.162250 44957 net.cpp:434] bn3b_branch2a <- res3b_branch2a
I1026 00:30:00.162255 44957 net.cpp:395] bn3b_branch2a -> res3b_branch2a (in-place)
I1026 00:30:00.162410 44957 net.cpp:150] Setting up bn3b_branch2a
I1026 00:30:00.162420 44957 net.cpp:157] Top shape: 16 128 27 27 (1492992)
I1026 00:30:00.162422 44957 net.cpp:165] Memory required for data: 1971994688
I1026 00:30:00.162431 44957 layer_factory.hpp:77] Creating layer scale3b_branch2a
I1026 00:30:00.162438 44957 net.cpp:100] Creating Layer scale3b_branch2a
I1026 00:30:00.162444 44957 net.cpp:434] scale3b_branch2a <- res3b_branch2a
I1026 00:30:00.162449 44957 net.cpp:395] scale3b_branch2a -> res3b_branch2a (in-place)
I1026 00:30:00.162488 44957 layer_factory.hpp:77] Creating layer scale3b_branch2a
I1026 00:30:00.162595 44957 net.cpp:150] Setting up scale3b_branch2a
I1026 00:30:00.162606 44957 net.cpp:157] Top shape: 16 128 27 27 (1492992)
I1026 00:30:00.162609 44957 net.cpp:165] Memory required for data: 1977966656
I1026 00:30:00.162616 44957 layer_factory.hpp:77] Creating layer res3b_branch2a_relu
I1026 00:30:00.162621 44957 net.cpp:100] Creating Layer res3b_branch2a_relu
I1026 00:30:00.162626 44957 net.cpp:434] res3b_branch2a_relu <- res3b_branch2a
I1026 00:30:00.162632 44957 net.cpp:395] res3b_branch2a_relu -> res3b_branch2a (in-place)
I1026 00:30:00.162647 44957 net.cpp:150] Setting up res3b_branch2a_relu
I1026 00:30:00.162652 44957 net.cpp:157] Top shape: 16 128 27 27 (1492992)
I1026 00:30:00.162654 44957 net.cpp:165] Memory required for data: 1983938624
I1026 00:30:00.162657 44957 layer_factory.hpp:77] Creating layer res3b_branch2b
I1026 00:30:00.162667 44957 net.cpp:100] Creating Layer res3b_branch2b
I1026 00:30:00.162669 44957 net.cpp:434] res3b_branch2b <- res3b_branch2a
I1026 00:30:00.162674 44957 net.cpp:408] res3b_branch2b -> res3b_branch2b
I1026 00:30:00.164644 44957 net.cpp:150] Setting up res3b_branch2b
I1026 00:30:00.164660 44957 net.cpp:157] Top shape: 16 128 27 27 (1492992)
I1026 00:30:00.164679 44957 net.cpp:165] Memory required for data: 1989910592
I1026 00:30:00.164685 44957 layer_factory.hpp:77] Creating layer bn3b_branch2b
I1026 00:30:00.164692 44957 net.cpp:100] Creating Layer bn3b_branch2b
I1026 00:30:00.164697 44957 net.cpp:434] bn3b_branch2b <- res3b_branch2b
I1026 00:30:00.164702 44957 net.cpp:395] bn3b_branch2b -> res3b_branch2b (in-place)
I1026 00:30:00.164876 44957 net.cpp:150] Setting up bn3b_branch2b
I1026 00:30:00.164886 44957 net.cpp:157] Top shape: 16 128 27 27 (1492992)
I1026 00:30:00.164891 44957 net.cpp:165] Memory required for data: 1995882560
I1026 00:30:00.164898 44957 layer_factory.hpp:77] Creating layer scale3b_branch2b
I1026 00:30:00.164906 44957 net.cpp:100] Creating Layer scale3b_branch2b
I1026 00:30:00.164912 44957 net.cpp:434] scale3b_branch2b <- res3b_branch2b
I1026 00:30:00.164917 44957 net.cpp:395] scale3b_branch2b -> res3b_branch2b (in-place)
I1026 00:30:00.164957 44957 layer_factory.hpp:77] Creating layer scale3b_branch2b
I1026 00:30:00.165060 44957 net.cpp:150] Setting up scale3b_branch2b
I1026 00:30:00.165069 44957 net.cpp:157] Top shape: 16 128 27 27 (1492992)
I1026 00:30:00.165072 44957 net.cpp:165] Memory required for data: 2001854528
I1026 00:30:00.165078 44957 layer_factory.hpp:77] Creating layer res3b_branch2b_relu
I1026 00:30:00.165084 44957 net.cpp:100] Creating Layer res3b_branch2b_relu
I1026 00:30:00.165087 44957 net.cpp:434] res3b_branch2b_relu <- res3b_branch2b
I1026 00:30:00.165092 44957 net.cpp:395] res3b_branch2b_relu -> res3b_branch2b (in-place)
I1026 00:30:00.165098 44957 net.cpp:150] Setting up res3b_branch2b_relu
I1026 00:30:00.165103 44957 net.cpp:157] Top shape: 16 128 27 27 (1492992)
I1026 00:30:00.165107 44957 net.cpp:165] Memory required for data: 2007826496
I1026 00:30:00.165109 44957 layer_factory.hpp:77] Creating layer res3b_branch2c
I1026 00:30:00.165118 44957 net.cpp:100] Creating Layer res3b_branch2c
I1026 00:30:00.165122 44957 net.cpp:434] res3b_branch2c <- res3b_branch2b
I1026 00:30:00.165138 44957 net.cpp:408] res3b_branch2c -> res3b_branch2c
I1026 00:30:00.165357 44957 net.cpp:150] Setting up res3b_branch2c
I1026 00:30:00.165369 44957 net.cpp:157] Top shape: 16 512 27 27 (5971968)
I1026 00:30:00.165372 44957 net.cpp:165] Memory required for data: 2031714368
I1026 00:30:00.165377 44957 layer_factory.hpp:77] Creating layer bn3b_branch2c
I1026 00:30:00.165383 44957 net.cpp:100] Creating Layer bn3b_branch2c
I1026 00:30:00.165387 44957 net.cpp:434] bn3b_branch2c <- res3b_branch2c
I1026 00:30:00.165392 44957 net.cpp:395] bn3b_branch2c -> res3b_branch2c (in-place)
I1026 00:30:00.165551 44957 net.cpp:150] Setting up bn3b_branch2c
I1026 00:30:00.165560 44957 net.cpp:157] Top shape: 16 512 27 27 (5971968)
I1026 00:30:00.165565 44957 net.cpp:165] Memory required for data: 2055602240
I1026 00:30:00.165575 44957 layer_factory.hpp:77] Creating layer scale3b_branch2c
I1026 00:30:00.165581 44957 net.cpp:100] Creating Layer scale3b_branch2c
I1026 00:30:00.165585 44957 net.cpp:434] scale3b_branch2c <- res3b_branch2c
I1026 00:30:00.165591 44957 net.cpp:395] scale3b_branch2c -> res3b_branch2c (in-place)
I1026 00:30:00.165629 44957 layer_factory.hpp:77] Creating layer scale3b_branch2c
I1026 00:30:00.165725 44957 net.cpp:150] Setting up scale3b_branch2c
I1026 00:30:00.165735 44957 net.cpp:157] Top shape: 16 512 27 27 (5971968)
I1026 00:30:00.165737 44957 net.cpp:165] Memory required for data: 2079490112
I1026 00:30:00.165743 44957 layer_factory.hpp:77] Creating layer res3b
I1026 00:30:00.165751 44957 net.cpp:100] Creating Layer res3b
I1026 00:30:00.165755 44957 net.cpp:434] res3b <- res3a_res3a_relu_0_split_1
I1026 00:30:00.165760 44957 net.cpp:434] res3b <- res3b_branch2c
I1026 00:30:00.165766 44957 net.cpp:408] res3b -> res3b
I1026 00:30:00.165788 44957 net.cpp:150] Setting up res3b
I1026 00:30:00.165797 44957 net.cpp:157] Top shape: 16 512 27 27 (5971968)
I1026 00:30:00.165801 44957 net.cpp:165] Memory required for data: 2103377984
I1026 00:30:00.165804 44957 layer_factory.hpp:77] Creating layer res3b_relu
I1026 00:30:00.165809 44957 net.cpp:100] Creating Layer res3b_relu
I1026 00:30:00.165812 44957 net.cpp:434] res3b_relu <- res3b
I1026 00:30:00.165819 44957 net.cpp:395] res3b_relu -> res3b (in-place)
I1026 00:30:00.165825 44957 net.cpp:150] Setting up res3b_relu
I1026 00:30:00.165829 44957 net.cpp:157] Top shape: 16 512 27 27 (5971968)
I1026 00:30:00.165833 44957 net.cpp:165] Memory required for data: 2127265856
I1026 00:30:00.165837 44957 layer_factory.hpp:77] Creating layer res3b_res3b_relu_0_split
I1026 00:30:00.165840 44957 net.cpp:100] Creating Layer res3b_res3b_relu_0_split
I1026 00:30:00.165844 44957 net.cpp:434] res3b_res3b_relu_0_split <- res3b
I1026 00:30:00.165848 44957 net.cpp:408] res3b_res3b_relu_0_split -> res3b_res3b_relu_0_split_0
I1026 00:30:00.165854 44957 net.cpp:408] res3b_res3b_relu_0_split -> res3b_res3b_relu_0_split_1
I1026 00:30:00.165886 44957 net.cpp:150] Setting up res3b_res3b_relu_0_split
I1026 00:30:00.165895 44957 net.cpp:157] Top shape: 16 512 27 27 (5971968)
I1026 00:30:00.165899 44957 net.cpp:157] Top shape: 16 512 27 27 (5971968)
I1026 00:30:00.165902 44957 net.cpp:165] Memory required for data: 2175041600
I1026 00:30:00.165906 44957 layer_factory.hpp:77] Creating layer res3c_branch2a
I1026 00:30:00.165912 44957 net.cpp:100] Creating Layer res3c_branch2a
I1026 00:30:00.165916 44957 net.cpp:434] res3c_branch2a <- res3b_res3b_relu_0_split_0
I1026 00:30:00.165923 44957 net.cpp:408] res3c_branch2a -> res3c_branch2a
I1026 00:30:00.166110 44957 net.cpp:150] Setting up res3c_branch2a
I1026 00:30:00.166121 44957 net.cpp:157] Top shape: 16 128 27 27 (1492992)
I1026 00:30:00.166124 44957 net.cpp:165] Memory required for data: 2181013568
I1026 00:30:00.166129 44957 layer_factory.hpp:77] Creating layer bn3c_branch2a
I1026 00:30:00.166137 44957 net.cpp:100] Creating Layer bn3c_branch2a
I1026 00:30:00.166141 44957 net.cpp:434] bn3c_branch2a <- res3c_branch2a
I1026 00:30:00.166146 44957 net.cpp:395] bn3c_branch2a -> res3c_branch2a (in-place)
I1026 00:30:00.166295 44957 net.cpp:150] Setting up bn3c_branch2a
I1026 00:30:00.166313 44957 net.cpp:157] Top shape: 16 128 27 27 (1492992)
I1026 00:30:00.166317 44957 net.cpp:165] Memory required for data: 2186985536
I1026 00:30:00.166326 44957 layer_factory.hpp:77] Creating layer scale3c_branch2a
I1026 00:30:00.166332 44957 net.cpp:100] Creating Layer scale3c_branch2a
I1026 00:30:00.166335 44957 net.cpp:434] scale3c_branch2a <- res3c_branch2a
I1026 00:30:00.166342 44957 net.cpp:395] scale3c_branch2a -> res3c_branch2a (in-place)
I1026 00:30:00.166378 44957 layer_factory.hpp:77] Creating layer scale3c_branch2a
I1026 00:30:00.166474 44957 net.cpp:150] Setting up scale3c_branch2a
I1026 00:30:00.166488 44957 net.cpp:157] Top shape: 16 128 27 27 (1492992)
I1026 00:30:00.166493 44957 net.cpp:165] Memory required for data: 2192957504
I1026 00:30:00.166501 44957 layer_factory.hpp:77] Creating layer res3c_branch2a_relu
I1026 00:30:00.166506 44957 net.cpp:100] Creating Layer res3c_branch2a_relu
I1026 00:30:00.166509 44957 net.cpp:434] res3c_branch2a_relu <- res3c_branch2a
I1026 00:30:00.166513 44957 net.cpp:395] res3c_branch2a_relu -> res3c_branch2a (in-place)
I1026 00:30:00.166519 44957 net.cpp:150] Setting up res3c_branch2a_relu
I1026 00:30:00.166524 44957 net.cpp:157] Top shape: 16 128 27 27 (1492992)
I1026 00:30:00.166527 44957 net.cpp:165] Memory required for data: 2198929472
I1026 00:30:00.166530 44957 layer_factory.hpp:77] Creating layer res3c_branch2b
I1026 00:30:00.166543 44957 net.cpp:100] Creating Layer res3c_branch2b
I1026 00:30:00.166549 44957 net.cpp:434] res3c_branch2b <- res3c_branch2a
I1026 00:30:00.166555 44957 net.cpp:408] res3c_branch2b -> res3c_branch2b
I1026 00:30:00.167585 44957 net.cpp:150] Setting up res3c_branch2b
I1026 00:30:00.167599 44957 net.cpp:157] Top shape: 16 128 27 27 (1492992)
I1026 00:30:00.167615 44957 net.cpp:165] Memory required for data: 2204901440
I1026 00:30:00.167621 44957 layer_factory.hpp:77] Creating layer bn3c_branch2b
I1026 00:30:00.167628 44957 net.cpp:100] Creating Layer bn3c_branch2b
I1026 00:30:00.167631 44957 net.cpp:434] bn3c_branch2b <- res3c_branch2b
I1026 00:30:00.167639 44957 net.cpp:395] bn3c_branch2b -> res3c_branch2b (in-place)
I1026 00:30:00.167807 44957 net.cpp:150] Setting up bn3c_branch2b
I1026 00:30:00.167817 44957 net.cpp:157] Top shape: 16 128 27 27 (1492992)
I1026 00:30:00.167820 44957 net.cpp:165] Memory required for data: 2210873408
I1026 00:30:00.167829 44957 layer_factory.hpp:77] Creating layer scale3c_branch2b
I1026 00:30:00.167834 44957 net.cpp:100] Creating Layer scale3c_branch2b
I1026 00:30:00.167839 44957 net.cpp:434] scale3c_branch2b <- res3c_branch2b
I1026 00:30:00.167843 44957 net.cpp:395] scale3c_branch2b -> res3c_branch2b (in-place)
I1026 00:30:00.167881 44957 layer_factory.hpp:77] Creating layer scale3c_branch2b
I1026 00:30:00.167979 44957 net.cpp:150] Setting up scale3c_branch2b
I1026 00:30:00.167989 44957 net.cpp:157] Top shape: 16 128 27 27 (1492992)
I1026 00:30:00.167992 44957 net.cpp:165] Memory required for data: 2216845376
I1026 00:30:00.167999 44957 layer_factory.hpp:77] Creating layer res3c_branch2b_relu
I1026 00:30:00.168006 44957 net.cpp:100] Creating Layer res3c_branch2b_relu
I1026 00:30:00.168010 44957 net.cpp:434] res3c_branch2b_relu <- res3c_branch2b
I1026 00:30:00.168015 44957 net.cpp:395] res3c_branch2b_relu -> res3c_branch2b (in-place)
I1026 00:30:00.168020 44957 net.cpp:150] Setting up res3c_branch2b_relu
I1026 00:30:00.168025 44957 net.cpp:157] Top shape: 16 128 27 27 (1492992)
I1026 00:30:00.168028 44957 net.cpp:165] Memory required for data: 2222817344
I1026 00:30:00.168031 44957 layer_factory.hpp:77] Creating layer res3c_branch2c
I1026 00:30:00.168040 44957 net.cpp:100] Creating Layer res3c_branch2c
I1026 00:30:00.168045 44957 net.cpp:434] res3c_branch2c <- res3c_branch2b
I1026 00:30:00.168050 44957 net.cpp:408] res3c_branch2c -> res3c_branch2c
I1026 00:30:00.168262 44957 net.cpp:150] Setting up res3c_branch2c
I1026 00:30:00.168272 44957 net.cpp:157] Top shape: 16 512 27 27 (5971968)
I1026 00:30:00.168277 44957 net.cpp:165] Memory required for data: 2246705216
I1026 00:30:00.168282 44957 layer_factory.hpp:77] Creating layer bn3c_branch2c
I1026 00:30:00.168301 44957 net.cpp:100] Creating Layer bn3c_branch2c
I1026 00:30:00.168308 44957 net.cpp:434] bn3c_branch2c <- res3c_branch2c
I1026 00:30:00.168313 44957 net.cpp:395] bn3c_branch2c -> res3c_branch2c (in-place)
I1026 00:30:00.168483 44957 net.cpp:150] Setting up bn3c_branch2c
I1026 00:30:00.168491 44957 net.cpp:157] Top shape: 16 512 27 27 (5971968)
I1026 00:30:00.168495 44957 net.cpp:165] Memory required for data: 2270593088
I1026 00:30:00.168503 44957 layer_factory.hpp:77] Creating layer scale3c_branch2c
I1026 00:30:00.168509 44957 net.cpp:100] Creating Layer scale3c_branch2c
I1026 00:30:00.168512 44957 net.cpp:434] scale3c_branch2c <- res3c_branch2c
I1026 00:30:00.168519 44957 net.cpp:395] scale3c_branch2c -> res3c_branch2c (in-place)
I1026 00:30:00.168555 44957 layer_factory.hpp:77] Creating layer scale3c_branch2c
I1026 00:30:00.168661 44957 net.cpp:150] Setting up scale3c_branch2c
I1026 00:30:00.168673 44957 net.cpp:157] Top shape: 16 512 27 27 (5971968)
I1026 00:30:00.168675 44957 net.cpp:165] Memory required for data: 2294480960
I1026 00:30:00.168683 44957 layer_factory.hpp:77] Creating layer res3c
I1026 00:30:00.168689 44957 net.cpp:100] Creating Layer res3c
I1026 00:30:00.168691 44957 net.cpp:434] res3c <- res3b_res3b_relu_0_split_1
I1026 00:30:00.168696 44957 net.cpp:434] res3c <- res3c_branch2c
I1026 00:30:00.168700 44957 net.cpp:408] res3c -> res3c
I1026 00:30:00.168725 44957 net.cpp:150] Setting up res3c
I1026 00:30:00.168733 44957 net.cpp:157] Top shape: 16 512 27 27 (5971968)
I1026 00:30:00.168737 44957 net.cpp:165] Memory required for data: 2318368832
I1026 00:30:00.168740 44957 layer_factory.hpp:77] Creating layer res3c_relu
I1026 00:30:00.168745 44957 net.cpp:100] Creating Layer res3c_relu
I1026 00:30:00.168751 44957 net.cpp:434] res3c_relu <- res3c
I1026 00:30:00.168756 44957 net.cpp:395] res3c_relu -> res3c (in-place)
I1026 00:30:00.168761 44957 net.cpp:150] Setting up res3c_relu
I1026 00:30:00.168766 44957 net.cpp:157] Top shape: 16 512 27 27 (5971968)
I1026 00:30:00.168769 44957 net.cpp:165] Memory required for data: 2342256704
I1026 00:30:00.168772 44957 layer_factory.hpp:77] Creating layer res3c_res3c_relu_0_split
I1026 00:30:00.168777 44957 net.cpp:100] Creating Layer res3c_res3c_relu_0_split
I1026 00:30:00.168781 44957 net.cpp:434] res3c_res3c_relu_0_split <- res3c
I1026 00:30:00.168784 44957 net.cpp:408] res3c_res3c_relu_0_split -> res3c_res3c_relu_0_split_0
I1026 00:30:00.168792 44957 net.cpp:408] res3c_res3c_relu_0_split -> res3c_res3c_relu_0_split_1
I1026 00:30:00.168823 44957 net.cpp:150] Setting up res3c_res3c_relu_0_split
I1026 00:30:00.168830 44957 net.cpp:157] Top shape: 16 512 27 27 (5971968)
I1026 00:30:00.168835 44957 net.cpp:157] Top shape: 16 512 27 27 (5971968)
I1026 00:30:00.168838 44957 net.cpp:165] Memory required for data: 2390032448
I1026 00:30:00.168841 44957 layer_factory.hpp:77] Creating layer res3d_branch2a
I1026 00:30:00.168851 44957 net.cpp:100] Creating Layer res3d_branch2a
I1026 00:30:00.168855 44957 net.cpp:434] res3d_branch2a <- res3c_res3c_relu_0_split_0
I1026 00:30:00.168860 44957 net.cpp:408] res3d_branch2a -> res3d_branch2a
I1026 00:30:00.169844 44957 net.cpp:150] Setting up res3d_branch2a
I1026 00:30:00.169857 44957 net.cpp:157] Top shape: 16 128 27 27 (1492992)
I1026 00:30:00.169873 44957 net.cpp:165] Memory required for data: 2396004416
I1026 00:30:00.169879 44957 layer_factory.hpp:77] Creating layer bn3d_branch2a
I1026 00:30:00.169888 44957 net.cpp:100] Creating Layer bn3d_branch2a
I1026 00:30:00.169893 44957 net.cpp:434] bn3d_branch2a <- res3d_branch2a
I1026 00:30:00.169898 44957 net.cpp:395] bn3d_branch2a -> res3d_branch2a (in-place)
I1026 00:30:00.170053 44957 net.cpp:150] Setting up bn3d_branch2a
I1026 00:30:00.170063 44957 net.cpp:157] Top shape: 16 128 27 27 (1492992)
I1026 00:30:00.170066 44957 net.cpp:165] Memory required for data: 2401976384
I1026 00:30:00.170100 44957 layer_factory.hpp:77] Creating layer scale3d_branch2a
I1026 00:30:00.170111 44957 net.cpp:100] Creating Layer scale3d_branch2a
I1026 00:30:00.170128 44957 net.cpp:434] scale3d_branch2a <- res3d_branch2a
I1026 00:30:00.170135 44957 net.cpp:395] scale3d_branch2a -> res3d_branch2a (in-place)
I1026 00:30:00.170184 44957 layer_factory.hpp:77] Creating layer scale3d_branch2a
I1026 00:30:00.170282 44957 net.cpp:150] Setting up scale3d_branch2a
I1026 00:30:00.170291 44957 net.cpp:157] Top shape: 16 128 27 27 (1492992)
I1026 00:30:00.170295 44957 net.cpp:165] Memory required for data: 2407948352
I1026 00:30:00.170301 44957 layer_factory.hpp:77] Creating layer res3d_branch2a_relu
I1026 00:30:00.170306 44957 net.cpp:100] Creating Layer res3d_branch2a_relu
I1026 00:30:00.170310 44957 net.cpp:434] res3d_branch2a_relu <- res3d_branch2a
I1026 00:30:00.170315 44957 net.cpp:395] res3d_branch2a_relu -> res3d_branch2a (in-place)
I1026 00:30:00.170321 44957 net.cpp:150] Setting up res3d_branch2a_relu
I1026 00:30:00.170325 44957 net.cpp:157] Top shape: 16 128 27 27 (1492992)
I1026 00:30:00.170328 44957 net.cpp:165] Memory required for data: 2413920320
I1026 00:30:00.170331 44957 layer_factory.hpp:77] Creating layer res3d_branch2b
I1026 00:30:00.170338 44957 net.cpp:100] Creating Layer res3d_branch2b
I1026 00:30:00.170342 44957 net.cpp:434] res3d_branch2b <- res3d_branch2a
I1026 00:30:00.170349 44957 net.cpp:408] res3d_branch2b -> res3d_branch2b
I1026 00:30:00.172001 44957 net.cpp:150] Setting up res3d_branch2b
I1026 00:30:00.172026 44957 net.cpp:157] Top shape: 16 128 27 27 (1492992)
I1026 00:30:00.172031 44957 net.cpp:165] Memory required for data: 2419892288
I1026 00:30:00.172036 44957 layer_factory.hpp:77] Creating layer bn3d_branch2b
I1026 00:30:00.172042 44957 net.cpp:100] Creating Layer bn3d_branch2b
I1026 00:30:00.172046 44957 net.cpp:434] bn3d_branch2b <- res3d_branch2b
I1026 00:30:00.172051 44957 net.cpp:395] bn3d_branch2b -> res3d_branch2b (in-place)
I1026 00:30:00.172235 44957 net.cpp:150] Setting up bn3d_branch2b
I1026 00:30:00.172245 44957 net.cpp:157] Top shape: 16 128 27 27 (1492992)
I1026 00:30:00.172250 44957 net.cpp:165] Memory required for data: 2425864256
I1026 00:30:00.172256 44957 layer_factory.hpp:77] Creating layer scale3d_branch2b
I1026 00:30:00.172263 44957 net.cpp:100] Creating Layer scale3d_branch2b
I1026 00:30:00.172267 44957 net.cpp:434] scale3d_branch2b <- res3d_branch2b
I1026 00:30:00.172271 44957 net.cpp:395] scale3d_branch2b -> res3d_branch2b (in-place)
I1026 00:30:00.172313 44957 layer_factory.hpp:77] Creating layer scale3d_branch2b
I1026 00:30:00.172413 44957 net.cpp:150] Setting up scale3d_branch2b
I1026 00:30:00.172422 44957 net.cpp:157] Top shape: 16 128 27 27 (1492992)
I1026 00:30:00.172425 44957 net.cpp:165] Memory required for data: 2431836224
I1026 00:30:00.172432 44957 layer_factory.hpp:77] Creating layer res3d_branch2b_relu
I1026 00:30:00.172437 44957 net.cpp:100] Creating Layer res3d_branch2b_relu
I1026 00:30:00.172441 44957 net.cpp:434] res3d_branch2b_relu <- res3d_branch2b
I1026 00:30:00.172448 44957 net.cpp:395] res3d_branch2b_relu -> res3d_branch2b (in-place)
I1026 00:30:00.172454 44957 net.cpp:150] Setting up res3d_branch2b_relu
I1026 00:30:00.172458 44957 net.cpp:157] Top shape: 16 128 27 27 (1492992)
I1026 00:30:00.172461 44957 net.cpp:165] Memory required for data: 2437808192
I1026 00:30:00.172466 44957 layer_factory.hpp:77] Creating layer res3d_branch2c
I1026 00:30:00.172472 44957 net.cpp:100] Creating Layer res3d_branch2c
I1026 00:30:00.172474 44957 net.cpp:434] res3d_branch2c <- res3d_branch2b
I1026 00:30:00.172482 44957 net.cpp:408] res3d_branch2c -> res3d_branch2c
I1026 00:30:00.172673 44957 net.cpp:150] Setting up res3d_branch2c
I1026 00:30:00.172683 44957 net.cpp:157] Top shape: 16 512 27 27 (5971968)
I1026 00:30:00.172688 44957 net.cpp:165] Memory required for data: 2461696064
I1026 00:30:00.172693 44957 layer_factory.hpp:77] Creating layer bn3d_branch2c
I1026 00:30:00.172700 44957 net.cpp:100] Creating Layer bn3d_branch2c
I1026 00:30:00.172704 44957 net.cpp:434] bn3d_branch2c <- res3d_branch2c
I1026 00:30:00.172708 44957 net.cpp:395] bn3d_branch2c -> res3d_branch2c (in-place)
I1026 00:30:00.172879 44957 net.cpp:150] Setting up bn3d_branch2c
I1026 00:30:00.172889 44957 net.cpp:157] Top shape: 16 512 27 27 (5971968)
I1026 00:30:00.172894 44957 net.cpp:165] Memory required for data: 2485583936
I1026 00:30:00.172900 44957 layer_factory.hpp:77] Creating layer scale3d_branch2c
I1026 00:30:00.172906 44957 net.cpp:100] Creating Layer scale3d_branch2c
I1026 00:30:00.172910 44957 net.cpp:434] scale3d_branch2c <- res3d_branch2c
I1026 00:30:00.172917 44957 net.cpp:395] scale3d_branch2c -> res3d_branch2c (in-place)
I1026 00:30:00.172953 44957 layer_factory.hpp:77] Creating layer scale3d_branch2c
I1026 00:30:00.173049 44957 net.cpp:150] Setting up scale3d_branch2c
I1026 00:30:00.173063 44957 net.cpp:157] Top shape: 16 512 27 27 (5971968)
I1026 00:30:00.173068 44957 net.cpp:165] Memory required for data: 2509471808
I1026 00:30:00.173074 44957 layer_factory.hpp:77] Creating layer res3d
I1026 00:30:00.173079 44957 net.cpp:100] Creating Layer res3d
I1026 00:30:00.173084 44957 net.cpp:434] res3d <- res3c_res3c_relu_0_split_1
I1026 00:30:00.173087 44957 net.cpp:434] res3d <- res3d_branch2c
I1026 00:30:00.173092 44957 net.cpp:408] res3d -> res3d
I1026 00:30:00.173116 44957 net.cpp:150] Setting up res3d
I1026 00:30:00.173125 44957 net.cpp:157] Top shape: 16 512 27 27 (5971968)
I1026 00:30:00.173128 44957 net.cpp:165] Memory required for data: 2533359680
I1026 00:30:00.173131 44957 layer_factory.hpp:77] Creating layer res3d_relu
I1026 00:30:00.173136 44957 net.cpp:100] Creating Layer res3d_relu
I1026 00:30:00.173140 44957 net.cpp:434] res3d_relu <- res3d
I1026 00:30:00.173146 44957 net.cpp:395] res3d_relu -> res3d (in-place)
I1026 00:30:00.173151 44957 net.cpp:150] Setting up res3d_relu
I1026 00:30:00.173156 44957 net.cpp:157] Top shape: 16 512 27 27 (5971968)
I1026 00:30:00.173159 44957 net.cpp:165] Memory required for data: 2557247552
I1026 00:30:00.173162 44957 layer_factory.hpp:77] Creating layer res3d_res3d_relu_0_split
I1026 00:30:00.173167 44957 net.cpp:100] Creating Layer res3d_res3d_relu_0_split
I1026 00:30:00.173171 44957 net.cpp:434] res3d_res3d_relu_0_split <- res3d
I1026 00:30:00.173176 44957 net.cpp:408] res3d_res3d_relu_0_split -> res3d_res3d_relu_0_split_0
I1026 00:30:00.173193 44957 net.cpp:408] res3d_res3d_relu_0_split -> res3d_res3d_relu_0_split_1
I1026 00:30:00.173224 44957 net.cpp:150] Setting up res3d_res3d_relu_0_split
I1026 00:30:00.173233 44957 net.cpp:157] Top shape: 16 512 27 27 (5971968)
I1026 00:30:00.173238 44957 net.cpp:157] Top shape: 16 512 27 27 (5971968)
I1026 00:30:00.173240 44957 net.cpp:165] Memory required for data: 2605023296
I1026 00:30:00.173243 44957 layer_factory.hpp:77] Creating layer res4a_branch1
I1026 00:30:00.173252 44957 net.cpp:100] Creating Layer res4a_branch1
I1026 00:30:00.173256 44957 net.cpp:434] res4a_branch1 <- res3d_res3d_relu_0_split_0
I1026 00:30:00.173261 44957 net.cpp:408] res4a_branch1 -> res4a_branch1
I1026 00:30:00.174765 44957 net.cpp:150] Setting up res4a_branch1
I1026 00:30:00.174779 44957 net.cpp:157] Top shape: 16 1024 14 14 (3211264)
I1026 00:30:00.174796 44957 net.cpp:165] Memory required for data: 2617868352
I1026 00:30:00.174801 44957 layer_factory.hpp:77] Creating layer bn4a_branch1
I1026 00:30:00.174814 44957 net.cpp:100] Creating Layer bn4a_branch1
I1026 00:30:00.174819 44957 net.cpp:434] bn4a_branch1 <- res4a_branch1
I1026 00:30:00.174824 44957 net.cpp:395] bn4a_branch1 -> res4a_branch1 (in-place)
I1026 00:30:00.174999 44957 net.cpp:150] Setting up bn4a_branch1
I1026 00:30:00.175009 44957 net.cpp:157] Top shape: 16 1024 14 14 (3211264)
I1026 00:30:00.175012 44957 net.cpp:165] Memory required for data: 2630713408
I1026 00:30:00.175020 44957 layer_factory.hpp:77] Creating layer scale4a_branch1
I1026 00:30:00.175026 44957 net.cpp:100] Creating Layer scale4a_branch1
I1026 00:30:00.175029 44957 net.cpp:434] scale4a_branch1 <- res4a_branch1
I1026 00:30:00.175036 44957 net.cpp:395] scale4a_branch1 -> res4a_branch1 (in-place)
I1026 00:30:00.175070 44957 layer_factory.hpp:77] Creating layer scale4a_branch1
I1026 00:30:00.175166 44957 net.cpp:150] Setting up scale4a_branch1
I1026 00:30:00.175194 44957 net.cpp:157] Top shape: 16 1024 14 14 (3211264)
I1026 00:30:00.175199 44957 net.cpp:165] Memory required for data: 2643558464
I1026 00:30:00.175204 44957 layer_factory.hpp:77] Creating layer res4a_branch2a
I1026 00:30:00.175211 44957 net.cpp:100] Creating Layer res4a_branch2a
I1026 00:30:00.175215 44957 net.cpp:434] res4a_branch2a <- res3d_res3d_relu_0_split_1
I1026 00:30:00.175222 44957 net.cpp:408] res4a_branch2a -> res4a_branch2a
I1026 00:30:00.175475 44957 net.cpp:150] Setting up res4a_branch2a
I1026 00:30:00.175485 44957 net.cpp:157] Top shape: 16 256 14 14 (802816)
I1026 00:30:00.175489 44957 net.cpp:165] Memory required for data: 2646769728
I1026 00:30:00.175494 44957 layer_factory.hpp:77] Creating layer bn4a_branch2a
I1026 00:30:00.175514 44957 net.cpp:100] Creating Layer bn4a_branch2a
I1026 00:30:00.175518 44957 net.cpp:434] bn4a_branch2a <- res4a_branch2a
I1026 00:30:00.175523 44957 net.cpp:395] bn4a_branch2a -> res4a_branch2a (in-place)
I1026 00:30:00.175683 44957 net.cpp:150] Setting up bn4a_branch2a
I1026 00:30:00.175693 44957 net.cpp:157] Top shape: 16 256 14 14 (802816)
I1026 00:30:00.175696 44957 net.cpp:165] Memory required for data: 2649980992
I1026 00:30:00.175704 44957 layer_factory.hpp:77] Creating layer scale4a_branch2a
I1026 00:30:00.175709 44957 net.cpp:100] Creating Layer scale4a_branch2a
I1026 00:30:00.175714 44957 net.cpp:434] scale4a_branch2a <- res4a_branch2a
I1026 00:30:00.175720 44957 net.cpp:395] scale4a_branch2a -> res4a_branch2a (in-place)
I1026 00:30:00.175753 44957 layer_factory.hpp:77] Creating layer scale4a_branch2a
I1026 00:30:00.175845 44957 net.cpp:150] Setting up scale4a_branch2a
I1026 00:30:00.175855 44957 net.cpp:157] Top shape: 16 256 14 14 (802816)
I1026 00:30:00.175858 44957 net.cpp:165] Memory required for data: 2653192256
I1026 00:30:00.175871 44957 layer_factory.hpp:77] Creating layer res4a_branch2a_relu
I1026 00:30:00.175879 44957 net.cpp:100] Creating Layer res4a_branch2a_relu
I1026 00:30:00.175882 44957 net.cpp:434] res4a_branch2a_relu <- res4a_branch2a
I1026 00:30:00.175886 44957 net.cpp:395] res4a_branch2a_relu -> res4a_branch2a (in-place)
I1026 00:30:00.175892 44957 net.cpp:150] Setting up res4a_branch2a_relu
I1026 00:30:00.175896 44957 net.cpp:157] Top shape: 16 256 14 14 (802816)
I1026 00:30:00.175899 44957 net.cpp:165] Memory required for data: 2656403520
I1026 00:30:00.175902 44957 layer_factory.hpp:77] Creating layer res4a_branch2b
I1026 00:30:00.175910 44957 net.cpp:100] Creating Layer res4a_branch2b
I1026 00:30:00.175915 44957 net.cpp:434] res4a_branch2b <- res4a_branch2a
I1026 00:30:00.175920 44957 net.cpp:408] res4a_branch2b -> res4a_branch2b
I1026 00:30:00.177549 44957 net.cpp:150] Setting up res4a_branch2b
I1026 00:30:00.177561 44957 net.cpp:157] Top shape: 16 256 14 14 (802816)
I1026 00:30:00.177577 44957 net.cpp:165] Memory required for data: 2659614784
I1026 00:30:00.177582 44957 layer_factory.hpp:77] Creating layer bn4a_branch2b
I1026 00:30:00.177588 44957 net.cpp:100] Creating Layer bn4a_branch2b
I1026 00:30:00.177592 44957 net.cpp:434] bn4a_branch2b <- res4a_branch2b
I1026 00:30:00.177599 44957 net.cpp:395] bn4a_branch2b -> res4a_branch2b (in-place)
I1026 00:30:00.177750 44957 net.cpp:150] Setting up bn4a_branch2b
I1026 00:30:00.177759 44957 net.cpp:157] Top shape: 16 256 14 14 (802816)
I1026 00:30:00.177762 44957 net.cpp:165] Memory required for data: 2662826048
I1026 00:30:00.177770 44957 layer_factory.hpp:77] Creating layer scale4a_branch2b
I1026 00:30:00.177775 44957 net.cpp:100] Creating Layer scale4a_branch2b
I1026 00:30:00.177779 44957 net.cpp:434] scale4a_branch2b <- res4a_branch2b
I1026 00:30:00.177784 44957 net.cpp:395] scale4a_branch2b -> res4a_branch2b (in-place)
I1026 00:30:00.177820 44957 layer_factory.hpp:77] Creating layer scale4a_branch2b
I1026 00:30:00.177917 44957 net.cpp:150] Setting up scale4a_branch2b
I1026 00:30:00.177925 44957 net.cpp:157] Top shape: 16 256 14 14 (802816)
I1026 00:30:00.177928 44957 net.cpp:165] Memory required for data: 2666037312
I1026 00:30:00.177934 44957 layer_factory.hpp:77] Creating layer res4a_branch2b_relu
I1026 00:30:00.177953 44957 net.cpp:100] Creating Layer res4a_branch2b_relu
I1026 00:30:00.177956 44957 net.cpp:434] res4a_branch2b_relu <- res4a_branch2b
I1026 00:30:00.177963 44957 net.cpp:395] res4a_branch2b_relu -> res4a_branch2b (in-place)
I1026 00:30:00.177969 44957 net.cpp:150] Setting up res4a_branch2b_relu
I1026 00:30:00.177974 44957 net.cpp:157] Top shape: 16 256 14 14 (802816)
I1026 00:30:00.177978 44957 net.cpp:165] Memory required for data: 2669248576
I1026 00:30:00.177980 44957 layer_factory.hpp:77] Creating layer res4a_branch2c
I1026 00:30:00.177987 44957 net.cpp:100] Creating Layer res4a_branch2c
I1026 00:30:00.177990 44957 net.cpp:434] res4a_branch2c <- res4a_branch2b
I1026 00:30:00.178004 44957 net.cpp:408] res4a_branch2c -> res4a_branch2c
I1026 00:30:00.179018 44957 net.cpp:150] Setting up res4a_branch2c
I1026 00:30:00.179033 44957 net.cpp:157] Top shape: 16 1024 14 14 (3211264)
I1026 00:30:00.179049 44957 net.cpp:165] Memory required for data: 2682093632
I1026 00:30:00.179054 44957 layer_factory.hpp:77] Creating layer bn4a_branch2c
I1026 00:30:00.179060 44957 net.cpp:100] Creating Layer bn4a_branch2c
I1026 00:30:00.179064 44957 net.cpp:434] bn4a_branch2c <- res4a_branch2c
I1026 00:30:00.179069 44957 net.cpp:395] bn4a_branch2c -> res4a_branch2c (in-place)
I1026 00:30:00.179239 44957 net.cpp:150] Setting up bn4a_branch2c
I1026 00:30:00.179249 44957 net.cpp:157] Top shape: 16 1024 14 14 (3211264)
I1026 00:30:00.179251 44957 net.cpp:165] Memory required for data: 2694938688
I1026 00:30:00.179260 44957 layer_factory.hpp:77] Creating layer scale4a_branch2c
I1026 00:30:00.179266 44957 net.cpp:100] Creating Layer scale4a_branch2c
I1026 00:30:00.179272 44957 net.cpp:434] scale4a_branch2c <- res4a_branch2c
I1026 00:30:00.179277 44957 net.cpp:395] scale4a_branch2c -> res4a_branch2c (in-place)
I1026 00:30:00.179313 44957 layer_factory.hpp:77] Creating layer scale4a_branch2c
I1026 00:30:00.179416 44957 net.cpp:150] Setting up scale4a_branch2c
I1026 00:30:00.179425 44957 net.cpp:157] Top shape: 16 1024 14 14 (3211264)
I1026 00:30:00.179428 44957 net.cpp:165] Memory required for data: 2707783744
I1026 00:30:00.179435 44957 layer_factory.hpp:77] Creating layer res4a
I1026 00:30:00.179440 44957 net.cpp:100] Creating Layer res4a
I1026 00:30:00.179445 44957 net.cpp:434] res4a <- res4a_branch1
I1026 00:30:00.179450 44957 net.cpp:434] res4a <- res4a_branch2c
I1026 00:30:00.179455 44957 net.cpp:408] res4a -> res4a
I1026 00:30:00.179481 44957 net.cpp:150] Setting up res4a
I1026 00:30:00.179488 44957 net.cpp:157] Top shape: 16 1024 14 14 (3211264)
I1026 00:30:00.179492 44957 net.cpp:165] Memory required for data: 2720628800
I1026 00:30:00.179496 44957 layer_factory.hpp:77] Creating layer res4a_relu
I1026 00:30:00.179500 44957 net.cpp:100] Creating Layer res4a_relu
I1026 00:30:00.179503 44957 net.cpp:434] res4a_relu <- res4a
I1026 00:30:00.179507 44957 net.cpp:395] res4a_relu -> res4a (in-place)
I1026 00:30:00.179513 44957 net.cpp:150] Setting up res4a_relu
I1026 00:30:00.179517 44957 net.cpp:157] Top shape: 16 1024 14 14 (3211264)
I1026 00:30:00.179522 44957 net.cpp:165] Memory required for data: 2733473856
I1026 00:30:00.179524 44957 layer_factory.hpp:77] Creating layer res4a_res4a_relu_0_split
I1026 00:30:00.179533 44957 net.cpp:100] Creating Layer res4a_res4a_relu_0_split
I1026 00:30:00.179536 44957 net.cpp:434] res4a_res4a_relu_0_split <- res4a
I1026 00:30:00.179545 44957 net.cpp:408] res4a_res4a_relu_0_split -> res4a_res4a_relu_0_split_0
I1026 00:30:00.179551 44957 net.cpp:408] res4a_res4a_relu_0_split -> res4a_res4a_relu_0_split_1
I1026 00:30:00.179594 44957 net.cpp:150] Setting up res4a_res4a_relu_0_split
I1026 00:30:00.179603 44957 net.cpp:157] Top shape: 16 1024 14 14 (3211264)
I1026 00:30:00.179608 44957 net.cpp:157] Top shape: 16 1024 14 14 (3211264)
I1026 00:30:00.179611 44957 net.cpp:165] Memory required for data: 2759163968
I1026 00:30:00.179615 44957 layer_factory.hpp:77] Creating layer res4b_branch2a
I1026 00:30:00.179638 44957 net.cpp:100] Creating Layer res4b_branch2a
I1026 00:30:00.179656 44957 net.cpp:434] res4b_branch2a <- res4a_res4a_relu_0_split_0
I1026 00:30:00.179663 44957 net.cpp:408] res4b_branch2a -> res4b_branch2a
I1026 00:30:00.180673 44957 net.cpp:150] Setting up res4b_branch2a
I1026 00:30:00.180685 44957 net.cpp:157] Top shape: 16 256 14 14 (802816)
I1026 00:30:00.180701 44957 net.cpp:165] Memory required for data: 2762375232
I1026 00:30:00.180707 44957 layer_factory.hpp:77] Creating layer bn4b_branch2a
I1026 00:30:00.180716 44957 net.cpp:100] Creating Layer bn4b_branch2a
I1026 00:30:00.180719 44957 net.cpp:434] bn4b_branch2a <- res4b_branch2a
I1026 00:30:00.180723 44957 net.cpp:395] bn4b_branch2a -> res4b_branch2a (in-place)
I1026 00:30:00.180889 44957 net.cpp:150] Setting up bn4b_branch2a
I1026 00:30:00.180898 44957 net.cpp:157] Top shape: 16 256 14 14 (802816)
I1026 00:30:00.180902 44957 net.cpp:165] Memory required for data: 2765586496
I1026 00:30:00.180909 44957 layer_factory.hpp:77] Creating layer scale4b_branch2a
I1026 00:30:00.180915 44957 net.cpp:100] Creating Layer scale4b_branch2a
I1026 00:30:00.180918 44957 net.cpp:434] scale4b_branch2a <- res4b_branch2a
I1026 00:30:00.180925 44957 net.cpp:395] scale4b_branch2a -> res4b_branch2a (in-place)
I1026 00:30:00.180960 44957 layer_factory.hpp:77] Creating layer scale4b_branch2a
I1026 00:30:00.181056 44957 net.cpp:150] Setting up scale4b_branch2a
I1026 00:30:00.181064 44957 net.cpp:157] Top shape: 16 256 14 14 (802816)
I1026 00:30:00.181067 44957 net.cpp:165] Memory required for data: 2768797760
I1026 00:30:00.181073 44957 layer_factory.hpp:77] Creating layer res4b_branch2a_relu
I1026 00:30:00.181082 44957 net.cpp:100] Creating Layer res4b_branch2a_relu
I1026 00:30:00.181084 44957 net.cpp:434] res4b_branch2a_relu <- res4b_branch2a
I1026 00:30:00.181089 44957 net.cpp:395] res4b_branch2a_relu -> res4b_branch2a (in-place)
I1026 00:30:00.181095 44957 net.cpp:150] Setting up res4b_branch2a_relu
I1026 00:30:00.181099 44957 net.cpp:157] Top shape: 16 256 14 14 (802816)
I1026 00:30:00.181102 44957 net.cpp:165] Memory required for data: 2772009024
I1026 00:30:00.181105 44957 layer_factory.hpp:77] Creating layer res4b_branch2b
I1026 00:30:00.181123 44957 net.cpp:100] Creating Layer res4b_branch2b
I1026 00:30:00.181128 44957 net.cpp:434] res4b_branch2b <- res4b_branch2a
I1026 00:30:00.181133 44957 net.cpp:408] res4b_branch2b -> res4b_branch2b
I1026 00:30:00.183384 44957 net.cpp:150] Setting up res4b_branch2b
I1026 00:30:00.183399 44957 net.cpp:157] Top shape: 16 256 14 14 (802816)
I1026 00:30:00.183403 44957 net.cpp:165] Memory required for data: 2775220288
I1026 00:30:00.183408 44957 layer_factory.hpp:77] Creating layer bn4b_branch2b
I1026 00:30:00.183415 44957 net.cpp:100] Creating Layer bn4b_branch2b
I1026 00:30:00.183419 44957 net.cpp:434] bn4b_branch2b <- res4b_branch2b
I1026 00:30:00.183424 44957 net.cpp:395] bn4b_branch2b -> res4b_branch2b (in-place)
I1026 00:30:00.183616 44957 net.cpp:150] Setting up bn4b_branch2b
I1026 00:30:00.183626 44957 net.cpp:157] Top shape: 16 256 14 14 (802816)
I1026 00:30:00.183629 44957 net.cpp:165] Memory required for data: 2778431552
I1026 00:30:00.183637 44957 layer_factory.hpp:77] Creating layer scale4b_branch2b
I1026 00:30:00.183643 44957 net.cpp:100] Creating Layer scale4b_branch2b
I1026 00:30:00.183647 44957 net.cpp:434] scale4b_branch2b <- res4b_branch2b
I1026 00:30:00.183651 44957 net.cpp:395] scale4b_branch2b -> res4b_branch2b (in-place)
I1026 00:30:00.183692 44957 layer_factory.hpp:77] Creating layer scale4b_branch2b
I1026 00:30:00.183800 44957 net.cpp:150] Setting up scale4b_branch2b
I1026 00:30:00.183809 44957 net.cpp:157] Top shape: 16 256 14 14 (802816)
I1026 00:30:00.183812 44957 net.cpp:165] Memory required for data: 2781642816
I1026 00:30:00.183818 44957 layer_factory.hpp:77] Creating layer res4b_branch2b_relu
I1026 00:30:00.183825 44957 net.cpp:100] Creating Layer res4b_branch2b_relu
I1026 00:30:00.183827 44957 net.cpp:434] res4b_branch2b_relu <- res4b_branch2b
I1026 00:30:00.183835 44957 net.cpp:395] res4b_branch2b_relu -> res4b_branch2b (in-place)
I1026 00:30:00.183854 44957 net.cpp:150] Setting up res4b_branch2b_relu
I1026 00:30:00.183859 44957 net.cpp:157] Top shape: 16 256 14 14 (802816)
I1026 00:30:00.183862 44957 net.cpp:165] Memory required for data: 2784854080
I1026 00:30:00.183866 44957 layer_factory.hpp:77] Creating layer res4b_branch2c
I1026 00:30:00.183872 44957 net.cpp:100] Creating Layer res4b_branch2c
I1026 00:30:00.183876 44957 net.cpp:434] res4b_branch2c <- res4b_branch2b
I1026 00:30:00.183883 44957 net.cpp:408] res4b_branch2c -> res4b_branch2c
I1026 00:30:00.184900 44957 net.cpp:150] Setting up res4b_branch2c
I1026 00:30:00.184911 44957 net.cpp:157] Top shape: 16 1024 14 14 (3211264)
I1026 00:30:00.184927 44957 net.cpp:165] Memory required for data: 2797699136
I1026 00:30:00.184932 44957 layer_factory.hpp:77] Creating layer bn4b_branch2c
I1026 00:30:00.184940 44957 net.cpp:100] Creating Layer bn4b_branch2c
I1026 00:30:00.184944 44957 net.cpp:434] bn4b_branch2c <- res4b_branch2c
I1026 00:30:00.184949 44957 net.cpp:395] bn4b_branch2c -> res4b_branch2c (in-place)
I1026 00:30:00.185124 44957 net.cpp:150] Setting up bn4b_branch2c
I1026 00:30:00.185134 44957 net.cpp:157] Top shape: 16 1024 14 14 (3211264)
I1026 00:30:00.185137 44957 net.cpp:165] Memory required for data: 2810544192
I1026 00:30:00.185145 44957 layer_factory.hpp:77] Creating layer scale4b_branch2c
I1026 00:30:00.185153 44957 net.cpp:100] Creating Layer scale4b_branch2c
I1026 00:30:00.185158 44957 net.cpp:434] scale4b_branch2c <- res4b_branch2c
I1026 00:30:00.185163 44957 net.cpp:395] scale4b_branch2c -> res4b_branch2c (in-place)
I1026 00:30:00.185199 44957 layer_factory.hpp:77] Creating layer scale4b_branch2c
I1026 00:30:00.185302 44957 net.cpp:150] Setting up scale4b_branch2c
I1026 00:30:00.185310 44957 net.cpp:157] Top shape: 16 1024 14 14 (3211264)
I1026 00:30:00.185313 44957 net.cpp:165] Memory required for data: 2823389248
I1026 00:30:00.185319 44957 layer_factory.hpp:77] Creating layer res4b
I1026 00:30:00.185325 44957 net.cpp:100] Creating Layer res4b
I1026 00:30:00.185329 44957 net.cpp:434] res4b <- res4a_res4a_relu_0_split_1
I1026 00:30:00.185333 44957 net.cpp:434] res4b <- res4b_branch2c
I1026 00:30:00.185340 44957 net.cpp:408] res4b -> res4b
I1026 00:30:00.185364 44957 net.cpp:150] Setting up res4b
I1026 00:30:00.185376 44957 net.cpp:157] Top shape: 16 1024 14 14 (3211264)
I1026 00:30:00.185381 44957 net.cpp:165] Memory required for data: 2836234304
I1026 00:30:00.185384 44957 layer_factory.hpp:77] Creating layer res4b_relu
I1026 00:30:00.185389 44957 net.cpp:100] Creating Layer res4b_relu
I1026 00:30:00.185394 44957 net.cpp:434] res4b_relu <- res4b
I1026 00:30:00.185397 44957 net.cpp:395] res4b_relu -> res4b (in-place)
I1026 00:30:00.185403 44957 net.cpp:150] Setting up res4b_relu
I1026 00:30:00.185407 44957 net.cpp:157] Top shape: 16 1024 14 14 (3211264)
I1026 00:30:00.185410 44957 net.cpp:165] Memory required for data: 2849079360
I1026 00:30:00.185413 44957 layer_factory.hpp:77] Creating layer res4b_res4b_relu_0_split
I1026 00:30:00.185418 44957 net.cpp:100] Creating Layer res4b_res4b_relu_0_split
I1026 00:30:00.185421 44957 net.cpp:434] res4b_res4b_relu_0_split <- res4b
I1026 00:30:00.185436 44957 net.cpp:408] res4b_res4b_relu_0_split -> res4b_res4b_relu_0_split_0
I1026 00:30:00.185442 44957 net.cpp:408] res4b_res4b_relu_0_split -> res4b_res4b_relu_0_split_1
I1026 00:30:00.185472 44957 net.cpp:150] Setting up res4b_res4b_relu_0_split
I1026 00:30:00.185482 44957 net.cpp:157] Top shape: 16 1024 14 14 (3211264)
I1026 00:30:00.185487 44957 net.cpp:157] Top shape: 16 1024 14 14 (3211264)
I1026 00:30:00.185489 44957 net.cpp:165] Memory required for data: 2874769472
I1026 00:30:00.185493 44957 layer_factory.hpp:77] Creating layer res4c_branch2a
I1026 00:30:00.185499 44957 net.cpp:100] Creating Layer res4c_branch2a
I1026 00:30:00.185503 44957 net.cpp:434] res4c_branch2a <- res4b_res4b_relu_0_split_0
I1026 00:30:00.185508 44957 net.cpp:408] res4c_branch2a -> res4c_branch2a
I1026 00:30:00.186561 44957 net.cpp:150] Setting up res4c_branch2a
I1026 00:30:00.186591 44957 net.cpp:157] Top shape: 16 256 14 14 (802816)
I1026 00:30:00.186606 44957 net.cpp:165] Memory required for data: 2877980736
I1026 00:30:00.186612 44957 layer_factory.hpp:77] Creating layer bn4c_branch2a
I1026 00:30:00.186631 44957 net.cpp:100] Creating Layer bn4c_branch2a
I1026 00:30:00.186637 44957 net.cpp:434] bn4c_branch2a <- res4c_branch2a
I1026 00:30:00.186657 44957 net.cpp:395] bn4c_branch2a -> res4c_branch2a (in-place)
I1026 00:30:00.186815 44957 net.cpp:150] Setting up bn4c_branch2a
I1026 00:30:00.186823 44957 net.cpp:157] Top shape: 16 256 14 14 (802816)
I1026 00:30:00.186827 44957 net.cpp:165] Memory required for data: 2881192000
I1026 00:30:00.186835 44957 layer_factory.hpp:77] Creating layer scale4c_branch2a
I1026 00:30:00.186841 44957 net.cpp:100] Creating Layer scale4c_branch2a
I1026 00:30:00.186844 44957 net.cpp:434] scale4c_branch2a <- res4c_branch2a
I1026 00:30:00.186851 44957 net.cpp:395] scale4c_branch2a -> res4c_branch2a (in-place)
I1026 00:30:00.186887 44957 layer_factory.hpp:77] Creating layer scale4c_branch2a
I1026 00:30:00.186990 44957 net.cpp:150] Setting up scale4c_branch2a
I1026 00:30:00.187000 44957 net.cpp:157] Top shape: 16 256 14 14 (802816)
I1026 00:30:00.187002 44957 net.cpp:165] Memory required for data: 2884403264
I1026 00:30:00.187008 44957 layer_factory.hpp:77] Creating layer res4c_branch2a_relu
I1026 00:30:00.187014 44957 net.cpp:100] Creating Layer res4c_branch2a_relu
I1026 00:30:00.187017 44957 net.cpp:434] res4c_branch2a_relu <- res4c_branch2a
I1026 00:30:00.187022 44957 net.cpp:395] res4c_branch2a_relu -> res4c_branch2a (in-place)
I1026 00:30:00.187027 44957 net.cpp:150] Setting up res4c_branch2a_relu
I1026 00:30:00.187032 44957 net.cpp:157] Top shape: 16 256 14 14 (802816)
I1026 00:30:00.187036 44957 net.cpp:165] Memory required for data: 2887614528
I1026 00:30:00.187038 44957 layer_factory.hpp:77] Creating layer res4c_branch2b
I1026 00:30:00.187047 44957 net.cpp:100] Creating Layer res4c_branch2b
I1026 00:30:00.187050 44957 net.cpp:434] res4c_branch2b <- res4c_branch2a
I1026 00:30:00.187057 44957 net.cpp:408] res4c_branch2b -> res4c_branch2b
I1026 00:30:00.188782 44957 net.cpp:150] Setting up res4c_branch2b
I1026 00:30:00.188808 44957 net.cpp:157] Top shape: 16 256 14 14 (802816)
I1026 00:30:00.188812 44957 net.cpp:165] Memory required for data: 2890825792
I1026 00:30:00.188817 44957 layer_factory.hpp:77] Creating layer bn4c_branch2b
I1026 00:30:00.188824 44957 net.cpp:100] Creating Layer bn4c_branch2b
I1026 00:30:00.188828 44957 net.cpp:434] bn4c_branch2b <- res4c_branch2b
I1026 00:30:00.188833 44957 net.cpp:395] bn4c_branch2b -> res4c_branch2b (in-place)
I1026 00:30:00.189002 44957 net.cpp:150] Setting up bn4c_branch2b
I1026 00:30:00.189013 44957 net.cpp:157] Top shape: 16 256 14 14 (802816)
I1026 00:30:00.189016 44957 net.cpp:165] Memory required for data: 2894037056
I1026 00:30:00.189023 44957 layer_factory.hpp:77] Creating layer scale4c_branch2b
I1026 00:30:00.189031 44957 net.cpp:100] Creating Layer scale4c_branch2b
I1026 00:30:00.189038 44957 net.cpp:434] scale4c_branch2b <- res4c_branch2b
I1026 00:30:00.189041 44957 net.cpp:395] scale4c_branch2b -> res4c_branch2b (in-place)
I1026 00:30:00.189088 44957 layer_factory.hpp:77] Creating layer scale4c_branch2b
I1026 00:30:00.189198 44957 net.cpp:150] Setting up scale4c_branch2b
I1026 00:30:00.189208 44957 net.cpp:157] Top shape: 16 256 14 14 (802816)
I1026 00:30:00.189210 44957 net.cpp:165] Memory required for data: 2897248320
I1026 00:30:00.189216 44957 layer_factory.hpp:77] Creating layer res4c_branch2b_relu
I1026 00:30:00.189223 44957 net.cpp:100] Creating Layer res4c_branch2b_relu
I1026 00:30:00.189225 44957 net.cpp:434] res4c_branch2b_relu <- res4c_branch2b
I1026 00:30:00.189230 44957 net.cpp:395] res4c_branch2b_relu -> res4c_branch2b (in-place)
I1026 00:30:00.189236 44957 net.cpp:150] Setting up res4c_branch2b_relu
I1026 00:30:00.189240 44957 net.cpp:157] Top shape: 16 256 14 14 (802816)
I1026 00:30:00.189244 44957 net.cpp:165] Memory required for data: 2900459584
I1026 00:30:00.189246 44957 layer_factory.hpp:77] Creating layer res4c_branch2c
I1026 00:30:00.189268 44957 net.cpp:100] Creating Layer res4c_branch2c
I1026 00:30:00.189273 44957 net.cpp:434] res4c_branch2c <- res4c_branch2b
I1026 00:30:00.189280 44957 net.cpp:408] res4c_branch2c -> res4c_branch2c
I1026 00:30:00.190301 44957 net.cpp:150] Setting up res4c_branch2c
I1026 00:30:00.190313 44957 net.cpp:157] Top shape: 16 1024 14 14 (3211264)
I1026 00:30:00.190316 44957 net.cpp:165] Memory required for data: 2913304640
I1026 00:30:00.190335 44957 layer_factory.hpp:77] Creating layer bn4c_branch2c
I1026 00:30:00.190340 44957 net.cpp:100] Creating Layer bn4c_branch2c
I1026 00:30:00.190345 44957 net.cpp:434] bn4c_branch2c <- res4c_branch2c
I1026 00:30:00.190351 44957 net.cpp:395] bn4c_branch2c -> res4c_branch2c (in-place)
I1026 00:30:00.190536 44957 net.cpp:150] Setting up bn4c_branch2c
I1026 00:30:00.190546 44957 net.cpp:157] Top shape: 16 1024 14 14 (3211264)
I1026 00:30:00.190549 44957 net.cpp:165] Memory required for data: 2926149696
I1026 00:30:00.190557 44957 layer_factory.hpp:77] Creating layer scale4c_branch2c
I1026 00:30:00.190569 44957 net.cpp:100] Creating Layer scale4c_branch2c
I1026 00:30:00.190574 44957 net.cpp:434] scale4c_branch2c <- res4c_branch2c
I1026 00:30:00.190579 44957 net.cpp:395] scale4c_branch2c -> res4c_branch2c (in-place)
I1026 00:30:00.190616 44957 layer_factory.hpp:77] Creating layer scale4c_branch2c
I1026 00:30:00.190721 44957 net.cpp:150] Setting up scale4c_branch2c
I1026 00:30:00.190732 44957 net.cpp:157] Top shape: 16 1024 14 14 (3211264)
I1026 00:30:00.190734 44957 net.cpp:165] Memory required for data: 2938994752
I1026 00:30:00.190740 44957 layer_factory.hpp:77] Creating layer res4c
I1026 00:30:00.190752 44957 net.cpp:100] Creating Layer res4c
I1026 00:30:00.190757 44957 net.cpp:434] res4c <- res4b_res4b_relu_0_split_1
I1026 00:30:00.190762 44957 net.cpp:434] res4c <- res4c_branch2c
I1026 00:30:00.190767 44957 net.cpp:408] res4c -> res4c
I1026 00:30:00.190790 44957 net.cpp:150] Setting up res4c
I1026 00:30:00.190799 44957 net.cpp:157] Top shape: 16 1024 14 14 (3211264)
I1026 00:30:00.190803 44957 net.cpp:165] Memory required for data: 2951839808
I1026 00:30:00.190805 44957 layer_factory.hpp:77] Creating layer res4c_relu
I1026 00:30:00.190811 44957 net.cpp:100] Creating Layer res4c_relu
I1026 00:30:00.190814 44957 net.cpp:434] res4c_relu <- res4c
I1026 00:30:00.190821 44957 net.cpp:395] res4c_relu -> res4c (in-place)
I1026 00:30:00.190826 44957 net.cpp:150] Setting up res4c_relu
I1026 00:30:00.190831 44957 net.cpp:157] Top shape: 16 1024 14 14 (3211264)
I1026 00:30:00.190834 44957 net.cpp:165] Memory required for data: 2964684864
I1026 00:30:00.190847 44957 layer_factory.hpp:77] Creating layer res4c_res4c_relu_0_split
I1026 00:30:00.190851 44957 net.cpp:100] Creating Layer res4c_res4c_relu_0_split
I1026 00:30:00.190855 44957 net.cpp:434] res4c_res4c_relu_0_split <- res4c
I1026 00:30:00.190860 44957 net.cpp:408] res4c_res4c_relu_0_split -> res4c_res4c_relu_0_split_0
I1026 00:30:00.190865 44957 net.cpp:408] res4c_res4c_relu_0_split -> res4c_res4c_relu_0_split_1
I1026 00:30:00.190897 44957 net.cpp:150] Setting up res4c_res4c_relu_0_split
I1026 00:30:00.190907 44957 net.cpp:157] Top shape: 16 1024 14 14 (3211264)
I1026 00:30:00.190910 44957 net.cpp:157] Top shape: 16 1024 14 14 (3211264)
I1026 00:30:00.190913 44957 net.cpp:165] Memory required for data: 2990374976
I1026 00:30:00.190917 44957 layer_factory.hpp:77] Creating layer res4d_branch2a
I1026 00:30:00.190924 44957 net.cpp:100] Creating Layer res4d_branch2a
I1026 00:30:00.190928 44957 net.cpp:434] res4d_branch2a <- res4c_res4c_relu_0_split_0
I1026 00:30:00.190933 44957 net.cpp:408] res4d_branch2a -> res4d_branch2a
I1026 00:30:00.192000 44957 net.cpp:150] Setting up res4d_branch2a
I1026 00:30:00.192011 44957 net.cpp:157] Top shape: 16 256 14 14 (802816)
I1026 00:30:00.192028 44957 net.cpp:165] Memory required for data: 2993586240
I1026 00:30:00.192032 44957 layer_factory.hpp:77] Creating layer bn4d_branch2a
I1026 00:30:00.192039 44957 net.cpp:100] Creating Layer bn4d_branch2a
I1026 00:30:00.192042 44957 net.cpp:434] bn4d_branch2a <- res4d_branch2a
I1026 00:30:00.192061 44957 net.cpp:395] bn4d_branch2a -> res4d_branch2a (in-place)
I1026 00:30:00.192236 44957 net.cpp:150] Setting up bn4d_branch2a
I1026 00:30:00.192245 44957 net.cpp:157] Top shape: 16 256 14 14 (802816)
I1026 00:30:00.192250 44957 net.cpp:165] Memory required for data: 2996797504
I1026 00:30:00.192256 44957 layer_factory.hpp:77] Creating layer scale4d_branch2a
I1026 00:30:00.192262 44957 net.cpp:100] Creating Layer scale4d_branch2a
I1026 00:30:00.192266 44957 net.cpp:434] scale4d_branch2a <- res4d_branch2a
I1026 00:30:00.192270 44957 net.cpp:395] scale4d_branch2a -> res4d_branch2a (in-place)
I1026 00:30:00.192309 44957 layer_factory.hpp:77] Creating layer scale4d_branch2a
I1026 00:30:00.192420 44957 net.cpp:150] Setting up scale4d_branch2a
I1026 00:30:00.192430 44957 net.cpp:157] Top shape: 16 256 14 14 (802816)
I1026 00:30:00.192433 44957 net.cpp:165] Memory required for data: 3000008768
I1026 00:30:00.192440 44957 layer_factory.hpp:77] Creating layer res4d_branch2a_relu
I1026 00:30:00.192445 44957 net.cpp:100] Creating Layer res4d_branch2a_relu
I1026 00:30:00.192450 44957 net.cpp:434] res4d_branch2a_relu <- res4d_branch2a
I1026 00:30:00.192458 44957 net.cpp:395] res4d_branch2a_relu -> res4d_branch2a (in-place)
I1026 00:30:00.192466 44957 net.cpp:150] Setting up res4d_branch2a_relu
I1026 00:30:00.192471 44957 net.cpp:157] Top shape: 16 256 14 14 (802816)
I1026 00:30:00.192474 44957 net.cpp:165] Memory required for data: 3003220032
I1026 00:30:00.192478 44957 layer_factory.hpp:77] Creating layer res4d_branch2b
I1026 00:30:00.192484 44957 net.cpp:100] Creating Layer res4d_branch2b
I1026 00:30:00.192488 44957 net.cpp:434] res4d_branch2b <- res4d_branch2a
I1026 00:30:00.192495 44957 net.cpp:408] res4d_branch2b -> res4d_branch2b
I1026 00:30:00.194281 44957 net.cpp:150] Setting up res4d_branch2b
I1026 00:30:00.194293 44957 net.cpp:157] Top shape: 16 256 14 14 (802816)
I1026 00:30:00.194309 44957 net.cpp:165] Memory required for data: 3006431296
I1026 00:30:00.194315 44957 layer_factory.hpp:77] Creating layer bn4d_branch2b
I1026 00:30:00.194321 44957 net.cpp:100] Creating Layer bn4d_branch2b
I1026 00:30:00.194325 44957 net.cpp:434] bn4d_branch2b <- res4d_branch2b
I1026 00:30:00.194329 44957 net.cpp:395] bn4d_branch2b -> res4d_branch2b (in-place)
I1026 00:30:00.194509 44957 net.cpp:150] Setting up bn4d_branch2b
I1026 00:30:00.194517 44957 net.cpp:157] Top shape: 16 256 14 14 (802816)
I1026 00:30:00.194520 44957 net.cpp:165] Memory required for data: 3009642560
I1026 00:30:00.194528 44957 layer_factory.hpp:77] Creating layer scale4d_branch2b
I1026 00:30:00.194536 44957 net.cpp:100] Creating Layer scale4d_branch2b
I1026 00:30:00.194542 44957 net.cpp:434] scale4d_branch2b <- res4d_branch2b
I1026 00:30:00.194547 44957 net.cpp:395] scale4d_branch2b -> res4d_branch2b (in-place)
I1026 00:30:00.194933 44957 layer_factory.hpp:77] Creating layer scale4d_branch2b
I1026 00:30:00.195044 44957 net.cpp:150] Setting up scale4d_branch2b
I1026 00:30:00.195053 44957 net.cpp:157] Top shape: 16 256 14 14 (802816)
I1026 00:30:00.195057 44957 net.cpp:165] Memory required for data: 3012853824
I1026 00:30:00.195065 44957 layer_factory.hpp:77] Creating layer res4d_branch2b_relu
I1026 00:30:00.195070 44957 net.cpp:100] Creating Layer res4d_branch2b_relu
I1026 00:30:00.195073 44957 net.cpp:434] res4d_branch2b_relu <- res4d_branch2b
I1026 00:30:00.195080 44957 net.cpp:395] res4d_branch2b_relu -> res4d_branch2b (in-place)
I1026 00:30:00.195087 44957 net.cpp:150] Setting up res4d_branch2b_relu
I1026 00:30:00.195091 44957 net.cpp:157] Top shape: 16 256 14 14 (802816)
I1026 00:30:00.195094 44957 net.cpp:165] Memory required for data: 3016065088
I1026 00:30:00.195098 44957 layer_factory.hpp:77] Creating layer res4d_branch2c
I1026 00:30:00.195106 44957 net.cpp:100] Creating Layer res4d_branch2c
I1026 00:30:00.195111 44957 net.cpp:434] res4d_branch2c <- res4d_branch2b
I1026 00:30:00.195116 44957 net.cpp:408] res4d_branch2c -> res4d_branch2c
I1026 00:30:00.196177 44957 net.cpp:150] Setting up res4d_branch2c
I1026 00:30:00.196213 44957 net.cpp:157] Top shape: 16 1024 14 14 (3211264)
I1026 00:30:00.196218 44957 net.cpp:165] Memory required for data: 3028910144
I1026 00:30:00.196223 44957 layer_factory.hpp:77] Creating layer bn4d_branch2c
I1026 00:30:00.196231 44957 net.cpp:100] Creating Layer bn4d_branch2c
I1026 00:30:00.196235 44957 net.cpp:434] bn4d_branch2c <- res4d_branch2c
I1026 00:30:00.196239 44957 net.cpp:395] bn4d_branch2c -> res4d_branch2c (in-place)
I1026 00:30:00.196429 44957 net.cpp:150] Setting up bn4d_branch2c
I1026 00:30:00.196439 44957 net.cpp:157] Top shape: 16 1024 14 14 (3211264)
I1026 00:30:00.196441 44957 net.cpp:165] Memory required for data: 3041755200
I1026 00:30:00.196449 44957 layer_factory.hpp:77] Creating layer scale4d_branch2c
I1026 00:30:00.196455 44957 net.cpp:100] Creating Layer scale4d_branch2c
I1026 00:30:00.196458 44957 net.cpp:434] scale4d_branch2c <- res4d_branch2c
I1026 00:30:00.196470 44957 net.cpp:395] scale4d_branch2c -> res4d_branch2c (in-place)
I1026 00:30:00.196509 44957 layer_factory.hpp:77] Creating layer scale4d_branch2c
I1026 00:30:00.196624 44957 net.cpp:150] Setting up scale4d_branch2c
I1026 00:30:00.196633 44957 net.cpp:157] Top shape: 16 1024 14 14 (3211264)
I1026 00:30:00.196637 44957 net.cpp:165] Memory required for data: 3054600256
I1026 00:30:00.196643 44957 layer_factory.hpp:77] Creating layer res4d
I1026 00:30:00.196650 44957 net.cpp:100] Creating Layer res4d
I1026 00:30:00.196652 44957 net.cpp:434] res4d <- res4c_res4c_relu_0_split_1
I1026 00:30:00.196657 44957 net.cpp:434] res4d <- res4d_branch2c
I1026 00:30:00.196662 44957 net.cpp:408] res4d -> res4d
I1026 00:30:00.196687 44957 net.cpp:150] Setting up res4d
I1026 00:30:00.196696 44957 net.cpp:157] Top shape: 16 1024 14 14 (3211264)
I1026 00:30:00.196699 44957 net.cpp:165] Memory required for data: 3067445312
I1026 00:30:00.196702 44957 layer_factory.hpp:77] Creating layer res4d_relu
I1026 00:30:00.196709 44957 net.cpp:100] Creating Layer res4d_relu
I1026 00:30:00.196713 44957 net.cpp:434] res4d_relu <- res4d
I1026 00:30:00.196717 44957 net.cpp:395] res4d_relu -> res4d (in-place)
I1026 00:30:00.196723 44957 net.cpp:150] Setting up res4d_relu
I1026 00:30:00.196727 44957 net.cpp:157] Top shape: 16 1024 14 14 (3211264)
I1026 00:30:00.196730 44957 net.cpp:165] Memory required for data: 3080290368
I1026 00:30:00.196733 44957 layer_factory.hpp:77] Creating layer res4d_res4d_relu_0_split
I1026 00:30:00.196738 44957 net.cpp:100] Creating Layer res4d_res4d_relu_0_split
I1026 00:30:00.196741 44957 net.cpp:434] res4d_res4d_relu_0_split <- res4d
I1026 00:30:00.196748 44957 net.cpp:408] res4d_res4d_relu_0_split -> res4d_res4d_relu_0_split_0
I1026 00:30:00.196753 44957 net.cpp:408] res4d_res4d_relu_0_split -> res4d_res4d_relu_0_split_1
I1026 00:30:00.196784 44957 net.cpp:150] Setting up res4d_res4d_relu_0_split
I1026 00:30:00.196794 44957 net.cpp:157] Top shape: 16 1024 14 14 (3211264)
I1026 00:30:00.196797 44957 net.cpp:157] Top shape: 16 1024 14 14 (3211264)
I1026 00:30:00.196800 44957 net.cpp:165] Memory required for data: 3105980480
I1026 00:30:00.196804 44957 layer_factory.hpp:77] Creating layer res4e_branch2a
I1026 00:30:00.196820 44957 net.cpp:100] Creating Layer res4e_branch2a
I1026 00:30:00.196825 44957 net.cpp:434] res4e_branch2a <- res4d_res4d_relu_0_split_0
I1026 00:30:00.196830 44957 net.cpp:408] res4e_branch2a -> res4e_branch2a
I1026 00:30:00.197846 44957 net.cpp:150] Setting up res4e_branch2a
I1026 00:30:00.197871 44957 net.cpp:157] Top shape: 16 256 14 14 (802816)
I1026 00:30:00.197875 44957 net.cpp:165] Memory required for data: 3109191744
I1026 00:30:00.197880 44957 layer_factory.hpp:77] Creating layer bn4e_branch2a
I1026 00:30:00.197888 44957 net.cpp:100] Creating Layer bn4e_branch2a
I1026 00:30:00.197892 44957 net.cpp:434] bn4e_branch2a <- res4e_branch2a
I1026 00:30:00.197896 44957 net.cpp:395] bn4e_branch2a -> res4e_branch2a (in-place)
I1026 00:30:00.198071 44957 net.cpp:150] Setting up bn4e_branch2a
I1026 00:30:00.198081 44957 net.cpp:157] Top shape: 16 256 14 14 (802816)
I1026 00:30:00.198084 44957 net.cpp:165] Memory required for data: 3112403008
I1026 00:30:00.198102 44957 layer_factory.hpp:77] Creating layer scale4e_branch2a
I1026 00:30:00.198109 44957 net.cpp:100] Creating Layer scale4e_branch2a
I1026 00:30:00.198112 44957 net.cpp:434] scale4e_branch2a <- res4e_branch2a
I1026 00:30:00.198119 44957 net.cpp:395] scale4e_branch2a -> res4e_branch2a (in-place)
I1026 00:30:00.198158 44957 layer_factory.hpp:77] Creating layer scale4e_branch2a
I1026 00:30:00.198259 44957 net.cpp:150] Setting up scale4e_branch2a
I1026 00:30:00.198268 44957 net.cpp:157] Top shape: 16 256 14 14 (802816)
I1026 00:30:00.198271 44957 net.cpp:165] Memory required for data: 3115614272
I1026 00:30:00.198277 44957 layer_factory.hpp:77] Creating layer res4e_branch2a_relu
I1026 00:30:00.198288 44957 net.cpp:100] Creating Layer res4e_branch2a_relu
I1026 00:30:00.198293 44957 net.cpp:434] res4e_branch2a_relu <- res4e_branch2a
I1026 00:30:00.198298 44957 net.cpp:395] res4e_branch2a_relu -> res4e_branch2a (in-place)
I1026 00:30:00.198303 44957 net.cpp:150] Setting up res4e_branch2a_relu
I1026 00:30:00.198308 44957 net.cpp:157] Top shape: 16 256 14 14 (802816)
I1026 00:30:00.198312 44957 net.cpp:165] Memory required for data: 3118825536
I1026 00:30:00.198314 44957 layer_factory.hpp:77] Creating layer res4e_branch2b
I1026 00:30:00.198323 44957 net.cpp:100] Creating Layer res4e_branch2b
I1026 00:30:00.198326 44957 net.cpp:434] res4e_branch2b <- res4e_branch2a
I1026 00:30:00.198331 44957 net.cpp:408] res4e_branch2b -> res4e_branch2b
I1026 00:30:00.200043 44957 net.cpp:150] Setting up res4e_branch2b
I1026 00:30:00.200057 44957 net.cpp:157] Top shape: 16 256 14 14 (802816)
I1026 00:30:00.200073 44957 net.cpp:165] Memory required for data: 3122036800
I1026 00:30:00.200079 44957 layer_factory.hpp:77] Creating layer bn4e_branch2b
I1026 00:30:00.200085 44957 net.cpp:100] Creating Layer bn4e_branch2b
I1026 00:30:00.200089 44957 net.cpp:434] bn4e_branch2b <- res4e_branch2b
I1026 00:30:00.200093 44957 net.cpp:395] bn4e_branch2b -> res4e_branch2b (in-place)
I1026 00:30:00.200284 44957 net.cpp:150] Setting up bn4e_branch2b
I1026 00:30:00.200294 44957 net.cpp:157] Top shape: 16 256 14 14 (802816)
I1026 00:30:00.200296 44957 net.cpp:165] Memory required for data: 3125248064
I1026 00:30:00.200304 44957 layer_factory.hpp:77] Creating layer scale4e_branch2b
I1026 00:30:00.200310 44957 net.cpp:100] Creating Layer scale4e_branch2b
I1026 00:30:00.200314 44957 net.cpp:434] scale4e_branch2b <- res4e_branch2b
I1026 00:30:00.200319 44957 net.cpp:395] scale4e_branch2b -> res4e_branch2b (in-place)
I1026 00:30:00.200361 44957 layer_factory.hpp:77] Creating layer scale4e_branch2b
I1026 00:30:00.200472 44957 net.cpp:150] Setting up scale4e_branch2b
I1026 00:30:00.200481 44957 net.cpp:157] Top shape: 16 256 14 14 (802816)
I1026 00:30:00.200484 44957 net.cpp:165] Memory required for data: 3128459328
I1026 00:30:00.200490 44957 layer_factory.hpp:77] Creating layer res4e_branch2b_relu
I1026 00:30:00.200496 44957 net.cpp:100] Creating Layer res4e_branch2b_relu
I1026 00:30:00.200500 44957 net.cpp:434] res4e_branch2b_relu <- res4e_branch2b
I1026 00:30:00.200506 44957 net.cpp:395] res4e_branch2b_relu -> res4e_branch2b (in-place)
I1026 00:30:00.200512 44957 net.cpp:150] Setting up res4e_branch2b_relu
I1026 00:30:00.200516 44957 net.cpp:157] Top shape: 16 256 14 14 (802816)
I1026 00:30:00.200520 44957 net.cpp:165] Memory required for data: 3131670592
I1026 00:30:00.200522 44957 layer_factory.hpp:77] Creating layer res4e_branch2c
I1026 00:30:00.200528 44957 net.cpp:100] Creating Layer res4e_branch2c
I1026 00:30:00.200532 44957 net.cpp:434] res4e_branch2c <- res4e_branch2b
I1026 00:30:00.200538 44957 net.cpp:408] res4e_branch2c -> res4e_branch2c
I1026 00:30:00.201565 44957 net.cpp:150] Setting up res4e_branch2c
I1026 00:30:00.201576 44957 net.cpp:157] Top shape: 16 1024 14 14 (3211264)
I1026 00:30:00.201592 44957 net.cpp:165] Memory required for data: 3144515648
I1026 00:30:00.201598 44957 layer_factory.hpp:77] Creating layer bn4e_branch2c
I1026 00:30:00.201604 44957 net.cpp:100] Creating Layer bn4e_branch2c
I1026 00:30:00.201622 44957 net.cpp:434] bn4e_branch2c <- res4e_branch2c
I1026 00:30:00.201627 44957 net.cpp:395] bn4e_branch2c -> res4e_branch2c (in-place)
I1026 00:30:00.201813 44957 net.cpp:150] Setting up bn4e_branch2c
I1026 00:30:00.201823 44957 net.cpp:157] Top shape: 16 1024 14 14 (3211264)
I1026 00:30:00.201827 44957 net.cpp:165] Memory required for data: 3157360704
I1026 00:30:00.201834 44957 layer_factory.hpp:77] Creating layer scale4e_branch2c
I1026 00:30:00.201843 44957 net.cpp:100] Creating Layer scale4e_branch2c
I1026 00:30:00.201845 44957 net.cpp:434] scale4e_branch2c <- res4e_branch2c
I1026 00:30:00.201850 44957 net.cpp:395] scale4e_branch2c -> res4e_branch2c (in-place)
I1026 00:30:00.201889 44957 layer_factory.hpp:77] Creating layer scale4e_branch2c
I1026 00:30:00.202009 44957 net.cpp:150] Setting up scale4e_branch2c
I1026 00:30:00.202018 44957 net.cpp:157] Top shape: 16 1024 14 14 (3211264)
I1026 00:30:00.202021 44957 net.cpp:165] Memory required for data: 3170205760
I1026 00:30:00.202028 44957 layer_factory.hpp:77] Creating layer res4e
I1026 00:30:00.202033 44957 net.cpp:100] Creating Layer res4e
I1026 00:30:00.202038 44957 net.cpp:434] res4e <- res4d_res4d_relu_0_split_1
I1026 00:30:00.202041 44957 net.cpp:434] res4e <- res4e_branch2c
I1026 00:30:00.202059 44957 net.cpp:408] res4e -> res4e
I1026 00:30:00.202085 44957 net.cpp:150] Setting up res4e
I1026 00:30:00.202093 44957 net.cpp:157] Top shape: 16 1024 14 14 (3211264)
I1026 00:30:00.202096 44957 net.cpp:165] Memory required for data: 3183050816
I1026 00:30:00.202100 44957 layer_factory.hpp:77] Creating layer res4e_relu
I1026 00:30:00.202105 44957 net.cpp:100] Creating Layer res4e_relu
I1026 00:30:00.202108 44957 net.cpp:434] res4e_relu <- res4e
I1026 00:30:00.202112 44957 net.cpp:395] res4e_relu -> res4e (in-place)
I1026 00:30:00.202118 44957 net.cpp:150] Setting up res4e_relu
I1026 00:30:00.202122 44957 net.cpp:157] Top shape: 16 1024 14 14 (3211264)
I1026 00:30:00.202126 44957 net.cpp:165] Memory required for data: 3195895872
I1026 00:30:00.202128 44957 layer_factory.hpp:77] Creating layer res4e_res4e_relu_0_split
I1026 00:30:00.202136 44957 net.cpp:100] Creating Layer res4e_res4e_relu_0_split
I1026 00:30:00.202139 44957 net.cpp:434] res4e_res4e_relu_0_split <- res4e
I1026 00:30:00.202144 44957 net.cpp:408] res4e_res4e_relu_0_split -> res4e_res4e_relu_0_split_0
I1026 00:30:00.202149 44957 net.cpp:408] res4e_res4e_relu_0_split -> res4e_res4e_relu_0_split_1
I1026 00:30:00.202183 44957 net.cpp:150] Setting up res4e_res4e_relu_0_split
I1026 00:30:00.202193 44957 net.cpp:157] Top shape: 16 1024 14 14 (3211264)
I1026 00:30:00.202196 44957 net.cpp:157] Top shape: 16 1024 14 14 (3211264)
I1026 00:30:00.202199 44957 net.cpp:165] Memory required for data: 3221585984
I1026 00:30:00.202203 44957 layer_factory.hpp:77] Creating layer res4f_branch2a
I1026 00:30:00.202209 44957 net.cpp:100] Creating Layer res4f_branch2a
I1026 00:30:00.202214 44957 net.cpp:434] res4f_branch2a <- res4e_res4e_relu_0_split_0
I1026 00:30:00.202219 44957 net.cpp:408] res4f_branch2a -> res4f_branch2a
I1026 00:30:00.203346 44957 net.cpp:150] Setting up res4f_branch2a
I1026 00:30:00.203361 44957 net.cpp:157] Top shape: 16 256 14 14 (802816)
I1026 00:30:00.203377 44957 net.cpp:165] Memory required for data: 3224797248
I1026 00:30:00.203382 44957 layer_factory.hpp:77] Creating layer bn4f_branch2a
I1026 00:30:00.203395 44957 net.cpp:100] Creating Layer bn4f_branch2a
I1026 00:30:00.203399 44957 net.cpp:434] bn4f_branch2a <- res4f_branch2a
I1026 00:30:00.203404 44957 net.cpp:395] bn4f_branch2a -> res4f_branch2a (in-place)
I1026 00:30:00.203583 44957 net.cpp:150] Setting up bn4f_branch2a
I1026 00:30:00.203593 44957 net.cpp:157] Top shape: 16 256 14 14 (802816)
I1026 00:30:00.203595 44957 net.cpp:165] Memory required for data: 3228008512
I1026 00:30:00.203603 44957 layer_factory.hpp:77] Creating layer scale4f_branch2a
I1026 00:30:00.203611 44957 net.cpp:100] Creating Layer scale4f_branch2a
I1026 00:30:00.203616 44957 net.cpp:434] scale4f_branch2a <- res4f_branch2a
I1026 00:30:00.203621 44957 net.cpp:395] scale4f_branch2a -> res4f_branch2a (in-place)
I1026 00:30:00.203677 44957 layer_factory.hpp:77] Creating layer scale4f_branch2a
I1026 00:30:00.203786 44957 net.cpp:150] Setting up scale4f_branch2a
I1026 00:30:00.203795 44957 net.cpp:157] Top shape: 16 256 14 14 (802816)
I1026 00:30:00.203799 44957 net.cpp:165] Memory required for data: 3231219776
I1026 00:30:00.203814 44957 layer_factory.hpp:77] Creating layer res4f_branch2a_relu
I1026 00:30:00.203819 44957 net.cpp:100] Creating Layer res4f_branch2a_relu
I1026 00:30:00.203822 44957 net.cpp:434] res4f_branch2a_relu <- res4f_branch2a
I1026 00:30:00.203826 44957 net.cpp:395] res4f_branch2a_relu -> res4f_branch2a (in-place)
I1026 00:30:00.203832 44957 net.cpp:150] Setting up res4f_branch2a_relu
I1026 00:30:00.203836 44957 net.cpp:157] Top shape: 16 256 14 14 (802816)
I1026 00:30:00.203840 44957 net.cpp:165] Memory required for data: 3234431040
I1026 00:30:00.203842 44957 layer_factory.hpp:77] Creating layer res4f_branch2b
I1026 00:30:00.203851 44957 net.cpp:100] Creating Layer res4f_branch2b
I1026 00:30:00.203855 44957 net.cpp:434] res4f_branch2b <- res4f_branch2a
I1026 00:30:00.203861 44957 net.cpp:408] res4f_branch2b -> res4f_branch2b
I1026 00:30:00.205551 44957 net.cpp:150] Setting up res4f_branch2b
I1026 00:30:00.205564 44957 net.cpp:157] Top shape: 16 256 14 14 (802816)
I1026 00:30:00.205579 44957 net.cpp:165] Memory required for data: 3237642304
I1026 00:30:00.205585 44957 layer_factory.hpp:77] Creating layer bn4f_branch2b
I1026 00:30:00.205591 44957 net.cpp:100] Creating Layer bn4f_branch2b
I1026 00:30:00.205595 44957 net.cpp:434] bn4f_branch2b <- res4f_branch2b
I1026 00:30:00.205601 44957 net.cpp:395] bn4f_branch2b -> res4f_branch2b (in-place)
I1026 00:30:00.205793 44957 net.cpp:150] Setting up bn4f_branch2b
I1026 00:30:00.205803 44957 net.cpp:157] Top shape: 16 256 14 14 (802816)
I1026 00:30:00.205806 44957 net.cpp:165] Memory required for data: 3240853568
I1026 00:30:00.205813 44957 layer_factory.hpp:77] Creating layer scale4f_branch2b
I1026 00:30:00.205819 44957 net.cpp:100] Creating Layer scale4f_branch2b
I1026 00:30:00.205823 44957 net.cpp:434] scale4f_branch2b <- res4f_branch2b
I1026 00:30:00.205827 44957 net.cpp:395] scale4f_branch2b -> res4f_branch2b (in-place)
I1026 00:30:00.205868 44957 layer_factory.hpp:77] Creating layer scale4f_branch2b
I1026 00:30:00.205974 44957 net.cpp:150] Setting up scale4f_branch2b
I1026 00:30:00.205983 44957 net.cpp:157] Top shape: 16 256 14 14 (802816)
I1026 00:30:00.205986 44957 net.cpp:165] Memory required for data: 3244064832
I1026 00:30:00.205992 44957 layer_factory.hpp:77] Creating layer res4f_branch2b_relu
I1026 00:30:00.205999 44957 net.cpp:100] Creating Layer res4f_branch2b_relu
I1026 00:30:00.206003 44957 net.cpp:434] res4f_branch2b_relu <- res4f_branch2b
I1026 00:30:00.206008 44957 net.cpp:395] res4f_branch2b_relu -> res4f_branch2b (in-place)
I1026 00:30:00.206013 44957 net.cpp:150] Setting up res4f_branch2b_relu
I1026 00:30:00.206018 44957 net.cpp:157] Top shape: 16 256 14 14 (802816)
I1026 00:30:00.206022 44957 net.cpp:165] Memory required for data: 3247276096
I1026 00:30:00.206024 44957 layer_factory.hpp:77] Creating layer res4f_branch2c
I1026 00:30:00.206033 44957 net.cpp:100] Creating Layer res4f_branch2c
I1026 00:30:00.206037 44957 net.cpp:434] res4f_branch2c <- res4f_branch2b
I1026 00:30:00.206042 44957 net.cpp:408] res4f_branch2c -> res4f_branch2c
I1026 00:30:00.207379 44957 net.cpp:150] Setting up res4f_branch2c
I1026 00:30:00.207391 44957 net.cpp:157] Top shape: 16 1024 14 14 (3211264)
I1026 00:30:00.207408 44957 net.cpp:165] Memory required for data: 3260121152
I1026 00:30:00.207414 44957 layer_factory.hpp:77] Creating layer bn4f_branch2c
I1026 00:30:00.207420 44957 net.cpp:100] Creating Layer bn4f_branch2c
I1026 00:30:00.207424 44957 net.cpp:434] bn4f_branch2c <- res4f_branch2c
I1026 00:30:00.207429 44957 net.cpp:395] bn4f_branch2c -> res4f_branch2c (in-place)
I1026 00:30:00.207645 44957 net.cpp:150] Setting up bn4f_branch2c
I1026 00:30:00.207655 44957 net.cpp:157] Top shape: 16 1024 14 14 (3211264)
I1026 00:30:00.207674 44957 net.cpp:165] Memory required for data: 3272966208
I1026 00:30:00.207731 44957 layer_factory.hpp:77] Creating layer scale4f_branch2c
I1026 00:30:00.207742 44957 net.cpp:100] Creating Layer scale4f_branch2c
I1026 00:30:00.207748 44957 net.cpp:434] scale4f_branch2c <- res4f_branch2c
I1026 00:30:00.207754 44957 net.cpp:395] scale4f_branch2c -> res4f_branch2c (in-place)
I1026 00:30:00.207792 44957 layer_factory.hpp:77] Creating layer scale4f_branch2c
I1026 00:30:00.207896 44957 net.cpp:150] Setting up scale4f_branch2c
I1026 00:30:00.207906 44957 net.cpp:157] Top shape: 16 1024 14 14 (3211264)
I1026 00:30:00.207909 44957 net.cpp:165] Memory required for data: 3285811264
I1026 00:30:00.207916 44957 layer_factory.hpp:77] Creating layer res4f
I1026 00:30:00.207922 44957 net.cpp:100] Creating Layer res4f
I1026 00:30:00.207926 44957 net.cpp:434] res4f <- res4e_res4e_relu_0_split_1
I1026 00:30:00.207929 44957 net.cpp:434] res4f <- res4f_branch2c
I1026 00:30:00.207934 44957 net.cpp:408] res4f -> res4f
I1026 00:30:00.207960 44957 net.cpp:150] Setting up res4f
I1026 00:30:00.207969 44957 net.cpp:157] Top shape: 16 1024 14 14 (3211264)
I1026 00:30:00.207973 44957 net.cpp:165] Memory required for data: 3298656320
I1026 00:30:00.207980 44957 layer_factory.hpp:77] Creating layer res4f_relu
I1026 00:30:00.207988 44957 net.cpp:100] Creating Layer res4f_relu
I1026 00:30:00.207990 44957 net.cpp:434] res4f_relu <- res4f
I1026 00:30:00.207995 44957 net.cpp:395] res4f_relu -> res4f (in-place)
I1026 00:30:00.208000 44957 net.cpp:150] Setting up res4f_relu
I1026 00:30:00.208005 44957 net.cpp:157] Top shape: 16 1024 14 14 (3211264)
I1026 00:30:00.208009 44957 net.cpp:165] Memory required for data: 3311501376
I1026 00:30:00.208011 44957 layer_factory.hpp:77] Creating layer res4f_res4f_relu_0_split
I1026 00:30:00.208016 44957 net.cpp:100] Creating Layer res4f_res4f_relu_0_split
I1026 00:30:00.208019 44957 net.cpp:434] res4f_res4f_relu_0_split <- res4f
I1026 00:30:00.208025 44957 net.cpp:408] res4f_res4f_relu_0_split -> res4f_res4f_relu_0_split_0
I1026 00:30:00.208031 44957 net.cpp:408] res4f_res4f_relu_0_split -> res4f_res4f_relu_0_split_1
I1026 00:30:00.208066 44957 net.cpp:150] Setting up res4f_res4f_relu_0_split
I1026 00:30:00.208075 44957 net.cpp:157] Top shape: 16 1024 14 14 (3211264)
I1026 00:30:00.208079 44957 net.cpp:157] Top shape: 16 1024 14 14 (3211264)
I1026 00:30:00.208082 44957 net.cpp:165] Memory required for data: 3337191488
I1026 00:30:00.208086 44957 layer_factory.hpp:77] Creating layer res5a_branch1
I1026 00:30:00.208094 44957 net.cpp:100] Creating Layer res5a_branch1
I1026 00:30:00.208097 44957 net.cpp:434] res5a_branch1 <- res4f_res4f_relu_0_split_0
I1026 00:30:00.208103 44957 net.cpp:408] res5a_branch1 -> res5a_branch1
I1026 00:30:00.213177 44957 net.cpp:150] Setting up res5a_branch1
I1026 00:30:00.213213 44957 net.cpp:157] Top shape: 16 2048 7 7 (1605632)
I1026 00:30:00.213217 44957 net.cpp:165] Memory required for data: 3343614016
I1026 00:30:00.213224 44957 layer_factory.hpp:77] Creating layer bn5a_branch1
I1026 00:30:00.213250 44957 net.cpp:100] Creating Layer bn5a_branch1
I1026 00:30:00.213256 44957 net.cpp:434] bn5a_branch1 <- res5a_branch1
I1026 00:30:00.213263 44957 net.cpp:395] bn5a_branch1 -> res5a_branch1 (in-place)
I1026 00:30:00.213469 44957 net.cpp:150] Setting up bn5a_branch1
I1026 00:30:00.213479 44957 net.cpp:157] Top shape: 16 2048 7 7 (1605632)
I1026 00:30:00.213481 44957 net.cpp:165] Memory required for data: 3350036544
I1026 00:30:00.213490 44957 layer_factory.hpp:77] Creating layer scale5a_branch1
I1026 00:30:00.213497 44957 net.cpp:100] Creating Layer scale5a_branch1
I1026 00:30:00.213506 44957 net.cpp:434] scale5a_branch1 <- res5a_branch1
I1026 00:30:00.213513 44957 net.cpp:395] scale5a_branch1 -> res5a_branch1 (in-place)
I1026 00:30:00.213557 44957 layer_factory.hpp:77] Creating layer scale5a_branch1
I1026 00:30:00.213677 44957 net.cpp:150] Setting up scale5a_branch1
I1026 00:30:00.213687 44957 net.cpp:157] Top shape: 16 2048 7 7 (1605632)
I1026 00:30:00.213693 44957 net.cpp:165] Memory required for data: 3356459072
I1026 00:30:00.213721 44957 layer_factory.hpp:77] Creating layer res5a_branch2a
I1026 00:30:00.213732 44957 net.cpp:100] Creating Layer res5a_branch2a
I1026 00:30:00.213738 44957 net.cpp:434] res5a_branch2a <- res4f_res4f_relu_0_split_1
I1026 00:30:00.213745 44957 net.cpp:408] res5a_branch2a -> res5a_branch2a
I1026 00:30:00.215409 44957 net.cpp:150] Setting up res5a_branch2a
I1026 00:30:00.215422 44957 net.cpp:157] Top shape: 16 512 7 7 (401408)
I1026 00:30:00.215425 44957 net.cpp:165] Memory required for data: 3358064704
I1026 00:30:00.215443 44957 layer_factory.hpp:77] Creating layer bn5a_branch2a
I1026 00:30:00.215451 44957 net.cpp:100] Creating Layer bn5a_branch2a
I1026 00:30:00.215454 44957 net.cpp:434] bn5a_branch2a <- res5a_branch2a
I1026 00:30:00.215458 44957 net.cpp:395] bn5a_branch2a -> res5a_branch2a (in-place)
I1026 00:30:00.215653 44957 net.cpp:150] Setting up bn5a_branch2a
I1026 00:30:00.215663 44957 net.cpp:157] Top shape: 16 512 7 7 (401408)
I1026 00:30:00.215667 44957 net.cpp:165] Memory required for data: 3359670336
I1026 00:30:00.215677 44957 layer_factory.hpp:77] Creating layer scale5a_branch2a
I1026 00:30:00.215685 44957 net.cpp:100] Creating Layer scale5a_branch2a
I1026 00:30:00.215689 44957 net.cpp:434] scale5a_branch2a <- res5a_branch2a
I1026 00:30:00.215694 44957 net.cpp:395] scale5a_branch2a -> res5a_branch2a (in-place)
I1026 00:30:00.215733 44957 layer_factory.hpp:77] Creating layer scale5a_branch2a
I1026 00:30:00.215840 44957 net.cpp:150] Setting up scale5a_branch2a
I1026 00:30:00.215850 44957 net.cpp:157] Top shape: 16 512 7 7 (401408)
I1026 00:30:00.215853 44957 net.cpp:165] Memory required for data: 3361275968
I1026 00:30:00.215860 44957 layer_factory.hpp:77] Creating layer res5a_branch2a_relu
I1026 00:30:00.215868 44957 net.cpp:100] Creating Layer res5a_branch2a_relu
I1026 00:30:00.215873 44957 net.cpp:434] res5a_branch2a_relu <- res5a_branch2a
I1026 00:30:00.215876 44957 net.cpp:395] res5a_branch2a_relu -> res5a_branch2a (in-place)
I1026 00:30:00.215883 44957 net.cpp:150] Setting up res5a_branch2a_relu
I1026 00:30:00.215888 44957 net.cpp:157] Top shape: 16 512 7 7 (401408)
I1026 00:30:00.215890 44957 net.cpp:165] Memory required for data: 3362881600
I1026 00:30:00.215893 44957 layer_factory.hpp:77] Creating layer res5a_branch2b
I1026 00:30:00.215903 44957 net.cpp:100] Creating Layer res5a_branch2b
I1026 00:30:00.215906 44957 net.cpp:434] res5a_branch2b <- res5a_branch2a
I1026 00:30:00.215911 44957 net.cpp:408] res5a_branch2b -> res5a_branch2b
I1026 00:30:00.221132 44957 net.cpp:150] Setting up res5a_branch2b
I1026 00:30:00.221158 44957 net.cpp:157] Top shape: 16 512 7 7 (401408)
I1026 00:30:00.221163 44957 net.cpp:165] Memory required for data: 3364487232
I1026 00:30:00.221168 44957 layer_factory.hpp:77] Creating layer bn5a_branch2b
I1026 00:30:00.221176 44957 net.cpp:100] Creating Layer bn5a_branch2b
I1026 00:30:00.221180 44957 net.cpp:434] bn5a_branch2b <- res5a_branch2b
I1026 00:30:00.221184 44957 net.cpp:395] bn5a_branch2b -> res5a_branch2b (in-place)
I1026 00:30:00.221372 44957 net.cpp:150] Setting up bn5a_branch2b
I1026 00:30:00.221384 44957 net.cpp:157] Top shape: 16 512 7 7 (401408)
I1026 00:30:00.221386 44957 net.cpp:165] Memory required for data: 3366092864
I1026 00:30:00.221395 44957 layer_factory.hpp:77] Creating layer scale5a_branch2b
I1026 00:30:00.221405 44957 net.cpp:100] Creating Layer scale5a_branch2b
I1026 00:30:00.221411 44957 net.cpp:434] scale5a_branch2b <- res5a_branch2b
I1026 00:30:00.221416 44957 net.cpp:395] scale5a_branch2b -> res5a_branch2b (in-place)
I1026 00:30:00.221452 44957 layer_factory.hpp:77] Creating layer scale5a_branch2b
I1026 00:30:00.221572 44957 net.cpp:150] Setting up scale5a_branch2b
I1026 00:30:00.221582 44957 net.cpp:157] Top shape: 16 512 7 7 (401408)
I1026 00:30:00.221585 44957 net.cpp:165] Memory required for data: 3367698496
I1026 00:30:00.221591 44957 layer_factory.hpp:77] Creating layer res5a_branch2b_relu
I1026 00:30:00.221596 44957 net.cpp:100] Creating Layer res5a_branch2b_relu
I1026 00:30:00.221601 44957 net.cpp:434] res5a_branch2b_relu <- res5a_branch2b
I1026 00:30:00.221623 44957 net.cpp:395] res5a_branch2b_relu -> res5a_branch2b (in-place)
I1026 00:30:00.221632 44957 net.cpp:150] Setting up res5a_branch2b_relu
I1026 00:30:00.221635 44957 net.cpp:157] Top shape: 16 512 7 7 (401408)
I1026 00:30:00.221639 44957 net.cpp:165] Memory required for data: 3369304128
I1026 00:30:00.221642 44957 layer_factory.hpp:77] Creating layer res5a_branch2c
I1026 00:30:00.221652 44957 net.cpp:100] Creating Layer res5a_branch2c
I1026 00:30:00.221654 44957 net.cpp:434] res5a_branch2c <- res5a_branch2b
I1026 00:30:00.221662 44957 net.cpp:408] res5a_branch2c -> res5a_branch2c
I1026 00:30:00.224284 44957 net.cpp:150] Setting up res5a_branch2c
I1026 00:30:00.224297 44957 net.cpp:157] Top shape: 16 2048 7 7 (1605632)
I1026 00:30:00.224313 44957 net.cpp:165] Memory required for data: 3375726656
I1026 00:30:00.224318 44957 layer_factory.hpp:77] Creating layer bn5a_branch2c
I1026 00:30:00.224324 44957 net.cpp:100] Creating Layer bn5a_branch2c
I1026 00:30:00.224328 44957 net.cpp:434] bn5a_branch2c <- res5a_branch2c
I1026 00:30:00.224335 44957 net.cpp:395] bn5a_branch2c -> res5a_branch2c (in-place)
I1026 00:30:00.224532 44957 net.cpp:150] Setting up bn5a_branch2c
I1026 00:30:00.224542 44957 net.cpp:157] Top shape: 16 2048 7 7 (1605632)
I1026 00:30:00.224545 44957 net.cpp:165] Memory required for data: 3382149184
I1026 00:30:00.224553 44957 layer_factory.hpp:77] Creating layer scale5a_branch2c
I1026 00:30:00.224560 44957 net.cpp:100] Creating Layer scale5a_branch2c
I1026 00:30:00.224562 44957 net.cpp:434] scale5a_branch2c <- res5a_branch2c
I1026 00:30:00.224567 44957 net.cpp:395] scale5a_branch2c -> res5a_branch2c (in-place)
I1026 00:30:00.224606 44957 layer_factory.hpp:77] Creating layer scale5a_branch2c
I1026 00:30:00.224720 44957 net.cpp:150] Setting up scale5a_branch2c
I1026 00:30:00.224730 44957 net.cpp:157] Top shape: 16 2048 7 7 (1605632)
I1026 00:30:00.224732 44957 net.cpp:165] Memory required for data: 3388571712
I1026 00:30:00.224738 44957 layer_factory.hpp:77] Creating layer res5a
I1026 00:30:00.224747 44957 net.cpp:100] Creating Layer res5a
I1026 00:30:00.224756 44957 net.cpp:434] res5a <- res5a_branch1
I1026 00:30:00.224759 44957 net.cpp:434] res5a <- res5a_branch2c
I1026 00:30:00.224764 44957 net.cpp:408] res5a -> res5a
I1026 00:30:00.224792 44957 net.cpp:150] Setting up res5a
I1026 00:30:00.224800 44957 net.cpp:157] Top shape: 16 2048 7 7 (1605632)
I1026 00:30:00.224803 44957 net.cpp:165] Memory required for data: 3394994240
I1026 00:30:00.224807 44957 layer_factory.hpp:77] Creating layer res5a_relu
I1026 00:30:00.224812 44957 net.cpp:100] Creating Layer res5a_relu
I1026 00:30:00.224815 44957 net.cpp:434] res5a_relu <- res5a
I1026 00:30:00.224822 44957 net.cpp:395] res5a_relu -> res5a (in-place)
I1026 00:30:00.224828 44957 net.cpp:150] Setting up res5a_relu
I1026 00:30:00.224831 44957 net.cpp:157] Top shape: 16 2048 7 7 (1605632)
I1026 00:30:00.224835 44957 net.cpp:165] Memory required for data: 3401416768
I1026 00:30:00.224838 44957 layer_factory.hpp:77] Creating layer res5a_res5a_relu_0_split
I1026 00:30:00.224844 44957 net.cpp:100] Creating Layer res5a_res5a_relu_0_split
I1026 00:30:00.224848 44957 net.cpp:434] res5a_res5a_relu_0_split <- res5a
I1026 00:30:00.224851 44957 net.cpp:408] res5a_res5a_relu_0_split -> res5a_res5a_relu_0_split_0
I1026 00:30:00.224858 44957 net.cpp:408] res5a_res5a_relu_0_split -> res5a_res5a_relu_0_split_1
I1026 00:30:00.224900 44957 net.cpp:150] Setting up res5a_res5a_relu_0_split
I1026 00:30:00.224908 44957 net.cpp:157] Top shape: 16 2048 7 7 (1605632)
I1026 00:30:00.224912 44957 net.cpp:157] Top shape: 16 2048 7 7 (1605632)
I1026 00:30:00.224915 44957 net.cpp:165] Memory required for data: 3414261824
I1026 00:30:00.224920 44957 layer_factory.hpp:77] Creating layer res5b_branch2a
I1026 00:30:00.224927 44957 net.cpp:100] Creating Layer res5b_branch2a
I1026 00:30:00.224931 44957 net.cpp:434] res5b_branch2a <- res5a_res5a_relu_0_split_0
I1026 00:30:00.224936 44957 net.cpp:408] res5b_branch2a -> res5b_branch2a
I1026 00:30:00.227497 44957 net.cpp:150] Setting up res5b_branch2a
I1026 00:30:00.227510 44957 net.cpp:157] Top shape: 16 512 7 7 (401408)
I1026 00:30:00.227514 44957 net.cpp:165] Memory required for data: 3415867456
I1026 00:30:00.227532 44957 layer_factory.hpp:77] Creating layer bn5b_branch2a
I1026 00:30:00.227538 44957 net.cpp:100] Creating Layer bn5b_branch2a
I1026 00:30:00.227542 44957 net.cpp:434] bn5b_branch2a <- res5b_branch2a
I1026 00:30:00.227551 44957 net.cpp:395] bn5b_branch2a -> res5b_branch2a (in-place)
I1026 00:30:00.227735 44957 net.cpp:150] Setting up bn5b_branch2a
I1026 00:30:00.227746 44957 net.cpp:157] Top shape: 16 512 7 7 (401408)
I1026 00:30:00.227749 44957 net.cpp:165] Memory required for data: 3417473088
I1026 00:30:00.227757 44957 layer_factory.hpp:77] Creating layer scale5b_branch2a
I1026 00:30:00.227763 44957 net.cpp:100] Creating Layer scale5b_branch2a
I1026 00:30:00.227767 44957 net.cpp:434] scale5b_branch2a <- res5b_branch2a
I1026 00:30:00.227771 44957 net.cpp:395] scale5b_branch2a -> res5b_branch2a (in-place)
I1026 00:30:00.227810 44957 layer_factory.hpp:77] Creating layer scale5b_branch2a
I1026 00:30:00.227919 44957 net.cpp:150] Setting up scale5b_branch2a
I1026 00:30:00.227928 44957 net.cpp:157] Top shape: 16 512 7 7 (401408)
I1026 00:30:00.227932 44957 net.cpp:165] Memory required for data: 3419078720
I1026 00:30:00.227938 44957 layer_factory.hpp:77] Creating layer res5b_branch2a_relu
I1026 00:30:00.227943 44957 net.cpp:100] Creating Layer res5b_branch2a_relu
I1026 00:30:00.227947 44957 net.cpp:434] res5b_branch2a_relu <- res5b_branch2a
I1026 00:30:00.227953 44957 net.cpp:395] res5b_branch2a_relu -> res5b_branch2a (in-place)
I1026 00:30:00.227959 44957 net.cpp:150] Setting up res5b_branch2a_relu
I1026 00:30:00.227964 44957 net.cpp:157] Top shape: 16 512 7 7 (401408)
I1026 00:30:00.227967 44957 net.cpp:165] Memory required for data: 3420684352
I1026 00:30:00.227970 44957 layer_factory.hpp:77] Creating layer res5b_branch2b
I1026 00:30:00.227977 44957 net.cpp:100] Creating Layer res5b_branch2b
I1026 00:30:00.227979 44957 net.cpp:434] res5b_branch2b <- res5b_branch2a
I1026 00:30:00.227987 44957 net.cpp:408] res5b_branch2b -> res5b_branch2b
I1026 00:30:00.233131 44957 net.cpp:150] Setting up res5b_branch2b
I1026 00:30:00.233145 44957 net.cpp:157] Top shape: 16 512 7 7 (401408)
I1026 00:30:00.233161 44957 net.cpp:165] Memory required for data: 3422289984
I1026 00:30:00.233167 44957 layer_factory.hpp:77] Creating layer bn5b_branch2b
I1026 00:30:00.233173 44957 net.cpp:100] Creating Layer bn5b_branch2b
I1026 00:30:00.233177 44957 net.cpp:434] bn5b_branch2b <- res5b_branch2b
I1026 00:30:00.233181 44957 net.cpp:395] bn5b_branch2b -> res5b_branch2b (in-place)
I1026 00:30:00.233369 44957 net.cpp:150] Setting up bn5b_branch2b
I1026 00:30:00.233379 44957 net.cpp:157] Top shape: 16 512 7 7 (401408)
I1026 00:30:00.233383 44957 net.cpp:165] Memory required for data: 3423895616
I1026 00:30:00.233391 44957 layer_factory.hpp:77] Creating layer scale5b_branch2b
I1026 00:30:00.233398 44957 net.cpp:100] Creating Layer scale5b_branch2b
I1026 00:30:00.233402 44957 net.cpp:434] scale5b_branch2b <- res5b_branch2b
I1026 00:30:00.233407 44957 net.cpp:395] scale5b_branch2b -> res5b_branch2b (in-place)
I1026 00:30:00.233445 44957 layer_factory.hpp:77] Creating layer scale5b_branch2b
I1026 00:30:00.233556 44957 net.cpp:150] Setting up scale5b_branch2b
I1026 00:30:00.233564 44957 net.cpp:157] Top shape: 16 512 7 7 (401408)
I1026 00:30:00.233568 44957 net.cpp:165] Memory required for data: 3425501248
I1026 00:30:00.233574 44957 layer_factory.hpp:77] Creating layer res5b_branch2b_relu
I1026 00:30:00.233579 44957 net.cpp:100] Creating Layer res5b_branch2b_relu
I1026 00:30:00.233583 44957 net.cpp:434] res5b_branch2b_relu <- res5b_branch2b
I1026 00:30:00.233589 44957 net.cpp:395] res5b_branch2b_relu -> res5b_branch2b (in-place)
I1026 00:30:00.233595 44957 net.cpp:150] Setting up res5b_branch2b_relu
I1026 00:30:00.233600 44957 net.cpp:157] Top shape: 16 512 7 7 (401408)
I1026 00:30:00.233603 44957 net.cpp:165] Memory required for data: 3427106880
I1026 00:30:00.233619 44957 layer_factory.hpp:77] Creating layer res5b_branch2c
I1026 00:30:00.233630 44957 net.cpp:100] Creating Layer res5b_branch2c
I1026 00:30:00.233636 44957 net.cpp:434] res5b_branch2c <- res5b_branch2b
I1026 00:30:00.233642 44957 net.cpp:408] res5b_branch2c -> res5b_branch2c
I1026 00:30:00.236181 44957 net.cpp:150] Setting up res5b_branch2c
I1026 00:30:00.236193 44957 net.cpp:157] Top shape: 16 2048 7 7 (1605632)
I1026 00:30:00.236210 44957 net.cpp:165] Memory required for data: 3433529408
I1026 00:30:00.236215 44957 layer_factory.hpp:77] Creating layer bn5b_branch2c
I1026 00:30:00.236225 44957 net.cpp:100] Creating Layer bn5b_branch2c
I1026 00:30:00.236229 44957 net.cpp:434] bn5b_branch2c <- res5b_branch2c
I1026 00:30:00.236233 44957 net.cpp:395] bn5b_branch2c -> res5b_branch2c (in-place)
I1026 00:30:00.236423 44957 net.cpp:150] Setting up bn5b_branch2c
I1026 00:30:00.236433 44957 net.cpp:157] Top shape: 16 2048 7 7 (1605632)
I1026 00:30:00.236436 44957 net.cpp:165] Memory required for data: 3439951936
I1026 00:30:00.236443 44957 layer_factory.hpp:77] Creating layer scale5b_branch2c
I1026 00:30:00.236450 44957 net.cpp:100] Creating Layer scale5b_branch2c
I1026 00:30:00.236454 44957 net.cpp:434] scale5b_branch2c <- res5b_branch2c
I1026 00:30:00.236460 44957 net.cpp:395] scale5b_branch2c -> res5b_branch2c (in-place)
I1026 00:30:00.236497 44957 layer_factory.hpp:77] Creating layer scale5b_branch2c
I1026 00:30:00.236620 44957 net.cpp:150] Setting up scale5b_branch2c
I1026 00:30:00.236630 44957 net.cpp:157] Top shape: 16 2048 7 7 (1605632)
I1026 00:30:00.236634 44957 net.cpp:165] Memory required for data: 3446374464
I1026 00:30:00.236639 44957 layer_factory.hpp:77] Creating layer res5b
I1026 00:30:00.236645 44957 net.cpp:100] Creating Layer res5b
I1026 00:30:00.236649 44957 net.cpp:434] res5b <- res5a_res5a_relu_0_split_1
I1026 00:30:00.236652 44957 net.cpp:434] res5b <- res5b_branch2c
I1026 00:30:00.236657 44957 net.cpp:408] res5b -> res5b
I1026 00:30:00.236685 44957 net.cpp:150] Setting up res5b
I1026 00:30:00.236693 44957 net.cpp:157] Top shape: 16 2048 7 7 (1605632)
I1026 00:30:00.236696 44957 net.cpp:165] Memory required for data: 3452796992
I1026 00:30:00.236699 44957 layer_factory.hpp:77] Creating layer res5b_relu
I1026 00:30:00.236706 44957 net.cpp:100] Creating Layer res5b_relu
I1026 00:30:00.236711 44957 net.cpp:434] res5b_relu <- res5b
I1026 00:30:00.236714 44957 net.cpp:395] res5b_relu -> res5b (in-place)
I1026 00:30:00.236721 44957 net.cpp:150] Setting up res5b_relu
I1026 00:30:00.236726 44957 net.cpp:157] Top shape: 16 2048 7 7 (1605632)
I1026 00:30:00.236728 44957 net.cpp:165] Memory required for data: 3459219520
I1026 00:30:00.236732 44957 layer_factory.hpp:77] Creating layer res5b_res5b_relu_0_split
I1026 00:30:00.236737 44957 net.cpp:100] Creating Layer res5b_res5b_relu_0_split
I1026 00:30:00.236739 44957 net.cpp:434] res5b_res5b_relu_0_split <- res5b
I1026 00:30:00.236745 44957 net.cpp:408] res5b_res5b_relu_0_split -> res5b_res5b_relu_0_split_0
I1026 00:30:00.236752 44957 net.cpp:408] res5b_res5b_relu_0_split -> res5b_res5b_relu_0_split_1
I1026 00:30:00.236783 44957 net.cpp:150] Setting up res5b_res5b_relu_0_split
I1026 00:30:00.236791 44957 net.cpp:157] Top shape: 16 2048 7 7 (1605632)
I1026 00:30:00.236796 44957 net.cpp:157] Top shape: 16 2048 7 7 (1605632)
I1026 00:30:00.236799 44957 net.cpp:165] Memory required for data: 3472064576
I1026 00:30:00.236802 44957 layer_factory.hpp:77] Creating layer res5c_branch2a
I1026 00:30:00.236817 44957 net.cpp:100] Creating Layer res5c_branch2a
I1026 00:30:00.236822 44957 net.cpp:434] res5c_branch2a <- res5b_res5b_relu_0_split_0
I1026 00:30:00.236827 44957 net.cpp:408] res5c_branch2a -> res5c_branch2a
I1026 00:30:00.239356 44957 net.cpp:150] Setting up res5c_branch2a
I1026 00:30:00.239367 44957 net.cpp:157] Top shape: 16 512 7 7 (401408)
I1026 00:30:00.239384 44957 net.cpp:165] Memory required for data: 3473670208
I1026 00:30:00.239390 44957 layer_factory.hpp:77] Creating layer bn5c_branch2a
I1026 00:30:00.239398 44957 net.cpp:100] Creating Layer bn5c_branch2a
I1026 00:30:00.239413 44957 net.cpp:434] bn5c_branch2a <- res5c_branch2a
I1026 00:30:00.239418 44957 net.cpp:395] bn5c_branch2a -> res5c_branch2a (in-place)
I1026 00:30:00.239605 44957 net.cpp:150] Setting up bn5c_branch2a
I1026 00:30:00.239615 44957 net.cpp:157] Top shape: 16 512 7 7 (401408)
I1026 00:30:00.239619 44957 net.cpp:165] Memory required for data: 3475275840
I1026 00:30:00.239626 44957 layer_factory.hpp:77] Creating layer scale5c_branch2a
I1026 00:30:00.239632 44957 net.cpp:100] Creating Layer scale5c_branch2a
I1026 00:30:00.239636 44957 net.cpp:434] scale5c_branch2a <- res5c_branch2a
I1026 00:30:00.239644 44957 net.cpp:395] scale5c_branch2a -> res5c_branch2a (in-place)
I1026 00:30:00.239680 44957 layer_factory.hpp:77] Creating layer scale5c_branch2a
I1026 00:30:00.239791 44957 net.cpp:150] Setting up scale5c_branch2a
I1026 00:30:00.239800 44957 net.cpp:157] Top shape: 16 512 7 7 (401408)
I1026 00:30:00.239804 44957 net.cpp:165] Memory required for data: 3476881472
I1026 00:30:00.239810 44957 layer_factory.hpp:77] Creating layer res5c_branch2a_relu
I1026 00:30:00.239817 44957 net.cpp:100] Creating Layer res5c_branch2a_relu
I1026 00:30:00.239821 44957 net.cpp:434] res5c_branch2a_relu <- res5c_branch2a
I1026 00:30:00.239825 44957 net.cpp:395] res5c_branch2a_relu -> res5c_branch2a (in-place)
I1026 00:30:00.239831 44957 net.cpp:150] Setting up res5c_branch2a_relu
I1026 00:30:00.239836 44957 net.cpp:157] Top shape: 16 512 7 7 (401408)
I1026 00:30:00.239840 44957 net.cpp:165] Memory required for data: 3478487104
I1026 00:30:00.239842 44957 layer_factory.hpp:77] Creating layer res5c_branch2b
I1026 00:30:00.239850 44957 net.cpp:100] Creating Layer res5c_branch2b
I1026 00:30:00.239853 44957 net.cpp:434] res5c_branch2b <- res5c_branch2a
I1026 00:30:00.239858 44957 net.cpp:408] res5c_branch2b -> res5c_branch2b
I1026 00:30:00.245012 44957 net.cpp:150] Setting up res5c_branch2b
I1026 00:30:00.245026 44957 net.cpp:157] Top shape: 16 512 7 7 (401408)
I1026 00:30:00.245043 44957 net.cpp:165] Memory required for data: 3480092736
I1026 00:30:00.245048 44957 layer_factory.hpp:77] Creating layer bn5c_branch2b
I1026 00:30:00.245054 44957 net.cpp:100] Creating Layer bn5c_branch2b
I1026 00:30:00.245059 44957 net.cpp:434] bn5c_branch2b <- res5c_branch2b
I1026 00:30:00.245062 44957 net.cpp:395] bn5c_branch2b -> res5c_branch2b (in-place)
I1026 00:30:00.245260 44957 net.cpp:150] Setting up bn5c_branch2b
I1026 00:30:00.245270 44957 net.cpp:157] Top shape: 16 512 7 7 (401408)
I1026 00:30:00.245273 44957 net.cpp:165] Memory required for data: 3481698368
I1026 00:30:00.245281 44957 layer_factory.hpp:77] Creating layer scale5c_branch2b
I1026 00:30:00.245287 44957 net.cpp:100] Creating Layer scale5c_branch2b
I1026 00:30:00.245290 44957 net.cpp:434] scale5c_branch2b <- res5c_branch2b
I1026 00:30:00.245296 44957 net.cpp:395] scale5c_branch2b -> res5c_branch2b (in-place)
I1026 00:30:00.245333 44957 layer_factory.hpp:77] Creating layer scale5c_branch2b
I1026 00:30:00.245453 44957 net.cpp:150] Setting up scale5c_branch2b
I1026 00:30:00.245462 44957 net.cpp:157] Top shape: 16 512 7 7 (401408)
I1026 00:30:00.245465 44957 net.cpp:165] Memory required for data: 3483304000
I1026 00:30:00.245471 44957 layer_factory.hpp:77] Creating layer res5c_branch2b_relu
I1026 00:30:00.245479 44957 net.cpp:100] Creating Layer res5c_branch2b_relu
I1026 00:30:00.245482 44957 net.cpp:434] res5c_branch2b_relu <- res5c_branch2b
I1026 00:30:00.245489 44957 net.cpp:395] res5c_branch2b_relu -> res5c_branch2b (in-place)
I1026 00:30:00.245496 44957 net.cpp:150] Setting up res5c_branch2b_relu
I1026 00:30:00.245499 44957 net.cpp:157] Top shape: 16 512 7 7 (401408)
I1026 00:30:00.245502 44957 net.cpp:165] Memory required for data: 3484909632
I1026 00:30:00.245507 44957 layer_factory.hpp:77] Creating layer res5c_branch2c
I1026 00:30:00.245512 44957 net.cpp:100] Creating Layer res5c_branch2c
I1026 00:30:00.245515 44957 net.cpp:434] res5c_branch2c <- res5c_branch2b
I1026 00:30:00.245522 44957 net.cpp:408] res5c_branch2c -> res5c_branch2c
I1026 00:30:00.248451 44957 net.cpp:150] Setting up res5c_branch2c
I1026 00:30:00.248477 44957 net.cpp:157] Top shape: 16 2048 7 7 (1605632)
I1026 00:30:00.248481 44957 net.cpp:165] Memory required for data: 3491332160
I1026 00:30:00.248486 44957 layer_factory.hpp:77] Creating layer bn5c_branch2c
I1026 00:30:00.248493 44957 net.cpp:100] Creating Layer bn5c_branch2c
I1026 00:30:00.248497 44957 net.cpp:434] bn5c_branch2c <- res5c_branch2c
I1026 00:30:00.248502 44957 net.cpp:395] bn5c_branch2c -> res5c_branch2c (in-place)
I1026 00:30:00.248703 44957 net.cpp:150] Setting up bn5c_branch2c
I1026 00:30:00.248713 44957 net.cpp:157] Top shape: 16 2048 7 7 (1605632)
I1026 00:30:00.248716 44957 net.cpp:165] Memory required for data: 3497754688
I1026 00:30:00.248723 44957 layer_factory.hpp:77] Creating layer scale5c_branch2c
I1026 00:30:00.248733 44957 net.cpp:100] Creating Layer scale5c_branch2c
I1026 00:30:00.248741 44957 net.cpp:434] scale5c_branch2c <- res5c_branch2c
I1026 00:30:00.248747 44957 net.cpp:395] scale5c_branch2c -> res5c_branch2c (in-place)
I1026 00:30:00.248788 44957 layer_factory.hpp:77] Creating layer scale5c_branch2c
I1026 00:30:00.248901 44957 net.cpp:150] Setting up scale5c_branch2c
I1026 00:30:00.248910 44957 net.cpp:157] Top shape: 16 2048 7 7 (1605632)
I1026 00:30:00.248914 44957 net.cpp:165] Memory required for data: 3504177216
I1026 00:30:00.248920 44957 layer_factory.hpp:77] Creating layer res5c
I1026 00:30:00.248926 44957 net.cpp:100] Creating Layer res5c
I1026 00:30:00.248929 44957 net.cpp:434] res5c <- res5b_res5b_relu_0_split_1
I1026 00:30:00.248934 44957 net.cpp:434] res5c <- res5c_branch2c
I1026 00:30:00.248940 44957 net.cpp:408] res5c -> res5c
I1026 00:30:00.248967 44957 net.cpp:150] Setting up res5c
I1026 00:30:00.248975 44957 net.cpp:157] Top shape: 16 2048 7 7 (1605632)
I1026 00:30:00.248980 44957 net.cpp:165] Memory required for data: 3510599744
I1026 00:30:00.248983 44957 layer_factory.hpp:77] Creating layer res5c_relu
I1026 00:30:00.248988 44957 net.cpp:100] Creating Layer res5c_relu
I1026 00:30:00.248992 44957 net.cpp:434] res5c_relu <- res5c
I1026 00:30:00.248996 44957 net.cpp:395] res5c_relu -> res5c (in-place)
I1026 00:30:00.249002 44957 net.cpp:150] Setting up res5c_relu
I1026 00:30:00.249006 44957 net.cpp:157] Top shape: 16 2048 7 7 (1605632)
I1026 00:30:00.249009 44957 net.cpp:165] Memory required for data: 3517022272
I1026 00:30:00.249012 44957 layer_factory.hpp:77] Creating layer pool5
I1026 00:30:00.249020 44957 net.cpp:100] Creating Layer pool5
I1026 00:30:00.249024 44957 net.cpp:434] pool5 <- res5c
I1026 00:30:00.249029 44957 net.cpp:408] pool5 -> pool5
I1026 00:30:00.249059 44957 net.cpp:150] Setting up pool5
I1026 00:30:00.249068 44957 net.cpp:157] Top shape: 16 2048 1 1 (32768)
I1026 00:30:00.249070 44957 net.cpp:165] Memory required for data: 3517153344
I1026 00:30:00.249073 44957 layer_factory.hpp:77] Creating layer fc1000
I1026 00:30:00.249084 44957 net.cpp:100] Creating Layer fc1000
I1026 00:30:00.249089 44957 net.cpp:434] fc1000 <- pool5
I1026 00:30:00.249094 44957 net.cpp:408] fc1000 -> fc1000
I1026 00:30:00.253535 44957 net.cpp:150] Setting up fc1000
I1026 00:30:00.253549 44957 net.cpp:157] Top shape: 16 1000 (16000)
I1026 00:30:00.253566 44957 net.cpp:165] Memory required for data: 3517217344
I1026 00:30:00.253572 44957 layer_factory.hpp:77] Creating layer loss
I1026 00:30:00.253584 44957 net.cpp:100] Creating Layer loss
I1026 00:30:00.253588 44957 net.cpp:434] loss <- fc1000
I1026 00:30:00.253592 44957 net.cpp:434] loss <- label
I1026 00:30:00.253598 44957 net.cpp:408] loss -> loss
I1026 00:30:00.253612 44957 layer_factory.hpp:77] Creating layer loss
…
