…
base_lr: 0.01
display: 1
max_iter: 80
lr_policy: "fixed"
solver_mode: GPU
device_id: 0
net: "fcn8.prototxt"
train_state {
  level: 0
  stage: ""
}
I1026 01:41:20.928215 38785 solver.cpp:91] Creating training net from net file: fcn8.prototxt
I1026 01:41:20.928591 38785 net.cpp:58] Initializing net from parameters: 
name: "FFN"
state {
  phase: TRAIN
  level: 0
  stage: ""
}
layer {
  name: "data"
  type: "Data"
  top: "data"
  top: "label"
  include {
    phase: TRAIN
  }
  data_param {
    source: "fake_data26752.lmdb"
    batch_size: 2048
    backend: LMDB
  }
}
layer {
  name: "H1"
  type: "InnerProduct"
  bottom: "data"
  top: "H1"
  inner_product_param {
    num_output: 2048
  }
}
layer {
  name: "H1_A"
  type: "Sigmoid"
  bottom: "H1"
  top: "H1"
}
layer {
  name: "H2"
  type: "InnerProduct"
  bottom: "H1"
  top: "H2"
  inner_product_param {
    num_output: 2048
  }
}
layer {
  name: "H2_A"
  type: "Sigmoid"
  bottom: "H2"
  top: "H2"
}
layer {
  name: "H3"
  type: "InnerProduct"
  bottom: "H2"
  top: "H3"
  inner_product_param {
    num_output: 2048
  }
}
layer {
  name: "H3_A"
  type: "Sigmoid"
  bottom: "H3"
  top: "H3"
}
layer {
  name: "H4"
  type: "InnerProduct"
  bottom: "H3"
  top: "H4"
  inner_product_param {
    num_output: 2048
  }
}
layer {
  name: "H4_A"
  type: "Sigmoid"
  bottom: "H4"
  top: "H4"
}
layer {
  name: "H5"
  type: "InnerProduct"
  bottom: "H4"
  top: "H5"
  inner_product_param {
    num_output: 2048
  }
}
layer {
  name: "H5_A"
  type: "Sigmoid"
  bottom: "H5"
  top: "H5"
}
layer {
  name: "H6"
  type: "InnerProduct"
  bottom: "H5"
  top: "H6"
  inner_product_param {
    num_output: 2048
  }
}
layer {
  name: "H6_A"
  type: "Sigmoid"
  bottom: "H6"
  top: "H6"
}
layer {
  name: "L"
  type: "InnerProduct"
  bottom: "H6"
  top: "L"
  inner_product_param {
    num_output: 1000
  }
}
layer {
  name: "loss"
  type: "SoftmaxWithLoss"
  bottom: "L"
  bottom: "label"
  top: "loss"
}
I1026 01:41:20.928728 38785 layer_factory.hpp:77] Creating layer data
I1026 01:41:20.930361 38785 net.cpp:100] Creating Layer data
I1026 01:41:20.930392 38785 net.cpp:408] data -> data
I1026 01:41:20.930449 38785 net.cpp:408] data -> label
I1026 01:41:20.932190 38792 db_lmdb.cpp:35] Opened lmdb fake_data26752.lmdb
I1026 01:41:20.943167 38785 data_layer.cpp:41] output data size: 2048,1,1,512
I1026 01:41:20.953312 38785 net.cpp:150] Setting up data
I1026 01:41:20.953358 38785 net.cpp:157] Top shape: 2048 1 1 512 (1048576)
I1026 01:41:20.953366 38785 net.cpp:157] Top shape: 2048 (2048)
I1026 01:41:20.953369 38785 net.cpp:165] Memory required for data: 4202496
I1026 01:41:20.953387 38785 layer_factory.hpp:77] Creating layer H1
I1026 01:41:20.953405 38785 net.cpp:100] Creating Layer H1
I1026 01:41:20.953415 38785 net.cpp:434] H1 <- data
I1026 01:41:20.953429 38785 net.cpp:408] H1 -> H1
I1026 01:41:20.956254 38793 blocking_queue.cpp:50] Waiting for data
I1026 01:41:20.956372 38785 net.cpp:150] Setting up H1
I1026 01:41:20.956392 38785 net.cpp:157] Top shape: 2048 2048 (4194304)
I1026 01:41:20.956395 38785 net.cpp:165] Memory required for data: 20979712
I1026 01:41:20.956414 38785 layer_factory.hpp:77] Creating layer H1_A
I1026 01:41:20.956440 38785 net.cpp:100] Creating Layer H1_A
I1026 01:41:20.956445 38785 net.cpp:434] H1_A <- H1
I1026 01:41:20.956454 38785 net.cpp:395] H1_A -> H1 (in-place)
I1026 01:41:20.956465 38785 net.cpp:150] Setting up H1_A
I1026 01:41:20.956470 38785 net.cpp:157] Top shape: 2048 2048 (4194304)
I1026 01:41:20.956472 38785 net.cpp:165] Memory required for data: 37756928
I1026 01:41:20.956475 38785 layer_factory.hpp:77] Creating layer H2
I1026 01:41:20.956495 38785 net.cpp:100] Creating Layer H2
I1026 01:41:20.956498 38785 net.cpp:434] H2 <- H1
I1026 01:41:20.956506 38785 net.cpp:408] H2 -> H2
I1026 01:41:20.965476 38785 net.cpp:150] Setting up H2
I1026 01:41:20.965509 38785 net.cpp:157] Top shape: 2048 2048 (4194304)
I1026 01:41:20.965513 38785 net.cpp:165] Memory required for data: 54534144
I1026 01:41:20.965524 38785 layer_factory.hpp:77] Creating layer H2_A
I1026 01:41:20.965533 38785 net.cpp:100] Creating Layer H2_A
I1026 01:41:20.965538 38785 net.cpp:434] H2_A <- H2
I1026 01:41:20.965543 38785 net.cpp:395] H2_A -> H2 (in-place)
I1026 01:41:20.965550 38785 net.cpp:150] Setting up H2_A
I1026 01:41:20.965555 38785 net.cpp:157] Top shape: 2048 2048 (4194304)
I1026 01:41:20.965570 38785 net.cpp:165] Memory required for data: 71311360
I1026 01:41:20.965574 38785 layer_factory.hpp:77] Creating layer H3
I1026 01:41:20.965582 38785 net.cpp:100] Creating Layer H3
I1026 01:41:20.965585 38785 net.cpp:434] H3 <- H2
I1026 01:41:20.965590 38785 net.cpp:408] H3 -> H3
I1026 01:41:20.975375 38785 net.cpp:150] Setting up H3
I1026 01:41:20.975414 38785 net.cpp:157] Top shape: 2048 2048 (4194304)
I1026 01:41:20.975419 38785 net.cpp:165] Memory required for data: 88088576
I1026 01:41:20.975432 38785 layer_factory.hpp:77] Creating layer H3_A
I1026 01:41:20.975440 38785 net.cpp:100] Creating Layer H3_A
I1026 01:41:20.975445 38785 net.cpp:434] H3_A <- H3
I1026 01:41:20.975451 38785 net.cpp:395] H3_A -> H3 (in-place)
I1026 01:41:20.975459 38785 net.cpp:150] Setting up H3_A
I1026 01:41:20.975477 38785 net.cpp:157] Top shape: 2048 2048 (4194304)
I1026 01:41:20.975481 38785 net.cpp:165] Memory required for data: 104865792
I1026 01:41:20.975483 38785 layer_factory.hpp:77] Creating layer H4
I1026 01:41:20.975489 38785 net.cpp:100] Creating Layer H4
I1026 01:41:20.975492 38785 net.cpp:434] H4 <- H3
I1026 01:41:20.975497 38785 net.cpp:408] H4 -> H4
I1026 01:41:20.984436 38785 net.cpp:150] Setting up H4
I1026 01:41:20.984472 38785 net.cpp:157] Top shape: 2048 2048 (4194304)
I1026 01:41:20.984475 38785 net.cpp:165] Memory required for data: 121643008
I1026 01:41:20.984483 38785 layer_factory.hpp:77] Creating layer H4_A
I1026 01:41:20.984494 38785 net.cpp:100] Creating Layer H4_A
I1026 01:41:20.984498 38785 net.cpp:434] H4_A <- H4
I1026 01:41:20.984504 38785 net.cpp:395] H4_A -> H4 (in-place)
I1026 01:41:20.984513 38785 net.cpp:150] Setting up H4_A
I1026 01:41:20.984516 38785 net.cpp:157] Top shape: 2048 2048 (4194304)
I1026 01:41:20.984534 38785 net.cpp:165] Memory required for data: 138420224
I1026 01:41:20.984536 38785 layer_factory.hpp:77] Creating layer H5
I1026 01:41:20.984542 38785 net.cpp:100] Creating Layer H5
I1026 01:41:20.984545 38785 net.cpp:434] H5 <- H4
I1026 01:41:20.984550 38785 net.cpp:408] H5 -> H5
I1026 01:41:20.993573 38785 net.cpp:150] Setting up H5
I1026 01:41:20.993608 38785 net.cpp:157] Top shape: 2048 2048 (4194304)
I1026 01:41:20.993613 38785 net.cpp:165] Memory required for data: 155197440
I1026 01:41:20.993625 38785 layer_factory.hpp:77] Creating layer H5_A
I1026 01:41:20.993633 38785 net.cpp:100] Creating Layer H5_A
I1026 01:41:20.993638 38785 net.cpp:434] H5_A <- H5
I1026 01:41:20.993645 38785 net.cpp:395] H5_A -> H5 (in-place)
I1026 01:41:20.993654 38785 net.cpp:150] Setting up H5_A
I1026 01:41:20.993671 38785 net.cpp:157] Top shape: 2048 2048 (4194304)
I1026 01:41:20.993674 38785 net.cpp:165] Memory required for data: 171974656
I1026 01:41:20.993677 38785 layer_factory.hpp:77] Creating layer H6
I1026 01:41:20.993683 38785 net.cpp:100] Creating Layer H6
I1026 01:41:20.993687 38785 net.cpp:434] H6 <- H5
I1026 01:41:20.993693 38785 net.cpp:408] H6 -> H6
I1026 01:41:21.002701 38785 net.cpp:150] Setting up H6
I1026 01:41:21.002734 38785 net.cpp:157] Top shape: 2048 2048 (4194304)
I1026 01:41:21.002739 38785 net.cpp:165] Memory required for data: 188751872
I1026 01:41:21.002748 38785 layer_factory.hpp:77] Creating layer H6_A
I1026 01:41:21.002755 38785 net.cpp:100] Creating Layer H6_A
I1026 01:41:21.002759 38785 net.cpp:434] H6_A <- H6
I1026 01:41:21.002764 38785 net.cpp:395] H6_A -> H6 (in-place)
I1026 01:41:21.002773 38785 net.cpp:150] Setting up H6_A
I1026 01:41:21.002776 38785 net.cpp:157] Top shape: 2048 2048 (4194304)
I1026 01:41:21.002812 38785 net.cpp:165] Memory required for data: 205529088
I1026 01:41:21.002816 38785 layer_factory.hpp:77] Creating layer L
I1026 01:41:21.002827 38785 net.cpp:100] Creating Layer L
I1026 01:41:21.002831 38785 net.cpp:434] L <- H6
I1026 01:41:21.002836 38785 net.cpp:408] L -> L
I1026 01:41:21.008040 38785 net.cpp:150] Setting up L
I1026 01:41:21.008055 38785 net.cpp:157] Top shape: 2048 1000 (2048000)
I1026 01:41:21.008072 38785 net.cpp:165] Memory required for data: 213721088
I1026 01:41:21.008079 38785 layer_factory.hpp:77] Creating layer loss
I1026 01:41:21.008092 38785 net.cpp:100] Creating Layer loss
I1026 01:41:21.008096 38785 net.cpp:434] loss <- L
I1026 01:41:21.008100 38785 net.cpp:434] loss <- label
I1026 01:41:21.008110 38785 net.cpp:408] loss -> loss
I1026 01:41:21.008146 38785 layer_factory.hpp:77] Creating layer loss
…
