…
base_lr: 0.01
display: 1
max_iter: 80
lr_policy: "fixed"
solver_mode: GPU
device_id: 0
net: "fcn8.prototxt"
train_state {
  level: 0
  stage: ""
}
I1026 00:29:15.766266 44939 solver.cpp:91] Creating training net from net file: fcn8.prototxt
I1026 00:29:15.766723 44939 net.cpp:58] Initializing net from parameters: 
name: "FFN"
state {
  phase: TRAIN
  level: 0
  stage: ""
}
layer {
  name: "data"
  type: "Data"
  top: "data"
  top: "label"
  include {
    phase: TRAIN
  }
  data_param {
    source: "fake_data26752.lmdb"
    batch_size: 8192
    backend: LMDB
  }
}
layer {
  name: "H1"
  type: "InnerProduct"
  bottom: "data"
  top: "H1"
  inner_product_param {
    num_output: 2048
  }
}
layer {
  name: "H1_A"
  type: "Sigmoid"
  bottom: "H1"
  top: "H1"
}
layer {
  name: "H2"
  type: "InnerProduct"
  bottom: "H1"
  top: "H2"
  inner_product_param {
    num_output: 2048
  }
}
layer {
  name: "H2_A"
  type: "Sigmoid"
  bottom: "H2"
  top: "H2"
}
layer {
  name: "H3"
  type: "InnerProduct"
  bottom: "H2"
  top: "H3"
  inner_product_param {
    num_output: 2048
  }
}
layer {
  name: "H3_A"
  type: "Sigmoid"
  bottom: "H3"
  top: "H3"
}
layer {
  name: "H4"
  type: "InnerProduct"
  bottom: "H3"
  top: "H4"
  inner_product_param {
    num_output: 2048
  }
}
layer {
  name: "H4_A"
  type: "Sigmoid"
  bottom: "H4"
  top: "H4"
}
layer {
  name: "H5"
  type: "InnerProduct"
  bottom: "H4"
  top: "H5"
  inner_product_param {
    num_output: 2048
  }
}
layer {
  name: "H5_A"
  type: "Sigmoid"
  bottom: "H5"
  top: "H5"
}
layer {
  name: "H6"
  type: "InnerProduct"
  bottom: "H5"
  top: "H6"
  inner_product_param {
    num_output: 2048
  }
}
layer {
  name: "H6_A"
  type: "Sigmoid"
  bottom: "H6"
  top: "H6"
}
layer {
  name: "L"
  type: "InnerProduct"
  bottom: "H6"
  top: "L"
  inner_product_param {
    num_output: 1000
  }
}
layer {
  name: "loss"
  type: "SoftmaxWithLoss"
  bottom: "L"
  bottom: "label"
  top: "loss"
}
I1026 00:29:15.766856 44939 layer_factory.hpp:77] Creating layer data
I1026 00:29:15.771461 44939 net.cpp:100] Creating Layer data
I1026 00:29:15.771491 44939 net.cpp:408] data -> data
I1026 00:29:15.771535 44939 net.cpp:408] data -> label
I1026 00:29:15.773309 44944 db_lmdb.cpp:35] Opened lmdb fake_data26752.lmdb
I1026 00:29:15.785269 44939 data_layer.cpp:41] output data size: 8192,1,1,512
I1026 00:29:15.816241 44939 net.cpp:150] Setting up data
I1026 00:29:15.816468 44939 net.cpp:157] Top shape: 8192 1 1 512 (4194304)
I1026 00:29:15.816500 44939 net.cpp:157] Top shape: 8192 (8192)
I1026 00:29:15.816504 44939 net.cpp:165] Memory required for data: 16809984
I1026 00:29:15.816512 44939 layer_factory.hpp:77] Creating layer H1
I1026 00:29:15.816541 44939 net.cpp:100] Creating Layer H1
I1026 00:29:15.816570 44939 net.cpp:434] H1 <- data
I1026 00:29:15.816598 44939 net.cpp:408] H1 -> H1
I1026 00:29:15.821467 44939 net.cpp:150] Setting up H1
I1026 00:29:15.821501 44939 net.cpp:157] Top shape: 8192 2048 (16777216)
I1026 00:29:15.821504 44939 net.cpp:165] Memory required for data: 83918848
I1026 00:29:15.821524 44939 layer_factory.hpp:77] Creating layer H1_A
I1026 00:29:15.821539 44939 net.cpp:100] Creating Layer H1_A
I1026 00:29:15.821544 44939 net.cpp:434] H1_A <- H1
I1026 00:29:15.821568 44939 net.cpp:395] H1_A -> H1 (in-place)
I1026 00:29:15.821578 44939 net.cpp:150] Setting up H1_A
I1026 00:29:15.821583 44939 net.cpp:157] Top shape: 8192 2048 (16777216)
I1026 00:29:15.821588 44939 net.cpp:165] Memory required for data: 151027712
I1026 00:29:15.821594 44939 layer_factory.hpp:77] Creating layer H2
I1026 00:29:15.821599 44939 net.cpp:100] Creating Layer H2
I1026 00:29:15.821604 44939 net.cpp:434] H2 <- H1
I1026 00:29:15.821609 44939 net.cpp:408] H2 -> H2
I1026 00:29:15.831652 44939 net.cpp:150] Setting up H2
I1026 00:29:15.831684 44939 net.cpp:157] Top shape: 8192 2048 (16777216)
I1026 00:29:15.831688 44939 net.cpp:165] Memory required for data: 218136576
I1026 00:29:15.831707 44939 layer_factory.hpp:77] Creating layer H2_A
I1026 00:29:15.831755 44939 net.cpp:100] Creating Layer H2_A
I1026 00:29:15.831768 44939 net.cpp:434] H2_A <- H2
I1026 00:29:15.831776 44939 net.cpp:395] H2_A -> H2 (in-place)
I1026 00:29:15.831787 44939 net.cpp:150] Setting up H2_A
I1026 00:29:15.831794 44939 net.cpp:157] Top shape: 8192 2048 (16777216)
I1026 00:29:15.831799 44939 net.cpp:165] Memory required for data: 285245440
I1026 00:29:15.831810 44939 layer_factory.hpp:77] Creating layer H3
I1026 00:29:15.831818 44939 net.cpp:100] Creating Layer H3
I1026 00:29:15.831822 44939 net.cpp:434] H3 <- H2
I1026 00:29:15.831830 44939 net.cpp:408] H3 -> H3
I1026 00:29:15.841675 44939 net.cpp:150] Setting up H3
I1026 00:29:15.841723 44939 net.cpp:157] Top shape: 8192 2048 (16777216)
I1026 00:29:15.841728 44939 net.cpp:165] Memory required for data: 352354304
I1026 00:29:15.841747 44939 layer_factory.hpp:77] Creating layer H3_A
I1026 00:29:15.841763 44939 net.cpp:100] Creating Layer H3_A
I1026 00:29:15.841784 44939 net.cpp:434] H3_A <- H3
I1026 00:29:15.841794 44939 net.cpp:395] H3_A -> H3 (in-place)
I1026 00:29:15.841806 44939 net.cpp:150] Setting up H3_A
I1026 00:29:15.841810 44939 net.cpp:157] Top shape: 8192 2048 (16777216)
I1026 00:29:15.841814 44939 net.cpp:165] Memory required for data: 419463168
I1026 00:29:15.841817 44939 layer_factory.hpp:77] Creating layer H4
I1026 00:29:15.841825 44939 net.cpp:100] Creating Layer H4
I1026 00:29:15.841828 44939 net.cpp:434] H4 <- H3
I1026 00:29:15.841836 44939 net.cpp:408] H4 -> H4
I1026 00:29:15.852282 44945 blocking_queue.cpp:50] Waiting for data
I1026 00:29:15.852839 44939 net.cpp:150] Setting up H4
I1026 00:29:15.852872 44939 net.cpp:157] Top shape: 8192 2048 (16777216)
I1026 00:29:15.852879 44939 net.cpp:165] Memory required for data: 486572032
I1026 00:29:15.852891 44939 layer_factory.hpp:77] Creating layer H4_A
I1026 00:29:15.852907 44939 net.cpp:100] Creating Layer H4_A
I1026 00:29:15.852913 44939 net.cpp:434] H4_A <- H4
I1026 00:29:15.852936 44939 net.cpp:395] H4_A -> H4 (in-place)
I1026 00:29:15.852955 44939 net.cpp:150] Setting up H4_A
I1026 00:29:15.852962 44939 net.cpp:157] Top shape: 8192 2048 (16777216)
I1026 00:29:15.852967 44939 net.cpp:165] Memory required for data: 553680896
I1026 00:29:15.852969 44939 layer_factory.hpp:77] Creating layer H5
I1026 00:29:15.852988 44939 net.cpp:100] Creating Layer H5
I1026 00:29:15.852993 44939 net.cpp:434] H5 <- H4
I1026 00:29:15.852999 44939 net.cpp:408] H5 -> H5
I1026 00:29:15.862515 44939 net.cpp:150] Setting up H5
I1026 00:29:15.862558 44939 net.cpp:157] Top shape: 8192 2048 (16777216)
I1026 00:29:15.862571 44939 net.cpp:165] Memory required for data: 620789760
I1026 00:29:15.862918 44939 layer_factory.hpp:77] Creating layer H5_A
I1026 00:29:15.862931 44939 net.cpp:100] Creating Layer H5_A
I1026 00:29:15.862936 44939 net.cpp:434] H5_A <- H5
I1026 00:29:15.862942 44939 net.cpp:395] H5_A -> H5 (in-place)
I1026 00:29:15.862953 44939 net.cpp:150] Setting up H5_A
I1026 00:29:15.862958 44939 net.cpp:157] Top shape: 8192 2048 (16777216)
I1026 00:29:15.862962 44939 net.cpp:165] Memory required for data: 687898624
I1026 00:29:15.862965 44939 layer_factory.hpp:77] Creating layer H6
I1026 00:29:15.862972 44939 net.cpp:100] Creating Layer H6
I1026 00:29:15.862977 44939 net.cpp:434] H6 <- H5
I1026 00:29:15.862984 44939 net.cpp:408] H6 -> H6
I1026 00:29:15.873003 44939 net.cpp:150] Setting up H6
I1026 00:29:15.873044 44939 net.cpp:157] Top shape: 8192 2048 (16777216)
I1026 00:29:15.873049 44939 net.cpp:165] Memory required for data: 755007488
I1026 00:29:15.873061 44939 layer_factory.hpp:77] Creating layer H6_A
I1026 00:29:15.873072 44939 net.cpp:100] Creating Layer H6_A
I1026 00:29:15.873077 44939 net.cpp:434] H6_A <- H6
I1026 00:29:15.873100 44939 net.cpp:395] H6_A -> H6 (in-place)
I1026 00:29:15.873113 44939 net.cpp:150] Setting up H6_A
I1026 00:29:15.873117 44939 net.cpp:157] Top shape: 8192 2048 (16777216)
I1026 00:29:15.873121 44939 net.cpp:165] Memory required for data: 822116352
I1026 00:29:15.873124 44939 layer_factory.hpp:77] Creating layer L
I1026 00:29:15.873155 44939 net.cpp:100] Creating Layer L
I1026 00:29:15.873160 44939 net.cpp:434] L <- H6
I1026 00:29:15.873167 44939 net.cpp:408] L -> L
I1026 00:29:15.876477 44945 blocking_queue.cpp:50] Waiting for data
I1026 00:29:15.879215 44939 net.cpp:150] Setting up L
I1026 00:29:15.879230 44939 net.cpp:157] Top shape: 8192 1000 (8192000)
I1026 00:29:15.879233 44939 net.cpp:165] Memory required for data: 854884352
I1026 00:29:15.879241 44939 layer_factory.hpp:77] Creating layer loss
I1026 00:29:15.879262 44939 net.cpp:100] Creating Layer loss
I1026 00:29:15.879266 44939 net.cpp:434] loss <- L
I1026 00:29:15.879271 44939 net.cpp:434] loss <- label
I1026 00:29:15.879292 44939 net.cpp:408] loss -> loss
I1026 00:29:15.879324 44939 layer_factory.hpp:77] Creating layer loss
…
