…
display: 1
max_iter: 40
lr_policy: "fixed"
solver_mode: GPU
device_id: 0
net: "fcn5.prototxt"
train_state {
  level: 0
  stage: ""
}
I1014 09:15:32.802139  3939 solver.cpp:91] Creating training net from net file: fcn5.prototxt
I1014 09:15:32.802389  3939 net.cpp:58] Initializing net from parameters: 
name: "FCN5"
state {
  phase: TRAIN
  level: 0
  stage: ""
}
layer {
  name: "data"
  type: "Data"
  top: "data"
  top: "label"
  include {
    phase: TRAIN
  }
  data_param {
    source: "fake_data26752.lmdb"
    batch_size: 8192
    backend: LMDB
  }
}
layer {
  name: "H1"
  type: "InnerProduct"
  bottom: "data"
  top: "H1"
  inner_product_param {
    num_output: 2048
  }
}
layer {
  name: "H1_A"
  type: "Sigmoid"
  bottom: "H1"
  top: "H1"
}
layer {
  name: "H2"
  type: "InnerProduct"
  bottom: "H1"
  top: "H2"
  inner_product_param {
    num_output: 2048
  }
}
layer {
  name: "H2_A"
  type: "Sigmoid"
  bottom: "H2"
  top: "H2"
}
layer {
  name: "H3"
  type: "InnerProduct"
  bottom: "H2"
  top: "H3"
  inner_product_param {
    num_output: 2048
  }
}
layer {
  name: "H3_A"
  type: "Sigmoid"
  bottom: "H3"
  top: "H3"
}
layer {
  name: "L"
  type: "InnerProduct"
  bottom: "H3"
  top: "L"
  inner_product_param {
    num_output: 1000
  }
}
layer {
  name: "loss"
  type: "SoftmaxWithLoss"
  bottom: "L"
  bottom: "label"
  top: "loss"
}
I1014 09:15:32.802462  3939 layer_factory.hpp:77] Creating layer data
I1014 09:15:32.807029  3939 net.cpp:100] Creating Layer data
I1014 09:15:32.807046  3939 net.cpp:408] data -> data
I1014 09:15:32.807068  3939 net.cpp:408] data -> label
I1014 09:15:32.808763  3946 db_lmdb.cpp:35] Opened lmdb fake_data26752.lmdb
I1014 09:15:32.818938  3939 data_layer.cpp:41] output data size: 8192,1,1,512
I1014 09:15:32.842478  3939 net.cpp:150] Setting up data
I1014 09:15:32.842524  3939 net.cpp:157] Top shape: 8192 1 1 512 (4194304)
I1014 09:15:32.842530  3939 net.cpp:157] Top shape: 8192 (8192)
I1014 09:15:32.842533  3939 net.cpp:165] Memory required for data: 16809984
I1014 09:15:32.842542  3939 layer_factory.hpp:77] Creating layer H1
I1014 09:15:32.842598  3939 net.cpp:100] Creating Layer H1
I1014 09:15:32.842605  3939 net.cpp:434] H1 <- data
I1014 09:15:32.842618  3939 net.cpp:408] H1 -> H1
I1014 09:15:32.845155  3939 net.cpp:150] Setting up H1
I1014 09:15:32.845175  3939 net.cpp:157] Top shape: 8192 2048 (16777216)
I1014 09:15:32.845181  3939 net.cpp:165] Memory required for data: 83918848
I1014 09:15:32.845199  3939 layer_factory.hpp:77] Creating layer H1_A
I1014 09:15:32.845209  3939 net.cpp:100] Creating Layer H1_A
I1014 09:15:32.845212  3939 net.cpp:434] H1_A <- H1
I1014 09:15:32.845217  3939 net.cpp:395] H1_A -> H1 (in-place)
I1014 09:15:32.845232  3939 net.cpp:150] Setting up H1_A
I1014 09:15:32.845237  3939 net.cpp:157] Top shape: 8192 2048 (16777216)
I1014 09:15:32.845238  3939 net.cpp:165] Memory required for data: 151027712
I1014 09:15:32.845242  3939 layer_factory.hpp:77] Creating layer H2
I1014 09:15:32.845249  3939 net.cpp:100] Creating Layer H2
I1014 09:15:32.845252  3939 net.cpp:434] H2 <- H1
I1014 09:15:32.845257  3939 net.cpp:408] H2 -> H2
I1014 09:15:32.852982  3939 net.cpp:150] Setting up H2
I1014 09:15:32.853019  3939 net.cpp:157] Top shape: 8192 2048 (16777216)
I1014 09:15:32.853032  3939 net.cpp:165] Memory required for data: 218136576
I1014 09:15:32.853051  3939 layer_factory.hpp:77] Creating layer H2_A
I1014 09:15:32.853075  3939 net.cpp:100] Creating Layer H2_A
I1014 09:15:32.853080  3939 net.cpp:434] H2_A <- H2
I1014 09:15:32.853085  3939 net.cpp:395] H2_A -> H2 (in-place)
I1014 09:15:32.853101  3939 net.cpp:150] Setting up H2_A
I1014 09:15:32.853112  3939 net.cpp:157] Top shape: 8192 2048 (16777216)
I1014 09:15:32.853122  3939 net.cpp:165] Memory required for data: 285245440
I1014 09:15:32.853127  3939 layer_factory.hpp:77] Creating layer H3
I1014 09:15:32.853132  3939 net.cpp:100] Creating Layer H3
I1014 09:15:32.853148  3939 net.cpp:434] H3 <- H2
I1014 09:15:32.853173  3939 net.cpp:408] H3 -> H3
I1014 09:15:32.860577  3939 net.cpp:150] Setting up H3
I1014 09:15:32.860608  3939 net.cpp:157] Top shape: 8192 2048 (16777216)
I1014 09:15:32.860612  3939 net.cpp:165] Memory required for data: 352354304
I1014 09:15:32.860626  3939 layer_factory.hpp:77] Creating layer H3_A
I1014 09:15:32.860635  3939 net.cpp:100] Creating Layer H3_A
I1014 09:15:32.860640  3939 net.cpp:434] H3_A <- H3
I1014 09:15:32.860657  3939 net.cpp:395] H3_A -> H3 (in-place)
I1014 09:15:32.860666  3939 net.cpp:150] Setting up H3_A
I1014 09:15:32.860671  3939 net.cpp:157] Top shape: 8192 2048 (16777216)
I1014 09:15:32.860673  3939 net.cpp:165] Memory required for data: 419463168
I1014 09:15:32.860677  3939 layer_factory.hpp:77] Creating layer L
I1014 09:15:32.860683  3939 net.cpp:100] Creating Layer L
I1014 09:15:32.860687  3939 net.cpp:434] L <- H3
I1014 09:15:32.860699  3939 net.cpp:408] L -> L
I1014 09:15:32.864778  3939 net.cpp:150] Setting up L
I1014 09:15:32.864801  3939 net.cpp:157] Top shape: 8192 1000 (8192000)
I1014 09:15:32.864811  3939 net.cpp:165] Memory required for data: 452231168
I1014 09:15:32.864820  3939 layer_factory.hpp:77] Creating layer loss
I1014 09:15:32.864841  3939 net.cpp:100] Creating Layer loss
I1014 09:15:32.864853  3939 net.cpp:434] loss <- L
I1014 09:15:32.864877  3939 net.cpp:434] loss <- label
I1014 09:15:32.864886  3939 net.cpp:408] loss -> loss
I1014 09:15:32.864920  3939 layer_factory.hpp:77] Creating layer loss
…
