I0912 20:03:35.887343 27352 caffe.cpp:343] Use GPU with device ID 0
I0912 20:03:37.004637 27352 net.cpp:58] Initializing net from parameters: 
name: "FFN"
state {
  phase: TRAIN
  level: 0
  stage: ""
}
layer {
  name: "data"
  type: "Data"
  top: "data"
  top: "label"
  include {
    phase: TRAIN
  }
  data_param {
    source: "fcn/fake_data26752.lmdb"
    batch_size: 64
    backend: LMDB
  }
}
layer {
  name: "H1"
  type: "InnerProduct"
  bottom: "data"
  top: "H1"
  inner_product_param {
    num_output: 2048
  }
}
layer {
  name: "H1_A"
  type: "Sigmoid"
  bottom: "H1"
  top: "H1"
}
layer {
  name: "H2"
  type: "InnerProduct"
  bottom: "H1"
  top: "H2"
  inner_product_param {
    num_output: 2048
  }
}
layer {
  name: "H2_A"
  type: "Sigmoid"
  bottom: "H2"
  top: "H2"
}
layer {
  name: "H3"
  type: "InnerProduct"
  bottom: "H2"
  top: "H3"
  inner_product_param {
    num_output: 2048
  }
}
layer {
  name: "H3_A"
  type: "Sigmoid"
  bottom: "H3"
  top: "H3"
}
layer {
  name: "L"
  type: "InnerProduct"
  bottom: "H3"
  top: "L"
  inner_product_param {
    num_output: 26752
  }
}
layer {
  name: "loss"
  type: "SoftmaxWithLoss"
  bottom: "L"
  bottom: "label"
  top: "loss"
}
I0912 20:03:37.004720 27352 layer_factory.hpp:77] Creating layer data
I0912 20:03:37.005276 27352 net.cpp:100] Creating Layer data
I0912 20:03:37.005290 27352 net.cpp:408] data -> data
I0912 20:03:37.005316 27352 net.cpp:408] data -> label
I0912 20:03:37.006628 27357 db_lmdb.cpp:35] Opened lmdb fcn/fake_data26752.lmdb
I0912 20:03:37.014994 27352 data_layer.cpp:41] output data size: 64,1,1,26752
I0912 20:03:37.023166 27352 net.cpp:150] Setting up data
I0912 20:03:37.023206 27352 net.cpp:157] Top shape: 64 1 1 26752 (1712128)
I0912 20:03:37.023211 27352 net.cpp:157] Top shape: 64 (64)
I0912 20:03:37.023214 27352 net.cpp:165] Memory required for data: 6848768
I0912 20:03:37.023226 27352 layer_factory.hpp:77] Creating layer H1
I0912 20:03:37.023241 27352 net.cpp:100] Creating Layer H1
I0912 20:03:37.023247 27352 net.cpp:434] H1 <- data
I0912 20:03:37.023262 27352 net.cpp:408] H1 -> H1
I0912 20:03:37.116601 27352 net.cpp:150] Setting up H1
I0912 20:03:37.116647 27352 net.cpp:157] Top shape: 64 2048 (131072)
I0912 20:03:37.116650 27352 net.cpp:165] Memory required for data: 7373056
I0912 20:03:37.116669 27352 layer_factory.hpp:77] Creating layer H1_A
I0912 20:03:37.116680 27352 net.cpp:100] Creating Layer H1_A
I0912 20:03:37.116684 27352 net.cpp:434] H1_A <- H1
I0912 20:03:37.116691 27352 net.cpp:395] H1_A -> H1 (in-place)
I0912 20:03:37.116710 27352 net.cpp:150] Setting up H1_A
I0912 20:03:37.116715 27352 net.cpp:157] Top shape: 64 2048 (131072)
I0912 20:03:37.116719 27352 net.cpp:165] Memory required for data: 7897344
I0912 20:03:37.116722 27352 layer_factory.hpp:77] Creating layer H2
I0912 20:03:37.116730 27352 net.cpp:100] Creating Layer H2
I0912 20:03:37.116734 27352 net.cpp:434] H2 <- H1
I0912 20:03:37.116740 27352 net.cpp:408] H2 -> H2
I0912 20:03:37.123149 27352 net.cpp:150] Setting up H2
I0912 20:03:37.123173 27352 net.cpp:157] Top shape: 64 2048 (131072)
I0912 20:03:37.123177 27352 net.cpp:165] Memory required for data: 8421632
I0912 20:03:37.123188 27352 layer_factory.hpp:77] Creating layer H2_A
I0912 20:03:37.123198 27352 net.cpp:100] Creating Layer H2_A
I0912 20:03:37.123203 27352 net.cpp:434] H2_A <- H2
I0912 20:03:37.123209 27352 net.cpp:395] H2_A -> H2 (in-place)
I0912 20:03:37.123219 27352 net.cpp:150] Setting up H2_A
I0912 20:03:37.123224 27352 net.cpp:157] Top shape: 64 2048 (131072)
I0912 20:03:37.123229 27352 net.cpp:165] Memory required for data: 8945920
I0912 20:03:37.123231 27352 layer_factory.hpp:77] Creating layer H3
I0912 20:03:37.123239 27352 net.cpp:100] Creating Layer H3
I0912 20:03:37.123242 27352 net.cpp:434] H3 <- H2
I0912 20:03:37.123250 27352 net.cpp:408] H3 -> H3
I0912 20:03:37.130378 27352 net.cpp:150] Setting up H3
I0912 20:03:37.130412 27352 net.cpp:157] Top shape: 64 2048 (131072)
I0912 20:03:37.130416 27352 net.cpp:165] Memory required for data: 9470208
I0912 20:03:37.130430 27352 layer_factory.hpp:77] Creating layer H3_A
I0912 20:03:37.130444 27352 net.cpp:100] Creating Layer H3_A
I0912 20:03:37.130473 27352 net.cpp:434] H3_A <- H3
I0912 20:03:37.130484 27352 net.cpp:395] H3_A -> H3 (in-place)
I0912 20:03:37.130496 27352 net.cpp:150] Setting up H3_A
I0912 20:03:37.130502 27352 net.cpp:157] Top shape: 64 2048 (131072)
I0912 20:03:37.130507 27352 net.cpp:165] Memory required for data: 9994496
I0912 20:03:37.130511 27352 layer_factory.hpp:77] Creating layer L
I0912 20:03:37.130520 27352 net.cpp:100] Creating Layer L
I0912 20:03:37.130524 27352 net.cpp:434] L <- H3
I0912 20:03:37.130530 27352 net.cpp:408] L -> L
I0912 20:03:37.222215 27352 net.cpp:150] Setting up L
I0912 20:03:37.222261 27352 net.cpp:157] Top shape: 64 26752 (1712128)
I0912 20:03:37.222265 27352 net.cpp:165] Memory required for data: 16843008
I0912 20:03:37.222273 27352 layer_factory.hpp:77] Creating layer loss
I0912 20:03:37.222292 27352 net.cpp:100] Creating Layer loss
I0912 20:03:37.222296 27352 net.cpp:434] loss <- L
I0912 20:03:37.222301 27352 net.cpp:434] loss <- label
I0912 20:03:37.222307 27352 net.cpp:408] loss -> loss
I0912 20:03:37.222329 27352 layer_factory.hpp:77] Creating layer loss
…
