…
display: 1
max_iter: 40
lr_policy: "fixed"
solver_mode: GPU
device_id: 0
net: "resnet.prototxt"
train_state {
  level: 0
  stage: ""
}
I1014 09:15:53.784222  3967 solver.cpp:91] Creating training net from net file: resnet.prototxt
I1014 09:15:53.787351  3967 net.cpp:58] Initializing net from parameters: 
name: "ResNet-50"
state {
  phase: TRAIN
  level: 0
  stage: ""
}
layer {
  name: "data"
  type: "Data"
  top: "data"
  top: "label"
  include {
    phase: TRAIN
  }
  data_param {
    source: "fake_image_net.lmdb"
    batch_size: 16
    backend: LMDB
  }
}
layer {
  name: "conv1"
  type: "Convolution"
  bottom: "data"
  top: "conv1"
  convolution_param {
    num_output: 64
    kernel_size: 7
    stride: 2
  }
}
layer {
  name: "bn_conv1"
  type: "BatchNorm"
  bottom: "conv1"
  top: "conv1"
  batch_norm_param {
    use_global_stats: true
  }
}
layer {
  name: "scale_conv1"
  type: "Scale"
  bottom: "conv1"
  top: "conv1"
  scale_param {
    bias_term: true
  }
}
layer {
  name: "conv1_relu"
  type: "ReLU"
  bottom: "conv1"
  top: "conv1"
}
layer {
  name: "pool1"
  type: "Pooling"
  bottom: "conv1"
  top: "pool1"
  pooling_param {
    pool: MAX
    kernel_size: 3
    stride: 2
  }
}
layer {
  name: "res2a_branch1"
  type: "Convolution"
  bottom: "pool1"
  top: "res2a_branch1"
  convolution_param {
    num_output: 256
    bias_term: false
    pad: 0
    kernel_size: 1
    stride: 1
  }
}
layer {
  name: "bn2a_branch1"
  type: "BatchNorm"
  bottom: "res2a_branch1"
  top: "res2a_branch1"
  batch_norm_param {
    use_global_stats: true
  }
}
layer {
  name: "scale2a_branch1"
  type: "Scale"
  bottom: "res2a_branch1"
  top: "res2a_branch1"
  scale_param {
    bias_term: true
  }
}
layer {
  name: "res2a_branch2a"
  type: "Convolution"
  bottom: "pool1"
  top: "res2a_branch2a"
  convolution_param {
    num_output: 64
    bias_term: false
    pad: 0
    kernel_size: 1
    stride: 1
  }
}
layer {
  name: "bn2a_branch2a"
  type: "BatchNorm"
  bottom: "res2a_branch2a"
  top: "res2a_branch2a"
  batch_norm_param {
    use_global_stats: true
  }
}
layer {
  name: "scale2a_branch2a"
  type: "Scale"
  bottom: "res2a_branch2a"
  top: "res2a_branch2a"
  scale_param {
    bias_term: true
  }
}
layer {
  name: "res2a_branch2a_relu"
  type: "ReLU"
  bottom: "res2a_branch2a"
  top: "res2a_branch2a"
}
layer {
  name: "res2a_branch2b"
  type: "Convolution"
  bottom: "res2a_branch2a"
  top: "res2a_branch2b"
  convolution_param {
    num_output: 64
    bias_term: false
    pad: 1
    kernel_size: 3
    stride: 1
  }
}
layer {
  name: "bn2a_branch2b"
  type: "BatchNorm"
  bottom: "res2a_branch2b"
  top: "res2a_branch2b"
  batch_norm_param {
    use_global_stats: true
  }
}
layer {
  name: "scale2a_branch2b"
  type: "Scale"
  bottom: "res2a_branch2b"
  top: "res2a_branch2b"
  scale_param {
    bias_term: true
  }
}
layer {
  name: "res2a_branch2b_relu"
  type: "ReLU"
  bottom: "res2a_branch2b"
  top: "res2a_branch2b"
}
layer {
  name: "res2a_branch2c"
  type: "Convolution"
  bottom: "res2a_branch2b"
  top: "res2a_branch2c"
  convolution_param {
    num_output: 256
    bias_term: false
    pad: 0
    kernel_size: 1
    stride: 1
  }
}
layer {
  name: "bn2a_branch2c"
  type: "BatchNorm"
  bottom: "res2a_branch2c"
  top: "res2a_branch2c"
  batch_norm_param {
    use_global_stats: true
  }
}
layer {
  name: "scale2a_branch2c"
  type: "Scale"
  bottom: "res2a_branch2c"
  top: "res2a_branch2c"
  scale_param {
    bias_term: true
  }
}
layer {
  name: "res2a"
  type: "Eltwise"
  bottom: "res2a_branch1"
  bottom: "res2a_branch2c"
  top: "res2a"
}
layer {
  name: "res2a_relu"
  type: "ReLU"
  bottom: "res2a"
  top: "res2a"
}
layer {
  name: "res2b_branch2a"
  type: "Convolution"
  bottom: "res2a"
  top: "res2b_branch2a"
  convolution_param {
    num_output: 64
    bias_term: false
    pad: 0
    kernel_size: 1
    stride: 1
  }
}
layer {
  name: "bn2b_branch2a"
  type: "BatchNorm"
  bottom: "res2b_branch2a"
  top: "res2b_branch2a"
  batch_norm_param {
    use_global_stats: true
  }
}
layer {
  name: "scale2b_branch2a"
  type: "Scale"
  bottom: "res2b_branch2a"
  top: "res2b_branch2a"
  scale_param {
    bias_term: true
  }
}
layer {
  name: "res2b_branch2a_relu"
  type: "ReLU"
  bottom: "res2b_branch2a"
  top: "res2b_branch2a"
}
layer {
  name: "res2b_branch2b"
  type: "Convolution"
  bottom: "res2b_branch2a"
  top: "res2b_branch2b"
  convolution_param {
    num_output: 64
    bias_term: false
    pad: 1
    kernel_size: 3
    stride: 1
  }
}
layer {
  name: "bn2b_branch2b"
  type: "BatchNorm"
  bottom: "res2b_branch2b"
  top: "res2b_branch2b"
  batch_norm_param {
    use_global_stats: true
  }
}
layer {
  name: "scale2b_branch2b"
  type: "Scale"
  bottom: "res2b_branch2b"
  top: "res2b_branch2b"
  scale_param {
    bias_term: true
  }
}
layer {
  name: "res2b_branch2b_relu"
  type: "ReLU"
  bottom: "res2b_branch2b"
  top: "res2b_branch2b"
}
layer {
  name: "res2b_branch2c"
  type: "Convolution"
  bottom: "res2b_branch2b"
  top: "res2b_branch2c"
  convolution_param {
    num_output: 256
    bias_term: false
    pad: 0
    kernel_size: 1
    stride: 1
  }
}
layer {
  name: "bn2b_branch2c"
  type: "BatchNorm"
  bottom: "res2b_branch2c"
  top: "res2b_branch2c"
  batch_norm_param {
    use_global_stats: true
  }
}
layer {
  name: "scale2b_branch2c"
  type: "Scale"
  bottom: "res2b_branch2c"
  top: "res2b_branch2c"
  scale_param {
    bias_term: true
  }
}
layer {
  name: "res2b"
  type: "Eltwise"
  bottom: "res2a"
  bottom: "res2b_branch2c"
  top: "res2b"
}
layer {
  name: "res2b_relu"
  type: "ReLU"
  bottom: "res2b"
  top: "res2b"
}
layer {
  name: "res2c_branch2a"
  type: "Convolution"
  bottom: "res2b"
  top: "res2c_branch2a"
  convolution_param {
    num_output: 64
    bias_term: false
    pad: 0
    kernel_size: 1
    stride: 1
  }
}
layer {
  name: "bn2c_branch2a"
  type: "BatchNorm"
  bottom: "res2c_branch2a"
  top: "res2c_branch2a"
  batch_norm_param {
    use_global_stats: true
  }
}
layer {
  name: "scale2c_branch2a"
  type: "Scale"
  bottom: "res2c_branch2a"
  top: "res2c_branch2a"
  scale_param {
    bias_term: true
  }
}
layer {
  name: "res2c_branch2a_relu"
  type: "ReLU"
  bottom: "res2c_branch2a"
  top: "res2c_branch2a"
}
layer {
  name: "res2c_branch2b"
  type: "Convolution"
  bottom: "res2c_branch2a"
  top: "res2c_branch2b"
  convolution_param {
    num_output: 64
    bias_term: false
    pad: 1
    kernel_size: 3
    stride: 1
  }
}
layer {
  name: "bn2c_branch2b"
  type: "BatchNorm"
  bottom: "res2c_branch2b"
  top: "res2c_branch2b"
  batch_norm_param {
    use_global_stats: true
  }
}
layer {
  name: "scale2c_branch2b"
  type: "Scale"
  bottom: "res2c_branch2b"
  top: "res2c_branch2b"
  scale_param {
    bias_term: true
  }
}
layer {
  name: "res2c_branch2b_relu"
  type: "ReLU"
  bottom: "res2c_branch2b"
  top: "res2c_branch2b"
}
layer {
  name: "res2c_branch2c"
  type: "Convolution"
  bottom: "res2c_branch2b"
  top: "res2c_branch2c"
  convolution_param {
    num_output: 256
    bias_term: false
    pad: 0
    kernel_size: 1
    stride: 1
  }
}
layer {
  name: "bn2c_branch2c"
  type: "BatchNorm"
  bottom: "res2c_branch2c"
  top: "res2c_branch2c"
  batch_norm_param {
    use_global_stats: true
  }
}
layer {
  name: "scale2c_branch2c"
  type: "Scale"
  bottom: "res2c_branch2c"
  top: "res2c_branch2c"
  scale_param {
    bias_term: true
  }
}
layer {
  name: "res2c"
  type: "Eltwise"
  bottom: "res2b"
  bottom: "res2c_branch2c"
  top: "res2c"
}
layer {
  name: "res2c_relu"
  type: "ReLU"
  bottom: "res2c"
  top: "res2c"
}
layer {
  name: "res3a_branch1"
  type: "Convolution"
  bottom: "res2c"
  top: "res3a_branch1"
  convolution_param {
    num_output: 512
    bias_term: false
    pad: 0
    kernel_size: 1
    stride: 2
  }
}
layer {
  name: "bn3a_branch1"
  type: "BatchNorm"
  bottom: "res3a_branch1"
  top: "res3a_branch1"
  batch_norm_param {
    use_global_stats: true
  }
}
layer {
  name: "scale3a_branch1"
  type: "Scale"
  bottom: "res3a_branch1"
  top: "res3a_branch1"
  scale_param {
    bias_term: true
  }
}
layer {
  name: "res3a_branch2a"
  type: "Convolution"
  bottom: "res2c"
  top: "res3a_branch2a"
  convolution_param {
    num_output: 128
    bias_term: false
    pad: 0
    kernel_size: 1
    stride: 2
  }
}
layer {
  name: "bn3a_branch2a"
  type: "BatchNorm"
  bottom: "res3a_branch2a"
  top: "res3a_branch2a"
  batch_norm_param {
    use_global_stats: true
  }
}
layer {
  name: "scale3a_branch2a"
  type: "Scale"
  bottom: "res3a_branch2a"
  top: "res3a_branch2a"
  scale_param {
    bias_term: true
  }
}
layer {
  name: "res3a_branch2a_relu"
  type: "ReLU"
  bottom: "res3a_branch2a"
  top: "res3a_branch2a"
}
layer {
  name: "res3a_branch2b"
  type: "Convolution"
  bottom: "res3a_branch2a"
  top: "res3a_branch2b"
  convolution_param {
    num_output: 128
    bias_term: false
    pad: 1
    kernel_size: 3
    stride: 1
  }
}
layer {
  name: "bn3a_branch2b"
  type: "BatchNorm"
  bottom: "res3a_branch2b"
  top: "res3a_branch2b"
  batch_norm_param {
    use_global_stats: true
  }
}
layer {
  name: "scale3a_branch2b"
  type: "Scale"
  bottom: "res3a_branch2b"
  top: "res3a_branch2b"
  scale_param {
    bias_term: true
  }
}
layer {
  name: "res3a_branch2b_relu"
  type: "ReLU"
  bottom: "res3a_branch2b"
  top: "res3a_branch2b"
}
layer {
  name: "res3a_branch2c"
  type: "Convolution"
  bottom: "res3a_branch2b"
  top: "res3a_branch2c"
  convolution_param {
    num_output: 512
    bias_term: false
    pad: 0
    kernel_size: 1
    stride: 1
  }
}
layer {
  name: "bn3a_branch2c"
  type: "BatchNorm"
  bottom: "res3a_branch2c"
  top: "res3a_branch2c"
  batch_norm_param {
    use_global_stats: true
  }
}
layer {
  name: "scale3a_branch2c"
  type: "Scale"
  bottom: "res3a_branch2c"
  top: "res3a_branch2c"
  scale_param {
    bias_term: true
  }
}
layer {
  name: "res3a"
  type: "Eltwise"
  bottom: "res3a_branch1"
  bottom: "res3a_branch2c"
  top: "res3a"
}
layer {
  name: "res3a_relu"
  type: "ReLU"
  bottom: "res3a"
  top: "res3a"
}
layer {
  name: "res3b_branch2a"
  type: "Convolution"
  bottom: "res3a"
  top: "res3b_branch2a"
  convolution_param {
    num_output: 128
    bias_term: false
    pad: 0
    kernel_size: 1
    stride: 1
  }
}
layer {
  name: "bn3b_branch2a"
  type: "BatchNorm"
  bottom: "res3b_branch2a"
  top: "res3b_branch2a"
  batch_norm_param {
    use_global_stats: true
  }
}
layer {
  name: "scale3b_branch2a"
  type: "Scale"
  bottom: "res3b_branch2a"
  top: "res3b_branch2a"
  scale_param {
    bias_term: true
  }
}
layer {
  name: "res3b_branch2a_relu"
  type: "ReLU"
  bottom: "res3b_branch2a"
  top: "res3b_branch2a"
}
layer {
  name: "res3b_branch2b"
  type: "Convolution"
  bottom: "res3b_branch2a"
  top: "res3b_branch2b"
  convolution_param {
    num_output: 128
    bias_term: false
    pad: 1
    kernel_size: 3
    stride: 1
  }
}
layer {
  name: "bn3b_branch2b"
  type: "BatchNorm"
  bottom: "res3b_branch2b"
  top: "res3b_branch2b"
  batch_norm_param {
    use_global_stats: true
  }
}
layer {
  name: "scale3b_branch2b"
  type: "Scale"
  bottom: "res3b_branch2b"
  top: "res3b_branch2b"
  scale_param {
    bias_term: true
  }
}
layer {
  name: "res3b_branch2b_relu"
  type: "ReLU"
  bottom: "res3b_branch2b"
  top: "res3b_branch2b"
}
layer {
  name: "res3b_branch2c"
  type: "Convolution"
  bottom: "res3b_branch2b"
  top: "res3b_branch2c"
  convolution_param {
    num_output: 512
    bias_term: false
    pad: 0
    kernel_size: 1
    stride: 1
  }
}
layer {
  name: "bn3b_branch2c"
  type: "BatchNorm"
  bottom: "res3b_branch2c"
  top: "res3b_branch2c"
  batch_norm_param {
    use_global_stats: true
  }
}
layer {
  name: "scale3b_branch2c"
  type: "Scale"
  bottom: "res3b_branch2c"
  top: "res3b_branch2c"
  scale_param {
    bias_term: true
  }
}
layer {
  name: "res3b"
  type: "Eltwise"
  bottom: "res3a"
  bottom: "res3b_branch2c"
  top: "res3b"
}
layer {
  name: "res3b_relu"
  type: "ReLU"
  bottom: "res3b"
  top: "res3b"
}
layer {
  name: "res3c_branch2a"
  type: "Convolution"
  bottom: "res3b"
  top: "res3c_branch2a"
  convolution_param {
    num_output: 128
    bias_term: false
    pad: 0
    kernel_size: 1
    stride: 1
  }
}
layer {
  name: "bn3c_branch2a"
  type: "BatchNorm"
  bottom: "res3c_branch2a"
  top: "res3c_branch2a"
  batch_norm_param {
    use_global_stats: true
  }
}
layer {
  name: "scale3c_branch2a"
  type: "Scale"
  bottom: "res3c_branch2a"
  top: "res3c_branch2a"
  scale_param {
    bias_term: true
  }
}
layer {
  name: "res3c_branch2a_relu"
  type: "ReLU"
  bottom: "res3c_branch2a"
  top: "res3c_branch2a"
}
layer {
  name: "res3c_branch2b"
  type: "Convolution"
  bottom: "res3c_branch2a"
  top: "res3c_branch2b"
  convolution_param {
    num_output: 128
    bias_term: false
    pad: 1
    kernel_size: 3
    stride: 1
  }
}
layer {
  name: "bn3c_branch2b"
  type: "BatchNorm"
  bottom: "res3c_branch2b"
  top: "res3c_branch2b"
  batch_norm_param {
    use_global_stats: true
  }
}
layer {
  name: "scale3c_branch2b"
  type: "Scale"
  bottom: "res3c_branch2b"
  top: "res3c_branch2b"
  scale_param {
    bias_term: true
  }
}
layer {
  name: "res3c_branch2b_relu"
  type: "ReLU"
  bottom: "res3c_branch2b"
  top: "res3c_branch2b"
}
layer {
  name: "res3c_branch2c"
  type: "Convolution"
  bottom: "res3c_branch2b"
  top: "res3c_branch2c"
  convolution_param {
    num_output: 512
    bias_term: false
    pad: 0
    kernel_size: 1
    stride: 1
  }
}
layer {
  name: "bn3c_branch2c"
  type: "BatchNorm"
  bottom: "res3c_branch2c"
  top: "res3c_branch2c"
  batch_norm_param {
    use_global_stats: true
  }
}
layer {
  name: "scale3c_branch2c"
  type: "Scale"
  bottom: "res3c_branch2c"
  top: "res3c_branch2c"
  scale_param {
    bias_term: true
  }
}
layer {
  name: "res3c"
  type: "Eltwise"
  bottom: "res3b"
  bottom: "res3c_branch2c"
  top: "res3c"
}
layer {
  name: "res3c_relu"
  type: "ReLU"
  bottom: "res3c"
  top: "res3c"
}
layer {
  name: "res3d_branch2a"
  type: "Convolution"
  bottom: "res3c"
  top: "res3d_branch2a"
  convolution_param {
    num_output: 128
    bias_term: false
    pad: 0
    kernel_size: 1
    stride: 1
  }
}
layer {
  name: "bn3d_branch2a"
  type: "BatchNorm"
  bottom: "res3d_branch2a"
  top: "res3d_branch2a"
  batch_norm_param {
    use_global_stats: true
  }
}
layer {
  name: "scale3d_branch2a"
  type: "Scale"
  bottom: "res3d_branch2a"
  top: "res3d_branch2a"
  scale_param {
    bias_term: true
  }
}
layer {
  name: "res3d_branch2a_relu"
  type: "ReLU"
  bottom: "res3d_branch2a"
  top: "res3d_branch2a"
}
layer {
  name: "res3d_branch2b"
  type: "Convolution"
  bottom: "res3d_branch2a"
  top: "res3d_branch2b"
  convolution_param {
    num_output: 128
    bias_term: false
    pad: 1
    kernel_size: 3
    stride: 1
  }
}
layer {
  name: "bn3d_branch2b"
  type: "BatchNorm"
  bottom: "res3d_branch2b"
  top: "res3d_branch2b"
  batch_norm_param {
    use_global_stats: true
  }
}
layer {
  name: "scale3d_branch2b"
  type: "Scale"
  bottom: "res3d_branch2b"
  top: "res3d_branch2b"
  scale_param {
    bias_term: true
  }
}
layer {
  name: "res3d_branch2b_relu"
  type: "ReLU"
  bottom: "res3d_branch2b"
  top: "res3d_branch2b"
}
layer {
  name: "res3d_branch2c"
  type: "Convolution"
  bottom: "res3d_branch2b"
  top: "res3d_branch2c"
  convolution_param {
    num_output: 512
    bias_term: false
    pad: 0
    kernel_size: 1
    stride: 1
  }
}
layer {
  name: "bn3d_branch2c"
  type: "BatchNorm"
  bottom: "res3d_branch2c"
  top: "res3d_branch2c"
  batch_norm_param {
    use_global_stats: true
  }
}
layer {
  name: "scale3d_branch2c"
  type: "Scale"
  bottom: "res3d_branch2c"
  top: "res3d_branch2c"
  scale_param {
    bias_term: true
  }
}
layer {
  name: "res3d"
  type: "Eltwise"
  bottom: "res3c"
  bottom: "res3d_branch2c"
  top: "res3d"
}
layer {
  name: "res3d_relu"
  type: "ReLU"
  bottom: "res3d"
  top: "res3d"
}
layer {
  name: "res4a_branch1"
  type: "Convolution"
  bottom: "res3d"
  top: "res4a_branch1"
  convolution_param {
    num_output: 1024
    bias_term: false
    pad: 0
    kernel_size: 1
    stride: 2
  }
}
layer {
  name: "bn4a_branch1"
  type: "BatchNorm"
  bottom: "res4a_branch1"
  top: "res4a_branch1"
  batch_norm_param {
    use_global_stats: true
  }
}
layer {
  name: "scale4a_branch1"
  type: "Scale"
  bottom: "res4a_branch1"
  top: "res4a_branch1"
  scale_param {
    bias_term: true
  }
}
layer {
  name: "res4a_branch2a"
  type: "Convolution"
  bottom: "res3d"
  top: "res4a_branch2a"
  convolution_param {
    num_output: 256
    bias_term: false
    pad: 0
    kernel_size: 1
    stride: 2
  }
}
layer {
  name: "bn4a_branch2a"
  type: "BatchNorm"
  bottom: "res4a_branch2a"
  top: "res4a_branch2a"
  batch_norm_param {
    use_global_stats: true
  }
}
layer {
  name: "scale4a_branch2a"
  type: "Scale"
  bottom: "res4a_branch2a"
  top: "res4a_branch2a"
  scale_param {
    bias_term: true
  }
}
layer {
  name: "res4a_branch2a_relu"
  type: "ReLU"
  bottom: "res4a_branch2a"
  top: "res4a_branch2a"
}
layer {
  name: "res4a_branch2b"
  type: "Convolution"
  bottom: "res4a_branch2a"
  top: "res4a_branch2b"
  convolution_param {
    num_output: 256
    bias_term: false
    pad: 1
    kernel_size: 3
    stride: 1
  }
}
layer {
  name: "bn4a_branch2b"
  type: "BatchNorm"
  bottom: "res4a_branch2b"
  top: "res4a_branch2b"
  batch_norm_param {
    use_global_stats: true
  }
}
layer {
  name: "scale4a_branch2b"
  type: "Scale"
  bottom: "res4a_branch2b"
  top: "res4a_branch2b"
  scale_param {
    bias_term: true
  }
}
layer {
  name: "res4a_branch2b_relu"
  type: "ReLU"
  bottom: "res4a_branch2b"
  top: "res4a_branch2b"
}
layer {
  name: "res4a_branch2c"
  type: "Convolution"
  bottom: "res4a_branch2b"
  top: "res4a_branch2c"
  convolution_param {
    num_output: 1024
    bias_term: false
    pad: 0
    kernel_size: 1
    stride: 1
  }
}
layer {
  name: "bn4a_branch2c"
  type: "BatchNorm"
  bottom: "res4a_branch2c"
  top: "res4a_branch2c"
  batch_norm_param {
    use_global_stats: true
  }
}
layer {
  name: "scale4a_branch2c"
  type: "Scale"
  bottom: "res4a_branch2c"
  top: "res4a_branch2c"
  scale_param {
    bias_term: true
  }
}
layer {
  name: "res4a"
  type: "Eltwise"
  bottom: "res4a_branch1"
  bottom: "res4a_branch2c"
  top: "res4a"
}
layer {
  name: "res4a_relu"
  type: "ReLU"
  bottom: "res4a"
  top: "res4a"
}
layer {
  name: "res4b_branch2a"
  type: "Convolution"
  bottom: "res4a"
  top: "res4b_branch2a"
  convolution_param {
    num_output: 256
    bias_term: false
    pad: 0
    kernel_size: 1
    stride: 1
  }
}
layer {
  name: "bn4b_branch2a"
  type: "BatchNorm"
  bottom: "res4b_branch2a"
  top: "res4b_branch2a"
  batch_norm_param {
    use_global_stats: true
  }
}
layer {
  name: "scale4b_branch2a"
  type: "Scale"
  bottom: "res4b_branch2a"
  top: "res4b_branch2a"
  scale_param {
    bias_term: true
  }
}
layer {
  name: "res4b_branch2a_relu"
  type: "ReLU"
  bottom: "res4b_branch2a"
  top: "res4b_branch2a"
}
layer {
  name: "res4b_branch2b"
  type: "Convolution"
  bottom: "res4b_branch2a"
  top: "res4b_branch2b"
  convolution_param {
    num_output: 256
    bias_term: false
    pad: 1
    kernel_size: 3
    stride: 1
  }
}
layer {
  name: "bn4b_branch2b"
  type: "BatchNorm"
  bottom: "res4b_branch2b"
  top: "res4b_branch2b"
  batch_norm_param {
    use_global_stats: true
  }
}
layer {
  name: "scale4b_branch2b"
  type: "Scale"
  bottom: "res4b_branch2b"
  top: "res4b_branch2b"
  scale_param {
    bias_term: true
  }
}
layer {
  name: "res4b_branch2b_relu"
  type: "ReLU"
  bottom: "res4b_branch2b"
  top: "res4b_branch2b"
}
layer {
  name: "res4b_branch2c"
  type: "Convolution"
  bottom: "res4b_branch2b"
  top: "res4b_branch2c"
  convolution_param {
    num_output: 1024
    bias_term: false
    pad: 0
    kernel_size: 1
    stride: 1
  }
}
layer {
  name: "bn4b_branch2c"
  type: "BatchNorm"
  bottom: "res4b_branch2c"
  top: "res4b_branch2c"
  batch_norm_param {
    use_global_stats: true
  }
}
layer {
  name: "scale4b_branch2c"
  type: "Scale"
  bottom: "res4b_branch2c"
  top: "res4b_branch2c"
  scale_param {
    bias_term: true
  }
}
layer {
  name: "res4b"
  type: "Eltwise"
  bottom: "res4a"
  bottom: "res4b_branch2c"
  top: "res4b"
}
layer {
  name: "res4b_relu"
  type: "ReLU"
  bottom: "res4b"
  top: "res4b"
}
layer {
  name: "res4c_branch2a"
  type: "Convolution"
  bottom: "res4b"
  top: "res4c_branch2a"
  convolution_param {
    num_output: 256
    bias_term: false
    pad: 0
    kernel_size: 1
    stride: 1
  }
}
layer {
  name: "bn4c_branch2a"
  type: "BatchNorm"
  bottom: "res4c_branch2a"
  top: "res4c_branch2a"
  batch_norm_param {
    use_global_stats: true
  }
}
layer {
  name: "scale4c_branch2a"
  type: "Scale"
  bottom: "res4c_branch2a"
  top: "res4c_branch2a"
  scale_param {
    bias_term: true
  }
}
layer {
  name: "res4c_branch2a_relu"
  type: "ReLU"
  bottom: "res4c_branch2a"
  top: "res4c_branch2a"
}
layer {
  name: "res4c_branch2b"
  type: "Convolution"
  bottom: "res4c_branch2a"
  top: "res4c_branch2b"
  convolution_param {
    num_output: 256
    bias_term: false
    pad: 1
    kernel_size: 3
    stride: 1
  }
}
layer {
  name: "bn4c_branch2b"
  type: "BatchNorm"
  bottom: "res4c_branch2b"
  top: "res4c_branch2b"
  batch_norm_param {
    use_global_stats: true
  }
}
layer {
  name: "scale4c_branch2b"
  type: "Scale"
  bottom: "res4c_branch2b"
  top: "res4c_branch2b"
  scale_param {
    bias_term: true
  }
}
layer {
  name: "res4c_branch2b_relu"
  type: "ReLU"
  bottom: "res4c_branch2b"
  top: "res4c_branch2b"
}
layer {
  name: "res4c_branch2c"
  type: "Convolution"
  bottom: "res4c_branch2b"
  top: "res4c_branch2c"
  convolution_param {
    num_output: 1024
    bias_term: false
    pad: 0
    kernel_size: 1
    stride: 1
  }
}
layer {
  name: "bn4c_branch2c"
  type: "BatchNorm"
  bottom: "res4c_branch2c"
  top: "res4c_branch2c"
  batch_norm_param {
    use_global_stats: true
  }
}
layer {
  name: "scale4c_branch2c"
  type: "Scale"
  bottom: "res4c_branch2c"
  top: "res4c_branch2c"
  scale_param {
    bias_term: true
  }
}
layer {
  name: "res4c"
  type: "Eltwise"
  bottom: "res4b"
  bottom: "res4c_branch2c"
  top: "res4c"
}
layer {
  name: "res4c_relu"
  type: "ReLU"
  bottom: "res4c"
  top: "res4c"
}
layer {
  name: "res4d_branch2a"
  type: "Convolution"
  bottom: "res4c"
  top: "res4d_branch2a"
  convolution_param {
    num_output: 256
    bias_term: false
    pad: 0
    kernel_size: 1
    stride: 1
  }
}
layer {
  name: "bn4d_branch2a"
  type: "BatchNorm"
  bottom: "res4d_branch2a"
  top: "res4d_branch2a"
  batch_norm_param {
    use_global_stats: true
  }
}
layer {
  name: "scale4d_branch2a"
  type: "Scale"
  bottom: "res4d_branch2a"
  top: "res4d_branch2a"
  scale_param {
    bias_term: true
  }
}
layer {
  name: "res4d_branch2a_relu"
  type: "ReLU"
  bottom: "res4d_branch2a"
  top: "res4d_branch2a"
}
layer {
  name: "res4d_branch2b"
  type: "Convolution"
  bottom: "res4d_branch2a"
  top: "res4d_branch2b"
  convolution_param {
    num_output: 256
    bias_term: false
    pad: 1
    kernel_size: 3
    stride: 1
  }
}
layer {
  name: "bn4d_branch2b"
  type: "BatchNorm"
  bottom: "res4d_branch2b"
  top: "res4d_branch2b"
  batch_norm_param {
    use_global_stats: true
  }
}
layer {
  name: "scale4d_branch2b"
  type: "Scale"
  bottom: "res4d_branch2b"
  top: "res4d_branch2b"
  scale_param {
    bias_term: true
  }
}
layer {
  name: "res4d_branch2b_relu"
  type: "ReLU"
  bottom: "res4d_branch2b"
  top: "res4d_branch2b"
}
layer {
  name: "res4d_branch2c"
  type: "Convolution"
  bottom: "res4d_branch2b"
  top: "res4d_branch2c"
  convolution_param {
    num_output: 1024
    bias_term: false
    pad: 0
    kernel_size: 1
    stride: 1
  }
}
layer {
  name: "bn4d_branch2c"
  type: "BatchNorm"
  bottom: "res4d_branch2c"
  top: "res4d_branch2c"
  batch_norm_param {
    use_global_stats: true
  }
}
layer {
  name: "scale4d_branch2c"
  type: "Scale"
  bottom: "res4d_branch2c"
  top: "res4d_branch2c"
  scale_param {
    bias_term: true
  }
}
layer {
  name: "res4d"
  type: "Eltwise"
  bottom: "res4c"
  bottom: "res4d_branch2c"
  top: "res4d"
}
layer {
  name: "res4d_relu"
  type: "ReLU"
  bottom: "res4d"
  top: "res4d"
}
layer {
  name: "res4e_branch2a"
  type: "Convolution"
  bottom: "res4d"
  top: "res4e_branch2a"
  convolution_param {
    num_output: 256
    bias_term: false
    pad: 0
    kernel_size: 1
    stride: 1
  }
}
layer {
  name: "bn4e_branch2a"
  type: "BatchNorm"
  bottom: "res4e_branch2a"
  top: "res4e_branch2a"
  batch_norm_param {
    use_global_stats: true
  }
}
layer {
  name: "scale4e_branch2a"
  type: "Scale"
  bottom: "res4e_branch2a"
  top: "res4e_branch2a"
  scale_param {
    bias_term: true
  }
}
layer {
  name: "res4e_branch2a_relu"
  type: "ReLU"
  bottom: "res4e_branch2a"
  top: "res4e_branch2a"
}
layer {
  name: "res4e_branch2b"
  type: "Convolution"
  bottom: "res4e_branch2a"
  top: "res4e_branch2b"
  convolution_param {
    num_output: 256
    bias_term: false
    pad: 1
    kernel_size: 3
    stride: 1
  }
}
layer {
  name: "bn4e_branch2b"
  type: "BatchNorm"
  bottom: "res4e_branch2b"
  top: "res4e_branch2b"
  batch_norm_param {
    use_global_stats: true
  }
}
layer {
  name: "scale4e_branch2b"
  type: "Scale"
  bottom: "res4e_branch2b"
  top: "res4e_branch2b"
  scale_param {
    bias_term: true
  }
}
layer {
  name: "res4e_branch2b_relu"
  type: "ReLU"
  bottom: "res4e_branch2b"
  top: "res4e_branch2b"
}
layer {
  name: "res4e_branch2c"
  type: "Convolution"
  bottom: "res4e_branch2b"
  top: "res4e_branch2c"
  convolution_param {
    num_output: 1024
    bias_term: false
    pad: 0
    kernel_size: 1
    stride: 1
  }
}
layer {
  name: "bn4e_branch2c"
  type: "BatchNorm"
  bottom: "res4e_branch2c"
  top: "res4e_branch2c"
  batch_norm_param {
    use_global_stats: true
  }
}
layer {
  name: "scale4e_branch2c"
  type: "Scale"
  bottom: "res4e_branch2c"
  top: "res4e_branch2c"
  scale_param {
    bias_term: true
  }
}
layer {
  name: "res4e"
  type: "Eltwise"
  bottom: "res4d"
  bottom: "res4e_branch2c"
  top: "res4e"
}
layer {
  name: "res4e_relu"
  type: "ReLU"
  bottom: "res4e"
  top: "res4e"
}
layer {
  name: "res4f_branch2a"
  type: "Convolution"
  bottom: "res4e"
  top: "res4f_branch2a"
  convolution_param {
    num_output: 256
    bias_term: false
    pad: 0
    kernel_size: 1
    stride: 1
  }
}
layer {
  name: "bn4f_branch2a"
  type: "BatchNorm"
  bottom: "res4f_branch2a"
  top: "res4f_branch2a"
  batch_norm_param {
    use_global_stats: true
  }
}
layer {
  name: "scale4f_branch2a"
  type: "Scale"
  bottom: "res4f_branch2a"
  top: "res4f_branch2a"
  scale_param {
    bias_term: true
  }
}
layer {
  name: "res4f_branch2a_relu"
  type: "ReLU"
  bottom: "res4f_branch2a"
  top: "res4f_branch2a"
}
layer {
  name: "res4f_branch2b"
  type: "Convolution"
  bottom: "res4f_branch2a"
  top: "res4f_branch2b"
  convolution_param {
    num_output: 256
    bias_term: false
    pad: 1
    kernel_size: 3
    stride: 1
  }
}
layer {
  name: "bn4f_branch2b"
  type: "BatchNorm"
  bottom: "res4f_branch2b"
  top: "res4f_branch2b"
  batch_norm_param {
    use_global_stats: true
  }
}
layer {
  name: "scale4f_branch2b"
  type: "Scale"
  bottom: "res4f_branch2b"
  top: "res4f_branch2b"
  scale_param {
    bias_term: true
  }
}
layer {
  name: "res4f_branch2b_relu"
  type: "ReLU"
  bottom: "res4f_branch2b"
  top: "res4f_branch2b"
}
layer {
  name: "res4f_branch2c"
  type: "Convolution"
  bottom: "res4f_branch2b"
  top: "res4f_branch2c"
  convolution_param {
    num_output: 1024
    bias_term: false
    pad: 0
    kernel_size: 1
    stride: 1
  }
}
layer {
  name: "bn4f_branch2c"
  type: "BatchNorm"
  bottom: "res4f_branch2c"
  top: "res4f_branch2c"
  batch_norm_param {
    use_global_stats: true
  }
}
layer {
  name: "scale4f_branch2c"
  type: "Scale"
  bottom: "res4f_branch2c"
  top: "res4f_branch2c"
  scale_param {
    bias_term: true
  }
}
layer {
  name: "res4f"
  type: "Eltwise"
  bottom: "res4e"
  bottom: "res4f_branch2c"
  top: "res4f"
}
layer {
  name: "res4f_relu"
  type: "ReLU"
  bottom: "res4f"
  top: "res4f"
}
layer {
  name: "res5a_branch1"
  type: "Convolution"
  bottom: "res4f"
  top: "res5a_branch1"
  convolution_param {
    num_output: 2048
    bias_term: false
    pad: 0
    kernel_size: 1
    stride: 2
  }
}
layer {
  name: "bn5a_branch1"
  type: "BatchNorm"
  bottom: "res5a_branch1"
  top: "res5a_branch1"
  batch_norm_param {
    use_global_stats: true
  }
}
layer {
  name: "scale5a_branch1"
  type: "Scale"
  bottom: "res5a_branch1"
  top: "res5a_branch1"
  scale_param {
    bias_term: true
  }
}
layer {
  name: "res5a_branch2a"
  type: "Convolution"
  bottom: "res4f"
  top: "res5a_branch2a"
  convolution_param {
    num_output: 512
    bias_term: false
    pad: 0
    kernel_size: 1
    stride: 2
  }
}
layer {
  name: "bn5a_branch2a"
  type: "BatchNorm"
  bottom: "res5a_branch2a"
  top: "res5a_branch2a"
  batch_norm_param {
    use_global_stats: true
  }
}
layer {
  name: "scale5a_branch2a"
  type: "Scale"
  bottom: "res5a_branch2a"
  top: "res5a_branch2a"
  scale_param {
    bias_term: true
  }
}
layer {
  name: "res5a_branch2a_relu"
  type: "ReLU"
  bottom: "res5a_branch2a"
  top: "res5a_branch2a"
}
layer {
  name: "res5a_branch2b"
  type: "Convolution"
  bottom: "res5a_branch2a"
  top: "res5a_branch2b"
  convolution_param {
    num_output: 512
    bias_term: false
    pad: 1
    kernel_size: 3
    stride: 1
  }
}
layer {
  name: "bn5a_branch2b"
  type: "BatchNorm"
  bottom: "res5a_branch2b"
  top: "res5a_branch2b"
  batch_norm_param {
    use_global_stats: true
  }
}
layer {
  name: "scale5a_branch2b"
  type: "Scale"
  bottom: "res5a_branch2b"
  top: "res5a_branch2b"
  scale_param {
    bias_term: true
  }
}
layer {
  name: "res5a_branch2b_relu"
  type: "ReLU"
  bottom: "res5a_branch2b"
  top: "res5a_branch2b"
}
layer {
  name: "res5a_branch2c"
  type: "Convolution"
  bottom: "res5a_branch2b"
  top: "res5a_branch2c"
  convolution_param {
    num_output: 2048
    bias_term: false
    pad: 0
    kernel_size: 1
    stride: 1
  }
}
layer {
  name: "bn5a_branch2c"
  type: "BatchNorm"
  bottom: "res5a_branch2c"
  top: "res5a_branch2c"
  batch_norm_param {
    use_global_stats: true
  }
}
layer {
  name: "scale5a_branch2c"
  type: "Scale"
  bottom: "res5a_bra
I1014 09:15:53.788038  3967 layer_factory.hpp:77] Creating layer data
I1014 09:15:53.788471  3967 net.cpp:100] Creating Layer data
I1014 09:15:53.788506  3967 net.cpp:408] data -> data
I1014 09:15:53.788524  3967 net.cpp:408] data -> label
I1014 09:15:53.790846  3973 db_lmdb.cpp:35] Opened lmdb fake_image_net.lmdb
I1014 09:15:53.802188  3967 data_layer.cpp:41] output data size: 16,3,224,224
I1014 09:15:53.815387  3967 net.cpp:150] Setting up data
I1014 09:15:53.815429  3967 net.cpp:157] Top shape: 16 3 224 224 (2408448)
I1014 09:15:53.815436  3967 net.cpp:157] Top shape: 16 (16)
I1014 09:15:53.815439  3967 net.cpp:165] Memory required for data: 9633856
I1014 09:15:53.815448  3967 layer_factory.hpp:77] Creating layer conv1
I1014 09:15:53.815481  3967 net.cpp:100] Creating Layer conv1
I1014 09:15:53.815488  3967 net.cpp:434] conv1 <- data
I1014 09:15:53.815501  3967 net.cpp:408] conv1 -> conv1
I1014 09:15:53.816400  3967 net.cpp:150] Setting up conv1
I1014 09:15:53.816414  3967 net.cpp:157] Top shape: 16 64 109 109 (12166144)
I1014 09:15:53.816418  3967 net.cpp:165] Memory required for data: 58298432
I1014 09:15:53.816431  3967 layer_factory.hpp:77] Creating layer bn_conv1
I1014 09:15:53.816442  3967 net.cpp:100] Creating Layer bn_conv1
I1014 09:15:53.816445  3967 net.cpp:434] bn_conv1 <- conv1
I1014 09:15:53.816452  3967 net.cpp:395] bn_conv1 -> conv1 (in-place)
I1014 09:15:53.816609  3967 net.cpp:150] Setting up bn_conv1
I1014 09:15:53.816620  3967 net.cpp:157] Top shape: 16 64 109 109 (12166144)
I1014 09:15:53.816624  3967 net.cpp:165] Memory required for data: 106963008
I1014 09:15:53.816635  3967 layer_factory.hpp:77] Creating layer scale_conv1
I1014 09:15:53.816642  3967 net.cpp:100] Creating Layer scale_conv1
I1014 09:15:53.816645  3967 net.cpp:434] scale_conv1 <- conv1
I1014 09:15:53.816650  3967 net.cpp:395] scale_conv1 -> conv1 (in-place)
I1014 09:15:53.816686  3967 layer_factory.hpp:77] Creating layer scale_conv1
I1014 09:15:53.816795  3967 net.cpp:150] Setting up scale_conv1
I1014 09:15:53.816807  3967 net.cpp:157] Top shape: 16 64 109 109 (12166144)
I1014 09:15:53.816809  3967 net.cpp:165] Memory required for data: 155627584
I1014 09:15:53.816815  3967 layer_factory.hpp:77] Creating layer conv1_relu
I1014 09:15:53.816823  3967 net.cpp:100] Creating Layer conv1_relu
I1014 09:15:53.816826  3967 net.cpp:434] conv1_relu <- conv1
I1014 09:15:53.816846  3967 net.cpp:395] conv1_relu -> conv1 (in-place)
I1014 09:15:53.816854  3967 net.cpp:150] Setting up conv1_relu
I1014 09:15:53.816859  3967 net.cpp:157] Top shape: 16 64 109 109 (12166144)
I1014 09:15:53.816860  3967 net.cpp:165] Memory required for data: 204292160
I1014 09:15:53.816864  3967 layer_factory.hpp:77] Creating layer pool1
I1014 09:15:53.816869  3967 net.cpp:100] Creating Layer pool1
I1014 09:15:53.816872  3967 net.cpp:434] pool1 <- conv1
I1014 09:15:53.816879  3967 net.cpp:408] pool1 -> pool1
I1014 09:15:53.816922  3967 net.cpp:150] Setting up pool1
I1014 09:15:53.816929  3967 net.cpp:157] Top shape: 16 64 54 54 (2985984)
I1014 09:15:53.816931  3967 net.cpp:165] Memory required for data: 216236096
I1014 09:15:53.816934  3967 layer_factory.hpp:77] Creating layer pool1_pool1_0_split
I1014 09:15:53.816946  3967 net.cpp:100] Creating Layer pool1_pool1_0_split
I1014 09:15:53.816948  3967 net.cpp:434] pool1_pool1_0_split <- pool1
I1014 09:15:53.816952  3967 net.cpp:408] pool1_pool1_0_split -> pool1_pool1_0_split_0
I1014 09:15:53.816958  3967 net.cpp:408] pool1_pool1_0_split -> pool1_pool1_0_split_1
I1014 09:15:53.816988  3967 net.cpp:150] Setting up pool1_pool1_0_split
I1014 09:15:53.816995  3967 net.cpp:157] Top shape: 16 64 54 54 (2985984)
I1014 09:15:53.816999  3967 net.cpp:157] Top shape: 16 64 54 54 (2985984)
I1014 09:15:53.817001  3967 net.cpp:165] Memory required for data: 240123968
I1014 09:15:53.817005  3967 layer_factory.hpp:77] Creating layer res2a_branch1
I1014 09:15:53.817013  3967 net.cpp:100] Creating Layer res2a_branch1
I1014 09:15:53.817015  3967 net.cpp:434] res2a_branch1 <- pool1_pool1_0_split_0
I1014 09:15:53.817019  3967 net.cpp:408] res2a_branch1 -> res2a_branch1
I1014 09:15:53.817162  3967 net.cpp:150] Setting up res2a_branch1
I1014 09:15:53.817170  3967 net.cpp:157] Top shape: 16 256 54 54 (11943936)
I1014 09:15:53.817173  3967 net.cpp:165] Memory required for data: 287899712
I1014 09:15:53.817178  3967 layer_factory.hpp:77] Creating layer bn2a_branch1
I1014 09:15:53.817186  3967 net.cpp:100] Creating Layer bn2a_branch1
I1014 09:15:53.817189  3967 net.cpp:434] bn2a_branch1 <- res2a_branch1
I1014 09:15:53.817194  3967 net.cpp:395] bn2a_branch1 -> res2a_branch1 (in-place)
I1014 09:15:53.817819  3967 net.cpp:150] Setting up bn2a_branch1
I1014 09:15:53.817833  3967 net.cpp:157] Top shape: 16 256 54 54 (11943936)
I1014 09:15:53.817837  3967 net.cpp:165] Memory required for data: 335675456
I1014 09:15:53.817868  3967 layer_factory.hpp:77] Creating layer scale2a_branch1
I1014 09:15:53.817878  3967 net.cpp:100] Creating Layer scale2a_branch1
I1014 09:15:53.817880  3967 net.cpp:434] scale2a_branch1 <- res2a_branch1
I1014 09:15:53.817885  3967 net.cpp:395] scale2a_branch1 -> res2a_branch1 (in-place)
I1014 09:15:53.817992  3967 layer_factory.hpp:77] Creating layer scale2a_branch1
I1014 09:15:53.818109  3967 net.cpp:150] Setting up scale2a_branch1
I1014 09:15:53.818117  3967 net.cpp:157] Top shape: 16 256 54 54 (11943936)
I1014 09:15:53.818120  3967 net.cpp:165] Memory required for data: 383451200
I1014 09:15:53.818127  3967 layer_factory.hpp:77] Creating layer res2a_branch2a
I1014 09:15:53.818135  3967 net.cpp:100] Creating Layer res2a_branch2a
I1014 09:15:53.818138  3967 net.cpp:434] res2a_branch2a <- pool1_pool1_0_split_1
I1014 09:15:53.818145  3967 net.cpp:408] res2a_branch2a -> res2a_branch2a
I1014 09:15:53.819073  3967 net.cpp:150] Setting up res2a_branch2a
I1014 09:15:53.819087  3967 net.cpp:157] Top shape: 16 64 54 54 (2985984)
I1014 09:15:53.819090  3967 net.cpp:165] Memory required for data: 395395136
I1014 09:15:53.819095  3967 layer_factory.hpp:77] Creating layer bn2a_branch2a
I1014 09:15:53.819102  3967 net.cpp:100] Creating Layer bn2a_branch2a
I1014 09:15:53.819104  3967 net.cpp:434] bn2a_branch2a <- res2a_branch2a
I1014 09:15:53.819110  3967 net.cpp:395] bn2a_branch2a -> res2a_branch2a (in-place)
I1014 09:15:53.819252  3967 net.cpp:150] Setting up bn2a_branch2a
I1014 09:15:53.819262  3967 net.cpp:157] Top shape: 16 64 54 54 (2985984)
I1014 09:15:53.819264  3967 net.cpp:165] Memory required for data: 407339072
I1014 09:15:53.819284  3967 layer_factory.hpp:77] Creating layer scale2a_branch2a
I1014 09:15:53.819291  3967 net.cpp:100] Creating Layer scale2a_branch2a
I1014 09:15:53.819294  3967 net.cpp:434] scale2a_branch2a <- res2a_branch2a
I1014 09:15:53.819314  3967 net.cpp:395] scale2a_branch2a -> res2a_branch2a (in-place)
I1014 09:15:53.819351  3967 layer_factory.hpp:77] Creating layer scale2a_branch2a
I1014 09:15:53.819445  3967 net.cpp:150] Setting up scale2a_branch2a
I1014 09:15:53.819454  3967 net.cpp:157] Top shape: 16 64 54 54 (2985984)
I1014 09:15:53.819458  3967 net.cpp:165] Memory required for data: 419283008
I1014 09:15:53.819463  3967 layer_factory.hpp:77] Creating layer res2a_branch2a_relu
I1014 09:15:53.819468  3967 net.cpp:100] Creating Layer res2a_branch2a_relu
I1014 09:15:53.819473  3967 net.cpp:434] res2a_branch2a_relu <- res2a_branch2a
I1014 09:15:53.819478  3967 net.cpp:395] res2a_branch2a_relu -> res2a_branch2a (in-place)
I1014 09:15:53.819483  3967 net.cpp:150] Setting up res2a_branch2a_relu
I1014 09:15:53.819486  3967 net.cpp:157] Top shape: 16 64 54 54 (2985984)
I1014 09:15:53.819489  3967 net.cpp:165] Memory required for data: 431226944
I1014 09:15:53.819492  3967 layer_factory.hpp:77] Creating layer res2a_branch2b
I1014 09:15:53.819500  3967 net.cpp:100] Creating Layer res2a_branch2b
I1014 09:15:53.819504  3967 net.cpp:434] res2a_branch2b <- res2a_branch2a
I1014 09:15:53.819507  3967 net.cpp:408] res2a_branch2b -> res2a_branch2b
I1014 09:15:53.820175  3967 net.cpp:150] Setting up res2a_branch2b
I1014 09:15:53.820190  3967 net.cpp:157] Top shape: 16 64 54 54 (2985984)
I1014 09:15:53.820194  3967 net.cpp:165] Memory required for data: 443170880
I1014 09:15:53.820199  3967 layer_factory.hpp:77] Creating layer bn2a_branch2b
I1014 09:15:53.820205  3967 net.cpp:100] Creating Layer bn2a_branch2b
I1014 09:15:53.820209  3967 net.cpp:434] bn2a_branch2b <- res2a_branch2b
I1014 09:15:53.820212  3967 net.cpp:395] bn2a_branch2b -> res2a_branch2b (in-place)
I1014 09:15:53.820365  3967 net.cpp:150] Setting up bn2a_branch2b
I1014 09:15:53.820376  3967 net.cpp:157] Top shape: 16 64 54 54 (2985984)
I1014 09:15:53.820379  3967 net.cpp:165] Memory required for data: 455114816
I1014 09:15:53.820386  3967 layer_factory.hpp:77] Creating layer scale2a_branch2b
I1014 09:15:53.820394  3967 net.cpp:100] Creating Layer scale2a_branch2b
I1014 09:15:53.820397  3967 net.cpp:434] scale2a_branch2b <- res2a_branch2b
I1014 09:15:53.820401  3967 net.cpp:395] scale2a_branch2b -> res2a_branch2b (in-place)
I1014 09:15:53.820437  3967 layer_factory.hpp:77] Creating layer scale2a_branch2b
I1014 09:15:53.820529  3967 net.cpp:150] Setting up scale2a_branch2b
I1014 09:15:53.820539  3967 net.cpp:157] Top shape: 16 64 54 54 (2985984)
I1014 09:15:53.820543  3967 net.cpp:165] Memory required for data: 467058752
I1014 09:15:53.820547  3967 layer_factory.hpp:77] Creating layer res2a_branch2b_relu
I1014 09:15:53.820554  3967 net.cpp:100] Creating Layer res2a_branch2b_relu
I1014 09:15:53.820557  3967 net.cpp:434] res2a_branch2b_relu <- res2a_branch2b
I1014 09:15:53.820561  3967 net.cpp:395] res2a_branch2b_relu -> res2a_branch2b (in-place)
I1014 09:15:53.820567  3967 net.cpp:150] Setting up res2a_branch2b_relu
I1014 09:15:53.820571  3967 net.cpp:157] Top shape: 16 64 54 54 (2985984)
I1014 09:15:53.820574  3967 net.cpp:165] Memory required for data: 479002688
I1014 09:15:53.820576  3967 layer_factory.hpp:77] Creating layer res2a_branch2c
I1014 09:15:53.820585  3967 net.cpp:100] Creating Layer res2a_branch2c
I1014 09:15:53.820587  3967 net.cpp:434] res2a_branch2c <- res2a_branch2b
I1014 09:15:53.820592  3967 net.cpp:408] res2a_branch2c -> res2a_branch2c
I1014 09:15:53.820734  3967 net.cpp:150] Setting up res2a_branch2c
I1014 09:15:53.820745  3967 net.cpp:157] Top shape: 16 256 54 54 (11943936)
I1014 09:15:53.820749  3967 net.cpp:165] Memory required for data: 526778432
I1014 09:15:53.820752  3967 layer_factory.hpp:77] Creating layer bn2a_branch2c
I1014 09:15:53.820758  3967 net.cpp:100] Creating Layer bn2a_branch2c
I1014 09:15:53.820771  3967 net.cpp:434] bn2a_branch2c <- res2a_branch2c
I1014 09:15:53.820776  3967 net.cpp:395] bn2a_branch2c -> res2a_branch2c (in-place)
I1014 09:15:53.820930  3967 net.cpp:150] Setting up bn2a_branch2c
I1014 09:15:53.820940  3967 net.cpp:157] Top shape: 16 256 54 54 (11943936)
I1014 09:15:53.820943  3967 net.cpp:165] Memory required for data: 574554176
I1014 09:15:53.820950  3967 layer_factory.hpp:77] Creating layer scale2a_branch2c
I1014 09:15:53.820958  3967 net.cpp:100] Creating Layer scale2a_branch2c
I1014 09:15:53.820961  3967 net.cpp:434] scale2a_branch2c <- res2a_branch2c
I1014 09:15:53.820966  3967 net.cpp:395] scale2a_branch2c -> res2a_branch2c (in-place)
I1014 09:15:53.821000  3967 layer_factory.hpp:77] Creating layer scale2a_branch2c
I1014 09:15:53.821094  3967 net.cpp:150] Setting up scale2a_branch2c
I1014 09:15:53.821106  3967 net.cpp:157] Top shape: 16 256 54 54 (11943936)
I1014 09:15:53.821110  3967 net.cpp:165] Memory required for data: 622329920
I1014 09:15:53.821115  3967 layer_factory.hpp:77] Creating layer res2a
I1014 09:15:53.821125  3967 net.cpp:100] Creating Layer res2a
I1014 09:15:53.821128  3967 net.cpp:434] res2a <- res2a_branch1
I1014 09:15:53.821132  3967 net.cpp:434] res2a <- res2a_branch2c
I1014 09:15:53.821138  3967 net.cpp:408] res2a -> res2a
I1014 09:15:53.821161  3967 net.cpp:150] Setting up res2a
I1014 09:15:53.821167  3967 net.cpp:157] Top shape: 16 256 54 54 (11943936)
I1014 09:15:53.821171  3967 net.cpp:165] Memory required for data: 670105664
I1014 09:15:53.821173  3967 layer_factory.hpp:77] Creating layer res2a_relu
I1014 09:15:53.821178  3967 net.cpp:100] Creating Layer res2a_relu
I1014 09:15:53.821182  3967 net.cpp:434] res2a_relu <- res2a
I1014 09:15:53.821185  3967 net.cpp:395] res2a_relu -> res2a (in-place)
I1014 09:15:53.821190  3967 net.cpp:150] Setting up res2a_relu
I1014 09:15:53.821194  3967 net.cpp:157] Top shape: 16 256 54 54 (11943936)
I1014 09:15:53.821197  3967 net.cpp:165] Memory required for data: 717881408
I1014 09:15:53.821199  3967 layer_factory.hpp:77] Creating layer res2a_res2a_relu_0_split
I1014 09:15:53.821204  3967 net.cpp:100] Creating Layer res2a_res2a_relu_0_split
I1014 09:15:53.821208  3967 net.cpp:434] res2a_res2a_relu_0_split <- res2a
I1014 09:15:53.821213  3967 net.cpp:408] res2a_res2a_relu_0_split -> res2a_res2a_relu_0_split_0
I1014 09:15:53.821218  3967 net.cpp:408] res2a_res2a_relu_0_split -> res2a_res2a_relu_0_split_1
I1014 09:15:53.821244  3967 net.cpp:150] Setting up res2a_res2a_relu_0_split
I1014 09:15:53.821250  3967 net.cpp:157] Top shape: 16 256 54 54 (11943936)
I1014 09:15:53.821254  3967 net.cpp:157] Top shape: 16 256 54 54 (11943936)
I1014 09:15:53.821256  3967 net.cpp:165] Memory required for data: 813432896
I1014 09:15:53.821259  3967 layer_factory.hpp:77] Creating layer res2b_branch2a
I1014 09:15:53.821266  3967 net.cpp:100] Creating Layer res2b_branch2a
I1014 09:15:53.821269  3967 net.cpp:434] res2b_branch2a <- res2a_res2a_relu_0_split_0
I1014 09:15:53.821274  3967 net.cpp:408] res2b_branch2a -> res2b_branch2a
I1014 09:15:53.821415  3967 net.cpp:150] Setting up res2b_branch2a
I1014 09:15:53.821422  3967 net.cpp:157] Top shape: 16 64 54 54 (2985984)
I1014 09:15:53.821425  3967 net.cpp:165] Memory required for data: 825376832
I1014 09:15:53.821430  3967 layer_factory.hpp:77] Creating layer bn2b_branch2a
I1014 09:15:53.821435  3967 net.cpp:100] Creating Layer bn2b_branch2a
I1014 09:15:53.821439  3967 net.cpp:434] bn2b_branch2a <- res2b_branch2a
I1014 09:15:53.821444  3967 net.cpp:395] bn2b_branch2a -> res2b_branch2a (in-place)
I1014 09:15:53.821586  3967 net.cpp:150] Setting up bn2b_branch2a
I1014 09:15:53.821593  3967 net.cpp:157] Top shape: 16 64 54 54 (2985984)
I1014 09:15:53.821596  3967 net.cpp:165] Memory required for data: 837320768
I1014 09:15:53.821609  3967 layer_factory.hpp:77] Creating layer scale2b_branch2a
I1014 09:15:53.821614  3967 net.cpp:100] Creating Layer scale2b_branch2a
I1014 09:15:53.821616  3967 net.cpp:434] scale2b_branch2a <- res2b_branch2a
I1014 09:15:53.821621  3967 net.cpp:395] scale2b_branch2a -> res2b_branch2a (in-place)
I1014 09:15:53.821667  3967 layer_factory.hpp:77] Creating layer scale2b_branch2a
I1014 09:15:53.821760  3967 net.cpp:150] Setting up scale2b_branch2a
I1014 09:15:53.821770  3967 net.cpp:157] Top shape: 16 64 54 54 (2985984)
I1014 09:15:53.821774  3967 net.cpp:165] Memory required for data: 849264704
I1014 09:15:53.821779  3967 layer_factory.hpp:77] Creating layer res2b_branch2a_relu
I1014 09:15:53.821784  3967 net.cpp:100] Creating Layer res2b_branch2a_relu
I1014 09:15:53.821787  3967 net.cpp:434] res2b_branch2a_relu <- res2b_branch2a
I1014 09:15:53.821792  3967 net.cpp:395] res2b_branch2a_relu -> res2b_branch2a (in-place)
I1014 09:15:53.821797  3967 net.cpp:150] Setting up res2b_branch2a_relu
I1014 09:15:53.821801  3967 net.cpp:157] Top shape: 16 64 54 54 (2985984)
I1014 09:15:53.821805  3967 net.cpp:165] Memory required for data: 861208640
I1014 09:15:53.821818  3967 layer_factory.hpp:77] Creating layer res2b_branch2b
I1014 09:15:53.821825  3967 net.cpp:100] Creating Layer res2b_branch2b
I1014 09:15:53.821827  3967 net.cpp:434] res2b_branch2b <- res2b_branch2a
I1014 09:15:53.821833  3967 net.cpp:408] res2b_branch2b -> res2b_branch2b
I1014 09:15:53.822003  3967 net.cpp:150] Setting up res2b_branch2b
I1014 09:15:53.822015  3967 net.cpp:157] Top shape: 16 64 54 54 (2985984)
I1014 09:15:53.822017  3967 net.cpp:165] Memory required for data: 873152576
I1014 09:15:53.822022  3967 layer_factory.hpp:77] Creating layer bn2b_branch2b
I1014 09:15:53.822029  3967 net.cpp:100] Creating Layer bn2b_branch2b
I1014 09:15:53.822032  3967 net.cpp:434] bn2b_branch2b <- res2b_branch2b
I1014 09:15:53.822036  3967 net.cpp:395] bn2b_branch2b -> res2b_branch2b (in-place)
I1014 09:15:53.822190  3967 net.cpp:150] Setting up bn2b_branch2b
I1014 09:15:53.822198  3967 net.cpp:157] Top shape: 16 64 54 54 (2985984)
I1014 09:15:53.822202  3967 net.cpp:165] Memory required for data: 885096512
I1014 09:15:53.822208  3967 layer_factory.hpp:77] Creating layer scale2b_branch2b
I1014 09:15:53.822216  3967 net.cpp:100] Creating Layer scale2b_branch2b
I1014 09:15:53.822219  3967 net.cpp:434] scale2b_branch2b <- res2b_branch2b
I1014 09:15:53.822223  3967 net.cpp:395] scale2b_branch2b -> res2b_branch2b (in-place)
I1014 09:15:53.822255  3967 layer_factory.hpp:77] Creating layer scale2b_branch2b
I1014 09:15:53.822350  3967 net.cpp:150] Setting up scale2b_branch2b
I1014 09:15:53.822358  3967 net.cpp:157] Top shape: 16 64 54 54 (2985984)
I1014 09:15:53.822361  3967 net.cpp:165] Memory required for data: 897040448
I1014 09:15:53.822366  3967 layer_factory.hpp:77] Creating layer res2b_branch2b_relu
I1014 09:15:53.822371  3967 net.cpp:100] Creating Layer res2b_branch2b_relu
I1014 09:15:53.822374  3967 net.cpp:434] res2b_branch2b_relu <- res2b_branch2b
I1014 09:15:53.822381  3967 net.cpp:395] res2b_branch2b_relu -> res2b_branch2b (in-place)
I1014 09:15:53.822386  3967 net.cpp:150] Setting up res2b_branch2b_relu
I1014 09:15:53.822389  3967 net.cpp:157] Top shape: 16 64 54 54 (2985984)
I1014 09:15:53.822391  3967 net.cpp:165] Memory required for data: 908984384
I1014 09:15:53.822394  3967 layer_factory.hpp:77] Creating layer res2b_branch2c
I1014 09:15:53.822404  3967 net.cpp:100] Creating Layer res2b_branch2c
I1014 09:15:53.822407  3967 net.cpp:434] res2b_branch2c <- res2b_branch2b
I1014 09:15:53.822412  3967 net.cpp:408] res2b_branch2c -> res2b_branch2c
I1014 09:15:53.822558  3967 net.cpp:150] Setting up res2b_branch2c
I1014 09:15:53.822566  3967 net.cpp:157] Top shape: 16 256 54 54 (11943936)
I1014 09:15:53.822568  3967 net.cpp:165] Memory required for data: 956760128
I1014 09:15:53.822573  3967 layer_factory.hpp:77] Creating layer bn2b_branch2c
I1014 09:15:53.822579  3967 net.cpp:100] Creating Layer bn2b_branch2c
I1014 09:15:53.822582  3967 net.cpp:434] bn2b_branch2c <- res2b_branch2c
I1014 09:15:53.822587  3967 net.cpp:395] bn2b_branch2c -> res2b_branch2c (in-place)
I1014 09:15:53.822726  3967 net.cpp:150] Setting up bn2b_branch2c
I1014 09:15:53.822734  3967 net.cpp:157] Top shape: 16 256 54 54 (11943936)
I1014 09:15:53.822738  3967 net.cpp:165] Memory required for data: 1004535872
I1014 09:15:53.822753  3967 layer_factory.hpp:77] Creating layer scale2b_branch2c
I1014 09:15:53.822760  3967 net.cpp:100] Creating Layer scale2b_branch2c
I1014 09:15:53.822764  3967 net.cpp:434] scale2b_branch2c <- res2b_branch2c
I1014 09:15:53.822768  3967 net.cpp:395] scale2b_branch2c -> res2b_branch2c (in-place)
I1014 09:15:53.822801  3967 layer_factory.hpp:77] Creating layer scale2b_branch2c
I1014 09:15:53.822893  3967 net.cpp:150] Setting up scale2b_branch2c
I1014 09:15:53.822901  3967 net.cpp:157] Top shape: 16 256 54 54 (11943936)
I1014 09:15:53.822903  3967 net.cpp:165] Memory required for data: 1052311616
I1014 09:15:53.822908  3967 layer_factory.hpp:77] Creating layer res2b
I1014 09:15:53.822913  3967 net.cpp:100] Creating Layer res2b
I1014 09:15:53.822916  3967 net.cpp:434] res2b <- res2a_res2a_relu_0_split_1
I1014 09:15:53.822921  3967 net.cpp:434] res2b <- res2b_branch2c
I1014 09:15:53.822926  3967 net.cpp:408] res2b -> res2b
I1014 09:15:53.822947  3967 net.cpp:150] Setting up res2b
I1014 09:15:53.822954  3967 net.cpp:157] Top shape: 16 256 54 54 (11943936)
I1014 09:15:53.822963  3967 net.cpp:165] Memory required for data: 1100087360
I1014 09:15:53.822966  3967 layer_factory.hpp:77] Creating layer res2b_relu
I1014 09:15:53.822971  3967 net.cpp:100] Creating Layer res2b_relu
I1014 09:15:53.822974  3967 net.cpp:434] res2b_relu <- res2b
I1014 09:15:53.822978  3967 net.cpp:395] res2b_relu -> res2b (in-place)
I1014 09:15:53.822983  3967 net.cpp:150] Setting up res2b_relu
I1014 09:15:53.822988  3967 net.cpp:157] Top shape: 16 256 54 54 (11943936)
I1014 09:15:53.822990  3967 net.cpp:165] Memory required for data: 1147863104
I1014 09:15:53.822993  3967 layer_factory.hpp:77] Creating layer res2b_res2b_relu_0_split
I1014 09:15:53.823010  3967 net.cpp:100] Creating Layer res2b_res2b_relu_0_split
I1014 09:15:53.823015  3967 net.cpp:434] res2b_res2b_relu_0_split <- res2b
I1014 09:15:53.823021  3967 net.cpp:408] res2b_res2b_relu_0_split -> res2b_res2b_relu_0_split_0
I1014 09:15:53.823026  3967 net.cpp:408] res2b_res2b_relu_0_split -> res2b_res2b_relu_0_split_1
I1014 09:15:53.823058  3967 net.cpp:150] Setting up res2b_res2b_relu_0_split
I1014 09:15:53.823065  3967 net.cpp:157] Top shape: 16 256 54 54 (11943936)
I1014 09:15:53.823068  3967 net.cpp:157] Top shape: 16 256 54 54 (11943936)
I1014 09:15:53.823071  3967 net.cpp:165] Memory required for data: 1243414592
I1014 09:15:53.823073  3967 layer_factory.hpp:77] Creating layer res2c_branch2a
I1014 09:15:53.823079  3967 net.cpp:100] Creating Layer res2c_branch2a
I1014 09:15:53.823082  3967 net.cpp:434] res2c_branch2a <- res2b_res2b_relu_0_split_0
I1014 09:15:53.823087  3967 net.cpp:408] res2c_branch2a -> res2c_branch2a
I1014 09:15:53.823233  3967 net.cpp:150] Setting up res2c_branch2a
I1014 09:15:53.823241  3967 net.cpp:157] Top shape: 16 64 54 54 (2985984)
I1014 09:15:53.823245  3967 net.cpp:165] Memory required for data: 1255358528
I1014 09:15:53.823248  3967 layer_factory.hpp:77] Creating layer bn2c_branch2a
I1014 09:15:53.823253  3967 net.cpp:100] Creating Layer bn2c_branch2a
I1014 09:15:53.823257  3967 net.cpp:434] bn2c_branch2a <- res2c_branch2a
I1014 09:15:53.823262  3967 net.cpp:395] bn2c_branch2a -> res2c_branch2a (in-place)
I1014 09:15:53.823410  3967 net.cpp:150] Setting up bn2c_branch2a
I1014 09:15:53.823421  3967 net.cpp:157] Top shape: 16 64 54 54 (2985984)
I1014 09:15:53.823423  3967 net.cpp:165] Memory required for data: 1267302464
I1014 09:15:53.823431  3967 layer_factory.hpp:77] Creating layer scale2c_branch2a
I1014 09:15:53.823436  3967 net.cpp:100] Creating Layer scale2c_branch2a
I1014 09:15:53.823438  3967 net.cpp:434] scale2c_branch2a <- res2c_branch2a
I1014 09:15:53.823444  3967 net.cpp:395] scale2c_branch2a -> res2c_branch2a (in-place)
I1014 09:15:53.823475  3967 layer_factory.hpp:77] Creating layer scale2c_branch2a
I1014 09:15:53.823568  3967 net.cpp:150] Setting up scale2c_branch2a
I1014 09:15:53.823577  3967 net.cpp:157] Top shape: 16 64 54 54 (2985984)
I1014 09:15:53.823580  3967 net.cpp:165] Memory required for data: 1279246400
I1014 09:15:53.823595  3967 layer_factory.hpp:77] Creating layer res2c_branch2a_relu
I1014 09:15:53.823601  3967 net.cpp:100] Creating Layer res2c_branch2a_relu
I1014 09:15:53.823603  3967 net.cpp:434] res2c_branch2a_relu <- res2c_branch2a
I1014 09:15:53.823608  3967 net.cpp:395] res2c_branch2a_relu -> res2c_branch2a (in-place)
I1014 09:15:53.823614  3967 net.cpp:150] Setting up res2c_branch2a_relu
I1014 09:15:53.823618  3967 net.cpp:157] Top shape: 16 64 54 54 (2985984)
I1014 09:15:53.823621  3967 net.cpp:165] Memory required for data: 1291190336
I1014 09:15:53.823623  3967 layer_factory.hpp:77] Creating layer res2c_branch2b
I1014 09:15:53.823631  3967 net.cpp:100] Creating Layer res2c_branch2b
I1014 09:15:53.823634  3967 net.cpp:434] res2c_branch2b <- res2c_branch2a
I1014 09:15:53.823638  3967 net.cpp:408] res2c_branch2b -> res2c_branch2b
I1014 09:15:53.823801  3967 net.cpp:150] Setting up res2c_branch2b
I1014 09:15:53.823812  3967 net.cpp:157] Top shape: 16 64 54 54 (2985984)
I1014 09:15:53.823814  3967 net.cpp:165] Memory required for data: 1303134272
I1014 09:15:53.823819  3967 layer_factory.hpp:77] Creating layer bn2c_branch2b
I1014 09:15:53.823824  3967 net.cpp:100] Creating Layer bn2c_branch2b
I1014 09:15:53.823827  3967 net.cpp:434] bn2c_branch2b <- res2c_branch2b
I1014 09:15:53.823832  3967 net.cpp:395] bn2c_branch2b -> res2c_branch2b (in-place)
I1014 09:15:53.823985  3967 net.cpp:150] Setting up bn2c_branch2b
I1014 09:15:53.823994  3967 net.cpp:157] Top shape: 16 64 54 54 (2985984)
I1014 09:15:53.823998  3967 net.cpp:165] Memory required for data: 1315078208
I1014 09:15:53.824005  3967 layer_factory.hpp:77] Creating layer scale2c_branch2b
I1014 09:15:53.824010  3967 net.cpp:100] Creating Layer scale2c_branch2b
I1014 09:15:53.824013  3967 net.cpp:434] scale2c_branch2b <- res2c_branch2b
I1014 09:15:53.824019  3967 net.cpp:395] scale2c_branch2b -> res2c_branch2b (in-place)
I1014 09:15:53.824051  3967 layer_factory.hpp:77] Creating layer scale2c_branch2b
I1014 09:15:53.824147  3967 net.cpp:150] Setting up scale2c_branch2b
I1014 09:15:53.824153  3967 net.cpp:157] Top shape: 16 64 54 54 (2985984)
I1014 09:15:53.824157  3967 net.cpp:165] Memory required for data: 1327022144
I1014 09:15:53.824162  3967 layer_factory.hpp:77] Creating layer res2c_branch2b_relu
I1014 09:15:53.824167  3967 net.cpp:100] Creating Layer res2c_branch2b_relu
I1014 09:15:53.824170  3967 net.cpp:434] res2c_branch2b_relu <- res2c_branch2b
I1014 09:15:53.824175  3967 net.cpp:395] res2c_branch2b_relu -> res2c_branch2b (in-place)
I1014 09:15:53.824180  3967 net.cpp:150] Setting up res2c_branch2b_relu
I1014 09:15:53.824184  3967 net.cpp:157] Top shape: 16 64 54 54 (2985984)
I1014 09:15:53.824187  3967 net.cpp:165] Memory required for data: 1338966080
I1014 09:15:53.824189  3967 layer_factory.hpp:77] Creating layer res2c_branch2c
I1014 09:15:53.824195  3967 net.cpp:100] Creating Layer res2c_branch2c
I1014 09:15:53.824198  3967 net.cpp:434] res2c_branch2c <- res2c_branch2b
I1014 09:15:53.824205  3967 net.cpp:408] res2c_branch2c -> res2c_branch2c
I1014 09:15:53.824355  3967 net.cpp:150] Setting up res2c_branch2c
I1014 09:15:53.824362  3967 net.cpp:157] Top shape: 16 256 54 54 (11943936)
I1014 09:15:53.824365  3967 net.cpp:165] Memory required for data: 1386741824
I1014 09:15:53.824369  3967 layer_factory.hpp:77] Creating layer bn2c_branch2c
I1014 09:15:53.824375  3967 net.cpp:100] Creating Layer bn2c_branch2c
I1014 09:15:53.824378  3967 net.cpp:434] bn2c_branch2c <- res2c_branch2c
I1014 09:15:53.824383  3967 net.cpp:395] bn2c_branch2c -> res2c_branch2c (in-place)
I1014 09:15:53.824522  3967 net.cpp:150] Setting up bn2c_branch2c
I1014 09:15:53.824533  3967 net.cpp:157] Top shape: 16 256 54 54 (11943936)
I1014 09:15:53.824537  3967 net.cpp:165] Memory required for data: 1434517568
I1014 09:15:53.824551  3967 layer_factory.hpp:77] Creating layer scale2c_branch2c
I1014 09:15:53.824558  3967 net.cpp:100] Creating Layer scale2c_branch2c
I1014 09:15:53.824561  3967 net.cpp:434] scale2c_branch2c <- res2c_branch2c
I1014 09:15:53.824566  3967 net.cpp:395] scale2c_branch2c -> res2c_branch2c (in-place)
I1014 09:15:53.824609  3967 layer_factory.hpp:77] Creating layer scale2c_branch2c
I1014 09:15:53.824703  3967 net.cpp:150] Setting up scale2c_branch2c
I1014 09:15:53.824713  3967 net.cpp:157] Top shape: 16 256 54 54 (11943936)
I1014 09:15:53.824717  3967 net.cpp:165] Memory required for data: 1482293312
I1014 09:15:53.824723  3967 layer_factory.hpp:77] Creating layer res2c
I1014 09:15:53.824728  3967 net.cpp:100] Creating Layer res2c
I1014 09:15:53.824733  3967 net.cpp:434] res2c <- res2b_res2b_relu_0_split_1
I1014 09:15:53.824738  3967 net.cpp:434] res2c <- res2c_branch2c
I1014 09:15:53.824741  3967 net.cpp:408] res2c -> res2c
I1014 09:15:53.824759  3967 net.cpp:150] Setting up res2c
I1014 09:15:53.824765  3967 net.cpp:157] Top shape: 16 256 54 54 (11943936)
I1014 09:15:53.824767  3967 net.cpp:165] Memory required for data: 1530069056
I1014 09:15:53.824770  3967 layer_factory.hpp:77] Creating layer res2c_relu
I1014 09:15:53.824774  3967 net.cpp:100] Creating Layer res2c_relu
I1014 09:15:53.824777  3967 net.cpp:434] res2c_relu <- res2c
I1014 09:15:53.824784  3967 net.cpp:395] res2c_relu -> res2c (in-place)
I1014 09:15:53.824787  3967 net.cpp:150] Setting up res2c_relu
I1014 09:15:53.824792  3967 net.cpp:157] Top shape: 16 256 54 54 (11943936)
I1014 09:15:53.824795  3967 net.cpp:165] Memory required for data: 1577844800
I1014 09:15:53.824797  3967 layer_factory.hpp:77] Creating layer res2c_res2c_relu_0_split
I1014 09:15:53.824802  3967 net.cpp:100] Creating Layer res2c_res2c_relu_0_split
I1014 09:15:53.824805  3967 net.cpp:434] res2c_res2c_relu_0_split <- res2c
I1014 09:15:53.824808  3967 net.cpp:408] res2c_res2c_relu_0_split -> res2c_res2c_relu_0_split_0
I1014 09:15:53.824813  3967 net.cpp:408] res2c_res2c_relu_0_split -> res2c_res2c_relu_0_split_1
I1014 09:15:53.824841  3967 net.cpp:150] Setting up res2c_res2c_relu_0_split
I1014 09:15:53.824846  3967 net.cpp:157] Top shape: 16 256 54 54 (11943936)
I1014 09:15:53.824849  3967 net.cpp:157] Top shape: 16 256 54 54 (11943936)
I1014 09:15:53.824852  3967 net.cpp:165] Memory required for data: 1673396288
I1014 09:15:53.824854  3967 layer_factory.hpp:77] Creating layer res3a_branch1
I1014 09:15:53.824861  3967 net.cpp:100] Creating Layer res3a_branch1
I1014 09:15:53.824863  3967 net.cpp:434] res3a_branch1 <- res2c_res2c_relu_0_split_0
I1014 09:15:53.824868  3967 net.cpp:408] res3a_branch1 -> res3a_branch1
I1014 09:15:53.825631  3967 net.cpp:150] Setting up res3a_branch1
I1014 09:15:53.825646  3967 net.cpp:157] Top shape: 16 512 27 27 (5971968)
I1014 09:15:53.825650  3967 net.cpp:165] Memory required for data: 1697284160
I1014 09:15:53.825659  3967 layer_factory.hpp:77] Creating layer bn3a_branch1
I1014 09:15:53.825667  3967 net.cpp:100] Creating Layer bn3a_branch1
I1014 09:15:53.825673  3967 net.cpp:434] bn3a_branch1 <- res3a_branch1
I1014 09:15:53.825680  3967 net.cpp:395] bn3a_branch1 -> res3a_branch1 (in-place)
I1014 09:15:53.826349  3967 net.cpp:150] Setting up bn3a_branch1
I1014 09:15:53.826364  3967 net.cpp:157] Top shape: 16 512 27 27 (5971968)
I1014 09:15:53.826369  3967 net.cpp:165] Memory required for data: 1721172032
I1014 09:15:53.826376  3967 layer_factory.hpp:77] Creating layer scale3a_branch1
I1014 09:15:53.826382  3967 net.cpp:100] Creating Layer scale3a_branch1
I1014 09:15:53.826385  3967 net.cpp:434] scale3a_branch1 <- res3a_branch1
I1014 09:15:53.826390  3967 net.cpp:395] scale3a_branch1 -> res3a_branch1 (in-place)
I1014 09:15:53.826432  3967 layer_factory.hpp:77] Creating layer scale3a_branch1
I1014 09:15:53.826517  3967 net.cpp:150] Setting up scale3a_branch1
I1014 09:15:53.826527  3967 net.cpp:157] Top shape: 16 512 27 27 (5971968)
I1014 09:15:53.826531  3967 net.cpp:165] Memory required for data: 1745059904
I1014 09:15:53.826536  3967 layer_factory.hpp:77] Creating layer res3a_branch2a
I1014 09:15:53.826545  3967 net.cpp:100] Creating Layer res3a_branch2a
I1014 09:15:53.826548  3967 net.cpp:434] res3a_branch2a <- res2c_res2c_relu_0_split_1
I1014 09:15:53.826553  3967 net.cpp:408] res3a_branch2a -> res3a_branch2a
I1014 09:15:53.826730  3967 net.cpp:150] Setting up res3a_branch2a
I1014 09:15:53.826740  3967 net.cpp:157] Top shape: 16 128 27 27 (1492992)
I1014 09:15:53.826743  3967 net.cpp:165] Memory required for data: 1751031872
I1014 09:15:53.826747  3967 layer_factory.hpp:77] Creating layer bn3a_branch2a
I1014 09:15:53.826753  3967 net.cpp:100] Creating Layer bn3a_branch2a
I1014 09:15:53.826756  3967 net.cpp:434] bn3a_branch2a <- res3a_branch2a
I1014 09:15:53.826762  3967 net.cpp:395] bn3a_branch2a -> res3a_branch2a (in-place)
I1014 09:15:53.826903  3967 net.cpp:150] Setting up bn3a_branch2a
I1014 09:15:53.826912  3967 net.cpp:157] Top shape: 16 128 27 27 (1492992)
I1014 09:15:53.826915  3967 net.cpp:165] Memory required for data: 1757003840
I1014 09:15:53.826922  3967 layer_factory.hpp:77] Creating layer scale3a_branch2a
I1014 09:15:53.826927  3967 net.cpp:100] Creating Layer scale3a_branch2a
I1014 09:15:53.826930  3967 net.cpp:434] scale3a_branch2a <- res3a_branch2a
I1014 09:15:53.826936  3967 net.cpp:395] scale3a_branch2a -> res3a_branch2a (in-place)
I1014 09:15:53.826975  3967 layer_factory.hpp:77] Creating layer scale3a_branch2a
I1014 09:15:53.827066  3967 net.cpp:150] Setting up scale3a_branch2a
I1014 09:15:53.827074  3967 net.cpp:157] Top shape: 16 128 27 27 (1492992)
I1014 09:15:53.827076  3967 net.cpp:165] Memory required for data: 1762975808
I1014 09:15:53.827081  3967 layer_factory.hpp:77] Creating layer res3a_branch2a_relu
I1014 09:15:53.827087  3967 net.cpp:100] Creating Layer res3a_branch2a_relu
I1014 09:15:53.827091  3967 net.cpp:434] res3a_branch2a_relu <- res3a_branch2a
I1014 09:15:53.827095  3967 net.cpp:395] res3a_branch2a_relu -> res3a_branch2a (in-place)
I1014 09:15:53.827100  3967 net.cpp:150] Setting up res3a_branch2a_relu
I1014 09:15:53.827105  3967 net.cpp:157] Top shape: 16 128 27 27 (1492992)
I1014 09:15:53.827107  3967 net.cpp:165] Memory required for data: 1768947776
I1014 09:15:53.827111  3967 layer_factory.hpp:77] Creating layer res3a_branch2b
I1014 09:15:53.827118  3967 net.cpp:100] Creating Layer res3a_branch2b
I1014 09:15:53.827121  3967 net.cpp:434] res3a_branch2b <- res3a_branch2a
I1014 09:15:53.827126  3967 net.cpp:408] res3a_branch2b -> res3a_branch2b
I1014 09:15:53.827872  3967 net.cpp:150] Setting up res3a_branch2b
I1014 09:15:53.827886  3967 net.cpp:157] Top shape: 16 128 27 27 (1492992)
I1014 09:15:53.827890  3967 net.cpp:165] Memory required for data: 1774919744
I1014 09:15:53.827895  3967 layer_factory.hpp:77] Creating layer bn3a_branch2b
I1014 09:15:53.827901  3967 net.cpp:100] Creating Layer bn3a_branch2b
I1014 09:15:53.827905  3967 net.cpp:434] bn3a_branch2b <- res3a_branch2b
I1014 09:15:53.827910  3967 net.cpp:395] bn3a_branch2b -> res3a_branch2b (in-place)
I1014 09:15:53.828059  3967 net.cpp:150] Setting up bn3a_branch2b
I1014 09:15:53.828069  3967 net.cpp:157] Top shape: 16 128 27 27 (1492992)
I1014 09:15:53.828073  3967 net.cpp:165] Memory required for data: 1780891712
I1014 09:15:53.828079  3967 layer_factory.hpp:77] Creating layer scale3a_branch2b
I1014 09:15:53.828085  3967 net.cpp:100] Creating Layer scale3a_branch2b
I1014 09:15:53.828088  3967 net.cpp:434] scale3a_branch2b <- res3a_branch2b
I1014 09:15:53.828093  3967 net.cpp:395] scale3a_branch2b -> res3a_branch2b (in-place)
I1014 09:15:53.828127  3967 layer_factory.hpp:77] Creating layer scale3a_branch2b
I1014 09:15:53.828213  3967 net.cpp:150] Setting up scale3a_branch2b
I1014 09:15:53.828222  3967 net.cpp:157] Top shape: 16 128 27 27 (1492992)
I1014 09:15:53.828227  3967 net.cpp:165] Memory required for data: 1786863680
I1014 09:15:53.828233  3967 layer_factory.hpp:77] Creating layer res3a_branch2b_relu
I1014 09:15:53.828238  3967 net.cpp:100] Creating Layer res3a_branch2b_relu
I1014 09:15:53.828240  3967 net.cpp:434] res3a_branch2b_relu <- res3a_branch2b
I1014 09:15:53.828248  3967 net.cpp:395] res3a_branch2b_relu -> res3a_branch2b (in-place)
I1014 09:15:53.828253  3967 net.cpp:150] Setting up res3a_branch2b_relu
I1014 09:15:53.828258  3967 net.cpp:157] Top shape: 16 128 27 27 (1492992)
I1014 09:15:53.828270  3967 net.cpp:165] Memory required for data: 1792835648
I1014 09:15:53.828274  3967 layer_factory.hpp:77] Creating layer res3a_branch2c
I1014 09:15:53.828280  3967 net.cpp:100] Creating Layer res3a_branch2c
I1014 09:15:53.828284  3967 net.cpp:434] res3a_branch2c <- res3a_branch2b
I1014 09:15:53.828289  3967 net.cpp:408] res3a_branch2c -> res3a_branch2c
I1014 09:15:53.828486  3967 net.cpp:150] Setting up res3a_branch2c
I1014 09:15:53.828497  3967 net.cpp:157] Top shape: 16 512 27 27 (5971968)
I1014 09:15:53.828500  3967 net.cpp:165] Memory required for data: 1816723520
I1014 09:15:53.828505  3967 layer_factory.hpp:77] Creating layer bn3a_branch2c
I1014 09:15:53.828517  3967 net.cpp:100] Creating Layer bn3a_branch2c
I1014 09:15:53.828521  3967 net.cpp:434] bn3a_branch2c <- res3a_branch2c
I1014 09:15:53.828526  3967 net.cpp:395] bn3a_branch2c -> res3a_branch2c (in-place)
I1014 09:15:53.828666  3967 net.cpp:150] Setting up bn3a_branch2c
I1014 09:15:53.828675  3967 net.cpp:157] Top shape: 16 512 27 27 (5971968)
I1014 09:15:53.828680  3967 net.cpp:165] Memory required for data: 1840611392
I1014 09:15:53.828685  3967 layer_factory.hpp:77] Creating layer scale3a_branch2c
I1014 09:15:53.828692  3967 net.cpp:100] Creating Layer scale3a_branch2c
I1014 09:15:53.828696  3967 net.cpp:434] scale3a_branch2c <- res3a_branch2c
I1014 09:15:53.828699  3967 net.cpp:395] scale3a_branch2c -> res3a_branch2c (in-place)
I1014 09:15:53.828733  3967 layer_factory.hpp:77] Creating layer scale3a_branch2c
I1014 09:15:53.828831  3967 net.cpp:150] Setting up scale3a_branch2c
I1014 09:15:53.828842  3967 net.cpp:157] Top shape: 16 512 27 27 (5971968)
I1014 09:15:53.828845  3967 net.cpp:165] Memory required for data: 1864499264
I1014 09:15:53.828851  3967 layer_factory.hpp:77] Creating layer res3a
I1014 09:15:53.828857  3967 net.cpp:100] Creating Layer res3a
I1014 09:15:53.828861  3967 net.cpp:434] res3a <- res3a_branch1
I1014 09:15:53.828866  3967 net.cpp:434] res3a <- res3a_branch2c
I1014 09:15:53.828869  3967 net.cpp:408] res3a -> res3a
I1014 09:15:53.828891  3967 net.cpp:150] Setting up res3a
I1014 09:15:53.828896  3967 net.cpp:157] Top shape: 16 512 27 27 (5971968)
I1014 09:15:53.828898  3967 net.cpp:165] Memory required for data: 1888387136
I1014 09:15:53.828902  3967 layer_factory.hpp:77] Creating layer res3a_relu
I1014 09:15:53.828907  3967 net.cpp:100] Creating Layer res3a_relu
I1014 09:15:53.828909  3967 net.cpp:434] res3a_relu <- res3a
I1014 09:15:53.828915  3967 net.cpp:395] res3a_relu -> res3a (in-place)
I1014 09:15:53.828920  3967 net.cpp:150] Setting up res3a_relu
I1014 09:15:53.828924  3967 net.cpp:157] Top shape: 16 512 27 27 (5971968)
I1014 09:15:53.828927  3967 net.cpp:165] Memory required for data: 1912275008
I1014 09:15:53.828930  3967 layer_factory.hpp:77] Creating layer res3a_res3a_relu_0_split
I1014 09:15:53.828935  3967 net.cpp:100] Creating Layer res3a_res3a_relu_0_split
I1014 09:15:53.828938  3967 net.cpp:434] res3a_res3a_relu_0_split <- res3a
I1014 09:15:53.828943  3967 net.cpp:408] res3a_res3a_relu_0_split -> res3a_res3a_relu_0_split_0
I1014 09:15:53.828946  3967 net.cpp:408] res3a_res3a_relu_0_split -> res3a_res3a_relu_0_split_1
I1014 09:15:53.828989  3967 net.cpp:150] Setting up res3a_res3a_relu_0_split
I1014 09:15:53.828995  3967 net.cpp:157] Top shape: 16 512 27 27 (5971968)
I1014 09:15:53.828999  3967 net.cpp:157] Top shape: 16 512 27 27 (5971968)
I1014 09:15:53.829002  3967 net.cpp:165] Memory required for data: 1960050752
I1014 09:15:53.829005  3967 layer_factory.hpp:77] Creating layer res3b_branch2a
I1014 09:15:53.829011  3967 net.cpp:100] Creating Layer res3b_branch2a
I1014 09:15:53.829015  3967 net.cpp:434] res3b_branch2a <- res3a_res3a_relu_0_split_0
I1014 09:15:53.829020  3967 net.cpp:408] res3b_branch2a -> res3b_branch2a
I1014 09:15:53.829695  3967 net.cpp:150] Setting up res3b_branch2a
I1014 09:15:53.829710  3967 net.cpp:157] Top shape: 16 128 27 27 (1492992)
I1014 09:15:53.829715  3967 net.cpp:165] Memory required for data: 1966022720
I1014 09:15:53.829720  3967 layer_factory.hpp:77] Creating layer bn3b_branch2a
I1014 09:15:53.829735  3967 net.cpp:100] Creating Layer bn3b_branch2a
I1014 09:15:53.829738  3967 net.cpp:434] bn3b_branch2a <- res3b_branch2a
I1014 09:15:53.829746  3967 net.cpp:395] bn3b_branch2a -> res3b_branch2a (in-place)
I1014 09:15:53.829895  3967 net.cpp:150] Setting up bn3b_branch2a
I1014 09:15:53.829903  3967 net.cpp:157] Top shape: 16 128 27 27 (1492992)
I1014 09:15:53.829907  3967 net.cpp:165] Memory required for data: 1971994688
I1014 09:15:53.829915  3967 layer_factory.hpp:77] Creating layer scale3b_branch2a
I1014 09:15:53.829921  3967 net.cpp:100] Creating Layer scale3b_branch2a
I1014 09:15:53.829923  3967 net.cpp:434] scale3b_branch2a <- res3b_branch2a
I1014 09:15:53.829928  3967 net.cpp:395] scale3b_branch2a -> res3b_branch2a (in-place)
I1014 09:15:53.829963  3967 layer_factory.hpp:77] Creating layer scale3b_branch2a
I1014 09:15:53.830051  3967 net.cpp:150] Setting up scale3b_branch2a
I1014 09:15:53.830060  3967 net.cpp:157] Top shape: 16 128 27 27 (1492992)
I1014 09:15:53.830065  3967 net.cpp:165] Memory required for data: 1977966656
I1014 09:15:53.830070  3967 layer_factory.hpp:77] Creating layer res3b_branch2a_relu
I1014 09:15:53.830075  3967 net.cpp:100] Creating Layer res3b_branch2a_relu
I1014 09:15:53.830077  3967 net.cpp:434] res3b_branch2a_relu <- res3b_branch2a
I1014 09:15:53.830082  3967 net.cpp:395] res3b_branch2a_relu -> res3b_branch2a (in-place)
I1014 09:15:53.830088  3967 net.cpp:150] Setting up res3b_branch2a_relu
I1014 09:15:53.830092  3967 net.cpp:157] Top shape: 16 128 27 27 (1492992)
I1014 09:15:53.830096  3967 net.cpp:165] Memory required for data: 1983938624
I1014 09:15:53.830098  3967 layer_factory.hpp:77] Creating layer res3b_branch2b
I1014 09:15:53.830104  3967 net.cpp:100] Creating Layer res3b_branch2b
I1014 09:15:53.830107  3967 net.cpp:434] res3b_branch2b <- res3b_branch2a
I1014 09:15:53.830113  3967 net.cpp:408] res3b_branch2b -> res3b_branch2b
I1014 09:15:53.830833  3967 net.cpp:150] Setting up res3b_branch2b
I1014 09:15:53.830847  3967 net.cpp:157] Top shape: 16 128 27 27 (1492992)
I1014 09:15:53.830852  3967 net.cpp:165] Memory required for data: 1989910592
I1014 09:15:53.830857  3967 layer_factory.hpp:77] Creating layer bn3b_branch2b
I1014 09:15:53.830862  3967 net.cpp:100] Creating Layer bn3b_branch2b
I1014 09:15:53.830865  3967 net.cpp:434] bn3b_branch2b <- res3b_branch2b
I1014 09:15:53.830870  3967 net.cpp:395] bn3b_branch2b -> res3b_branch2b (in-place)
I1014 09:15:53.831037  3967 net.cpp:150] Setting up bn3b_branch2b
I1014 09:15:53.831048  3967 net.cpp:157] Top shape: 16 128 27 27 (1492992)
I1014 09:15:53.831053  3967 net.cpp:165] Memory required for data: 1995882560
I1014 09:15:53.831059  3967 layer_factory.hpp:77] Creating layer scale3b_branch2b
I1014 09:15:53.831065  3967 net.cpp:100] Creating Layer scale3b_branch2b
I1014 09:15:53.831068  3967 net.cpp:434] scale3b_branch2b <- res3b_branch2b
I1014 09:15:53.831073  3967 net.cpp:395] scale3b_branch2b -> res3b_branch2b (in-place)
I1014 09:15:53.831110  3967 layer_factory.hpp:77] Creating layer scale3b_branch2b
I1014 09:15:53.831213  3967 net.cpp:150] Setting up scale3b_branch2b
I1014 09:15:53.831223  3967 net.cpp:157] Top shape: 16 128 27 27 (1492992)
I1014 09:15:53.831226  3967 net.cpp:165] Memory required for data: 2001854528
I1014 09:15:53.831233  3967 layer_factory.hpp:77] Creating layer res3b_branch2b_relu
I1014 09:15:53.831238  3967 net.cpp:100] Creating Layer res3b_branch2b_relu
I1014 09:15:53.831241  3967 net.cpp:434] res3b_branch2b_relu <- res3b_branch2b
I1014 09:15:53.831245  3967 net.cpp:395] res3b_branch2b_relu -> res3b_branch2b (in-place)
I1014 09:15:53.831251  3967 net.cpp:150] Setting up res3b_branch2b_relu
I1014 09:15:53.831255  3967 net.cpp:157] Top shape: 16 128 27 27 (1492992)
I1014 09:15:53.831259  3967 net.cpp:165] Memory required for data: 2007826496
I1014 09:15:53.831260  3967 layer_factory.hpp:77] Creating layer res3b_branch2c
I1014 09:15:53.831269  3967 net.cpp:100] Creating Layer res3b_branch2c
I1014 09:15:53.831272  3967 net.cpp:434] res3b_branch2c <- res3b_branch2b
I1014 09:15:53.831286  3967 net.cpp:408] res3b_branch2c -> res3b_branch2c
I1014 09:15:53.831470  3967 net.cpp:150] Setting up res3b_branch2c
I1014 09:15:53.831480  3967 net.cpp:157] Top shape: 16 512 27 27 (5971968)
I1014 09:15:53.831485  3967 net.cpp:165] Memory required for data: 2031714368
I1014 09:15:53.831488  3967 layer_factory.hpp:77] Creating layer bn3b_branch2c
I1014 09:15:53.831495  3967 net.cpp:100] Creating Layer bn3b_branch2c
I1014 09:15:53.831497  3967 net.cpp:434] bn3b_branch2c <- res3b_branch2c
I1014 09:15:53.831502  3967 net.cpp:395] bn3b_branch2c -> res3b_branch2c (in-place)
I1014 09:15:53.831651  3967 net.cpp:150] Setting up bn3b_branch2c
I1014 09:15:53.831660  3967 net.cpp:157] Top shape: 16 512 27 27 (5971968)
I1014 09:15:53.831665  3967 net.cpp:165] Memory required for data: 2055602240
I1014 09:15:53.831670  3967 layer_factory.hpp:77] Creating layer scale3b_branch2c
I1014 09:15:53.831676  3967 net.cpp:100] Creating Layer scale3b_branch2c
I1014 09:15:53.831679  3967 net.cpp:434] scale3b_branch2c <- res3b_branch2c
I1014 09:15:53.831683  3967 net.cpp:395] scale3b_branch2c -> res3b_branch2c (in-place)
I1014 09:15:53.831717  3967 layer_factory.hpp:77] Creating layer scale3b_branch2c
I1014 09:15:53.831804  3967 net.cpp:150] Setting up scale3b_branch2c
I1014 09:15:53.831814  3967 net.cpp:157] Top shape: 16 512 27 27 (5971968)
I1014 09:15:53.831816  3967 net.cpp:165] Memory required for data: 2079490112
I1014 09:15:53.831821  3967 layer_factory.hpp:77] Creating layer res3b
I1014 09:15:53.831827  3967 net.cpp:100] Creating Layer res3b
I1014 09:15:53.831831  3967 net.cpp:434] res3b <- res3a_res3a_relu_0_split_1
I1014 09:15:53.831835  3967 net.cpp:434] res3b <- res3b_branch2c
I1014 09:15:53.831840  3967 net.cpp:408] res3b -> res3b
I1014 09:15:53.831861  3967 net.cpp:150] Setting up res3b
I1014 09:15:53.831866  3967 net.cpp:157] Top shape: 16 512 27 27 (5971968)
I1014 09:15:53.831869  3967 net.cpp:165] Memory required for data: 2103377984
I1014 09:15:53.831872  3967 layer_factory.hpp:77] Creating layer res3b_relu
I1014 09:15:53.831876  3967 net.cpp:100] Creating Layer res3b_relu
I1014 09:15:53.831881  3967 net.cpp:434] res3b_relu <- res3b
I1014 09:15:53.831885  3967 net.cpp:395] res3b_relu -> res3b (in-place)
I1014 09:15:53.831890  3967 net.cpp:150] Setting up res3b_relu
I1014 09:15:53.831894  3967 net.cpp:157] Top shape: 16 512 27 27 (5971968)
I1014 09:15:53.831897  3967 net.cpp:165] Memory required for data: 2127265856
I1014 09:15:53.831900  3967 layer_factory.hpp:77] Creating layer res3b_res3b_relu_0_split
I1014 09:15:53.831905  3967 net.cpp:100] Creating Layer res3b_res3b_relu_0_split
I1014 09:15:53.831907  3967 net.cpp:434] res3b_res3b_relu_0_split <- res3b
I1014 09:15:53.831912  3967 net.cpp:408] res3b_res3b_relu_0_split -> res3b_res3b_relu_0_split_0
I1014 09:15:53.831917  3967 net.cpp:408] res3b_res3b_relu_0_split -> res3b_res3b_relu_0_split_1
I1014 09:15:53.831944  3967 net.cpp:150] Setting up res3b_res3b_relu_0_split
I1014 09:15:53.831949  3967 net.cpp:157] Top shape: 16 512 27 27 (5971968)
I1014 09:15:53.831954  3967 net.cpp:157] Top shape: 16 512 27 27 (5971968)
I1014 09:15:53.831956  3967 net.cpp:165] Memory required for data: 2175041600
I1014 09:15:53.831959  3967 layer_factory.hpp:77] Creating layer res3c_branch2a
I1014 09:15:53.831966  3967 net.cpp:100] Creating Layer res3c_branch2a
I1014 09:15:53.831969  3967 net.cpp:434] res3c_branch2a <- res3b_res3b_relu_0_split_0
I1014 09:15:53.831974  3967 net.cpp:408] res3c_branch2a -> res3c_branch2a
I1014 09:15:53.832155  3967 net.cpp:150] Setting up res3c_branch2a
I1014 09:15:53.832162  3967 net.cpp:157] Top shape: 16 128 27 27 (1492992)
I1014 09:15:53.832165  3967 net.cpp:165] Memory required for data: 2181013568
I1014 09:15:53.832170  3967 layer_factory.hpp:77] Creating layer bn3c_branch2a
I1014 09:15:53.832175  3967 net.cpp:100] Creating Layer bn3c_branch2a
I1014 09:15:53.832178  3967 net.cpp:434] bn3c_branch2a <- res3c_branch2a
I1014 09:15:53.832182  3967 net.cpp:395] bn3c_branch2a -> res3c_branch2a (in-place)
I1014 09:15:53.832325  3967 net.cpp:150] Setting up bn3c_branch2a
I1014 09:15:53.832340  3967 net.cpp:157] Top shape: 16 128 27 27 (1492992)
I1014 09:15:53.832345  3967 net.cpp:165] Memory required for data: 2186985536
I1014 09:15:53.832351  3967 layer_factory.hpp:77] Creating layer scale3c_branch2a
I1014 09:15:53.832358  3967 net.cpp:100] Creating Layer scale3c_branch2a
I1014 09:15:53.832361  3967 net.cpp:434] scale3c_branch2a <- res3c_branch2a
I1014 09:15:53.832365  3967 net.cpp:395] scale3c_branch2a -> res3c_branch2a (in-place)
I1014 09:15:53.832401  3967 layer_factory.hpp:77] Creating layer scale3c_branch2a
I1014 09:15:53.832487  3967 net.cpp:150] Setting up scale3c_branch2a
I1014 09:15:53.832494  3967 net.cpp:157] Top shape: 16 128 27 27 (1492992)
I1014 09:15:53.832496  3967 net.cpp:165] Memory required for data: 2192957504
I1014 09:15:53.832502  3967 layer_factory.hpp:77] Creating layer res3c_branch2a_relu
I1014 09:15:53.832507  3967 net.cpp:100] Creating Layer res3c_branch2a_relu
I1014 09:15:53.832510  3967 net.cpp:434] res3c_branch2a_relu <- res3c_branch2a
I1014 09:15:53.832516  3967 net.cpp:395] res3c_branch2a_relu -> res3c_branch2a (in-place)
I1014 09:15:53.832521  3967 net.cpp:150] Setting up res3c_branch2a_relu
I1014 09:15:53.832525  3967 net.cpp:157] Top shape: 16 128 27 27 (1492992)
I1014 09:15:53.832528  3967 net.cpp:165] Memory required for data: 2198929472
I1014 09:15:53.832531  3967 layer_factory.hpp:77] Creating layer res3c_branch2b
I1014 09:15:53.832538  3967 net.cpp:100] Creating Layer res3c_branch2b
I1014 09:15:53.832541  3967 net.cpp:434] res3c_branch2b <- res3c_branch2a
I1014 09:15:53.832546  3967 net.cpp:408] res3c_branch2b -> res3c_branch2b
I1014 09:15:53.833281  3967 net.cpp:150] Setting up res3c_branch2b
I1014 09:15:53.833297  3967 net.cpp:157] Top shape: 16 128 27 27 (1492992)
I1014 09:15:53.833300  3967 net.cpp:165] Memory required for data: 2204901440
I1014 09:15:53.833305  3967 layer_factory.hpp:77] Creating layer bn3c_branch2b
I1014 09:15:53.833312  3967 net.cpp:100] Creating Layer bn3c_branch2b
I1014 09:15:53.833317  3967 net.cpp:434] bn3c_branch2b <- res3c_branch2b
I1014 09:15:53.833322  3967 net.cpp:395] bn3c_branch2b -> res3c_branch2b (in-place)
I1014 09:15:53.833472  3967 net.cpp:150] Setting up bn3c_branch2b
I1014 09:15:53.833480  3967 net.cpp:157] Top shape: 16 128 27 27 (1492992)
I1014 09:15:53.833484  3967 net.cpp:165] Memory required for data: 2210873408
I1014 09:15:53.833492  3967 layer_factory.hpp:77] Creating layer scale3c_branch2b
I1014 09:15:53.833498  3967 net.cpp:100] Creating Layer scale3c_branch2b
I1014 09:15:53.833503  3967 net.cpp:434] scale3c_branch2b <- res3c_branch2b
I1014 09:15:53.833506  3967 net.cpp:395] scale3c_branch2b -> res3c_branch2b (in-place)
I1014 09:15:53.833541  3967 layer_factory.hpp:77] Creating layer scale3c_branch2b
I1014 09:15:53.833631  3967 net.cpp:150] Setting up scale3c_branch2b
I1014 09:15:53.833641  3967 net.cpp:157] Top shape: 16 128 27 27 (1492992)
I1014 09:15:53.833644  3967 net.cpp:165] Memory required for data: 2216845376
I1014 09:15:53.833649  3967 layer_factory.hpp:77] Creating layer res3c_branch2b_relu
I1014 09:15:53.833654  3967 net.cpp:100] Creating Layer res3c_branch2b_relu
I1014 09:15:53.833658  3967 net.cpp:434] res3c_branch2b_relu <- res3c_branch2b
I1014 09:15:53.833663  3967 net.cpp:395] res3c_branch2b_relu -> res3c_branch2b (in-place)
I1014 09:15:53.833669  3967 net.cpp:150] Setting up res3c_branch2b_relu
I1014 09:15:53.833673  3967 net.cpp:157] Top shape: 16 128 27 27 (1492992)
I1014 09:15:53.833676  3967 net.cpp:165] Memory required for data: 2222817344
I1014 09:15:53.833679  3967 layer_factory.hpp:77] Creating layer res3c_branch2c
I1014 09:15:53.833685  3967 net.cpp:100] Creating Layer res3c_branch2c
I1014 09:15:53.833688  3967 net.cpp:434] res3c_branch2c <- res3c_branch2b
I1014 09:15:53.833694  3967 net.cpp:408] res3c_branch2c -> res3c_branch2c
I1014 09:15:53.833889  3967 net.cpp:150] Setting up res3c_branch2c
I1014 09:15:53.833899  3967 net.cpp:157] Top shape: 16 512 27 27 (5971968)
I1014 09:15:53.833901  3967 net.cpp:165] Memory required for data: 2246705216
I1014 09:15:53.833915  3967 layer_factory.hpp:77] Creating layer bn3c_branch2c
I1014 09:15:53.833922  3967 net.cpp:100] Creating Layer bn3c_branch2c
I1014 09:15:53.833925  3967 net.cpp:434] bn3c_branch2c <- res3c_branch2c
I1014 09:15:53.833930  3967 net.cpp:395] bn3c_branch2c -> res3c_branch2c (in-place)
I1014 09:15:53.834089  3967 net.cpp:150] Setting up bn3c_branch2c
I1014 09:15:53.834098  3967 net.cpp:157] Top shape: 16 512 27 27 (5971968)
I1014 09:15:53.834101  3967 net.cpp:165] Memory required for data: 2270593088
I1014 09:15:53.834108  3967 layer_factory.hpp:77] Creating layer scale3c_branch2c
I1014 09:15:53.834115  3967 net.cpp:100] Creating Layer scale3c_branch2c
I1014 09:15:53.834118  3967 net.cpp:434] scale3c_branch2c <- res3c_branch2c
I1014 09:15:53.834123  3967 net.cpp:395] scale3c_branch2c -> res3c_branch2c (in-place)
I1014 09:15:53.834159  3967 layer_factory.hpp:77] Creating layer scale3c_branch2c
I1014 09:15:53.834249  3967 net.cpp:150] Setting up scale3c_branch2c
I1014 09:15:53.834257  3967 net.cpp:157] Top shape: 16 512 27 27 (5971968)
I1014 09:15:53.834261  3967 net.cpp:165] Memory required for data: 2294480960
I1014 09:15:53.834266  3967 layer_factory.hpp:77] Creating layer res3c
I1014 09:15:53.834271  3967 net.cpp:100] Creating Layer res3c
I1014 09:15:53.834275  3967 net.cpp:434] res3c <- res3b_res3b_relu_0_split_1
I1014 09:15:53.834280  3967 net.cpp:434] res3c <- res3c_branch2c
I1014 09:15:53.834285  3967 net.cpp:408] res3c -> res3c
I1014 09:15:53.834306  3967 net.cpp:150] Setting up res3c
I1014 09:15:53.834311  3967 net.cpp:157] Top shape: 16 512 27 27 (5971968)
I1014 09:15:53.834314  3967 net.cpp:165] Memory required for data: 2318368832
I1014 09:15:53.834317  3967 layer_factory.hpp:77] Creating layer res3c_relu
I1014 09:15:53.834321  3967 net.cpp:100] Creating Layer res3c_relu
I1014 09:15:53.834324  3967 net.cpp:434] res3c_relu <- res3c
I1014 09:15:53.834328  3967 net.cpp:395] res3c_relu -> res3c (in-place)
I1014 09:15:53.834333  3967 net.cpp:150] Setting up res3c_relu
I1014 09:15:53.834337  3967 net.cpp:157] Top shape: 16 512 27 27 (5971968)
I1014 09:15:53.834341  3967 net.cpp:165] Memory required for data: 2342256704
I1014 09:15:53.834343  3967 layer_factory.hpp:77] Creating layer res3c_res3c_relu_0_split
I1014 09:15:53.834349  3967 net.cpp:100] Creating Layer res3c_res3c_relu_0_split
I1014 09:15:53.834352  3967 net.cpp:434] res3c_res3c_relu_0_split <- res3c
I1014 09:15:53.834357  3967 net.cpp:408] res3c_res3c_relu_0_split -> res3c_res3c_relu_0_split_0
I1014 09:15:53.834362  3967 net.cpp:408] res3c_res3c_relu_0_split -> res3c_res3c_relu_0_split_1
I1014 09:15:53.834389  3967 net.cpp:150] Setting up res3c_res3c_relu_0_split
I1014 09:15:53.834395  3967 net.cpp:157] Top shape: 16 512 27 27 (5971968)
I1014 09:15:53.834398  3967 net.cpp:157] Top shape: 16 512 27 27 (5971968)
I1014 09:15:53.834401  3967 net.cpp:165] Memory required for data: 2390032448
I1014 09:15:53.834404  3967 layer_factory.hpp:77] Creating layer res3d_branch2a
I1014 09:15:53.834410  3967 net.cpp:100] Creating Layer res3d_branch2a
I1014 09:15:53.834414  3967 net.cpp:434] res3d_branch2a <- res3c_res3c_relu_0_split_0
I1014 09:15:53.834417  3967 net.cpp:408] res3d_branch2a -> res3d_branch2a
I1014 09:15:53.835850  3967 net.cpp:150] Setting up res3d_branch2a
I1014 09:15:53.835865  3967 net.cpp:157] Top shape: 16 128 27 27 (1492992)
I1014 09:15:53.835870  3967 net.cpp:165] Memory required for data: 2396004416
I1014 09:15:53.835875  3967 layer_factory.hpp:77] Creating layer bn3d_branch2a
I1014 09:15:53.835880  3967 net.cpp:100] Creating Layer bn3d_branch2a
I1014 09:15:53.835885  3967 net.cpp:434] bn3d_branch2a <- res3d_branch2a
I1014 09:15:53.835888  3967 net.cpp:395] bn3d_branch2a -> res3d_branch2a (in-place)
I1014 09:15:53.836041  3967 net.cpp:150] Setting up bn3d_branch2a
I1014 09:15:53.836050  3967 net.cpp:157] Top shape: 16 128 27 27 (1492992)
I1014 09:15:53.836055  3967 net.cpp:165] Memory required for data: 2401976384
I1014 09:15:53.836089  3967 layer_factory.hpp:77] Creating layer scale3d_branch2a
I1014 09:15:53.836099  3967 net.cpp:100] Creating Layer scale3d_branch2a
I1014 09:15:53.836113  3967 net.cpp:434] scale3d_branch2a <- res3d_branch2a
I1014 09:15:53.836118  3967 net.cpp:395] scale3d_branch2a -> res3d_branch2a (in-place)
I1014 09:15:53.836158  3967 layer_factory.hpp:77] Creating layer scale3d_branch2a
I1014 09:15:53.836247  3967 net.cpp:150] Setting up scale3d_branch2a
I1014 09:15:53.836257  3967 net.cpp:157] Top shape: 16 128 27 27 (1492992)
I1014 09:15:53.836261  3967 net.cpp:165] Memory required for data: 2407948352
I1014 09:15:53.836266  3967 layer_factory.hpp:77] Creating layer res3d_branch2a_relu
I1014 09:15:53.836271  3967 net.cpp:100] Creating Layer res3d_branch2a_relu
I1014 09:15:53.836274  3967 net.cpp:434] res3d_branch2a_relu <- res3d_branch2a
I1014 09:15:53.836278  3967 net.cpp:395] res3d_branch2a_relu -> res3d_branch2a (in-place)
I1014 09:15:53.836283  3967 net.cpp:150] Setting up res3d_branch2a_relu
I1014 09:15:53.836287  3967 net.cpp:157] Top shape: 16 128 27 27 (1492992)
I1014 09:15:53.836290  3967 net.cpp:165] Memory required for data: 2413920320
I1014 09:15:53.836293  3967 layer_factory.hpp:77] Creating layer res3d_branch2b
I1014 09:15:53.836300  3967 net.cpp:100] Creating Layer res3d_branch2b
I1014 09:15:53.836303  3967 net.cpp:434] res3d_branch2b <- res3d_branch2a
I1014 09:15:53.836309  3967 net.cpp:408] res3d_branch2b -> res3d_branch2b
I1014 09:15:53.837044  3967 net.cpp:150] Setting up res3d_branch2b
I1014 09:15:53.837059  3967 net.cpp:157] Top shape: 16 128 27 27 (1492992)
I1014 09:15:53.837062  3967 net.cpp:165] Memory required for data: 2419892288
I1014 09:15:53.837067  3967 layer_factory.hpp:77] Creating layer bn3d_branch2b
I1014 09:15:53.837074  3967 net.cpp:100] Creating Layer bn3d_branch2b
I1014 09:15:53.837079  3967 net.cpp:434] bn3d_branch2b <- res3d_branch2b
I1014 09:15:53.837083  3967 net.cpp:395] bn3d_branch2b -> res3d_branch2b (in-place)
I1014 09:15:53.837232  3967 net.cpp:150] Setting up bn3d_branch2b
I1014 09:15:53.837241  3967 net.cpp:157] Top shape: 16 128 27 27 (1492992)
I1014 09:15:53.837244  3967 net.cpp:165] Memory required for data: 2425864256
I1014 09:15:53.837251  3967 layer_factory.hpp:77] Creating layer scale3d_branch2b
I1014 09:15:53.837257  3967 net.cpp:100] Creating Layer scale3d_branch2b
I1014 09:15:53.837260  3967 net.cpp:434] scale3d_branch2b <- res3d_branch2b
I1014 09:15:53.837266  3967 net.cpp:395] scale3d_branch2b -> res3d_branch2b (in-place)
I1014 09:15:53.837299  3967 layer_factory.hpp:77] Creating layer scale3d_branch2b
I1014 09:15:53.837388  3967 net.cpp:150] Setting up scale3d_branch2b
I1014 09:15:53.837400  3967 net.cpp:157] Top shape: 16 128 27 27 (1492992)
I1014 09:15:53.837404  3967 net.cpp:165] Memory required for data: 2431836224
I1014 09:15:53.837409  3967 layer_factory.hpp:77] Creating layer res3d_branch2b_relu
I1014 09:15:53.837414  3967 net.cpp:100] Creating Layer res3d_branch2b_relu
I1014 09:15:53.837417  3967 net.cpp:434] res3d_branch2b_relu <- res3d_branch2b
I1014 09:15:53.837421  3967 net.cpp:395] res3d_branch2b_relu -> res3d_branch2b (in-place)
I1014 09:15:53.837426  3967 net.cpp:150] Setting up res3d_branch2b_relu
I1014 09:15:53.837430  3967 net.cpp:157] Top shape: 16 128 27 27 (1492992)
I1014 09:15:53.837433  3967 net.cpp:165] Memory required for data: 2437808192
I1014 09:15:53.837435  3967 layer_factory.hpp:77] Creating layer res3d_branch2c
I1014 09:15:53.837442  3967 net.cpp:100] Creating Layer res3d_branch2c
I1014 09:15:53.837446  3967 net.cpp:434] res3d_branch2c <- res3d_branch2b
I1014 09:15:53.837450  3967 net.cpp:408] res3d_branch2c -> res3d_branch2c
I1014 09:15:53.837641  3967 net.cpp:150] Setting up res3d_branch2c
I1014 09:15:53.837651  3967 net.cpp:157] Top shape: 16 512 27 27 (5971968)
I1014 09:15:53.837654  3967 net.cpp:165] Memory required for data: 2461696064
I1014 09:15:53.837658  3967 layer_factory.hpp:77] Creating layer bn3d_branch2c
I1014 09:15:53.837663  3967 net.cpp:100] Creating Layer bn3d_branch2c
I1014 09:15:53.837667  3967 net.cpp:434] bn3d_branch2c <- res3d_branch2c
I1014 09:15:53.837671  3967 net.cpp:395] bn3d_branch2c -> res3d_branch2c (in-place)
I1014 09:15:53.837831  3967 net.cpp:150] Setting up bn3d_branch2c
I1014 09:15:53.837841  3967 net.cpp:157] Top shape: 16 512 27 27 (5971968)
I1014 09:15:53.837844  3967 net.cpp:165] Memory required for data: 2485583936
I1014 09:15:53.837851  3967 layer_factory.hpp:77] Creating layer scale3d_branch2c
I1014 09:15:53.837857  3967 net.cpp:100] Creating Layer scale3d_branch2c
I1014 09:15:53.837862  3967 net.cpp:434] scale3d_branch2c <- res3d_branch2c
I1014 09:15:53.837867  3967 net.cpp:395] scale3d_branch2c -> res3d_branch2c (in-place)
I1014 09:15:53.837903  3967 layer_factory.hpp:77] Creating layer scale3d_branch2c
I1014 09:15:53.837990  3967 net.cpp:150] Setting up scale3d_branch2c
I1014 09:15:53.838001  3967 net.cpp:157] Top shape: 16 512 27 27 (5971968)
I1014 09:15:53.838003  3967 net.cpp:165] Memory required for data: 2509471808
I1014 09:15:53.838008  3967 layer_factory.hpp:77] Creating layer res3d
I1014 09:15:53.838013  3967 net.cpp:100] Creating Layer res3d
I1014 09:15:53.838017  3967 net.cpp:434] res3d <- res3c_res3c_relu_0_split_1
I1014 09:15:53.838021  3967 net.cpp:434] res3d <- res3d_branch2c
I1014 09:15:53.838027  3967 net.cpp:408] res3d -> res3d
I1014 09:15:53.838047  3967 net.cpp:150] Setting up res3d
I1014 09:15:53.838053  3967 net.cpp:157] Top shape: 16 512 27 27 (5971968)
I1014 09:15:53.838057  3967 net.cpp:165] Memory required for data: 2533359680
I1014 09:15:53.838059  3967 layer_factory.hpp:77] Creating layer res3d_relu
I1014 09:15:53.838064  3967 net.cpp:100] Creating Layer res3d_relu
I1014 09:15:53.838068  3967 net.cpp:434] res3d_relu <- res3d
I1014 09:15:53.838071  3967 net.cpp:395] res3d_relu -> res3d (in-place)
I1014 09:15:53.838075  3967 net.cpp:150] Setting up res3d_relu
I1014 09:15:53.838079  3967 net.cpp:157] Top shape: 16 512 27 27 (5971968)
I1014 09:15:53.838083  3967 net.cpp:165] Memory required for data: 2557247552
I1014 09:15:53.838085  3967 layer_factory.hpp:77] Creating layer res3d_res3d_relu_0_split
I1014 09:15:53.838091  3967 net.cpp:100] Creating Layer res3d_res3d_relu_0_split
I1014 09:15:53.838094  3967 net.cpp:434] res3d_res3d_relu_0_split <- res3d
I1014 09:15:53.838099  3967 net.cpp:408] res3d_res3d_relu_0_split -> res3d_res3d_relu_0_split_0
I1014 09:15:53.838104  3967 net.cpp:408] res3d_res3d_relu_0_split -> res3d_res3d_relu_0_split_1
I1014 09:15:53.838135  3967 net.cpp:150] Setting up res3d_res3d_relu_0_split
I1014 09:15:53.838140  3967 net.cpp:157] Top shape: 16 512 27 27 (5971968)
I1014 09:15:53.838143  3967 net.cpp:157] Top shape: 16 512 27 27 (5971968)
I1014 09:15:53.838146  3967 net.cpp:165] Memory required for data: 2605023296
I1014 09:15:53.838150  3967 layer_factory.hpp:77] Creating layer res4a_branch1
I1014 09:15:53.838155  3967 net.cpp:100] Creating Layer res4a_branch1
I1014 09:15:53.838158  3967 net.cpp:434] res4a_branch1 <- res3d_res3d_relu_0_split_0
I1014 09:15:53.838163  3967 net.cpp:408] res4a_branch1 -> res4a_branch1
I1014 09:15:53.839367  3967 net.cpp:150] Setting up res4a_branch1
I1014 09:15:53.839382  3967 net.cpp:157] Top shape: 16 1024 14 14 (3211264)
I1014 09:15:53.839386  3967 net.cpp:165] Memory required for data: 2617868352
I1014 09:15:53.839392  3967 layer_factory.hpp:77] Creating layer bn4a_branch1
I1014 09:15:53.839397  3967 net.cpp:100] Creating Layer bn4a_branch1
I1014 09:15:53.839401  3967 net.cpp:434] bn4a_branch1 <- res4a_branch1
I1014 09:15:53.839406  3967 net.cpp:395] bn4a_branch1 -> res4a_branch1 (in-place)
I1014 09:15:53.839566  3967 net.cpp:150] Setting up bn4a_branch1
I1014 09:15:53.839576  3967 net.cpp:157] Top shape: 16 1024 14 14 (3211264)
I1014 09:15:53.839579  3967 net.cpp:165] Memory required for data: 2630713408
I1014 09:15:53.839587  3967 layer_factory.hpp:77] Creating layer scale4a_branch1
I1014 09:15:53.839593  3967 net.cpp:100] Creating Layer scale4a_branch1
I1014 09:15:53.839596  3967 net.cpp:434] scale4a_branch1 <- res4a_branch1
I1014 09:15:53.839601  3967 net.cpp:395] scale4a_branch1 -> res4a_branch1 (in-place)
I1014 09:15:53.839635  3967 layer_factory.hpp:77] Creating layer scale4a_branch1
I1014 09:15:53.839725  3967 net.cpp:150] Setting up scale4a_branch1
I1014 09:15:53.839745  3967 net.cpp:157] Top shape: 16 1024 14 14 (3211264)
I1014 09:15:53.839748  3967 net.cpp:165] Memory required for data: 2643558464
I1014 09:15:53.839753  3967 layer_factory.hpp:77] Creating layer res4a_branch2a
I1014 09:15:53.839762  3967 net.cpp:100] Creating Layer res4a_branch2a
I1014 09:15:53.839766  3967 net.cpp:434] res4a_branch2a <- res3d_res3d_relu_0_split_1
I1014 09:15:53.839772  3967 net.cpp:408] res4a_branch2a -> res4a_branch2a
I1014 09:15:53.840029  3967 net.cpp:150] Setting up res4a_branch2a
I1014 09:15:53.840039  3967 net.cpp:157] Top shape: 16 256 14 14 (802816)
I1014 09:15:53.840042  3967 net.cpp:165] Memory required for data: 2646769728
I1014 09:15:53.840046  3967 layer_factory.hpp:77] Creating layer bn4a_branch2a
I1014 09:15:53.840052  3967 net.cpp:100] Creating Layer bn4a_branch2a
I1014 09:15:53.840055  3967 net.cpp:434] bn4a_branch2a <- res4a_branch2a
I1014 09:15:53.840059  3967 net.cpp:395] bn4a_branch2a -> res4a_branch2a (in-place)
I1014 09:15:53.840200  3967 net.cpp:150] Setting up bn4a_branch2a
I1014 09:15:53.840209  3967 net.cpp:157] Top shape: 16 256 14 14 (802816)
I1014 09:15:53.840212  3967 net.cpp:165] Memory required for data: 2649980992
I1014 09:15:53.840235  3967 layer_factory.hpp:77] Creating layer scale4a_branch2a
I1014 09:15:53.840242  3967 net.cpp:100] Creating Layer scale4a_branch2a
I1014 09:15:53.840245  3967 net.cpp:434] scale4a_branch2a <- res4a_branch2a
I1014 09:15:53.840250  3967 net.cpp:395] scale4a_branch2a -> res4a_branch2a (in-place)
I1014 09:15:53.840299  3967 layer_factory.hpp:77] Creating layer scale4a_branch2a
I1014 09:15:53.840387  3967 net.cpp:150] Setting up scale4a_branch2a
I1014 09:15:53.840396  3967 net.cpp:157] Top shape: 16 256 14 14 (802816)
I1014 09:15:53.840400  3967 net.cpp:165] Memory required for data: 2653192256
I1014 09:15:53.840405  3967 layer_factory.hpp:77] Creating layer res4a_branch2a_relu
I1014 09:15:53.840411  3967 net.cpp:100] Creating Layer res4a_branch2a_relu
I1014 09:15:53.840415  3967 net.cpp:434] res4a_branch2a_relu <- res4a_branch2a
I1014 09:15:53.840421  3967 net.cpp:395] res4a_branch2a_relu -> res4a_branch2a (in-place)
I1014 09:15:53.840426  3967 net.cpp:150] Setting up res4a_branch2a_relu
I1014 09:15:53.840430  3967 net.cpp:157] Top shape: 16 256 14 14 (802816)
I1014 09:15:53.840433  3967 net.cpp:165] Memory required for data: 2656403520
I1014 09:15:53.840436  3967 layer_factory.hpp:77] Creating layer res4a_branch2b
I1014 09:15:53.840443  3967 net.cpp:100] Creating Layer res4a_branch2b
I1014 09:15:53.840446  3967 net.cpp:434] res4a_branch2b <- res4a_branch2a
I1014 09:15:53.840451  3967 net.cpp:408] res4a_branch2b -> res4a_branch2b
I1014 09:15:53.841758  3967 net.cpp:150] Setting up res4a_branch2b
I1014 09:15:53.841774  3967 net.cpp:157] Top shape: 16 256 14 14 (802816)
I1014 09:15:53.841778  3967 net.cpp:165] Memory required for data: 2659614784
I1014 09:15:53.841783  3967 layer_factory.hpp:77] Creating layer bn4a_branch2b
I1014 09:15:53.841790  3967 net.cpp:100] Creating Layer bn4a_branch2b
I1014 09:15:53.841794  3967 net.cpp:434] bn4a_branch2b <- res4a_branch2b
I1014 09:15:53.841799  3967 net.cpp:395] bn4a_branch2b -> res4a_branch2b (in-place)
I1014 09:15:53.841949  3967 net.cpp:150] Setting up bn4a_branch2b
I1014 09:15:53.841958  3967 net.cpp:157] Top shape: 16 256 14 14 (802816)
I1014 09:15:53.841961  3967 net.cpp:165] Memory required for data: 2662826048
I1014 09:15:53.841969  3967 layer_factory.hpp:77] Creating layer scale4a_branch2b
I1014 09:15:53.841974  3967 net.cpp:100] Creating Layer scale4a_branch2b
I1014 09:15:53.841979  3967 net.cpp:434] scale4a_branch2b <- res4a_branch2b
I1014 09:15:53.841984  3967 net.cpp:395] scale4a_branch2b -> res4a_branch2b (in-place)
I1014 09:15:53.842017  3967 layer_factory.hpp:77] Creating layer scale4a_branch2b
I1014 09:15:53.842103  3967 net.cpp:150] Setting up scale4a_branch2b
I1014 09:15:53.842113  3967 net.cpp:157] Top shape: 16 256 14 14 (802816)
I1014 09:15:53.842116  3967 net.cpp:165] Memory required for data: 2666037312
I1014 09:15:53.842123  3967 layer_factory.hpp:77] Creating layer res4a_branch2b_relu
I1014 09:15:53.842138  3967 net.cpp:100] Creating Layer res4a_branch2b_relu
I1014 09:15:53.842141  3967 net.cpp:434] res4a_branch2b_relu <- res4a_branch2b
I1014 09:15:53.842145  3967 net.cpp:395] res4a_branch2b_relu -> res4a_branch2b (in-place)
I1014 09:15:53.842150  3967 net.cpp:150] Setting up res4a_branch2b_relu
I1014 09:15:53.842155  3967 net.cpp:157] Top shape: 16 256 14 14 (802816)
I1014 09:15:53.842157  3967 net.cpp:165] Memory required for data: 2669248576
I1014 09:15:53.842160  3967 layer_factory.hpp:77] Creating layer res4a_branch2c
I1014 09:15:53.842169  3967 net.cpp:100] Creating Layer res4a_branch2c
I1014 09:15:53.842171  3967 net.cpp:434] res4a_branch2c <- res4a_branch2b
I1014 09:15:53.842176  3967 net.cpp:408] res4a_branch2c -> res4a_branch2c
I1014 09:15:53.842983  3967 net.cpp:150] Setting up res4a_branch2c
I1014 09:15:53.842998  3967 net.cpp:157] Top shape: 16 1024 14 14 (3211264)
I1014 09:15:53.843000  3967 net.cpp:165] Memory required for data: 2682093632
I1014 09:15:53.843005  3967 layer_factory.hpp:77] Creating layer bn4a_branch2c
I1014 09:15:53.843011  3967 net.cpp:100] Creating Layer bn4a_branch2c
I1014 09:15:53.843015  3967 net.cpp:434] bn4a_branch2c <- res4a_branch2c
I1014 09:15:53.843021  3967 net.cpp:395] bn4a_branch2c -> res4a_branch2c (in-place)
I1014 09:15:53.843183  3967 net.cpp:150] Setting up bn4a_branch2c
I1014 09:15:53.843194  3967 net.cpp:157] Top shape: 16 1024 14 14 (3211264)
I1014 09:15:53.843197  3967 net.cpp:165] Memory required for data: 2694938688
I1014 09:15:53.843204  3967 layer_factory.hpp:77] Creating layer scale4a_branch2c
I1014 09:15:53.843210  3967 net.cpp:100] Creating Layer scale4a_branch2c
I1014 09:15:53.843214  3967 net.cpp:434] scale4a_branch2c <- res4a_branch2c
I1014 09:15:53.843219  3967 net.cpp:395] scale4a_branch2c -> res4a_branch2c (in-place)
I1014 09:15:53.843255  3967 layer_factory.hpp:77] Creating layer scale4a_branch2c
I1014 09:15:53.843350  3967 net.cpp:150] Setting up scale4a_branch2c
I1014 09:15:53.843359  3967 net.cpp:157] Top shape: 16 1024 14 14 (3211264)
I1014 09:15:53.843363  3967 net.cpp:165] Memory required for data: 2707783744
I1014 09:15:53.843369  3967 layer_factory.hpp:77] Creating layer res4a
I1014 09:15:53.843374  3967 net.cpp:100] Creating Layer res4a
I1014 09:15:53.843377  3967 net.cpp:434] res4a <- res4a_branch1
I1014 09:15:53.843381  3967 net.cpp:434] res4a <- res4a_branch2c
I1014 09:15:53.843386  3967 net.cpp:408] res4a -> res4a
I1014 09:15:53.843407  3967 net.cpp:150] Setting up res4a
I1014 09:15:53.843413  3967 net.cpp:157] Top shape: 16 1024 14 14 (3211264)
I1014 09:15:53.843416  3967 net.cpp:165] Memory required for data: 2720628800
I1014 09:15:53.843420  3967 layer_factory.hpp:77] Creating layer res4a_relu
I1014 09:15:53.843426  3967 net.cpp:100] Creating Layer res4a_relu
I1014 09:15:53.843430  3967 net.cpp:434] res4a_relu <- res4a
I1014 09:15:53.843435  3967 net.cpp:395] res4a_relu -> res4a (in-place)
I1014 09:15:53.843439  3967 net.cpp:150] Setting up res4a_relu
I1014 09:15:53.843443  3967 net.cpp:157] Top shape: 16 1024 14 14 (3211264)
I1014 09:15:53.843446  3967 net.cpp:165] Memory required for data: 2733473856
I1014 09:15:53.843449  3967 layer_factory.hpp:77] Creating layer res4a_res4a_relu_0_split
I1014 09:15:53.843456  3967 net.cpp:100] Creating Layer res4a_res4a_relu_0_split
I1014 09:15:53.843458  3967 net.cpp:434] res4a_res4a_relu_0_split <- res4a
I1014 09:15:53.843462  3967 net.cpp:408] res4a_res4a_relu_0_split -> res4a_res4a_relu_0_split_0
I1014 09:15:53.843467  3967 net.cpp:408] res4a_res4a_relu_0_split -> res4a_res4a_relu_0_split_1
I1014 09:15:53.843497  3967 net.cpp:150] Setting up res4a_res4a_relu_0_split
I1014 09:15:53.843502  3967 net.cpp:157] Top shape: 16 1024 14 14 (3211264)
I1014 09:15:53.843505  3967 net.cpp:157] Top shape: 16 1024 14 14 (3211264)
I1014 09:15:53.843508  3967 net.cpp:165] Memory required for data: 2759163968
I1014 09:15:53.843511  3967 layer_factory.hpp:77] Creating layer res4b_branch2a
I1014 09:15:53.843533  3967 net.cpp:100] Creating Layer res4b_branch2a
I1014 09:15:53.843545  3967 net.cpp:434] res4b_branch2a <- res4a_res4a_relu_0_split_0
I1014 09:15:53.843551  3967 net.cpp:408] res4b_branch2a -> res4b_branch2a
I1014 09:15:53.844357  3967 net.cpp:150] Setting up res4b_branch2a
I1014 09:15:53.844372  3967 net.cpp:157] Top shape: 16 256 14 14 (802816)
I1014 09:15:53.844375  3967 net.cpp:165] Memory required for data: 2762375232
I1014 09:15:53.844380  3967 layer_factory.hpp:77] Creating layer bn4b_branch2a
I1014 09:15:53.844386  3967 net.cpp:100] Creating Layer bn4b_branch2a
I1014 09:15:53.844390  3967 net.cpp:434] bn4b_branch2a <- res4b_branch2a
I1014 09:15:53.844394  3967 net.cpp:395] bn4b_branch2a -> res4b_branch2a (in-place)
I1014 09:15:53.844558  3967 net.cpp:150] Setting up bn4b_branch2a
I1014 09:15:53.844568  3967 net.cpp:157] Top shape: 16 256 14 14 (802816)
I1014 09:15:53.844571  3967 net.cpp:165] Memory required for data: 2765586496
I1014 09:15:53.844578  3967 layer_factory.hpp:77] Creating layer scale4b_branch2a
I1014 09:15:53.844586  3967 net.cpp:100] Creating Layer scale4b_branch2a
I1014 09:15:53.844590  3967 net.cpp:434] scale4b_branch2a <- res4b_branch2a
I1014 09:15:53.844594  3967 net.cpp:395] scale4b_branch2a -> res4b_branch2a (in-place)
I1014 09:15:53.844630  3967 layer_factory.hpp:77] Creating layer scale4b_branch2a
I1014 09:15:53.844717  3967 net.cpp:150] Setting up scale4b_branch2a
I1014 09:15:53.844727  3967 net.cpp:157] Top shape: 16 256 14 14 (802816)
I1014 09:15:53.844729  3967 net.cpp:165] Memory required for data: 2768797760
I1014 09:15:53.844734  3967 layer_factory.hpp:77] Creating layer res4b_branch2a_relu
I1014 09:15:53.844740  3967 net.cpp:100] Creating Layer res4b_branch2a_relu
I1014 09:15:53.844743  3967 net.cpp:434] res4b_branch2a_relu <- res4b_branch2a
I1014 09:15:53.844748  3967 net.cpp:395] res4b_branch2a_relu -> res4b_branch2a (in-place)
I1014 09:15:53.844754  3967 net.cpp:150] Setting up res4b_branch2a_relu
I1014 09:15:53.844758  3967 net.cpp:157] Top shape: 16 256 14 14 (802816)
I1014 09:15:53.844760  3967 net.cpp:165] Memory required for data: 2772009024
I1014 09:15:53.844763  3967 layer_factory.hpp:77] Creating layer res4b_branch2b
I1014 09:15:53.844771  3967 net.cpp:100] Creating Layer res4b_branch2b
I1014 09:15:53.844774  3967 net.cpp:434] res4b_branch2b <- res4b_branch2a
I1014 09:15:53.844779  3967 net.cpp:408] res4b_branch2b -> res4b_branch2b
I1014 09:15:53.846104  3967 net.cpp:150] Setting up res4b_branch2b
I1014 09:15:53.846118  3967 net.cpp:157] Top shape: 16 256 14 14 (802816)
I1014 09:15:53.846124  3967 net.cpp:165] Memory required for data: 2775220288
I1014 09:15:53.846129  3967 layer_factory.hpp:77] Creating layer bn4b_branch2b
I1014 09:15:53.846137  3967 net.cpp:100] Creating Layer bn4b_branch2b
I1014 09:15:53.846141  3967 net.cpp:434] bn4b_branch2b <- res4b_branch2b
I1014 09:15:53.846145  3967 net.cpp:395] bn4b_branch2b -> res4b_branch2b (in-place)
I1014 09:15:53.846298  3967 net.cpp:150] Setting up bn4b_branch2b
I1014 09:15:53.846307  3967 net.cpp:157] Top shape: 16 256 14 14 (802816)
I1014 09:15:53.846312  3967 net.cpp:165] Memory required for data: 2778431552
I1014 09:15:53.846318  3967 layer_factory.hpp:77] Creating layer scale4b_branch2b
I1014 09:15:53.846323  3967 net.cpp:100] Creating Layer scale4b_branch2b
I1014 09:15:53.846328  3967 net.cpp:434] scale4b_branch2b <- res4b_branch2b
I1014 09:15:53.846333  3967 net.cpp:395] scale4b_branch2b -> res4b_branch2b (in-place)
I1014 09:15:53.846366  3967 layer_factory.hpp:77] Creating layer scale4b_branch2b
I1014 09:15:53.846453  3967 net.cpp:150] Setting up scale4b_branch2b
I1014 09:15:53.846467  3967 net.cpp:157] Top shape: 16 256 14 14 (802816)
I1014 09:15:53.846469  3967 net.cpp:165] Memory required for data: 2781642816
I1014 09:15:53.846474  3967 layer_factory.hpp:77] Creating layer res4b_branch2b_relu
I1014 09:15:53.846480  3967 net.cpp:100] Creating Layer res4b_branch2b_relu
I1014 09:15:53.846483  3967 net.cpp:434] res4b_branch2b_relu <- res4b_branch2b
I1014 09:15:53.846487  3967 net.cpp:395] res4b_branch2b_relu -> res4b_branch2b (in-place)
I1014 09:15:53.846503  3967 net.cpp:150] Setting up res4b_branch2b_relu
I1014 09:15:53.846508  3967 net.cpp:157] Top shape: 16 256 14 14 (802816)
I1014 09:15:53.846511  3967 net.cpp:165] Memory required for data: 2784854080
I1014 09:15:53.846513  3967 layer_factory.hpp:77] Creating layer res4b_branch2c
I1014 09:15:53.846521  3967 net.cpp:100] Creating Layer res4b_branch2c
I1014 09:15:53.846525  3967 net.cpp:434] res4b_branch2c <- res4b_branch2b
I1014 09:15:53.846529  3967 net.cpp:408] res4b_branch2c -> res4b_branch2c
I1014 09:15:53.847312  3967 net.cpp:150] Setting up res4b_branch2c
I1014 09:15:53.847327  3967 net.cpp:157] Top shape: 16 1024 14 14 (3211264)
I1014 09:15:53.847332  3967 net.cpp:165] Memory required for data: 2797699136
I1014 09:15:53.847337  3967 layer_factory.hpp:77] Creating layer bn4b_branch2c
I1014 09:15:53.847342  3967 net.cpp:100] Creating Layer bn4b_branch2c
I1014 09:15:53.847347  3967 net.cpp:434] bn4b_branch2c <- res4b_branch2c
I1014 09:15:53.847352  3967 net.cpp:395] bn4b_branch2c -> res4b_branch2c (in-place)
I1014 09:15:53.847512  3967 net.cpp:150] Setting up bn4b_branch2c
I1014 09:15:53.847522  3967 net.cpp:157] Top shape: 16 1024 14 14 (3211264)
I1014 09:15:53.847525  3967 net.cpp:165] Memory required for data: 2810544192
I1014 09:15:53.847532  3967 layer_factory.hpp:77] Creating layer scale4b_branch2c
I1014 09:15:53.847537  3967 net.cpp:100] Creating Layer scale4b_branch2c
I1014 09:15:53.847542  3967 net.cpp:434] scale4b_branch2c <- res4b_branch2c
I1014 09:15:53.847545  3967 net.cpp:395] scale4b_branch2c -> res4b_branch2c (in-place)
I1014 09:15:53.847580  3967 layer_factory.hpp:77] Creating layer scale4b_branch2c
I1014 09:15:53.847674  3967 net.cpp:150] Setting up scale4b_branch2c
I1014 09:15:53.847684  3967 net.cpp:157] Top shape: 16 1024 14 14 (3211264)
I1014 09:15:53.847687  3967 net.cpp:165] Memory required for data: 2823389248
I1014 09:15:53.847692  3967 layer_factory.hpp:77] Creating layer res4b
I1014 09:15:53.847697  3967 net.cpp:100] Creating Layer res4b
I1014 09:15:53.847702  3967 net.cpp:434] res4b <- res4a_res4a_relu_0_split_1
I1014 09:15:53.847705  3967 net.cpp:434] res4b <- res4b_branch2c
I1014 09:15:53.847710  3967 net.cpp:408] res4b -> res4b
I1014 09:15:53.847733  3967 net.cpp:150] Setting up res4b
I1014 09:15:53.847738  3967 net.cpp:157] Top shape: 16 1024 14 14 (3211264)
I1014 09:15:53.847740  3967 net.cpp:165] Memory required for data: 2836234304
I1014 09:15:53.847744  3967 layer_factory.hpp:77] Creating layer res4b_relu
I1014 09:15:53.847750  3967 net.cpp:100] Creating Layer res4b_relu
I1014 09:15:53.847755  3967 net.cpp:434] res4b_relu <- res4b
I1014 09:15:53.847759  3967 net.cpp:395] res4b_relu -> res4b (in-place)
I1014 09:15:53.847764  3967 net.cpp:150] Setting up res4b_relu
I1014 09:15:53.847769  3967 net.cpp:157] Top shape: 16 1024 14 14 (3211264)
I1014 09:15:53.847771  3967 net.cpp:165] Memory required for data: 2849079360
I1014 09:15:53.847774  3967 layer_factory.hpp:77] Creating layer res4b_res4b_relu_0_split
I1014 09:15:53.847779  3967 net.cpp:100] Creating Layer res4b_res4b_relu_0_split
I1014 09:15:53.847785  3967 net.cpp:434] res4b_res4b_relu_0_split <- res4b
I1014 09:15:53.847790  3967 net.cpp:408] res4b_res4b_relu_0_split -> res4b_res4b_relu_0_split_0
I1014 09:15:53.847795  3967 net.cpp:408] res4b_res4b_relu_0_split -> res4b_res4b_relu_0_split_1
I1014 09:15:53.847826  3967 net.cpp:150] Setting up res4b_res4b_relu_0_split
I1014 09:15:53.847832  3967 net.cpp:157] Top shape: 16 1024 14 14 (3211264)
I1014 09:15:53.847836  3967 net.cpp:157] Top shape: 16 1024 14 14 (3211264)
I1014 09:15:53.847839  3967 net.cpp:165] Memory required for data: 2874769472
I1014 09:15:53.847842  3967 layer_factory.hpp:77] Creating layer res4c_branch2a
I1014 09:15:53.847849  3967 net.cpp:100] Creating Layer res4c_branch2a
I1014 09:15:53.847852  3967 net.cpp:434] res4c_branch2a <- res4b_res4b_relu_0_split_0
I1014 09:15:53.847858  3967 net.cpp:408] res4c_branch2a -> res4c_branch2a
I1014 09:15:53.848640  3967 net.cpp:150] Setting up res4c_branch2a
I1014 09:15:53.848655  3967 net.cpp:157] Top shape: 16 256 14 14 (802816)
I1014 09:15:53.848670  3967 net.cpp:165] Memory required for data: 2877980736
I1014 09:15:53.848675  3967 layer_factory.hpp:77] Creating layer bn4c_branch2a
I1014 09:15:53.848681  3967 net.cpp:100] Creating Layer bn4c_branch2a
I1014 09:15:53.848685  3967 net.cpp:434] bn4c_branch2a <- res4c_branch2a
I1014 09:15:53.848690  3967 net.cpp:395] bn4c_branch2a -> res4c_branch2a (in-place)
I1014 09:15:53.848845  3967 net.cpp:150] Setting up bn4c_branch2a
I1014 09:15:53.848855  3967 net.cpp:157] Top shape: 16 256 14 14 (802816)
I1014 09:15:53.848858  3967 net.cpp:165] Memory required for data: 2881192000
I1014 09:15:53.848865  3967 layer_factory.hpp:77] Creating layer scale4c_branch2a
I1014 09:15:53.848871  3967 net.cpp:100] Creating Layer scale4c_branch2a
I1014 09:15:53.848875  3967 net.cpp:434] scale4c_branch2a <- res4c_branch2a
I1014 09:15:53.848878  3967 net.cpp:395] scale4c_branch2a -> res4c_branch2a (in-place)
I1014 09:15:53.848917  3967 layer_factory.hpp:77] Creating layer scale4c_branch2a
I1014 09:15:53.849005  3967 net.cpp:150] Setting up scale4c_branch2a
I1014 09:15:53.849015  3967 net.cpp:157] Top shape: 16 256 14 14 (802816)
I1014 09:15:53.849019  3967 net.cpp:165] Memory required for data: 2884403264
I1014 09:15:53.849023  3967 layer_factory.hpp:77] Creating layer res4c_branch2a_relu
I1014 09:15:53.849030  3967 net.cpp:100] Creating Layer res4c_branch2a_relu
I1014 09:15:53.849033  3967 net.cpp:434] res4c_branch2a_relu <- res4c_branch2a
I1014 09:15:53.849037  3967 net.cpp:395] res4c_branch2a_relu -> res4c_branch2a (in-place)
I1014 09:15:53.849042  3967 net.cpp:150] Setting up res4c_branch2a_relu
I1014 09:15:53.849046  3967 net.cpp:157] Top shape: 16 256 14 14 (802816)
I1014 09:15:53.849050  3967 net.cpp:165] Memory required for data: 2887614528
I1014 09:15:53.849052  3967 layer_factory.hpp:77] Creating layer res4c_branch2b
I1014 09:15:53.849059  3967 net.cpp:100] Creating Layer res4c_branch2b
I1014 09:15:53.849062  3967 net.cpp:434] res4c_branch2b <- res4c_branch2a
I1014 09:15:53.849067  3967 net.cpp:408] res4c_branch2b -> res4c_branch2b
I1014 09:15:53.850358  3967 net.cpp:150] Setting up res4c_branch2b
I1014 09:15:53.850373  3967 net.cpp:157] Top shape: 16 256 14 14 (802816)
I1014 09:15:53.850378  3967 net.cpp:165] Memory required for data: 2890825792
I1014 09:15:53.850383  3967 layer_factory.hpp:77] Creating layer bn4c_branch2b
I1014 09:15:53.850389  3967 net.cpp:100] Creating Layer bn4c_branch2b
I1014 09:15:53.850392  3967 net.cpp:434] bn4c_branch2b <- res4c_branch2b
I1014 09:15:53.850396  3967 net.cpp:395] bn4c_branch2b -> res4c_branch2b (in-place)
I1014 09:15:53.850555  3967 net.cpp:150] Setting up bn4c_branch2b
I1014 09:15:53.850565  3967 net.cpp:157] Top shape: 16 256 14 14 (802816)
I1014 09:15:53.850569  3967 net.cpp:165] Memory required for data: 2894037056
I1014 09:15:53.850575  3967 layer_factory.hpp:77] Creating layer scale4c_branch2b
I1014 09:15:53.850581  3967 net.cpp:100] Creating Layer scale4c_branch2b
I1014 09:15:53.850584  3967 net.cpp:434] scale4c_branch2b <- res4c_branch2b
I1014 09:15:53.850589  3967 net.cpp:395] scale4c_branch2b -> res4c_branch2b (in-place)
I1014 09:15:53.850627  3967 layer_factory.hpp:77] Creating layer scale4c_branch2b
I1014 09:15:53.850720  3967 net.cpp:150] Setting up scale4c_branch2b
I1014 09:15:53.850729  3967 net.cpp:157] Top shape: 16 256 14 14 (802816)
I1014 09:15:53.850733  3967 net.cpp:165] Memory required for data: 2897248320
I1014 09:15:53.850738  3967 layer_factory.hpp:77] Creating layer res4c_branch2b_relu
I1014 09:15:53.850744  3967 net.cpp:100] Creating Layer res4c_branch2b_relu
I1014 09:15:53.850746  3967 net.cpp:434] res4c_branch2b_relu <- res4c_branch2b
I1014 09:15:53.850751  3967 net.cpp:395] res4c_branch2b_relu -> res4c_branch2b (in-place)
I1014 09:15:53.850757  3967 net.cpp:150] Setting up res4c_branch2b_relu
I1014 09:15:53.850761  3967 net.cpp:157] Top shape: 16 256 14 14 (802816)
I1014 09:15:53.850764  3967 net.cpp:165] Memory required for data: 2900459584
I1014 09:15:53.850767  3967 layer_factory.hpp:77] Creating layer res4c_branch2c
I1014 09:15:53.850783  3967 net.cpp:100] Creating Layer res4c_branch2c
I1014 09:15:53.850787  3967 net.cpp:434] res4c_branch2c <- res4c_branch2b
I1014 09:15:53.850793  3967 net.cpp:408] res4c_branch2c -> res4c_branch2c
I1014 09:15:53.852368  3967 net.cpp:150] Setting up res4c_branch2c
I1014 09:15:53.852383  3967 net.cpp:157] Top shape: 16 1024 14 14 (3211264)
I1014 09:15:53.852387  3967 net.cpp:165] Memory required for data: 2913304640
I1014 09:15:53.852392  3967 layer_factory.hpp:77] Creating layer bn4c_branch2c
I1014 09:15:53.852398  3967 net.cpp:100] Creating Layer bn4c_branch2c
I1014 09:15:53.852402  3967 net.cpp:434] bn4c_branch2c <- res4c_branch2c
I1014 09:15:53.852406  3967 net.cpp:395] bn4c_branch2c -> res4c_branch2c (in-place)
I1014 09:15:53.852566  3967 net.cpp:150] Setting up bn4c_branch2c
I1014 09:15:53.852576  3967 net.cpp:157] Top shape: 16 1024 14 14 (3211264)
I1014 09:15:53.852579  3967 net.cpp:165] Memory required for data: 2926149696
I1014 09:15:53.852586  3967 layer_factory.hpp:77] Creating layer scale4c_branch2c
I1014 09:15:53.852593  3967 net.cpp:100] Creating Layer scale4c_branch2c
I1014 09:15:53.852597  3967 net.cpp:434] scale4c_branch2c <- res4c_branch2c
I1014 09:15:53.852602  3967 net.cpp:395] scale4c_branch2c -> res4c_branch2c (in-place)
I1014 09:15:53.852636  3967 layer_factory.hpp:77] Creating layer scale4c_branch2c
I1014 09:15:53.852732  3967 net.cpp:150] Setting up scale4c_branch2c
I1014 09:15:53.852741  3967 net.cpp:157] Top shape: 16 1024 14 14 (3211264)
I1014 09:15:53.852746  3967 net.cpp:165] Memory required for data: 2938994752
I1014 09:15:53.852751  3967 layer_factory.hpp:77] Creating layer res4c
I1014 09:15:53.852756  3967 net.cpp:100] Creating Layer res4c
I1014 09:15:53.852759  3967 net.cpp:434] res4c <- res4b_res4b_relu_0_split_1
I1014 09:15:53.852766  3967 net.cpp:434] res4c <- res4c_branch2c
I1014 09:15:53.852771  3967 net.cpp:408] res4c -> res4c
I1014 09:15:53.852794  3967 net.cpp:150] Setting up res4c
I1014 09:15:53.852800  3967 net.cpp:157] Top shape: 16 1024 14 14 (3211264)
I1014 09:15:53.852803  3967 net.cpp:165] Memory required for data: 2951839808
I1014 09:15:53.852807  3967 layer_factory.hpp:77] Creating layer res4c_relu
I1014 09:15:53.852812  3967 net.cpp:100] Creating Layer res4c_relu
I1014 09:15:53.852815  3967 net.cpp:434] res4c_relu <- res4c
I1014 09:15:53.852819  3967 net.cpp:395] res4c_relu -> res4c (in-place)
I1014 09:15:53.852823  3967 net.cpp:150] Setting up res4c_relu
I1014 09:15:53.852828  3967 net.cpp:157] Top shape: 16 1024 14 14 (3211264)
I1014 09:15:53.852830  3967 net.cpp:165] Memory required for data: 2964684864
I1014 09:15:53.852833  3967 layer_factory.hpp:77] Creating layer res4c_res4c_relu_0_split
I1014 09:15:53.852839  3967 net.cpp:100] Creating Layer res4c_res4c_relu_0_split
I1014 09:15:53.852843  3967 net.cpp:434] res4c_res4c_relu_0_split <- res4c
I1014 09:15:53.852846  3967 net.cpp:408] res4c_res4c_relu_0_split -> res4c_res4c_relu_0_split_0
I1014 09:15:53.852851  3967 net.cpp:408] res4c_res4c_relu_0_split -> res4c_res4c_relu_0_split_1
I1014 09:15:53.852880  3967 net.cpp:150] Setting up res4c_res4c_relu_0_split
I1014 09:15:53.852885  3967 net.cpp:157] Top shape: 16 1024 14 14 (3211264)
I1014 09:15:53.852890  3967 net.cpp:157] Top shape: 16 1024 14 14 (3211264)
I1014 09:15:53.852892  3967 net.cpp:165] Memory required for data: 2990374976
I1014 09:15:53.852895  3967 layer_factory.hpp:77] Creating layer res4d_branch2a
I1014 09:15:53.852901  3967 net.cpp:100] Creating Layer res4d_branch2a
I1014 09:15:53.852905  3967 net.cpp:434] res4d_branch2a <- res4c_res4c_relu_0_split_0
I1014 09:15:53.852910  3967 net.cpp:408] res4d_branch2a -> res4d_branch2a
I1014 09:15:53.853694  3967 net.cpp:150] Setting up res4d_branch2a
I1014 09:15:53.853708  3967 net.cpp:157] Top shape: 16 256 14 14 (802816)
I1014 09:15:53.853713  3967 net.cpp:165] Memory required for data: 2993586240
I1014 09:15:53.853718  3967 layer_factory.hpp:77] Creating layer bn4d_branch2a
I1014 09:15:53.853727  3967 net.cpp:100] Creating Layer bn4d_branch2a
I1014 09:15:53.853731  3967 net.cpp:434] bn4d_branch2a <- res4d_branch2a
I1014 09:15:53.853746  3967 net.cpp:395] bn4d_branch2a -> res4d_branch2a (in-place)
I1014 09:15:53.853904  3967 net.cpp:150] Setting up bn4d_branch2a
I1014 09:15:53.853914  3967 net.cpp:157] Top shape: 16 256 14 14 (802816)
I1014 09:15:53.853917  3967 net.cpp:165] Memory required for data: 2996797504
I1014 09:15:53.853924  3967 layer_factory.hpp:77] Creating layer scale4d_branch2a
I1014 09:15:53.853932  3967 net.cpp:100] Creating Layer scale4d_branch2a
I1014 09:15:53.853935  3967 net.cpp:434] scale4d_branch2a <- res4d_branch2a
I1014 09:15:53.853940  3967 net.cpp:395] scale4d_branch2a -> res4d_branch2a (in-place)
I1014 09:15:53.853976  3967 layer_factory.hpp:77] Creating layer scale4d_branch2a
I1014 09:15:53.854066  3967 net.cpp:150] Setting up scale4d_branch2a
I1014 09:15:53.854075  3967 net.cpp:157] Top shape: 16 256 14 14 (802816)
I1014 09:15:53.854079  3967 net.cpp:165] Memory required for data: 3000008768
I1014 09:15:53.854084  3967 layer_factory.hpp:77] Creating layer res4d_branch2a_relu
I1014 09:15:53.854089  3967 net.cpp:100] Creating Layer res4d_branch2a_relu
I1014 09:15:53.854092  3967 net.cpp:434] res4d_branch2a_relu <- res4d_branch2a
I1014 09:15:53.854096  3967 net.cpp:395] res4d_branch2a_relu -> res4d_branch2a (in-place)
I1014 09:15:53.854101  3967 net.cpp:150] Setting up res4d_branch2a_relu
I1014 09:15:53.854105  3967 net.cpp:157] Top shape: 16 256 14 14 (802816)
I1014 09:15:53.854109  3967 net.cpp:165] Memory required for data: 3003220032
I1014 09:15:53.854111  3967 layer_factory.hpp:77] Creating layer res4d_branch2b
I1014 09:15:53.854120  3967 net.cpp:100] Creating Layer res4d_branch2b
I1014 09:15:53.854122  3967 net.cpp:434] res4d_branch2b <- res4d_branch2a
I1014 09:15:53.854128  3967 net.cpp:408] res4d_branch2b -> res4d_branch2b
I1014 09:15:53.855485  3967 net.cpp:150] Setting up res4d_branch2b
I1014 09:15:53.855501  3967 net.cpp:157] Top shape: 16 256 14 14 (802816)
I1014 09:15:53.855505  3967 net.cpp:165] Memory required for data: 3006431296
I1014 09:15:53.855510  3967 layer_factory.hpp:77] Creating layer bn4d_branch2b
I1014 09:15:53.855517  3967 net.cpp:100] Creating Layer bn4d_branch2b
I1014 09:15:53.855521  3967 net.cpp:434] bn4d_branch2b <- res4d_branch2b
I1014 09:15:53.855526  3967 net.cpp:395] bn4d_branch2b -> res4d_branch2b (in-place)
I1014 09:15:53.855682  3967 net.cpp:150] Setting up bn4d_branch2b
I1014 09:15:53.855691  3967 net.cpp:157] Top shape: 16 256 14 14 (802816)
I1014 09:15:53.855695  3967 net.cpp:165] Memory required for data: 3009642560
I1014 09:15:53.855702  3967 layer_factory.hpp:77] Creating layer scale4d_branch2b
I1014 09:15:53.855708  3967 net.cpp:100] Creating Layer scale4d_branch2b
I1014 09:15:53.855711  3967 net.cpp:434] scale4d_branch2b <- res4d_branch2b
I1014 09:15:53.855715  3967 net.cpp:395] scale4d_branch2b -> res4d_branch2b (in-place)
I1014 09:15:53.855751  3967 layer_factory.hpp:77] Creating layer scale4d_branch2b
I1014 09:15:53.855841  3967 net.cpp:150] Setting up scale4d_branch2b
I1014 09:15:53.855851  3967 net.cpp:157] Top shape: 16 256 14 14 (802816)
I1014 09:15:53.855854  3967 net.cpp:165] Memory required for data: 3012853824
I1014 09:15:53.855859  3967 layer_factory.hpp:77] Creating layer res4d_branch2b_relu
I1014 09:15:53.855865  3967 net.cpp:100] Creating Layer res4d_branch2b_relu
I1014 09:15:53.855870  3967 net.cpp:434] res4d_branch2b_relu <- res4d_branch2b
I1014 09:15:53.855873  3967 net.cpp:395] res4d_branch2b_relu -> res4d_branch2b (in-place)
I1014 09:15:53.855878  3967 net.cpp:150] Setting up res4d_branch2b_relu
I1014 09:15:53.855882  3967 net.cpp:157] Top shape: 16 256 14 14 (802816)
I1014 09:15:53.855885  3967 net.cpp:165] Memory required for data: 3016065088
I1014 09:15:53.855888  3967 layer_factory.hpp:77] Creating layer res4d_branch2c
I1014 09:15:53.855895  3967 net.cpp:100] Creating Layer res4d_branch2c
I1014 09:15:53.855900  3967 net.cpp:434] res4d_branch2c <- res4d_branch2b
I1014 09:15:53.855903  3967 net.cpp:408] res4d_branch2c -> res4d_branch2c
I1014 09:15:53.856699  3967 net.cpp:150] Setting up res4d_branch2c
I1014 09:15:53.856726  3967 net.cpp:157] Top shape: 16 1024 14 14 (3211264)
I1014 09:15:53.856730  3967 net.cpp:165] Memory required for data: 3028910144
I1014 09:15:53.856735  3967 layer_factory.hpp:77] Creating layer bn4d_branch2c
I1014 09:15:53.856741  3967 net.cpp:100] Creating Layer bn4d_branch2c
I1014 09:15:53.856745  3967 net.cpp:434] bn4d_branch2c <- res4d_branch2c
I1014 09:15:53.856750  3967 net.cpp:395] bn4d_branch2c -> res4d_branch2c (in-place)
I1014 09:15:53.856915  3967 net.cpp:150] Setting up bn4d_branch2c
I1014 09:15:53.856925  3967 net.cpp:157] Top shape: 16 1024 14 14 (3211264)
I1014 09:15:53.856928  3967 net.cpp:165] Memory required for data: 3041755200
I1014 09:15:53.856936  3967 layer_factory.hpp:77] Creating layer scale4d_branch2c
I1014 09:15:53.856941  3967 net.cpp:100] Creating Layer scale4d_branch2c
I1014 09:15:53.856955  3967 net.cpp:434] scale4d_branch2c <- res4d_branch2c
I1014 09:15:53.856959  3967 net.cpp:395] scale4d_branch2c -> res4d_branch2c (in-place)
I1014 09:15:53.856997  3967 layer_factory.hpp:77] Creating layer scale4d_branch2c
I1014 09:15:53.857095  3967 net.cpp:150] Setting up scale4d_branch2c
I1014 09:15:53.857103  3967 net.cpp:157] Top shape: 16 1024 14 14 (3211264)
I1014 09:15:53.857107  3967 net.cpp:165] Memory required for data: 3054600256
I1014 09:15:53.857112  3967 layer_factory.hpp:77] Creating layer res4d
I1014 09:15:53.857118  3967 net.cpp:100] Creating Layer res4d
I1014 09:15:53.857122  3967 net.cpp:434] res4d <- res4c_res4c_relu_0_split_1
I1014 09:15:53.857126  3967 net.cpp:434] res4d <- res4d_branch2c
I1014 09:15:53.857132  3967 net.cpp:408] res4d -> res4d
I1014 09:15:53.857154  3967 net.cpp:150] Setting up res4d
I1014 09:15:53.857159  3967 net.cpp:157] Top shape: 16 1024 14 14 (3211264)
I1014 09:15:53.857162  3967 net.cpp:165] Memory required for data: 3067445312
I1014 09:15:53.857166  3967 layer_factory.hpp:77] Creating layer res4d_relu
I1014 09:15:53.857172  3967 net.cpp:100] Creating Layer res4d_relu
I1014 09:15:53.857175  3967 net.cpp:434] res4d_relu <- res4d
I1014 09:15:53.857179  3967 net.cpp:395] res4d_relu -> res4d (in-place)
I1014 09:15:53.857184  3967 net.cpp:150] Setting up res4d_relu
I1014 09:15:53.857187  3967 net.cpp:157] Top shape: 16 1024 14 14 (3211264)
I1014 09:15:53.857190  3967 net.cpp:165] Memory required for data: 3080290368
I1014 09:15:53.857193  3967 layer_factory.hpp:77] Creating layer res4d_res4d_relu_0_split
I1014 09:15:53.857198  3967 net.cpp:100] Creating Layer res4d_res4d_relu_0_split
I1014 09:15:53.857200  3967 net.cpp:434] res4d_res4d_relu_0_split <- res4d
I1014 09:15:53.857204  3967 net.cpp:408] res4d_res4d_relu_0_split -> res4d_res4d_relu_0_split_0
I1014 09:15:53.857209  3967 net.cpp:408] res4d_res4d_relu_0_split -> res4d_res4d_relu_0_split_1
I1014 09:15:53.857240  3967 net.cpp:150] Setting up res4d_res4d_relu_0_split
I1014 09:15:53.857246  3967 net.cpp:157] Top shape: 16 1024 14 14 (3211264)
I1014 09:15:53.857250  3967 net.cpp:157] Top shape: 16 1024 14 14 (3211264)
I1014 09:15:53.857252  3967 net.cpp:165] Memory required for data: 3105980480
I1014 09:15:53.857255  3967 layer_factory.hpp:77] Creating layer res4e_branch2a
I1014 09:15:53.857261  3967 net.cpp:100] Creating Layer res4e_branch2a
I1014 09:15:53.857264  3967 net.cpp:434] res4e_branch2a <- res4d_res4d_relu_0_split_0
I1014 09:15:53.857270  3967 net.cpp:408] res4e_branch2a -> res4e_branch2a
I1014 09:15:53.858083  3967 net.cpp:150] Setting up res4e_branch2a
I1014 09:15:53.858098  3967 net.cpp:157] Top shape: 16 256 14 14 (802816)
I1014 09:15:53.858101  3967 net.cpp:165] Memory required for data: 3109191744
I1014 09:15:53.858106  3967 layer_factory.hpp:77] Creating layer bn4e_branch2a
I1014 09:15:53.858113  3967 net.cpp:100] Creating Layer bn4e_branch2a
I1014 09:15:53.858116  3967 net.cpp:434] bn4e_branch2a <- res4e_branch2a
I1014 09:15:53.858120  3967 net.cpp:395] bn4e_branch2a -> res4e_branch2a (in-place)
I1014 09:15:53.858280  3967 net.cpp:150] Setting up bn4e_branch2a
I1014 09:15:53.858289  3967 net.cpp:157] Top shape: 16 256 14 14 (802816)
I1014 09:15:53.858294  3967 net.cpp:165] Memory required for data: 3112403008
I1014 09:15:53.858309  3967 layer_factory.hpp:77] Creating layer scale4e_branch2a
I1014 09:15:53.858317  3967 net.cpp:100] Creating Layer scale4e_branch2a
I1014 09:15:53.858321  3967 net.cpp:434] scale4e_branch2a <- res4e_branch2a
I1014 09:15:53.858325  3967 net.cpp:395] scale4e_branch2a -> res4e_branch2a (in-place)
I1014 09:15:53.858364  3967 layer_factory.hpp:77] Creating layer scale4e_branch2a
I1014 09:15:53.858459  3967 net.cpp:150] Setting up scale4e_branch2a
I1014 09:15:53.858469  3967 net.cpp:157] Top shape: 16 256 14 14 (802816)
I1014 09:15:53.858474  3967 net.cpp:165] Memory required for data: 3115614272
I1014 09:15:53.858479  3967 layer_factory.hpp:77] Creating layer res4e_branch2a_relu
I1014 09:15:53.858500  3967 net.cpp:100] Creating Layer res4e_branch2a_relu
I1014 09:15:53.858505  3967 net.cpp:434] res4e_branch2a_relu <- res4e_branch2a
I1014 09:15:53.858508  3967 net.cpp:395] res4e_branch2a_relu -> res4e_branch2a (in-place)
I1014 09:15:53.858515  3967 net.cpp:150] Setting up res4e_branch2a_relu
I1014 09:15:53.858518  3967 net.cpp:157] Top shape: 16 256 14 14 (802816)
I1014 09:15:53.858521  3967 net.cpp:165] Memory required for data: 3118825536
I1014 09:15:53.858525  3967 layer_factory.hpp:77] Creating layer res4e_branch2b
I1014 09:15:53.858532  3967 net.cpp:100] Creating Layer res4e_branch2b
I1014 09:15:53.858536  3967 net.cpp:434] res4e_branch2b <- res4e_branch2a
I1014 09:15:53.858539  3967 net.cpp:408] res4e_branch2b -> res4e_branch2b
I1014 09:15:53.859858  3967 net.cpp:150] Setting up res4e_branch2b
I1014 09:15:53.859874  3967 net.cpp:157] Top shape: 16 256 14 14 (802816)
I1014 09:15:53.859879  3967 net.cpp:165] Memory required for data: 3122036800
I1014 09:15:53.859884  3967 layer_factory.hpp:77] Creating layer bn4e_branch2b
I1014 09:15:53.859891  3967 net.cpp:100] Creating Layer bn4e_branch2b
I1014 09:15:53.859895  3967 net.cpp:434] bn4e_branch2b <- res4e_branch2b
I1014 09:15:53.859899  3967 net.cpp:395] bn4e_branch2b -> res4e_branch2b (in-place)
I1014 09:15:53.860059  3967 net.cpp:150] Setting up bn4e_branch2b
I1014 09:15:53.860069  3967 net.cpp:157] Top shape: 16 256 14 14 (802816)
I1014 09:15:53.860074  3967 net.cpp:165] Memory required for data: 3125248064
I1014 09:15:53.860080  3967 layer_factory.hpp:77] Creating layer scale4e_branch2b
I1014 09:15:53.860086  3967 net.cpp:100] Creating Layer scale4e_branch2b
I1014 09:15:53.860090  3967 net.cpp:434] scale4e_branch2b <- res4e_branch2b
I1014 09:15:53.860095  3967 net.cpp:395] scale4e_branch2b -> res4e_branch2b (in-place)
I1014 09:15:53.860131  3967 layer_factory.hpp:77] Creating layer scale4e_branch2b
I1014 09:15:53.860226  3967 net.cpp:150] Setting up scale4e_branch2b
I1014 09:15:53.860236  3967 net.cpp:157] Top shape: 16 256 14 14 (802816)
I1014 09:15:53.860239  3967 net.cpp:165] Memory required for data: 3128459328
I1014 09:15:53.860245  3967 layer_factory.hpp:77] Creating layer res4e_branch2b_relu
I1014 09:15:53.860250  3967 net.cpp:100] Creating Layer res4e_branch2b_relu
I1014 09:15:53.860254  3967 net.cpp:434] res4e_branch2b_relu <- res4e_branch2b
I1014 09:15:53.860257  3967 net.cpp:395] res4e_branch2b_relu -> res4e_branch2b (in-place)
I1014 09:15:53.860262  3967 net.cpp:150] Setting up res4e_branch2b_relu
I1014 09:15:53.860266  3967 net.cpp:157] Top shape: 16 256 14 14 (802816)
I1014 09:15:53.860270  3967 net.cpp:165] Memory required for data: 3131670592
I1014 09:15:53.860272  3967 layer_factory.hpp:77] Creating layer res4e_branch2c
I1014 09:15:53.860280  3967 net.cpp:100] Creating Layer res4e_branch2c
I1014 09:15:53.860283  3967 net.cpp:434] res4e_branch2c <- res4e_branch2b
I1014 09:15:53.860290  3967 net.cpp:408] res4e_branch2c -> res4e_branch2c
I1014 09:15:53.861146  3967 net.cpp:150] Setting up res4e_branch2c
I1014 09:15:53.861160  3967 net.cpp:157] Top shape: 16 1024 14 14 (3211264)
I1014 09:15:53.861165  3967 net.cpp:165] Memory required for data: 3144515648
I1014 09:15:53.861169  3967 layer_factory.hpp:77] Creating layer bn4e_branch2c
I1014 09:15:53.861176  3967 net.cpp:100] Creating Layer bn4e_branch2c
I1014 09:15:53.861189  3967 net.cpp:434] bn4e_branch2c <- res4e_branch2c
I1014 09:15:53.861196  3967 net.cpp:395] bn4e_branch2c -> res4e_branch2c (in-place)
I1014 09:15:53.861366  3967 net.cpp:150] Setting up bn4e_branch2c
I1014 09:15:53.861376  3967 net.cpp:157] Top shape: 16 1024 14 14 (3211264)
I1014 09:15:53.861379  3967 net.cpp:165] Memory required for data: 3157360704
I1014 09:15:53.861387  3967 layer_factory.hpp:77] Creating layer scale4e_branch2c
I1014 09:15:53.861392  3967 net.cpp:100] Creating Layer scale4e_branch2c
I1014 09:15:53.861395  3967 net.cpp:434] scale4e_branch2c <- res4e_branch2c
I1014 09:15:53.861399  3967 net.cpp:395] scale4e_branch2c -> res4e_branch2c (in-place)
I1014 09:15:53.861438  3967 layer_factory.hpp:77] Creating layer scale4e_branch2c
I1014 09:15:53.861537  3967 net.cpp:150] Setting up scale4e_branch2c
I1014 09:15:53.861546  3967 net.cpp:157] Top shape: 16 1024 14 14 (3211264)
I1014 09:15:53.861549  3967 net.cpp:165] Memory required for data: 3170205760
I1014 09:15:53.861555  3967 layer_factory.hpp:77] Creating layer res4e
I1014 09:15:53.861562  3967 net.cpp:100] Creating Layer res4e
I1014 09:15:53.861565  3967 net.cpp:434] res4e <- res4d_res4d_relu_0_split_1
I1014 09:15:53.861569  3967 net.cpp:434] res4e <- res4e_branch2c
I1014 09:15:53.861574  3967 net.cpp:408] res4e -> res4e
I1014 09:15:53.861595  3967 net.cpp:150] Setting up res4e
I1014 09:15:53.861603  3967 net.cpp:157] Top shape: 16 1024 14 14 (3211264)
I1014 09:15:53.861608  3967 net.cpp:165] Memory required for data: 3183050816
I1014 09:15:53.861610  3967 layer_factory.hpp:77] Creating layer res4e_relu
I1014 09:15:53.861615  3967 net.cpp:100] Creating Layer res4e_relu
I1014 09:15:53.861618  3967 net.cpp:434] res4e_relu <- res4e
I1014 09:15:53.861624  3967 net.cpp:395] res4e_relu -> res4e (in-place)
I1014 09:15:53.861629  3967 net.cpp:150] Setting up res4e_relu
I1014 09:15:53.861632  3967 net.cpp:157] Top shape: 16 1024 14 14 (3211264)
I1014 09:15:53.861635  3967 net.cpp:165] Memory required for data: 3195895872
I1014 09:15:53.861639  3967 layer_factory.hpp:77] Creating layer res4e_res4e_relu_0_split
I1014 09:15:53.861642  3967 net.cpp:100] Creating Layer res4e_res4e_relu_0_split
I1014 09:15:53.861645  3967 net.cpp:434] res4e_res4e_relu_0_split <- res4e
I1014 09:15:53.861649  3967 net.cpp:408] res4e_res4e_relu_0_split -> res4e_res4e_relu_0_split_0
I1014 09:15:53.861654  3967 net.cpp:408] res4e_res4e_relu_0_split -> res4e_res4e_relu_0_split_1
I1014 09:15:53.861685  3967 net.cpp:150] Setting up res4e_res4e_relu_0_split
I1014 09:15:53.861690  3967 net.cpp:157] Top shape: 16 1024 14 14 (3211264)
I1014 09:15:53.861693  3967 net.cpp:157] Top shape: 16 1024 14 14 (3211264)
I1014 09:15:53.861696  3967 net.cpp:165] Memory required for data: 3221585984
I1014 09:15:53.861699  3967 layer_factory.hpp:77] Creating layer res4f_branch2a
I1014 09:15:53.861707  3967 net.cpp:100] Creating Layer res4f_branch2a
I1014 09:15:53.861711  3967 net.cpp:434] res4f_branch2a <- res4e_res4e_relu_0_split_0
I1014 09:15:53.861716  3967 net.cpp:408] res4f_branch2a -> res4f_branch2a
I1014 09:15:53.862516  3967 net.cpp:150] Setting up res4f_branch2a
I1014 09:15:53.862531  3967 net.cpp:157] Top shape: 16 256 14 14 (802816)
I1014 09:15:53.862534  3967 net.cpp:165] Memory required for data: 3224797248
I1014 09:15:53.862540  3967 layer_factory.hpp:77] Creating layer bn4f_branch2a
I1014 09:15:53.862545  3967 net.cpp:100] Creating Layer bn4f_branch2a
I1014 09:15:53.862550  3967 net.cpp:434] bn4f_branch2a <- res4f_branch2a
I1014 09:15:53.862553  3967 net.cpp:395] bn4f_branch2a -> res4f_branch2a (in-place)
I1014 09:15:53.862715  3967 net.cpp:150] Setting up bn4f_branch2a
I1014 09:15:53.862723  3967 net.cpp:157] Top shape: 16 256 14 14 (802816)
I1014 09:15:53.862726  3967 net.cpp:165] Memory required for data: 3228008512
I1014 09:15:53.862733  3967 layer_factory.hpp:77] Creating layer scale4f_branch2a
I1014 09:15:53.862740  3967 net.cpp:100] Creating Layer scale4f_branch2a
I1014 09:15:53.862742  3967 net.cpp:434] scale4f_branch2a <- res4f_branch2a
I1014 09:15:53.862746  3967 net.cpp:395] scale4f_branch2a -> res4f_branch2a (in-place)
I1014 09:15:53.862797  3967 layer_factory.hpp:77] Creating layer scale4f_branch2a
I1014 09:15:53.862892  3967 net.cpp:150] Setting up scale4f_branch2a
I1014 09:15:53.862901  3967 net.cpp:157] Top shape: 16 256 14 14 (802816)
I1014 09:15:53.862905  3967 net.cpp:165] Memory required for data: 3231219776
I1014 09:15:53.862910  3967 layer_factory.hpp:77] Creating layer res4f_branch2a_relu
I1014 09:15:53.862915  3967 net.cpp:100] Creating Layer res4f_branch2a_relu
I1014 09:15:53.862918  3967 net.cpp:434] res4f_branch2a_relu <- res4f_branch2a
I1014 09:15:53.862923  3967 net.cpp:395] res4f_branch2a_relu -> res4f_branch2a (in-place)
I1014 09:15:53.862929  3967 net.cpp:150] Setting up res4f_branch2a_relu
I1014 09:15:53.862933  3967 net.cpp:157] Top shape: 16 256 14 14 (802816)
I1014 09:15:53.862936  3967 net.cpp:165] Memory required for data: 3234431040
I1014 09:15:53.862938  3967 layer_factory.hpp:77] Creating layer res4f_branch2b
I1014 09:15:53.862944  3967 net.cpp:100] Creating Layer res4f_branch2b
I1014 09:15:53.862947  3967 net.cpp:434] res4f_branch2b <- res4f_branch2a
I1014 09:15:53.862953  3967 net.cpp:408] res4f_branch2b -> res4f_branch2b
I1014 09:15:53.864291  3967 net.cpp:150] Setting up res4f_branch2b
I1014 09:15:53.864307  3967 net.cpp:157] Top shape: 16 256 14 14 (802816)
I1014 09:15:53.864311  3967 net.cpp:165] Memory required for data: 3237642304
I1014 09:15:53.864316  3967 layer_factory.hpp:77] Creating layer bn4f_branch2b
I1014 09:15:53.864323  3967 net.cpp:100] Creating Layer bn4f_branch2b
I1014 09:15:53.864326  3967 net.cpp:434] bn4f_branch2b <- res4f_branch2b
I1014 09:15:53.864331  3967 net.cpp:395] bn4f_branch2b -> res4f_branch2b (in-place)
I1014 09:15:53.864503  3967 net.cpp:150] Setting up bn4f_branch2b
I1014 09:15:53.864512  3967 net.cpp:157] Top shape: 16 256 14 14 (802816)
I1014 09:15:53.864516  3967 net.cpp:165] Memory required for data: 3240853568
I1014 09:15:53.864522  3967 layer_factory.hpp:77] Creating layer scale4f_branch2b
I1014 09:15:53.864529  3967 net.cpp:100] Creating Layer scale4f_branch2b
I1014 09:15:53.864533  3967 net.cpp:434] scale4f_branch2b <- res4f_branch2b
I1014 09:15:53.864537  3967 net.cpp:395] scale4f_branch2b -> res4f_branch2b (in-place)
I1014 09:15:53.864576  3967 layer_factory.hpp:77] Creating layer scale4f_branch2b
I1014 09:15:53.864698  3967 net.cpp:150] Setting up scale4f_branch2b
I1014 09:15:53.864709  3967 net.cpp:157] Top shape: 16 256 14 14 (802816)
I1014 09:15:53.864712  3967 net.cpp:165] Memory required for data: 3244064832
I1014 09:15:53.864718  3967 layer_factory.hpp:77] Creating layer res4f_branch2b_relu
I1014 09:15:53.864723  3967 net.cpp:100] Creating Layer res4f_branch2b_relu
I1014 09:15:53.864727  3967 net.cpp:434] res4f_branch2b_relu <- res4f_branch2b
I1014 09:15:53.864734  3967 net.cpp:395] res4f_branch2b_relu -> res4f_branch2b (in-place)
I1014 09:15:53.864740  3967 net.cpp:150] Setting up res4f_branch2b_relu
I1014 09:15:53.864744  3967 net.cpp:157] Top shape: 16 256 14 14 (802816)
I1014 09:15:53.864748  3967 net.cpp:165] Memory required for data: 3247276096
I1014 09:15:53.864749  3967 layer_factory.hpp:77] Creating layer res4f_branch2c
I1014 09:15:53.864758  3967 net.cpp:100] Creating Layer res4f_branch2c
I1014 09:15:53.864760  3967 net.cpp:434] res4f_branch2c <- res4f_branch2b
I1014 09:15:53.864765  3967 net.cpp:408] res4f_branch2c -> res4f_branch2c
I1014 09:15:53.865608  3967 net.cpp:150] Setting up res4f_branch2c
I1014 09:15:53.865623  3967 net.cpp:157] Top shape: 16 1024 14 14 (3211264)
I1014 09:15:53.865627  3967 net.cpp:165] Memory required for data: 3260121152
I1014 09:15:53.865631  3967 layer_factory.hpp:77] Creating layer bn4f_branch2c
I1014 09:15:53.865638  3967 net.cpp:100] Creating Layer bn4f_branch2c
I1014 09:15:53.865643  3967 net.cpp:434] bn4f_branch2c <- res4f_branch2c
I1014 09:15:53.865646  3967 net.cpp:395] bn4f_branch2c -> res4f_branch2c (in-place)
I1014 09:15:53.865835  3967 net.cpp:150] Setting up bn4f_branch2c
I1014 09:15:53.865845  3967 net.cpp:157] Top shape: 16 1024 14 14 (3211264)
I1014 09:15:53.865859  3967 net.cpp:165] Memory required for data: 3272966208
I1014 09:15:53.865900  3967 layer_factory.hpp:77] Creating layer scale4f_branch2c
I1014 09:15:53.865911  3967 net.cpp:100] Creating Layer scale4f_branch2c
I1014 09:15:53.865914  3967 net.cpp:434] scale4f_branch2c <- res4f_branch2c
I1014 09:15:53.865918  3967 net.cpp:395] scale4f_branch2c -> res4f_branch2c (in-place)
I1014 09:15:53.865960  3967 layer_factory.hpp:77] Creating layer scale4f_branch2c
I1014 09:15:53.866066  3967 net.cpp:150] Setting up scale4f_branch2c
I1014 09:15:53.866076  3967 net.cpp:157] Top shape: 16 1024 14 14 (3211264)
I1014 09:15:53.866080  3967 net.cpp:165] Memory required for data: 3285811264
I1014 09:15:53.866084  3967 layer_factory.hpp:77] Creating layer res4f
I1014 09:15:53.866091  3967 net.cpp:100] Creating Layer res4f
I1014 09:15:53.866096  3967 net.cpp:434] res4f <- res4e_res4e_relu_0_split_1
I1014 09:15:53.866099  3967 net.cpp:434] res4f <- res4f_branch2c
I1014 09:15:53.866104  3967 net.cpp:408] res4f -> res4f
I1014 09:15:53.866129  3967 net.cpp:150] Setting up res4f
I1014 09:15:53.866135  3967 net.cpp:157] Top shape: 16 1024 14 14 (3211264)
I1014 09:15:53.866138  3967 net.cpp:165] Memory required for data: 3298656320
I1014 09:15:53.866142  3967 layer_factory.hpp:77] Creating layer res4f_relu
I1014 09:15:53.866147  3967 net.cpp:100] Creating Layer res4f_relu
I1014 09:15:53.866149  3967 net.cpp:434] res4f_relu <- res4f
I1014 09:15:53.866155  3967 net.cpp:395] res4f_relu -> res4f (in-place)
I1014 09:15:53.866160  3967 net.cpp:150] Setting up res4f_relu
I1014 09:15:53.866164  3967 net.cpp:157] Top shape: 16 1024 14 14 (3211264)
I1014 09:15:53.866168  3967 net.cpp:165] Memory required for data: 3311501376
I1014 09:15:53.866170  3967 layer_factory.hpp:77] Creating layer res4f_res4f_relu_0_split
I1014 09:15:53.866175  3967 net.cpp:100] Creating Layer res4f_res4f_relu_0_split
I1014 09:15:53.866178  3967 net.cpp:434] res4f_res4f_relu_0_split <- res4f
I1014 09:15:53.866183  3967 net.cpp:408] res4f_res4f_relu_0_split -> res4f_res4f_relu_0_split_0
I1014 09:15:53.866189  3967 net.cpp:408] res4f_res4f_relu_0_split -> res4f_res4f_relu_0_split_1
I1014 09:15:53.866219  3967 net.cpp:150] Setting up res4f_res4f_relu_0_split
I1014 09:15:53.866225  3967 net.cpp:157] Top shape: 16 1024 14 14 (3211264)
I1014 09:15:53.866228  3967 net.cpp:157] Top shape: 16 1024 14 14 (3211264)
I1014 09:15:53.866231  3967 net.cpp:165] Memory required for data: 3337191488
I1014 09:15:53.866235  3967 layer_factory.hpp:77] Creating layer res5a_branch1
I1014 09:15:53.866240  3967 net.cpp:100] Creating Layer res5a_branch1
I1014 09:15:53.866245  3967 net.cpp:434] res5a_branch1 <- res4f_res4f_relu_0_split_0
I1014 09:15:53.866250  3967 net.cpp:408] res5a_branch1 -> res5a_branch1
I1014 09:15:53.869976  3967 net.cpp:150] Setting up res5a_branch1
I1014 09:15:53.869998  3967 net.cpp:157] Top shape: 16 2048 7 7 (1605632)
I1014 09:15:53.870002  3967 net.cpp:165] Memory required for data: 3343614016
I1014 09:15:53.870008  3967 layer_factory.hpp:77] Creating layer bn5a_branch1
I1014 09:15:53.870017  3967 net.cpp:100] Creating Layer bn5a_branch1
I1014 09:15:53.870020  3967 net.cpp:434] bn5a_branch1 <- res5a_branch1
I1014 09:15:53.870025  3967 net.cpp:395] bn5a_branch1 -> res5a_branch1 (in-place)
I1014 09:15:53.870239  3967 net.cpp:150] Setting up bn5a_branch1
I1014 09:15:53.870251  3967 net.cpp:157] Top shape: 16 2048 7 7 (1605632)
I1014 09:15:53.870255  3967 net.cpp:165] Memory required for data: 3350036544
I1014 09:15:53.870262  3967 layer_factory.hpp:77] Creating layer scale5a_branch1
I1014 09:15:53.870268  3967 net.cpp:100] Creating Layer scale5a_branch1
I1014 09:15:53.870272  3967 net.cpp:434] scale5a_branch1 <- res5a_branch1
I1014 09:15:53.870276  3967 net.cpp:395] scale5a_branch1 -> res5a_branch1 (in-place)
I1014 09:15:53.870322  3967 layer_factory.hpp:77] Creating layer scale5a_branch1
I1014 09:15:53.870431  3967 net.cpp:150] Setting up scale5a_branch1
I1014 09:15:53.870441  3967 net.cpp:157] Top shape: 16 2048 7 7 (1605632)
I1014 09:15:53.870445  3967 net.cpp:165] Memory required for data: 3356459072
I1014 09:15:53.870462  3967 layer_factory.hpp:77] Creating layer res5a_branch2a
I1014 09:15:53.870471  3967 net.cpp:100] Creating Layer res5a_branch2a
I1014 09:15:53.870476  3967 net.cpp:434] res5a_branch2a <- res4f_res4f_relu_0_split_1
I1014 09:15:53.870481  3967 net.cpp:408] res5a_branch2a -> res5a_branch2a
I1014 09:15:53.871731  3967 net.cpp:150] Setting up res5a_branch2a
I1014 09:15:53.871747  3967 net.cpp:157] Top shape: 16 512 7 7 (401408)
I1014 09:15:53.871752  3967 net.cpp:165] Memory required for data: 3358064704
I1014 09:15:53.871757  3967 layer_factory.hpp:77] Creating layer bn5a_branch2a
I1014 09:15:53.871763  3967 net.cpp:100] Creating Layer bn5a_branch2a
I1014 09:15:53.871767  3967 net.cpp:434] bn5a_branch2a <- res5a_branch2a
I1014 09:15:53.871773  3967 net.cpp:395] bn5a_branch2a -> res5a_branch2a (in-place)
I1014 09:15:53.871948  3967 net.cpp:150] Setting up bn5a_branch2a
I1014 09:15:53.871959  3967 net.cpp:157] Top shape: 16 512 7 7 (401408)
I1014 09:15:53.871963  3967 net.cpp:165] Memory required for data: 3359670336
I1014 09:15:53.871969  3967 layer_factory.hpp:77] Creating layer scale5a_branch2a
I1014 09:15:53.871974  3967 net.cpp:100] Creating Layer scale5a_branch2a
I1014 09:15:53.871978  3967 net.cpp:434] scale5a_branch2a <- res5a_branch2a
I1014 09:15:53.871984  3967 net.cpp:395] scale5a_branch2a -> res5a_branch2a (in-place)
I1014 09:15:53.872020  3967 layer_factory.hpp:77] Creating layer scale5a_branch2a
I1014 09:15:53.872119  3967 net.cpp:150] Setting up scale5a_branch2a
I1014 09:15:53.872129  3967 net.cpp:157] Top shape: 16 512 7 7 (401408)
I1014 09:15:53.872133  3967 net.cpp:165] Memory required for data: 3361275968
I1014 09:15:53.872138  3967 layer_factory.hpp:77] Creating layer res5a_branch2a_relu
I1014 09:15:53.872144  3967 net.cpp:100] Creating Layer res5a_branch2a_relu
I1014 09:15:53.872148  3967 net.cpp:434] res5a_branch2a_relu <- res5a_branch2a
I1014 09:15:53.872151  3967 net.cpp:395] res5a_branch2a_relu -> res5a_branch2a (in-place)
I1014 09:15:53.872158  3967 net.cpp:150] Setting up res5a_branch2a_relu
I1014 09:15:53.872161  3967 net.cpp:157] Top shape: 16 512 7 7 (401408)
I1014 09:15:53.872164  3967 net.cpp:165] Memory required for data: 3362881600
I1014 09:15:53.872167  3967 layer_factory.hpp:77] Creating layer res5a_branch2b
I1014 09:15:53.872175  3967 net.cpp:100] Creating Layer res5a_branch2b
I1014 09:15:53.872179  3967 net.cpp:434] res5a_branch2b <- res5a_branch2a
I1014 09:15:53.872184  3967 net.cpp:408] res5a_branch2b -> res5a_branch2b
I1014 09:15:53.876338  3967 net.cpp:150] Setting up res5a_branch2b
I1014 09:15:53.876363  3967 net.cpp:157] Top shape: 16 512 7 7 (401408)
I1014 09:15:53.876368  3967 net.cpp:165] Memory required for data: 3364487232
I1014 09:15:53.876374  3967 layer_factory.hpp:77] Creating layer bn5a_branch2b
I1014 09:15:53.876380  3967 net.cpp:100] Creating Layer bn5a_branch2b
I1014 09:15:53.876385  3967 net.cpp:434] bn5a_branch2b <- res5a_branch2b
I1014 09:15:53.876390  3967 net.cpp:395] bn5a_branch2b -> res5a_branch2b (in-place)
I1014 09:15:53.876572  3967 net.cpp:150] Setting up bn5a_branch2b
I1014 09:15:53.876582  3967 net.cpp:157] Top shape: 16 512 7 7 (401408)
I1014 09:15:53.876586  3967 net.cpp:165] Memory required for data: 3366092864
I1014 09:15:53.876593  3967 layer_factory.hpp:77] Creating layer scale5a_branch2b
I1014 09:15:53.876600  3967 net.cpp:100] Creating Layer scale5a_branch2b
I1014 09:15:53.876603  3967 net.cpp:434] scale5a_branch2b <- res5a_branch2b
I1014 09:15:53.876607  3967 net.cpp:395] scale5a_branch2b -> res5a_branch2b (in-place)
I1014 09:15:53.876647  3967 layer_factory.hpp:77] Creating layer scale5a_branch2b
I1014 09:15:53.876749  3967 net.cpp:150] Setting up scale5a_branch2b
I1014 09:15:53.876760  3967 net.cpp:157] Top shape: 16 512 7 7 (401408)
I1014 09:15:53.876762  3967 net.cpp:165] Memory required for data: 3367698496
I1014 09:15:53.876768  3967 layer_factory.hpp:77] Creating layer res5a_branch2b_relu
I1014 09:15:53.876773  3967 net.cpp:100] Creating Layer res5a_branch2b_relu
I1014 09:15:53.876792  3967 net.cpp:434] res5a_branch2b_relu <- res5a_branch2b
I1014 09:15:53.876798  3967 net.cpp:395] res5a_branch2b_relu -> res5a_branch2b (in-place)
I1014 09:15:53.876804  3967 net.cpp:150] Setting up res5a_branch2b_relu
I1014 09:15:53.876808  3967 net.cpp:157] Top shape: 16 512 7 7 (401408)
I1014 09:15:53.876811  3967 net.cpp:165] Memory required for data: 3369304128
I1014 09:15:53.876814  3967 layer_factory.hpp:77] Creating layer res5a_branch2c
I1014 09:15:53.876821  3967 net.cpp:100] Creating Layer res5a_branch2c
I1014 09:15:53.876824  3967 net.cpp:434] res5a_branch2c <- res5a_branch2b
I1014 09:15:53.876830  3967 net.cpp:408] res5a_branch2c -> res5a_branch2c
I1014 09:15:53.878898  3967 net.cpp:150] Setting up res5a_branch2c
I1014 09:15:53.878916  3967 net.cpp:157] Top shape: 16 2048 7 7 (1605632)
I1014 09:15:53.878921  3967 net.cpp:165] Memory required for data: 3375726656
I1014 09:15:53.878926  3967 layer_factory.hpp:77] Creating layer bn5a_branch2c
I1014 09:15:53.878933  3967 net.cpp:100] Creating Layer bn5a_branch2c
I1014 09:15:53.878937  3967 net.cpp:434] bn5a_branch2c <- res5a_branch2c
I1014 09:15:53.878942  3967 net.cpp:395] bn5a_branch2c -> res5a_branch2c (in-place)
I1014 09:15:53.879139  3967 net.cpp:150] Setting up bn5a_branch2c
I1014 09:15:53.879150  3967 net.cpp:157] Top shape: 16 2048 7 7 (1605632)
I1014 09:15:53.879153  3967 net.cpp:165] Memory required for data: 3382149184
I1014 09:15:53.879160  3967 layer_factory.hpp:77] Creating layer scale5a_branch2c
I1014 09:15:53.879168  3967 net.cpp:100] Creating Layer scale5a_branch2c
I1014 09:15:53.879171  3967 net.cpp:434] scale5a_branch2c <- res5a_branch2c
I1014 09:15:53.879176  3967 net.cpp:395] scale5a_branch2c -> res5a_branch2c (in-place)
I1014 09:15:53.879214  3967 layer_factory.hpp:77] Creating layer scale5a_branch2c
I1014 09:15:53.879326  3967 net.cpp:150] Setting up scale5a_branch2c
I1014 09:15:53.879335  3967 net.cpp:157] Top shape: 16 2048 7 7 (1605632)
I1014 09:15:53.879338  3967 net.cpp:165] Memory required for data: 3388571712
I1014 09:15:53.879344  3967 layer_factory.hpp:77] Creating layer res5a
I1014 09:15:53.879349  3967 net.cpp:100] Creating Layer res5a
I1014 09:15:53.879354  3967 net.cpp:434] res5a <- res5a_branch1
I1014 09:15:53.879357  3967 net.cpp:434] res5a <- res5a_branch2c
I1014 09:15:53.879362  3967 net.cpp:408] res5a -> res5a
I1014 09:15:53.879385  3967 net.cpp:150] Setting up res5a
I1014 09:15:53.879393  3967 net.cpp:157] Top shape: 16 2048 7 7 (1605632)
I1014 09:15:53.879396  3967 net.cpp:165] Memory required for data: 3394994240
I1014 09:15:53.879400  3967 layer_factory.hpp:77] Creating layer res5a_relu
I1014 09:15:53.879405  3967 net.cpp:100] Creating Layer res5a_relu
I1014 09:15:53.879407  3967 net.cpp:434] res5a_relu <- res5a
I1014 09:15:53.879411  3967 net.cpp:395] res5a_relu -> res5a (in-place)
I1014 09:15:53.879416  3967 net.cpp:150] Setting up res5a_relu
I1014 09:15:53.879420  3967 net.cpp:157] Top shape: 16 2048 7 7 (1605632)
I1014 09:15:53.879423  3967 net.cpp:165] Memory required for data: 3401416768
I1014 09:15:53.879426  3967 layer_factory.hpp:77] Creating layer res5a_res5a_relu_0_split
I1014 09:15:53.879431  3967 net.cpp:100] Creating Layer res5a_res5a_relu_0_split
I1014 09:15:53.879434  3967 net.cpp:434] res5a_res5a_relu_0_split <- res5a
I1014 09:15:53.879439  3967 net.cpp:408] res5a_res5a_relu_0_split -> res5a_res5a_relu_0_split_0
I1014 09:15:53.879444  3967 net.cpp:408] res5a_res5a_relu_0_split -> res5a_res5a_relu_0_split_1
I1014 09:15:53.879475  3967 net.cpp:150] Setting up res5a_res5a_relu_0_split
I1014 09:15:53.879485  3967 net.cpp:157] Top shape: 16 2048 7 7 (1605632)
I1014 09:15:53.879489  3967 net.cpp:157] Top shape: 16 2048 7 7 (1605632)
I1014 09:15:53.879492  3967 net.cpp:165] Memory required for data: 3414261824
I1014 09:15:53.879495  3967 layer_factory.hpp:77] Creating layer res5b_branch2a
I1014 09:15:53.879501  3967 net.cpp:100] Creating Layer res5b_branch2a
I1014 09:15:53.879504  3967 net.cpp:434] res5b_branch2a <- res5a_res5a_relu_0_split_0
I1014 09:15:53.879509  3967 net.cpp:408] res5b_branch2a -> res5b_branch2a
I1014 09:15:53.881579  3967 net.cpp:150] Setting up res5b_branch2a
I1014 09:15:53.881602  3967 net.cpp:157] Top shape: 16 512 7 7 (401408)
I1014 09:15:53.881605  3967 net.cpp:165] Memory required for data: 3415867456
I1014 09:15:53.881610  3967 layer_factory.hpp:77] Creating layer bn5b_branch2a
I1014 09:15:53.881619  3967 net.cpp:100] Creating Layer bn5b_branch2a
I1014 09:15:53.881624  3967 net.cpp:434] bn5b_branch2a <- res5b_branch2a
I1014 09:15:53.881629  3967 net.cpp:395] bn5b_branch2a -> res5b_branch2a (in-place)
I1014 09:15:53.881813  3967 net.cpp:150] Setting up bn5b_branch2a
I1014 09:15:53.881822  3967 net.cpp:157] Top shape: 16 512 7 7 (401408)
I1014 09:15:53.881826  3967 net.cpp:165] Memory required for data: 3417473088
I1014 09:15:53.881834  3967 layer_factory.hpp:77] Creating layer scale5b_branch2a
I1014 09:15:53.881840  3967 net.cpp:100] Creating Layer scale5b_branch2a
I1014 09:15:53.881844  3967 net.cpp:434] scale5b_branch2a <- res5b_branch2a
I1014 09:15:53.881850  3967 net.cpp:395] scale5b_branch2a -> res5b_branch2a (in-place)
I1014 09:15:53.881889  3967 layer_factory.hpp:77] Creating layer scale5b_branch2a
I1014 09:15:53.881995  3967 net.cpp:150] Setting up scale5b_branch2a
I1014 09:15:53.882004  3967 net.cpp:157] Top shape: 16 512 7 7 (401408)
I1014 09:15:53.882007  3967 net.cpp:165] Memory required for data: 3419078720
I1014 09:15:53.882014  3967 layer_factory.hpp:77] Creating layer res5b_branch2a_relu
I1014 09:15:53.882019  3967 net.cpp:100] Creating Layer res5b_branch2a_relu
I1014 09:15:53.882022  3967 net.cpp:434] res5b_branch2a_relu <- res5b_branch2a
I1014 09:15:53.882026  3967 net.cpp:395] res5b_branch2a_relu -> res5b_branch2a (in-place)
I1014 09:15:53.882031  3967 net.cpp:150] Setting up res5b_branch2a_relu
I1014 09:15:53.882035  3967 net.cpp:157] Top shape: 16 512 7 7 (401408)
I1014 09:15:53.882038  3967 net.cpp:165] Memory required for data: 3420684352
I1014 09:15:53.882041  3967 layer_factory.hpp:77] Creating layer res5b_branch2b
I1014 09:15:53.882050  3967 net.cpp:100] Creating Layer res5b_branch2b
I1014 09:15:53.882052  3967 net.cpp:434] res5b_branch2b <- res5b_branch2a
I1014 09:15:53.882058  3967 net.cpp:408] res5b_branch2b -> res5b_branch2b
I1014 09:15:53.886685  3967 net.cpp:150] Setting up res5b_branch2b
I1014 09:15:53.886729  3967 net.cpp:157] Top shape: 16 512 7 7 (401408)
I1014 09:15:53.886732  3967 net.cpp:165] Memory required for data: 3422289984
I1014 09:15:53.886740  3967 layer_factory.hpp:77] Creating layer bn5b_branch2b
I1014 09:15:53.886751  3967 net.cpp:100] Creating Layer bn5b_branch2b
I1014 09:15:53.886757  3967 net.cpp:434] bn5b_branch2b <- res5b_branch2b
I1014 09:15:53.886765  3967 net.cpp:395] bn5b_branch2b -> res5b_branch2b (in-place)
I1014 09:15:53.886972  3967 net.cpp:150] Setting up bn5b_branch2b
I1014 09:15:53.886983  3967 net.cpp:157] Top shape: 16 512 7 7 (401408)
I1014 09:15:53.886986  3967 net.cpp:165] Memory required for data: 3423895616
I1014 09:15:53.886994  3967 layer_factory.hpp:77] Creating layer scale5b_branch2b
I1014 09:15:53.887001  3967 net.cpp:100] Creating Layer scale5b_branch2b
I1014 09:15:53.887006  3967 net.cpp:434] scale5b_branch2b <- res5b_branch2b
I1014 09:15:53.887009  3967 net.cpp:395] scale5b_branch2b -> res5b_branch2b (in-place)
I1014 09:15:53.887063  3967 layer_factory.hpp:77] Creating layer scale5b_branch2b
I1014 09:15:53.887169  3967 net.cpp:150] Setting up scale5b_branch2b
I1014 09:15:53.887179  3967 net.cpp:157] Top shape: 16 512 7 7 (401408)
I1014 09:15:53.887182  3967 net.cpp:165] Memory required for data: 3425501248
I1014 09:15:53.887188  3967 layer_factory.hpp:77] Creating layer res5b_branch2b_relu
I1014 09:15:53.887195  3967 net.cpp:100] Creating Layer res5b_branch2b_relu
I1014 09:15:53.887198  3967 net.cpp:434] res5b_branch2b_relu <- res5b_branch2b
I1014 09:15:53.887203  3967 net.cpp:395] res5b_branch2b_relu -> res5b_branch2b (in-place)
I1014 09:15:53.887209  3967 net.cpp:150] Setting up res5b_branch2b_relu
I1014 09:15:53.887214  3967 net.cpp:157] Top shape: 16 512 7 7 (401408)
I1014 09:15:53.887217  3967 net.cpp:165] Memory required for data: 3427106880
I1014 09:15:53.887236  3967 layer_factory.hpp:77] Creating layer res5b_branch2c
I1014 09:15:53.887244  3967 net.cpp:100] Creating Layer res5b_branch2c
I1014 09:15:53.887248  3967 net.cpp:434] res5b_branch2c <- res5b_branch2b
I1014 09:15:53.887254  3967 net.cpp:408] res5b_branch2c -> res5b_branch2c
I1014 09:15:53.889412  3967 net.cpp:150] Setting up res5b_branch2c
I1014 09:15:53.889434  3967 net.cpp:157] Top shape: 16 2048 7 7 (1605632)
I1014 09:15:53.889438  3967 net.cpp:165] Memory required for data: 3433529408
I1014 09:15:53.889443  3967 layer_factory.hpp:77] Creating layer bn5b_branch2c
I1014 09:15:53.889451  3967 net.cpp:100] Creating Layer bn5b_branch2c
I1014 09:15:53.889456  3967 net.cpp:434] bn5b_branch2c <- res5b_branch2c
I1014 09:15:53.889461  3967 net.cpp:395] bn5b_branch2c -> res5b_branch2c (in-place)
I1014 09:15:53.889648  3967 net.cpp:150] Setting up bn5b_branch2c
I1014 09:15:53.889658  3967 net.cpp:157] Top shape: 16 2048 7 7 (1605632)
I1014 09:15:53.889662  3967 net.cpp:165] Memory required for data: 3439951936
I1014 09:15:53.889670  3967 layer_factory.hpp:77] Creating layer scale5b_branch2c
I1014 09:15:53.889678  3967 net.cpp:100] Creating Layer scale5b_branch2c
I1014 09:15:53.889681  3967 net.cpp:434] scale5b_branch2c <- res5b_branch2c
I1014 09:15:53.889685  3967 net.cpp:395] scale5b_branch2c -> res5b_branch2c (in-place)
I1014 09:15:53.889726  3967 layer_factory.hpp:77] Creating layer scale5b_branch2c
I1014 09:15:53.889834  3967 net.cpp:150] Setting up scale5b_branch2c
I1014 09:15:53.889843  3967 net.cpp:157] Top shape: 16 2048 7 7 (1605632)
I1014 09:15:53.889847  3967 net.cpp:165] Memory required for data: 3446374464
I1014 09:15:53.889852  3967 layer_factory.hpp:77] Creating layer res5b
I1014 09:15:53.889858  3967 net.cpp:100] Creating Layer res5b
I1014 09:15:53.889863  3967 net.cpp:434] res5b <- res5a_res5a_relu_0_split_1
I1014 09:15:53.889866  3967 net.cpp:434] res5b <- res5b_branch2c
I1014 09:15:53.889871  3967 net.cpp:408] res5b -> res5b
I1014 09:15:53.889896  3967 net.cpp:150] Setting up res5b
I1014 09:15:53.889902  3967 net.cpp:157] Top shape: 16 2048 7 7 (1605632)
I1014 09:15:53.889905  3967 net.cpp:165] Memory required for data: 3452796992
I1014 09:15:53.889909  3967 layer_factory.hpp:77] Creating layer res5b_relu
I1014 09:15:53.889914  3967 net.cpp:100] Creating Layer res5b_relu
I1014 09:15:53.889917  3967 net.cpp:434] res5b_relu <- res5b
I1014 09:15:53.889922  3967 net.cpp:395] res5b_relu -> res5b (in-place)
I1014 09:15:53.889928  3967 net.cpp:150] Setting up res5b_relu
I1014 09:15:53.889932  3967 net.cpp:157] Top shape: 16 2048 7 7 (1605632)
I1014 09:15:53.889935  3967 net.cpp:165] Memory required for data: 3459219520
I1014 09:15:53.889938  3967 layer_factory.hpp:77] Creating layer res5b_res5b_relu_0_split
I1014 09:15:53.889943  3967 net.cpp:100] Creating Layer res5b_res5b_relu_0_split
I1014 09:15:53.889946  3967 net.cpp:434] res5b_res5b_relu_0_split <- res5b
I1014 09:15:53.889950  3967 net.cpp:408] res5b_res5b_relu_0_split -> res5b_res5b_relu_0_split_0
I1014 09:15:53.889955  3967 net.cpp:408] res5b_res5b_relu_0_split -> res5b_res5b_relu_0_split_1
I1014 09:15:53.889987  3967 net.cpp:150] Setting up res5b_res5b_relu_0_split
I1014 09:15:53.889993  3967 net.cpp:157] Top shape: 16 2048 7 7 (1605632)
I1014 09:15:53.889997  3967 net.cpp:157] Top shape: 16 2048 7 7 (1605632)
I1014 09:15:53.889999  3967 net.cpp:165] Memory required for data: 3472064576
I1014 09:15:53.890002  3967 layer_factory.hpp:77] Creating layer res5c_branch2a
I1014 09:15:53.890009  3967 net.cpp:100] Creating Layer res5c_branch2a
I1014 09:15:53.890013  3967 net.cpp:434] res5c_branch2a <- res5b_res5b_relu_0_split_0
I1014 09:15:53.890017  3967 net.cpp:408] res5c_branch2a -> res5c_branch2a
I1014 09:15:53.892190  3967 net.cpp:150] Setting up res5c_branch2a
I1014 09:15:53.892216  3967 net.cpp:157] Top shape: 16 512 7 7 (401408)
I1014 09:15:53.892220  3967 net.cpp:165] Memory required for data: 3473670208
I1014 09:15:53.892226  3967 layer_factory.hpp:77] Creating layer bn5c_branch2a
I1014 09:15:53.892251  3967 net.cpp:100] Creating Layer bn5c_branch2a
I1014 09:15:53.892256  3967 net.cpp:434] bn5c_branch2a <- res5c_branch2a
I1014 09:15:53.892261  3967 net.cpp:395] bn5c_branch2a -> res5c_branch2a (in-place)
I1014 09:15:53.892455  3967 net.cpp:150] Setting up bn5c_branch2a
I1014 09:15:53.892465  3967 net.cpp:157] Top shape: 16 512 7 7 (401408)
I1014 09:15:53.892468  3967 net.cpp:165] Memory required for data: 3475275840
I1014 09:15:53.892477  3967 layer_factory.hpp:77] Creating layer scale5c_branch2a
I1014 09:15:53.892484  3967 net.cpp:100] Creating Layer scale5c_branch2a
I1014 09:15:53.892488  3967 net.cpp:434] scale5c_branch2a <- res5c_branch2a
I1014 09:15:53.892493  3967 net.cpp:395] scale5c_branch2a -> res5c_branch2a (in-place)
I1014 09:15:53.892534  3967 layer_factory.hpp:77] Creating layer scale5c_branch2a
I1014 09:15:53.892639  3967 net.cpp:150] Setting up scale5c_branch2a
I1014 09:15:53.892648  3967 net.cpp:157] Top shape: 16 512 7 7 (401408)
I1014 09:15:53.892652  3967 net.cpp:165] Memory required for data: 3476881472
I1014 09:15:53.892657  3967 layer_factory.hpp:77] Creating layer res5c_branch2a_relu
I1014 09:15:53.892663  3967 net.cpp:100] Creating Layer res5c_branch2a_relu
I1014 09:15:53.892666  3967 net.cpp:434] res5c_branch2a_relu <- res5c_branch2a
I1014 09:15:53.892671  3967 net.cpp:395] res5c_branch2a_relu -> res5c_branch2a (in-place)
I1014 09:15:53.892678  3967 net.cpp:150] Setting up res5c_branch2a_relu
I1014 09:15:53.892681  3967 net.cpp:157] Top shape: 16 512 7 7 (401408)
I1014 09:15:53.892684  3967 net.cpp:165] Memory required for data: 3478487104
I1014 09:15:53.892688  3967 layer_factory.hpp:77] Creating layer res5c_branch2b
I1014 09:15:53.892698  3967 net.cpp:100] Creating Layer res5c_branch2b
I1014 09:15:53.892701  3967 net.cpp:434] res5c_branch2b <- res5c_branch2a
I1014 09:15:53.892705  3967 net.cpp:408] res5c_branch2b -> res5c_branch2b
I1014 09:15:53.897315  3967 net.cpp:150] Setting up res5c_branch2b
I1014 09:15:53.897358  3967 net.cpp:157] Top shape: 16 512 7 7 (401408)
I1014 09:15:53.897362  3967 net.cpp:165] Memory required for data: 3480092736
I1014 09:15:53.897370  3967 layer_factory.hpp:77] Creating layer bn5c_branch2b
I1014 09:15:53.897383  3967 net.cpp:100] Creating Layer bn5c_branch2b
I1014 09:15:53.897389  3967 net.cpp:434] bn5c_branch2b <- res5c_branch2b
I1014 09:15:53.897394  3967 net.cpp:395] bn5c_branch2b -> res5c_branch2b (in-place)
I1014 09:15:53.897591  3967 net.cpp:150] Setting up bn5c_branch2b
I1014 09:15:53.897601  3967 net.cpp:157] Top shape: 16 512 7 7 (401408)
I1014 09:15:53.897604  3967 net.cpp:165] Memory required for data: 3481698368
I1014 09:15:53.897611  3967 layer_factory.hpp:77] Creating layer scale5c_branch2b
I1014 09:15:53.897619  3967 net.cpp:100] Creating Layer scale5c_branch2b
I1014 09:15:53.897622  3967 net.cpp:434] scale5c_branch2b <- res5c_branch2b
I1014 09:15:53.897629  3967 net.cpp:395] scale5c_branch2b -> res5c_branch2b (in-place)
I1014 09:15:53.897671  3967 layer_factory.hpp:77] Creating layer scale5c_branch2b
I1014 09:15:53.897778  3967 net.cpp:150] Setting up scale5c_branch2b
I1014 09:15:53.897788  3967 net.cpp:157] Top shape: 16 512 7 7 (401408)
I1014 09:15:53.897791  3967 net.cpp:165] Memory required for data: 3483304000
I1014 09:15:53.897796  3967 layer_factory.hpp:77] Creating layer res5c_branch2b_relu
I1014 09:15:53.897802  3967 net.cpp:100] Creating Layer res5c_branch2b_relu
I1014 09:15:53.897806  3967 net.cpp:434] res5c_branch2b_relu <- res5c_branch2b
I1014 09:15:53.897810  3967 net.cpp:395] res5c_branch2b_relu -> res5c_branch2b (in-place)
I1014 09:15:53.897815  3967 net.cpp:150] Setting up res5c_branch2b_relu
I1014 09:15:53.897819  3967 net.cpp:157] Top shape: 16 512 7 7 (401408)
I1014 09:15:53.897822  3967 net.cpp:165] Memory required for data: 3484909632
I1014 09:15:53.897825  3967 layer_factory.hpp:77] Creating layer res5c_branch2c
I1014 09:15:53.897835  3967 net.cpp:100] Creating Layer res5c_branch2c
I1014 09:15:53.897837  3967 net.cpp:434] res5c_branch2c <- res5c_branch2b
I1014 09:15:53.897842  3967 net.cpp:408] res5c_branch2c -> res5c_branch2c
I1014 09:15:53.900024  3967 net.cpp:150] Setting up res5c_branch2c
I1014 09:15:53.900046  3967 net.cpp:157] Top shape: 16 2048 7 7 (1605632)
I1014 09:15:53.900050  3967 net.cpp:165] Memory required for data: 3491332160
I1014 09:15:53.900056  3967 layer_factory.hpp:77] Creating layer bn5c_branch2c
I1014 09:15:53.900063  3967 net.cpp:100] Creating Layer bn5c_branch2c
I1014 09:15:53.900068  3967 net.cpp:434] bn5c_branch2c <- res5c_branch2c
I1014 09:15:53.900074  3967 net.cpp:395] bn5c_branch2c -> res5c_branch2c (in-place)
I1014 09:15:53.900264  3967 net.cpp:150] Setting up bn5c_branch2c
I1014 09:15:53.900274  3967 net.cpp:157] Top shape: 16 2048 7 7 (1605632)
I1014 09:15:53.900276  3967 net.cpp:165] Memory required for data: 3497754688
I1014 09:15:53.900284  3967 layer_factory.hpp:77] Creating layer scale5c_branch2c
I1014 09:15:53.900290  3967 net.cpp:100] Creating Layer scale5c_branch2c
I1014 09:15:53.900293  3967 net.cpp:434] scale5c_branch2c <- res5c_branch2c
I1014 09:15:53.900297  3967 net.cpp:395] scale5c_branch2c -> res5c_branch2c (in-place)
I1014 09:15:53.900339  3967 layer_factory.hpp:77] Creating layer scale5c_branch2c
I1014 09:15:53.900450  3967 net.cpp:150] Setting up scale5c_branch2c
I1014 09:15:53.900460  3967 net.cpp:157] Top shape: 16 2048 7 7 (1605632)
I1014 09:15:53.900462  3967 net.cpp:165] Memory required for data: 3504177216
I1014 09:15:53.900468  3967 layer_factory.hpp:77] Creating layer res5c
I1014 09:15:53.900473  3967 net.cpp:100] Creating Layer res5c
I1014 09:15:53.900477  3967 net.cpp:434] res5c <- res5b_res5b_relu_0_split_1
I1014 09:15:53.900481  3967 net.cpp:434] res5c <- res5c_branch2c
I1014 09:15:53.900487  3967 net.cpp:408] res5c -> res5c
I1014 09:15:53.900511  3967 net.cpp:150] Setting up res5c
I1014 09:15:53.900516  3967 net.cpp:157] Top shape: 16 2048 7 7 (1605632)
I1014 09:15:53.900519  3967 net.cpp:165] Memory required for data: 3510599744
I1014 09:15:53.900522  3967 layer_factory.hpp:77] Creating layer res5c_relu
I1014 09:15:53.900530  3967 net.cpp:100] Creating Layer res5c_relu
I1014 09:15:53.900533  3967 net.cpp:434] res5c_relu <- res5c
I1014 09:15:53.900537  3967 net.cpp:395] res5c_relu -> res5c (in-place)
I1014 09:15:53.900542  3967 net.cpp:150] Setting up res5c_relu
I1014 09:15:53.900547  3967 net.cpp:157] Top shape: 16 2048 7 7 (1605632)
I1014 09:15:53.900549  3967 net.cpp:165] Memory required for data: 3517022272
I1014 09:15:53.900552  3967 layer_factory.hpp:77] Creating layer pool5
I1014 09:15:53.900560  3967 net.cpp:100] Creating Layer pool5
I1014 09:15:53.900563  3967 net.cpp:434] pool5 <- res5c
I1014 09:15:53.900568  3967 net.cpp:408] pool5 -> pool5
I1014 09:15:53.900594  3967 net.cpp:150] Setting up pool5
I1014 09:15:53.900599  3967 net.cpp:157] Top shape: 16 2048 1 1 (32768)
I1014 09:15:53.900602  3967 net.cpp:165] Memory required for data: 3517153344
I1014 09:15:53.900605  3967 layer_factory.hpp:77] Creating layer fc1000
I1014 09:15:53.900611  3967 net.cpp:100] Creating Layer fc1000
I1014 09:15:53.900615  3967 net.cpp:434] fc1000 <- pool5
I1014 09:15:53.900619  3967 net.cpp:408] fc1000 -> fc1000
I1014 09:15:53.904484  3967 net.cpp:150] Setting up fc1000
I1014 09:15:53.904520  3967 net.cpp:157] Top shape: 16 1000 (16000)
I1014 09:15:53.904523  3967 net.cpp:165] Memory required for data: 3517217344
I1014 09:15:53.904532  3967 layer_factory.hpp:77] Creating layer loss
I1014 09:15:53.904541  3967 net.cpp:100] Creating Layer loss
I1014 09:15:53.904546  3967 net.cpp:434] loss <- fc1000
I1014 09:15:53.904551  3967 net.cpp:434] loss <- label
I1014 09:15:53.904561  3967 net.cpp:408] loss -> loss
I1014 09:15:53.904573  3967 layer_factory.hpp:77] Creating layer loss
…
