…
display: 1
max_iter: 80
lr_policy: "fixed"
solver_mode: GPU
device_id: 0
net: "fcn5.prototxt"
train_state {
  level: 0
  stage: ""
}
I1026 01:41:10.433817 38766 solver.cpp:91] Creating training net from net file: fcn5.prototxt
I1026 01:41:10.434095 38766 net.cpp:58] Initializing net from parameters: 
name: "FCN5"
state {
  phase: TRAIN
  level: 0
  stage: ""
}
layer {
  name: "data"
  type: "Data"
  top: "data"
  top: "label"
  include {
    phase: TRAIN
  }
  data_param {
    source: "fake_data26752.lmdb"
    batch_size: 2048
    backend: LMDB
  }
}
layer {
  name: "H1"
  type: "InnerProduct"
  bottom: "data"
  top: "H1"
  inner_product_param {
    num_output: 2048
  }
}
layer {
  name: "H1_A"
  type: "Sigmoid"
  bottom: "H1"
  top: "H1"
}
layer {
  name: "H2"
  type: "InnerProduct"
  bottom: "H1"
  top: "H2"
  inner_product_param {
    num_output: 2048
  }
}
layer {
  name: "H2_A"
  type: "Sigmoid"
  bottom: "H2"
  top: "H2"
}
layer {
  name: "H3"
  type: "InnerProduct"
  bottom: "H2"
  top: "H3"
  inner_product_param {
    num_output: 2048
  }
}
layer {
  name: "H3_A"
  type: "Sigmoid"
  bottom: "H3"
  top: "H3"
}
layer {
  name: "L"
  type: "InnerProduct"
  bottom: "H3"
  top: "L"
  inner_product_param {
    num_output: 1000
  }
}
layer {
  name: "loss"
  type: "SoftmaxWithLoss"
  bottom: "L"
  bottom: "label"
  top: "loss"
}
I1026 01:41:10.434164 38766 layer_factory.hpp:77] Creating layer data
I1026 01:41:10.435636 38766 net.cpp:100] Creating Layer data
I1026 01:41:10.435669 38766 net.cpp:408] data -> data
I1026 01:41:10.435735 38766 net.cpp:408] data -> label
I1026 01:41:10.437356 38771 db_lmdb.cpp:35] Opened lmdb fake_data26752.lmdb
I1026 01:41:10.447590 38766 data_layer.cpp:41] output data size: 2048,1,1,512
I1026 01:41:10.457983 38766 net.cpp:150] Setting up data
I1026 01:41:10.458025 38766 net.cpp:157] Top shape: 2048 1 1 512 (1048576)
I1026 01:41:10.458034 38766 net.cpp:157] Top shape: 2048 (2048)
I1026 01:41:10.458037 38766 net.cpp:165] Memory required for data: 4202496
I1026 01:41:10.458045 38766 layer_factory.hpp:77] Creating layer H1
I1026 01:41:10.458113 38766 net.cpp:100] Creating Layer H1
I1026 01:41:10.458122 38766 net.cpp:434] H1 <- data
I1026 01:41:10.458147 38766 net.cpp:408] H1 -> H1
I1026 01:41:10.460940 38772 blocking_queue.cpp:50] Waiting for data
I1026 01:41:10.461014 38766 net.cpp:150] Setting up H1
I1026 01:41:10.461040 38766 net.cpp:157] Top shape: 2048 2048 (4194304)
I1026 01:41:10.461045 38766 net.cpp:165] Memory required for data: 20979712
I1026 01:41:10.461061 38766 layer_factory.hpp:77] Creating layer H1_A
I1026 01:41:10.461074 38766 net.cpp:100] Creating Layer H1_A
I1026 01:41:10.461081 38766 net.cpp:434] H1_A <- H1
I1026 01:41:10.461091 38766 net.cpp:395] H1_A -> H1 (in-place)
I1026 01:41:10.461099 38766 net.cpp:150] Setting up H1_A
I1026 01:41:10.461104 38766 net.cpp:157] Top shape: 2048 2048 (4194304)
I1026 01:41:10.461107 38766 net.cpp:165] Memory required for data: 37756928
I1026 01:41:10.461110 38766 layer_factory.hpp:77] Creating layer H2
I1026 01:41:10.461117 38766 net.cpp:100] Creating Layer H2
I1026 01:41:10.461122 38766 net.cpp:434] H2 <- H1
I1026 01:41:10.461127 38766 net.cpp:408] H2 -> H2
I1026 01:41:10.469985 38766 net.cpp:150] Setting up H2
I1026 01:41:10.470021 38766 net.cpp:157] Top shape: 2048 2048 (4194304)
I1026 01:41:10.470026 38766 net.cpp:165] Memory required for data: 54534144
I1026 01:41:10.470036 38766 layer_factory.hpp:77] Creating layer H2_A
I1026 01:41:10.470044 38766 net.cpp:100] Creating Layer H2_A
I1026 01:41:10.470048 38766 net.cpp:434] H2_A <- H2
I1026 01:41:10.470054 38766 net.cpp:395] H2_A -> H2 (in-place)
I1026 01:41:10.470062 38766 net.cpp:150] Setting up H2_A
I1026 01:41:10.470065 38766 net.cpp:157] Top shape: 2048 2048 (4194304)
I1026 01:41:10.470110 38766 net.cpp:165] Memory required for data: 71311360
I1026 01:41:10.470114 38766 layer_factory.hpp:77] Creating layer H3
I1026 01:41:10.470122 38766 net.cpp:100] Creating Layer H3
I1026 01:41:10.470126 38766 net.cpp:434] H3 <- H2
I1026 01:41:10.470130 38766 net.cpp:408] H3 -> H3
I1026 01:41:10.478958 38766 net.cpp:150] Setting up H3
I1026 01:41:10.478996 38766 net.cpp:157] Top shape: 2048 2048 (4194304)
I1026 01:41:10.479001 38766 net.cpp:165] Memory required for data: 88088576
I1026 01:41:10.479012 38766 layer_factory.hpp:77] Creating layer H3_A
I1026 01:41:10.479019 38766 net.cpp:100] Creating Layer H3_A
I1026 01:41:10.479023 38766 net.cpp:434] H3_A <- H3
I1026 01:41:10.479029 38766 net.cpp:395] H3_A -> H3 (in-place)
I1026 01:41:10.479037 38766 net.cpp:150] Setting up H3_A
I1026 01:41:10.479040 38766 net.cpp:157] Top shape: 2048 2048 (4194304)
I1026 01:41:10.479043 38766 net.cpp:165] Memory required for data: 104865792
I1026 01:41:10.479059 38766 layer_factory.hpp:77] Creating layer L
I1026 01:41:10.479065 38766 net.cpp:100] Creating Layer L
I1026 01:41:10.479068 38766 net.cpp:434] L <- H3
I1026 01:41:10.479075 38766 net.cpp:408] L -> L
I1026 01:41:10.484222 38766 net.cpp:150] Setting up L
I1026 01:41:10.484249 38766 net.cpp:157] Top shape: 2048 1000 (2048000)
I1026 01:41:10.484253 38766 net.cpp:165] Memory required for data: 113057792
I1026 01:41:10.484261 38766 layer_factory.hpp:77] Creating layer loss
I1026 01:41:10.484272 38766 net.cpp:100] Creating Layer loss
I1026 01:41:10.484277 38766 net.cpp:434] loss <- L
I1026 01:41:10.484282 38766 net.cpp:434] loss <- label
I1026 01:41:10.484292 38766 net.cpp:408] loss -> loss
I1026 01:41:10.484324 38766 layer_factory.hpp:77] Creating layer loss
…
